…
I0330 15:15:06.806799 30162 net.cpp:313] The NetState phase (0) differed from the phase (1) specified by a rule in layer accuracy
I0330 15:15:06.807034 30162 net.cpp:49] Initializing net from parameters: 
name: "AlexNet"
state {
  phase: TRAIN
}
layer {
  name: "data"
  type: "ImageData"
  top: "data"
  top: "label"
  include {
    phase: TRAIN
  }
  transform_param {
    mirror: true
    mean_file: "/home/val/Documents/ModelA/mean/mean227alex.binaryproto"
  }
  image_data_param {
    source: "/home/val/Documents/img_folderAlexCrop1/train1.txt"
    batch_size: 150
    shuffle: true
  }
}
layer {
  name: "conv1"
  type: "Convolution"
  bottom: "data"
  top: "conv1"
  param {
    lr_mult: 0
    decay_mult: 0
  }
  param {
    lr_mult: 0
    decay_mult: 0
  }
  convolution_param {
    num_output: 96
    kernel_size: 11
    stride: 4
    weight_filler {
      type: "gaussian"
      std: 0.01
    }
    bias_filler {
      type: "constant"
      value: 0
    }
  }
}
layer {
  name: "relu1"
  type: "ReLU"
  bottom: "conv1"
  top: "conv1"
}
layer {
  name: "norm1"
  type: "LRN"
  bottom: "conv1"
  top: "norm1"
  lrn_param {
    local_size: 5
    alpha: 0.0001
    beta: 0.75
  }
}
layer {
  name: "pool1"
  type: "Pooling"
  bottom: "norm1"
  top: "pool1"
  pooling_param {
    pool: MAX
    kernel_size: 3
    stride: 2
  }
}
layer {
  name: "splitpool1"
  type: "Split"
  bottom: "pool1"
  top: "splitpool1"
}
layer {
  name: "conv2_mod"
  type: "Convolution"
  bottom: "splitpool1"
  top: "conv2_mod"
  param {
    lr_mult: 0
    decay_mult: 0
  }
  param {
    lr_mult: 0
    decay_mult: 0
  }
  convolution_param {
    num_output: 96
    pad: 1
    kernel_size: 3
    weight_filler {
      type: "gaussian"
      std: 0.01
    }
    bias_filler {
      type: "constant"
      value: 0.5
    }
  }
}
layer {
  name: "relu2_mod"
  type: "ReLU"
  bottom: "conv2_mod"
  top: "conv2_mod"
}
layer {
  name: "norm2_mod"
  type: "LRN"
  bottom: "conv2_mod"
  top: "norm2_mod"
  lrn_param {
    local_size: 3
    alpha: 0.0001
    beta: 0.75
  }
}
layer {
  name: "poolGlobal"
  type: "Pooling"
  bottom: "norm2_mod"
  top: "poolGlobal"
  pooling_param {
    pool: AVE
    global_pooling: true
  }
}
layer {
  name: "fc1a"
  type: "InnerProduct"
  bottom: "poolGlobal"
  top: "fc1a"
  param {
    lr_mult: 0
    decay_mult: 0
  }
  param {
    lr_mult: 0
    decay_mult: 0
  }
  inner_product_param {
    num_output: 96
    weight_filler {
      type: "gaussian"
      std: 0.005
    }
    bias_filler {
      type: "constant"
      value: 0.5
    }
  }
}
layer {
  name: "relu1a"
  type: "ReLU"
  bottom: "fc1a"
  top: "fc1a"
}
layer {
  name: "drop1a"
  type: "Dropout"
  bottom: "fc1a"
  top: "fc1a"
  dropout_param {
    dropout_ratio: 0.5
  }
}
layer {
  name: "fc1b"
  type: "InnerProduct"
  bottom: "fc1a"
  top: "fc1b"
  param {
    lr_mult: 0
    decay_mult: 0
  }
  param {
    lr_mult: 0
    decay_mult: 0
  }
  inner_product_param {
    num_output: 256
    weight_filler {
      type: "gaussian"
      std: 0.005
    }
    bias_filler {
      type: "constant"
      value: 0.5
    }
  }
}
layer {
  name: "relu1b"
  type: "ReLU"
  bottom: "fc1b"
  top: "fc1b"
}
layer {
  name: "drop1b"
  type: "Dropout"
  bottom: "fc1b"
  top: "fc1b"
  dropout_param {
    dropout_ratio: 0.5
  }
}
layer {
  name: "fc_switchbottom"
  type: "InnerProduct"
  bottom: "fc1b"
  top: "fc_switchbottom"
  param {
    lr_mult: 0
    decay_mult: 0
  }
  param {
    lr_mult: 0
    decay_mult: 0
  }
  inner_product_param {
    num_output: 2
    weight_filler {
      type: "gaussian"
      std: 0.005
    }
    bias_filler {
      type: "constant"
      value: 0.5
    }
  }
}
layer {
  name: "prob"
  type: "Softmax"
  bottom: "fc_switchbottom"
  top: "prob"
}
layer {
  name: "outputLabel"
  type: "ArgMax"
  bottom: "prob"
  top: "outputLabel"
}
layer {
  name: "conv2"
  type: "Convolution"
  bottom: "splitpool1"
  top: "conv2"
  param {
    lr_mult: 1
    decay_mult: 1
  }
  param {
    lr_mult: 2
    decay_mult: 0
  }
  convolution_param {
    num_output: 256
    pad: 2
    kernel_size: 5
    group: 2
    weight_filler {
      type: "gaussian"
      std: 0.01
    }
    bias_filler {
      type: "constant"
      value: 1
    }
  }
}
layer {
  name: "relu2"
  type: "ReLU"
  bottom: "conv2"
  top: "conv2"
}
layer {
  name: "norm2"
  type: "LRN"
  bottom: "conv2"
  top: "norm2"
  lrn_param {
    local_size: 5
    alpha: 0.0001
    beta: 0.75
  }
}
layer {
  name: "pool2"
  type: "Pooling"
  bottom: "norm2"
  top: "pool2"
  pooling_param {
    pool: MAX
    kernel_size: 3
    stride: 2
  }
}
layer {
  name: "splitpool2"
  type: "Split"
  bottom: "pool2"
  top: "splitpool2"
}
layer {
  name: "conv3a"
  type: "Convolution"
  bottom: "splitpool2"
  top: "conv3a"
  param {
    lr_mult: 1
    decay_mult: 1
  }
  param {
    lr_mult: 2
    decay_mult: 0
  }
  convolution_param {
    num_output: 384
    pad: 1
    kernel_size: 3
    weight_filler {
      type: "gaussian"
      std: 0.01
    }
    bias_filler {
      type: "constant"
      value: 0
    }
  }
}
layer {
  name: "relu3a"
  type: "ReLU"
  bottom: "conv3a"
  top: "conv3a"
}
layer {
  name: "conv4a"
  type: "Convolution"
  bottom: "conv3a"
  top: "conv4a"
  param {
    lr_mult: 1
    decay_mult: 1
  }
  param {
    lr_mult: 2
    decay_mult: 0
  }
  convolution_param {
    num_output: 384
    pad: 1
    kernel_size: 3
    group: 2
    weight_filler {
      type: "gaussian"
      std: 0.01
    }
    bias_filler {
      type: "constant"
      value: 1
    }
  }
}
layer {
  name: "relu4a"
  type: "ReLU"
  bottom: "conv4a"
  top: "conv4a"
}
layer {
  name: "conv5a"
  type: "Convolution"
  bottom: "conv4a"
  top: "conv5a"
  param {
    lr_mult: 1
    decay_mult: 1
  }
  param {
    lr_mult: 2
    decay_mult: 0
  }
  convolution_param {
    num_output: 256
    pad: 1
    kernel_size: 3
    group: 2
    weight_filler {
      type: "gaussian"
      std: 0.01
    }
    bias_filler {
      type: "constant"
      value: 1
    }
  }
}
layer {
  name: "relu5a"
  type: "ReLU"
  bottom: "conv5a"
  top: "conv5a"
}
layer {
  name: "pool5a"
  type: "Pooling"
  bottom: "conv5a"
  top: "pool5a"
  pooling_param {
    pool: MAX
    kernel_size: 3
    stride: 2
  }
}
layer {
  name: "conv3b"
  type: "Convolution"
  bottom: "splitpool2"
  top: "conv3b"
  param {
    lr_mult: 1
    decay_mult: 1
  }
  param {
    lr_mult: 2
    decay_mult: 0
  }
  convolution_param {
    num_output: 384
    pad: 1
    kernel_size: 3
    weight_filler {
      type: "gaussian"
      std: 0.01
    }
    bias_filler {
      type: "constant"
      value: 0
    }
  }
}
layer {
  name: "relu3b"
  type: "ReLU"
  bottom: "conv3b"
  top: "conv3b"
}
layer {
  name: "conv4b"
  type: "Convolution"
  bottom: "conv3b"
  top: "conv4b"
  param {
    lr_mult: 1
    decay_mult: 1
  }
  param {
    lr_mult: 2
    decay_mult: 0
  }
  convolution_param {
    num_output: 384
    pad: 1
    kernel_size: 3
    group: 2
    weight_filler {
      type: "gaussian"
      std: 0.01
    }
    bias_filler {
      type: "constant"
      value: 1
    }
  }
}
layer {
  name: "relu4b"
  type: "ReLU"
  bottom: "conv4b"
  top: "conv4b"
}
layer {
  name: "conv5b"
  type: "Convolution"
  bottom: "conv4b"
  top: "conv5b"
  param {
    lr_mult: 1
    decay_mult: 1
  }
  param {
    lr_mult: 2
    decay_mult: 0
  }
  convolution_param {
    num_output: 256
    pad: 1
    kernel_size: 3
    group: 2
    weight_filler {
      type: "gaussian"
      std: 0.01
    }
    bias_filler {
      type: "constant"
      value: 1
    }
  }
}
layer {
  name: "relu5b"
  type: "ReLU"
  bottom: "conv5b"
  top: "conv5b"
}
layer {
  name: "pool5b"
  type: "Pooling"
  bottom: "conv5b"
  top: "pool5b"
  pooling_param {
    pool: MAX
    kernel_size: 3
    stride: 2
  }
}
layer {
  name: "switch"
  type: "Switch"
  bottom: "pool5a"
  bottom: "pool5b"
  bottom: "outputLabel"
  top: "switch"
}
layer {
  name: "fc6"
  type: "InnerProduct"
  bottom: "switch"
  top: "fc6"
  param {
    lr_mult: 1
    decay_mult: 1
  }
  param {
    lr_mult: 2
    decay_mult: 0
  }
  inner_product_param {
    num_output: 4096
    weight_filler {
      type: "gaussian"
      std: 0.005
    }
    bias_filler {
      type: "constant"
      value: 1
    }
  }
}
layer {
  name: "relu6"
  type: "ReLU"
  bottom: "fc6"
  top: "fc6"
}
layer {
  name: "drop6"
  type: "Dropout"
  bottom: "fc6"
  top: "fc6"
  dropout_param {
    dropout_ratio: 0.5
  }
}
layer {
  name: "fc7"
  type: "InnerProduct"
  bottom: "fc6"
  top: "fc7"
  param {
    lr_mult: 1
    decay_mult: 1
  }
  param {
    lr_mult: 2
    decay_mult: 0
  }
  inner_product_param {
    num_output: 4096
    weight_filler {
      type: "gaussian"
      std: 0.005
    }
    bias_filler {
      type: "constant"
      value: 1
    }
  }
}
layer {
  name: "relu7"
  type: "ReLU"
  bottom: "fc7"
  top: "fc7"
}
layer {
  name: "drop7"
  type: "Dropout"
  bottom: "fc7"
  top: "fc7"
  dropout_param {
    dropout_ratio: 0.5
  }
}
layer {
  name: "fc8_modA"
  type: "InnerProduct"
  bottom: "fc7"
  top: "fc8_modA"
  param {
    lr_mult: 10
    decay_mult: 1
  }
  param {
    lr_mult: 20
    decay_mult: 0
  }
  inner_product_param {
    num_output: 50
    weight_filler {
      type: "gaussian"
      std: 0.01
    }
    bias_filler {
      type: "constant"
      value: 0
    }
  }
}
layer {
  name: "loss"
  type: "SoftmaxWithLoss"
  bottom: "fc8_modA"
  bottom: "label"
  top: "loss"
}
I0330 15:15:06.807204 30162 layer_factory.hpp:77] Creating layer data
I0330 15:15:06.807251 30162 net.cpp:91] Creating Layer data
I0330 15:15:06.807262 30162 net.cpp:399] data -> data
I0330 15:15:06.807287 30162 net.cpp:399] data -> label
I0330 15:15:06.807301 30162 data_transformer.cpp:25] Loading mean file from: /home/val/Documents/ModelA/mean/mean227alex.binaryproto
I0330 15:15:06.819986 30162 image_data_layer.cpp:38] Opening file /home/val/Documents/img_folderAlexCrop1/train1.txt
I0330 15:15:06.824893 30162 image_data_layer.cpp:48] Shuffling data
I0330 15:15:06.825675 30162 image_data_layer.cpp:53] A total of 15000 images.
I0330 15:15:06.826297 30162 image_data_layer.cpp:80] output data size: 150,3,227,227
I0330 15:15:06.951474 30162 net.cpp:141] Setting up data
I0330 15:15:06.951527 30162 net.cpp:148] Top shape: 150 3 227 227 (23188050)
I0330 15:15:06.951535 30162 net.cpp:148] Top shape: 150 (150)
I0330 15:15:06.951539 30162 net.cpp:156] Memory required for data: 92752800
I0330 15:15:06.951547 30162 layer_factory.hpp:77] Creating layer conv1
I0330 15:15:06.951570 30162 net.cpp:91] Creating Layer conv1
I0330 15:15:06.951580 30162 net.cpp:425] conv1 <- data
I0330 15:15:06.951591 30162 net.cpp:399] conv1 -> conv1
I0330 15:15:06.967097 30162 net.cpp:141] Setting up conv1
I0330 15:15:06.967115 30162 net.cpp:148] Top shape: 150 96 55 55 (43560000)
I0330 15:15:06.967119 30162 net.cpp:156] Memory required for data: 266992800
I0330 15:15:06.967134 30162 layer_factory.hpp:77] Creating layer relu1
I0330 15:15:06.967144 30162 net.cpp:91] Creating Layer relu1
I0330 15:15:06.967149 30162 net.cpp:425] relu1 <- conv1
I0330 15:15:06.967155 30162 net.cpp:386] relu1 -> conv1 (in-place)
I0330 15:15:06.967164 30162 net.cpp:141] Setting up relu1
I0330 15:15:06.967171 30162 net.cpp:148] Top shape: 150 96 55 55 (43560000)
I0330 15:15:06.967175 30162 net.cpp:156] Memory required for data: 441232800
I0330 15:15:06.967180 30162 layer_factory.hpp:77] Creating layer norm1
I0330 15:15:06.967188 30162 net.cpp:91] Creating Layer norm1
I0330 15:15:06.967192 30162 net.cpp:425] norm1 <- conv1
I0330 15:15:06.967198 30162 net.cpp:399] norm1 -> norm1
I0330 15:15:06.967269 30162 net.cpp:141] Setting up norm1
I0330 15:15:06.967279 30162 net.cpp:148] Top shape: 150 96 55 55 (43560000)
I0330 15:15:06.967285 30162 net.cpp:156] Memory required for data: 615472800
I0330 15:15:06.967289 30162 layer_factory.hpp:77] Creating layer pool1
I0330 15:15:06.967298 30162 net.cpp:91] Creating Layer pool1
I0330 15:15:06.967300 30162 net.cpp:425] pool1 <- norm1
I0330 15:15:06.967305 30162 net.cpp:399] pool1 -> pool1
I0330 15:15:06.967344 30162 net.cpp:141] Setting up pool1
I0330 15:15:06.967352 30162 net.cpp:148] Top shape: 150 96 27 27 (10497600)
I0330 15:15:06.967357 30162 net.cpp:156] Memory required for data: 657463200
I0330 15:15:06.967361 30162 layer_factory.hpp:77] Creating layer splitpool1
I0330 15:15:06.967371 30162 net.cpp:91] Creating Layer splitpool1
I0330 15:15:06.967376 30162 net.cpp:425] splitpool1 <- pool1
I0330 15:15:06.967382 30162 net.cpp:399] splitpool1 -> splitpool1
I0330 15:15:06.967401 30162 net.cpp:141] Setting up splitpool1
I0330 15:15:06.967407 30162 net.cpp:148] Top shape: 150 96 27 27 (10497600)
I0330 15:15:06.967412 30162 net.cpp:156] Memory required for data: 699453600
I0330 15:15:06.967417 30162 layer_factory.hpp:77] Creating layer splitpool1_splitpool1_0_split
I0330 15:15:06.967422 30162 net.cpp:91] Creating Layer splitpool1_splitpool1_0_split
I0330 15:15:06.967427 30162 net.cpp:425] splitpool1_splitpool1_0_split <- splitpool1
I0330 15:15:06.967432 30162 net.cpp:399] splitpool1_splitpool1_0_split -> splitpool1_splitpool1_0_split_0
I0330 15:15:06.967439 30162 net.cpp:399] splitpool1_splitpool1_0_split -> splitpool1_splitpool1_0_split_1
I0330 15:15:06.967464 30162 net.cpp:141] Setting up splitpool1_splitpool1_0_split
I0330 15:15:06.967471 30162 net.cpp:148] Top shape: 150 96 27 27 (10497600)
I0330 15:15:06.967478 30162 net.cpp:148] Top shape: 150 96 27 27 (10497600)
I0330 15:15:06.967481 30162 net.cpp:156] Memory required for data: 783434400
I0330 15:15:06.967485 30162 layer_factory.hpp:77] Creating layer conv2_mod
I0330 15:15:06.967494 30162 net.cpp:91] Creating Layer conv2_mod
I0330 15:15:06.967499 30162 net.cpp:425] conv2_mod <- splitpool1_splitpool1_0_split_0
I0330 15:15:06.967506 30162 net.cpp:399] conv2_mod -> conv2_mod
I0330 15:15:06.970055 30162 net.cpp:141] Setting up conv2_mod
I0330 15:15:06.970068 30162 net.cpp:148] Top shape: 150 96 27 27 (10497600)
I0330 15:15:06.970073 30162 net.cpp:156] Memory required for data: 825424800
I0330 15:15:06.970082 30162 layer_factory.hpp:77] Creating layer relu2_mod
I0330 15:15:06.970090 30162 net.cpp:91] Creating Layer relu2_mod
I0330 15:15:06.970096 30162 net.cpp:425] relu2_mod <- conv2_mod
I0330 15:15:06.970103 30162 net.cpp:386] relu2_mod -> conv2_mod (in-place)
I0330 15:15:06.970109 30162 net.cpp:141] Setting up relu2_mod
I0330 15:15:06.970115 30162 net.cpp:148] Top shape: 150 96 27 27 (10497600)
I0330 15:15:06.970120 30162 net.cpp:156] Memory required for data: 867415200
I0330 15:15:06.970124 30162 layer_factory.hpp:77] Creating layer norm2_mod
I0330 15:15:06.970130 30162 net.cpp:91] Creating Layer norm2_mod
I0330 15:15:06.970135 30162 net.cpp:425] norm2_mod <- conv2_mod
I0330 15:15:06.970140 30162 net.cpp:399] norm2_mod -> norm2_mod
I0330 15:15:06.970170 30162 net.cpp:141] Setting up norm2_mod
I0330 15:15:06.970176 30162 net.cpp:148] Top shape: 150 96 27 27 (10497600)
I0330 15:15:06.970181 30162 net.cpp:156] Memory required for data: 909405600
I0330 15:15:06.970185 30162 layer_factory.hpp:77] Creating layer poolGlobal
I0330 15:15:06.970191 30162 net.cpp:91] Creating Layer poolGlobal
I0330 15:15:06.970196 30162 net.cpp:425] poolGlobal <- norm2_mod
I0330 15:15:06.970201 30162 net.cpp:399] poolGlobal -> poolGlobal
I0330 15:15:06.970221 30162 net.cpp:141] Setting up poolGlobal
I0330 15:15:06.970227 30162 net.cpp:148] Top shape: 150 96 1 1 (14400)
I0330 15:15:06.970232 30162 net.cpp:156] Memory required for data: 909463200
I0330 15:15:06.970237 30162 layer_factory.hpp:77] Creating layer fc1a
I0330 15:15:06.970245 30162 net.cpp:91] Creating Layer fc1a
I0330 15:15:06.970249 30162 net.cpp:425] fc1a <- poolGlobal
I0330 15:15:06.970266 30162 net.cpp:399] fc1a -> fc1a
I0330 15:15:06.970888 30162 net.cpp:141] Setting up fc1a
I0330 15:15:06.970901 30162 net.cpp:148] Top shape: 150 96 (14400)
I0330 15:15:06.970906 30162 net.cpp:156] Memory required for data: 909520800
I0330 15:15:06.970913 30162 layer_factory.hpp:77] Creating layer relu1a
I0330 15:15:06.970921 30162 net.cpp:91] Creating Layer relu1a
I0330 15:15:06.970927 30162 net.cpp:425] relu1a <- fc1a
I0330 15:15:06.970933 30162 net.cpp:386] relu1a -> fc1a (in-place)
I0330 15:15:06.970942 30162 net.cpp:141] Setting up relu1a
I0330 15:15:06.970948 30162 net.cpp:148] Top shape: 150 96 (14400)
I0330 15:15:06.970953 30162 net.cpp:156] Memory required for data: 909578400
I0330 15:15:06.970957 30162 layer_factory.hpp:77] Creating layer drop1a
I0330 15:15:06.970964 30162 net.cpp:91] Creating Layer drop1a
I0330 15:15:06.970969 30162 net.cpp:425] drop1a <- fc1a
I0330 15:15:06.970974 30162 net.cpp:386] drop1a -> fc1a (in-place)
I0330 15:15:06.970998 30162 net.cpp:141] Setting up drop1a
I0330 15:15:06.971004 30162 net.cpp:148] Top shape: 150 96 (14400)
I0330 15:15:06.971009 30162 net.cpp:156] Memory required for data: 909636000
I0330 15:15:06.971014 30162 layer_factory.hpp:77] Creating layer fc1b
I0330 15:15:06.971024 30162 net.cpp:91] Creating Layer fc1b
I0330 15:15:06.971029 30162 net.cpp:425] fc1b <- fc1a
I0330 15:15:06.971034 30162 net.cpp:399] fc1b -> fc1b
I0330 15:15:06.971725 30162 net.cpp:141] Setting up fc1b
I0330 15:15:06.971735 30162 net.cpp:148] Top shape: 150 256 (38400)
I0330 15:15:06.971740 30162 net.cpp:156] Memory required for data: 909789600
I0330 15:15:06.971747 30162 layer_factory.hpp:77] Creating layer relu1b
I0330 15:15:06.971755 30162 net.cpp:91] Creating Layer relu1b
I0330 15:15:06.971760 30162 net.cpp:425] relu1b <- fc1b
I0330 15:15:06.971765 30162 net.cpp:386] relu1b -> fc1b (in-place)
I0330 15:15:06.971773 30162 net.cpp:141] Setting up relu1b
I0330 15:15:06.971778 30162 net.cpp:148] Top shape: 150 256 (38400)
I0330 15:15:06.971783 30162 net.cpp:156] Memory required for data: 909943200
I0330 15:15:06.971786 30162 layer_factory.hpp:77] Creating layer drop1b
I0330 15:15:06.971793 30162 net.cpp:91] Creating Layer drop1b
I0330 15:15:06.971798 30162 net.cpp:425] drop1b <- fc1b
I0330 15:15:06.971803 30162 net.cpp:386] drop1b -> fc1b (in-place)
I0330 15:15:06.971822 30162 net.cpp:141] Setting up drop1b
I0330 15:15:06.971829 30162 net.cpp:148] Top shape: 150 256 (38400)
I0330 15:15:06.971833 30162 net.cpp:156] Memory required for data: 910096800
I0330 15:15:06.971837 30162 layer_factory.hpp:77] Creating layer fc_switchbottom
I0330 15:15:06.971844 30162 net.cpp:91] Creating Layer fc_switchbottom
I0330 15:15:06.971849 30162 net.cpp:425] fc_switchbottom <- fc1b
I0330 15:15:06.971856 30162 net.cpp:399] fc_switchbottom -> fc_switchbottom
I0330 15:15:06.971941 30162 net.cpp:141] Setting up fc_switchbottom
I0330 15:15:06.971951 30162 net.cpp:148] Top shape: 150 2 (300)
I0330 15:15:06.971954 30162 net.cpp:156] Memory required for data: 910098000
I0330 15:15:06.971962 30162 layer_factory.hpp:77] Creating layer prob
I0330 15:15:06.971969 30162 net.cpp:91] Creating Layer prob
I0330 15:15:06.971974 30162 net.cpp:425] prob <- fc_switchbottom
I0330 15:15:06.971982 30162 net.cpp:399] prob -> prob
I0330 15:15:06.972030 30162 net.cpp:141] Setting up prob
I0330 15:15:06.972039 30162 net.cpp:148] Top shape: 150 2 (300)
I0330 15:15:06.972043 30162 net.cpp:156] Memory required for data: 910099200
I0330 15:15:06.972048 30162 layer_factory.hpp:77] Creating layer outputLabel
I0330 15:15:06.972057 30162 net.cpp:91] Creating Layer outputLabel
I0330 15:15:06.972062 30162 net.cpp:425] outputLabel <- prob
I0330 15:15:06.972067 30162 net.cpp:399] outputLabel -> outputLabel
I0330 15:15:06.972086 30162 net.cpp:141] Setting up outputLabel
I0330 15:15:06.972095 30162 net.cpp:148] Top shape: 150 1 1 (150)
I0330 15:15:06.972098 30162 net.cpp:156] Memory required for data: 910099800
I0330 15:15:06.972102 30162 layer_factory.hpp:77] Creating layer conv2
I0330 15:15:06.972113 30162 net.cpp:91] Creating Layer conv2
I0330 15:15:06.972128 30162 net.cpp:425] conv2 <- splitpool1_splitpool1_0_split_1
I0330 15:15:06.972136 30162 net.cpp:399] conv2 -> conv2
I0330 15:15:06.980309 30162 net.cpp:141] Setting up conv2
I0330 15:15:06.980330 30162 net.cpp:148] Top shape: 150 256 27 27 (27993600)
I0330 15:15:06.980335 30162 net.cpp:156] Memory required for data: 1022074200
I0330 15:15:06.980343 30162 layer_factory.hpp:77] Creating layer relu2
I0330 15:15:06.980352 30162 net.cpp:91] Creating Layer relu2
I0330 15:15:06.980356 30162 net.cpp:425] relu2 <- conv2
I0330 15:15:06.980362 30162 net.cpp:386] relu2 -> conv2 (in-place)
I0330 15:15:06.980370 30162 net.cpp:141] Setting up relu2
I0330 15:15:06.980376 30162 net.cpp:148] Top shape: 150 256 27 27 (27993600)
I0330 15:15:06.980381 30162 net.cpp:156] Memory required for data: 1134048600
I0330 15:15:06.980384 30162 layer_factory.hpp:77] Creating layer norm2
I0330 15:15:06.980393 30162 net.cpp:91] Creating Layer norm2
I0330 15:15:06.980398 30162 net.cpp:425] norm2 <- conv2
I0330 15:15:06.980406 30162 net.cpp:399] norm2 -> norm2
I0330 15:15:06.980437 30162 net.cpp:141] Setting up norm2
I0330 15:15:06.980444 30162 net.cpp:148] Top shape: 150 256 27 27 (27993600)
I0330 15:15:06.980449 30162 net.cpp:156] Memory required for data: 1246023000
I0330 15:15:06.980453 30162 layer_factory.hpp:77] Creating layer pool2
I0330 15:15:06.980461 30162 net.cpp:91] Creating Layer pool2
I0330 15:15:06.980466 30162 net.cpp:425] pool2 <- norm2
I0330 15:15:06.980473 30162 net.cpp:399] pool2 -> pool2
I0330 15:15:06.980504 30162 net.cpp:141] Setting up pool2
I0330 15:15:06.980511 30162 net.cpp:148] Top shape: 150 256 13 13 (6489600)
I0330 15:15:06.980516 30162 net.cpp:156] Memory required for data: 1271981400
I0330 15:15:06.980520 30162 layer_factory.hpp:77] Creating layer splitpool2
I0330 15:15:06.980527 30162 net.cpp:91] Creating Layer splitpool2
I0330 15:15:06.980532 30162 net.cpp:425] splitpool2 <- pool2
I0330 15:15:06.980538 30162 net.cpp:399] splitpool2 -> splitpool2
I0330 15:15:06.980556 30162 net.cpp:141] Setting up splitpool2
I0330 15:15:06.980566 30162 net.cpp:148] Top shape: 150 256 13 13 (6489600)
I0330 15:15:06.980571 30162 net.cpp:156] Memory required for data: 1297939800
I0330 15:15:06.980574 30162 layer_factory.hpp:77] Creating layer splitpool2_splitpool2_0_split
I0330 15:15:06.980581 30162 net.cpp:91] Creating Layer splitpool2_splitpool2_0_split
I0330 15:15:06.980584 30162 net.cpp:425] splitpool2_splitpool2_0_split <- splitpool2
I0330 15:15:06.980589 30162 net.cpp:399] splitpool2_splitpool2_0_split -> splitpool2_splitpool2_0_split_0
I0330 15:15:06.980597 30162 net.cpp:399] splitpool2_splitpool2_0_split -> splitpool2_splitpool2_0_split_1
I0330 15:15:06.980623 30162 net.cpp:141] Setting up splitpool2_splitpool2_0_split
I0330 15:15:06.980630 30162 net.cpp:148] Top shape: 150 256 13 13 (6489600)
I0330 15:15:06.980636 30162 net.cpp:148] Top shape: 150 256 13 13 (6489600)
I0330 15:15:06.980640 30162 net.cpp:156] Memory required for data: 1349856600
I0330 15:15:06.980644 30162 layer_factory.hpp:77] Creating layer conv3a
I0330 15:15:06.980656 30162 net.cpp:91] Creating Layer conv3a
I0330 15:15:06.980661 30162 net.cpp:425] conv3a <- splitpool2_splitpool2_0_split_0
I0330 15:15:06.980669 30162 net.cpp:399] conv3a -> conv3a
I0330 15:15:07.003520 30162 net.cpp:141] Setting up conv3a
I0330 15:15:07.003545 30162 net.cpp:148] Top shape: 150 384 13 13 (9734400)
I0330 15:15:07.003550 30162 net.cpp:156] Memory required for data: 1388794200
I0330 15:15:07.003557 30162 layer_factory.hpp:77] Creating layer relu3a
I0330 15:15:07.003569 30162 net.cpp:91] Creating Layer relu3a
I0330 15:15:07.003576 30162 net.cpp:425] relu3a <- conv3a
I0330 15:15:07.003585 30162 net.cpp:386] relu3a -> conv3a (in-place)
I0330 15:15:07.003595 30162 net.cpp:141] Setting up relu3a
I0330 15:15:07.003600 30162 net.cpp:148] Top shape: 150 384 13 13 (9734400)
I0330 15:15:07.003605 30162 net.cpp:156] Memory required for data: 1427731800
I0330 15:15:07.003609 30162 layer_factory.hpp:77] Creating layer conv4a
I0330 15:15:07.003620 30162 net.cpp:91] Creating Layer conv4a
I0330 15:15:07.003639 30162 net.cpp:425] conv4a <- conv3a
I0330 15:15:07.003649 30162 net.cpp:399] conv4a -> conv4a
I0330 15:15:07.020594 30162 net.cpp:141] Setting up conv4a
I0330 15:15:07.020620 30162 net.cpp:148] Top shape: 150 384 13 13 (9734400)
I0330 15:15:07.020628 30162 net.cpp:156] Memory required for data: 1466669400
I0330 15:15:07.020643 30162 layer_factory.hpp:77] Creating layer relu4a
I0330 15:15:07.020660 30162 net.cpp:91] Creating Layer relu4a
I0330 15:15:07.020671 30162 net.cpp:425] relu4a <- conv4a
I0330 15:15:07.020689 30162 net.cpp:386] relu4a -> conv4a (in-place)
I0330 15:15:07.020707 30162 net.cpp:141] Setting up relu4a
I0330 15:15:07.020720 30162 net.cpp:148] Top shape: 150 384 13 13 (9734400)
I0330 15:15:07.020727 30162 net.cpp:156] Memory required for data: 1505607000
I0330 15:15:07.020735 30162 layer_factory.hpp:77] Creating layer conv5a
I0330 15:15:07.020755 30162 net.cpp:91] Creating Layer conv5a
I0330 15:15:07.020763 30162 net.cpp:425] conv5a <- conv4a
I0330 15:15:07.020776 30162 net.cpp:399] conv5a -> conv5a
I0330 15:15:07.032418 30162 net.cpp:141] Setting up conv5a
I0330 15:15:07.032441 30162 net.cpp:148] Top shape: 150 256 13 13 (6489600)
I0330 15:15:07.032449 30162 net.cpp:156] Memory required for data: 1531565400
I0330 15:15:07.032472 30162 layer_factory.hpp:77] Creating layer relu5a
I0330 15:15:07.032493 30162 net.cpp:91] Creating Layer relu5a
I0330 15:15:07.032505 30162 net.cpp:425] relu5a <- conv5a
I0330 15:15:07.032516 30162 net.cpp:386] relu5a -> conv5a (in-place)
I0330 15:15:07.032533 30162 net.cpp:141] Setting up relu5a
I0330 15:15:07.032546 30162 net.cpp:148] Top shape: 150 256 13 13 (6489600)
I0330 15:15:07.032552 30162 net.cpp:156] Memory required for data: 1557523800
I0330 15:15:07.032560 30162 layer_factory.hpp:77] Creating layer pool5a
I0330 15:15:07.032578 30162 net.cpp:91] Creating Layer pool5a
I0330 15:15:07.032588 30162 net.cpp:425] pool5a <- conv5a
I0330 15:15:07.032598 30162 net.cpp:399] pool5a -> pool5a
I0330 15:15:07.032644 30162 net.cpp:141] Setting up pool5a
I0330 15:15:07.032655 30162 net.cpp:148] Top shape: 150 256 6 6 (1382400)
I0330 15:15:07.032675 30162 net.cpp:156] Memory required for data: 1563053400
I0330 15:15:07.032682 30162 layer_factory.hpp:77] Creating layer conv3b
I0330 15:15:07.032701 30162 net.cpp:91] Creating Layer conv3b
I0330 15:15:07.032709 30162 net.cpp:425] conv3b <- splitpool2_splitpool2_0_split_1
I0330 15:15:07.032721 30162 net.cpp:399] conv3b -> conv3b
I0330 15:15:07.055266 30162 net.cpp:141] Setting up conv3b
I0330 15:15:07.055292 30162 net.cpp:148] Top shape: 150 384 13 13 (9734400)
I0330 15:15:07.055300 30162 net.cpp:156] Memory required for data: 1601991000
I0330 15:15:07.055315 30162 layer_factory.hpp:77] Creating layer relu3b
I0330 15:15:07.055330 30162 net.cpp:91] Creating Layer relu3b
I0330 15:15:07.055340 30162 net.cpp:425] relu3b <- conv3b
I0330 15:15:07.055361 30162 net.cpp:386] relu3b -> conv3b (in-place)
I0330 15:15:07.055378 30162 net.cpp:141] Setting up relu3b
I0330 15:15:07.055390 30162 net.cpp:148] Top shape: 150 384 13 13 (9734400)
I0330 15:15:07.055397 30162 net.cpp:156] Memory required for data: 1640928600
I0330 15:15:07.055405 30162 layer_factory.hpp:77] Creating layer conv4b
I0330 15:15:07.055425 30162 net.cpp:91] Creating Layer conv4b
I0330 15:15:07.055433 30162 net.cpp:425] conv4b <- conv3b
I0330 15:15:07.055446 30162 net.cpp:399] conv4b -> conv4b
I0330 15:15:07.072685 30162 net.cpp:141] Setting up conv4b
I0330 15:15:07.072710 30162 net.cpp:148] Top shape: 150 384 13 13 (9734400)
I0330 15:15:07.072718 30162 net.cpp:156] Memory required for data: 1679866200
I0330 15:15:07.072732 30162 layer_factory.hpp:77] Creating layer relu4b
I0330 15:15:07.072747 30162 net.cpp:91] Creating Layer relu4b
I0330 15:15:07.072757 30162 net.cpp:425] relu4b <- conv4b
I0330 15:15:07.072770 30162 net.cpp:386] relu4b -> conv4b (in-place)
I0330 15:15:07.072788 30162 net.cpp:141] Setting up relu4b
I0330 15:15:07.072799 30162 net.cpp:148] Top shape: 150 384 13 13 (9734400)
I0330 15:15:07.072808 30162 net.cpp:156] Memory required for data: 1718803800
I0330 15:15:07.072831 30162 layer_factory.hpp:77] Creating layer conv5b
I0330 15:15:07.072851 30162 net.cpp:91] Creating Layer conv5b
I0330 15:15:07.072860 30162 net.cpp:425] conv5b <- conv4b
I0330 15:15:07.072876 30162 net.cpp:399] conv5b -> conv5b
I0330 15:15:07.084342 30162 net.cpp:141] Setting up conv5b
I0330 15:15:07.084367 30162 net.cpp:148] Top shape: 150 256 13 13 (6489600)
I0330 15:15:07.084375 30162 net.cpp:156] Memory required for data: 1744762200
I0330 15:15:07.084389 30162 layer_factory.hpp:77] Creating layer relu5b
I0330 15:15:07.084408 30162 net.cpp:91] Creating Layer relu5b
I0330 15:15:07.084419 30162 net.cpp:425] relu5b <- conv5b
I0330 15:15:07.084432 30162 net.cpp:386] relu5b -> conv5b (in-place)
I0330 15:15:07.084447 30162 net.cpp:141] Setting up relu5b
I0330 15:15:07.084460 30162 net.cpp:148] Top shape: 150 256 13 13 (6489600)
I0330 15:15:07.084470 30162 net.cpp:156] Memory required for data: 1770720600
I0330 15:15:07.084478 30162 layer_factory.hpp:77] Creating layer pool5b
I0330 15:15:07.084491 30162 net.cpp:91] Creating Layer pool5b
I0330 15:15:07.084499 30162 net.cpp:425] pool5b <- conv5b
I0330 15:15:07.084513 30162 net.cpp:399] pool5b -> pool5b
I0330 15:15:07.084558 30162 net.cpp:141] Setting up pool5b
I0330 15:15:07.084569 30162 net.cpp:148] Top shape: 150 256 6 6 (1382400)
I0330 15:15:07.084576 30162 net.cpp:156] Memory required for data: 1776250200
I0330 15:15:07.084584 30162 layer_factory.hpp:77] Creating layer switch
I0330 15:15:07.084604 30162 net.cpp:91] Creating Layer switch
I0330 15:15:07.084611 30162 net.cpp:425] switch <- pool5a
I0330 15:15:07.084620 30162 net.cpp:425] switch <- pool5b
I0330 15:15:07.084630 30162 net.cpp:425] switch <- outputLabel
I0330 15:15:07.084640 30162 net.cpp:399] switch -> switch
I0330 15:15:07.084669 30162 net.cpp:141] Setting up switch
I0330 15:15:07.084681 30162 net.cpp:148] Top shape: 150 256 6 6 (1382400)
I0330 15:15:07.084688 30162 net.cpp:156] Memory required for data: 1781779800
I0330 15:15:07.084697 30162 layer_factory.hpp:77] Creating layer fc6
I0330 15:15:07.084722 30162 net.cpp:91] Creating Layer fc6
I0330 15:15:07.084733 30162 net.cpp:425] fc6 <- switch
I0330 15:15:07.084743 30162 net.cpp:399] fc6 -> fc6
I0330 15:15:08.030169 30162 net.cpp:141] Setting up fc6
I0330 15:15:08.030208 30162 net.cpp:148] Top shape: 150 4096 (614400)
I0330 15:15:08.030216 30162 net.cpp:156] Memory required for data: 1784237400
I0330 15:15:08.030232 30162 layer_factory.hpp:77] Creating layer relu6
I0330 15:15:08.030247 30162 net.cpp:91] Creating Layer relu6
I0330 15:15:08.030257 30162 net.cpp:425] relu6 <- fc6
I0330 15:15:08.030270 30162 net.cpp:386] relu6 -> fc6 (in-place)
I0330 15:15:08.030288 30162 net.cpp:141] Setting up relu6
I0330 15:15:08.030300 30162 net.cpp:148] Top shape: 150 4096 (614400)
I0330 15:15:08.030308 30162 net.cpp:156] Memory required for data: 1786695000
I0330 15:15:08.030315 30162 layer_factory.hpp:77] Creating layer drop6
I0330 15:15:08.030329 30162 net.cpp:91] Creating Layer drop6
I0330 15:15:08.030339 30162 net.cpp:425] drop6 <- fc6
I0330 15:15:08.030349 30162 net.cpp:386] drop6 -> fc6 (in-place)
I0330 15:15:08.030383 30162 net.cpp:141] Setting up drop6
I0330 15:15:08.030395 30162 net.cpp:148] Top shape: 150 4096 (614400)
I0330 15:15:08.030401 30162 net.cpp:156] Memory required for data: 1789152600
I0330 15:15:08.030410 30162 layer_factory.hpp:77] Creating layer fc7
I0330 15:15:08.030422 30162 net.cpp:91] Creating Layer fc7
I0330 15:15:08.030434 30162 net.cpp:425] fc7 <- fc6
I0330 15:15:08.030448 30162 net.cpp:399] fc7 -> fc7
I0330 15:15:08.450244 30162 net.cpp:141] Setting up fc7
I0330 15:15:08.450279 30162 net.cpp:148] Top shape: 150 4096 (614400)
I0330 15:15:08.450287 30162 net.cpp:156] Memory required for data: 1791610200
I0330 15:15:08.450302 30162 layer_factory.hpp:77] Creating layer relu7
I0330 15:15:08.450317 30162 net.cpp:91] Creating Layer relu7
I0330 15:15:08.450327 30162 net.cpp:425] relu7 <- fc7
I0330 15:15:08.450340 30162 net.cpp:386] relu7 -> fc7 (in-place)
I0330 15:15:08.450359 30162 net.cpp:141] Setting up relu7
I0330 15:15:08.450386 30162 net.cpp:148] Top shape: 150 4096 (614400)
I0330 15:15:08.450394 30162 net.cpp:156] Memory required for data: 1794067800
I0330 15:15:08.450402 30162 layer_factory.hpp:77] Creating layer drop7
I0330 15:15:08.450417 30162 net.cpp:91] Creating Layer drop7
I0330 15:15:08.450426 30162 net.cpp:425] drop7 <- fc7
I0330 15:15:08.450436 30162 net.cpp:386] drop7 -> fc7 (in-place)
I0330 15:15:08.450471 30162 net.cpp:141] Setting up drop7
I0330 15:15:08.450482 30162 net.cpp:148] Top shape: 150 4096 (614400)
I0330 15:15:08.450489 30162 net.cpp:156] Memory required for data: 1796525400
I0330 15:15:08.450497 30162 layer_factory.hpp:77] Creating layer fc8_modA
I0330 15:15:08.450510 30162 net.cpp:91] Creating Layer fc8_modA
I0330 15:15:08.450521 30162 net.cpp:425] fc8_modA <- fc7
I0330 15:15:08.450536 30162 net.cpp:399] fc8_modA -> fc8_modA
I0330 15:15:08.455904 30162 net.cpp:141] Setting up fc8_modA
I0330 15:15:08.455917 30162 net.cpp:148] Top shape: 150 50 (7500)
I0330 15:15:08.455924 30162 net.cpp:156] Memory required for data: 1796555400
I0330 15:15:08.455937 30162 layer_factory.hpp:77] Creating layer loss
I0330 15:15:08.455951 30162 net.cpp:91] Creating Layer loss
I0330 15:15:08.455961 30162 net.cpp:425] loss <- fc8_modA
I0330 15:15:08.455971 30162 net.cpp:425] loss <- label
I0330 15:15:08.455984 30162 net.cpp:399] loss -> loss
I0330 15:15:08.456002 30162 layer_factory.hpp:77] Creating layer loss
…
I0330 15:15:08.457414 30162 net.cpp:313] The NetState phase (1) differed from the phase (0) specified by a rule in layer data
I0330 15:15:08.457690 30162 net.cpp:49] Initializing net from parameters: 
name: "AlexNet"
state {
  phase: TEST
}
layer {
  name: "data"
  type: "ImageData"
  top: "data"
  top: "label"
  include {
    phase: TEST
  }
  transform_param {
    mirror: false
    mean_file: "/home/val/Documents/ModelA/mean/mean227alex.binaryproto"
  }
  image_data_param {
    source: "/home/val/Documents/img_folderAlexCrop1/val1.txt"
    batch_size: 100
    shuffle: false
  }
}
layer {
  name: "conv1"
  type: "Convolution"
  bottom: "data"
  top: "conv1"
  param {
    lr_mult: 0
    decay_mult: 0
  }
  param {
    lr_mult: 0
    decay_mult: 0
  }
  convolution_param {
    num_output: 96
    kernel_size: 11
    stride: 4
    weight_filler {
      type: "gaussian"
      std: 0.01
    }
    bias_filler {
      type: "constant"
      value: 0
    }
  }
}
layer {
  name: "relu1"
  type: "ReLU"
  bottom: "conv1"
  top: "conv1"
}
layer {
  name: "norm1"
  type: "LRN"
  bottom: "conv1"
  top: "norm1"
  lrn_param {
    local_size: 5
    alpha: 0.0001
    beta: 0.75
  }
}
layer {
  name: "pool1"
  type: "Pooling"
  bottom: "norm1"
  top: "pool1"
  pooling_param {
    pool: MAX
    kernel_size: 3
    stride: 2
  }
}
layer {
  name: "splitpool1"
  type: "Split"
  bottom: "pool1"
  top: "splitpool1"
}
layer {
  name: "conv2_mod"
  type: "Convolution"
  bottom: "splitpool1"
  top: "conv2_mod"
  param {
    lr_mult: 0
    decay_mult: 0
  }
  param {
    lr_mult: 0
    decay_mult: 0
  }
  convolution_param {
    num_output: 96
    pad: 1
    kernel_size: 3
    weight_filler {
      type: "gaussian"
      std: 0.01
    }
    bias_filler {
      type: "constant"
      value: 0.5
    }
  }
}
layer {
  name: "relu2_mod"
  type: "ReLU"
  bottom: "conv2_mod"
  top: "conv2_mod"
}
layer {
  name: "norm2_mod"
  type: "LRN"
  bottom: "conv2_mod"
  top: "norm2_mod"
  lrn_param {
    local_size: 3
    alpha: 0.0001
    beta: 0.75
  }
}
layer {
  name: "poolGlobal"
  type: "Pooling"
  bottom: "norm2_mod"
  top: "poolGlobal"
  pooling_param {
    pool: AVE
    global_pooling: true
  }
}
layer {
  name: "fc1a"
  type: "InnerProduct"
  bottom: "poolGlobal"
  top: "fc1a"
  param {
    lr_mult: 0
    decay_mult: 0
  }
  param {
    lr_mult: 0
    decay_mult: 0
  }
  inner_product_param {
    num_output: 96
    weight_filler {
      type: "gaussian"
      std: 0.005
    }
    bias_filler {
      type: "constant"
      value: 0.5
    }
  }
}
layer {
  name: "relu1a"
  type: "ReLU"
  bottom: "fc1a"
  top: "fc1a"
}
layer {
  name: "drop1a"
  type: "Dropout"
  bottom: "fc1a"
  top: "fc1a"
  dropout_param {
    dropout_ratio: 0.5
  }
}
layer {
  name: "fc1b"
  type: "InnerProduct"
  bottom: "fc1a"
  top: "fc1b"
  param {
    lr_mult: 0
    decay_mult: 0
  }
  param {
    lr_mult: 0
    decay_mult: 0
  }
  inner_product_param {
    num_output: 256
    weight_filler {
      type: "gaussian"
      std: 0.005
    }
    bias_filler {
      type: "constant"
      value: 0.5
    }
  }
}
layer {
  name: "relu1b"
  type: "ReLU"
  bottom: "fc1b"
  top: "fc1b"
}
layer {
  name: "drop1b"
  type: "Dropout"
  bottom: "fc1b"
  top: "fc1b"
  dropout_param {
    dropout_ratio: 0.5
  }
}
layer {
  name: "fc_switchbottom"
  type: "InnerProduct"
  bottom: "fc1b"
  top: "fc_switchbottom"
  param {
    lr_mult: 0
    decay_mult: 0
  }
  param {
    lr_mult: 0
    decay_mult: 0
  }
  inner_product_param {
    num_output: 2
    weight_filler {
      type: "gaussian"
      std: 0.005
    }
    bias_filler {
      type: "constant"
      value: 0.5
    }
  }
}
layer {
  name: "prob"
  type: "Softmax"
  bottom: "fc_switchbottom"
  top: "prob"
}
layer {
  name: "outputLabel"
  type: "ArgMax"
  bottom: "prob"
  top: "outputLabel"
}
layer {
  name: "conv2"
  type: "Convolution"
  bottom: "splitpool1"
  top: "conv2"
  param {
    lr_mult: 1
    decay_mult: 1
  }
  param {
    lr_mult: 2
    decay_mult: 0
  }
  convolution_param {
    num_output: 256
    pad: 2
    kernel_size: 5
    group: 2
    weight_filler {
      type: "gaussian"
      std: 0.01
    }
    bias_filler {
      type: "constant"
      value: 1
    }
  }
}
layer {
  name: "relu2"
  type: "ReLU"
  bottom: "conv2"
  top: "conv2"
}
layer {
  name: "norm2"
  type: "LRN"
  bottom: "conv2"
  top: "norm2"
  lrn_param {
    local_size: 5
    alpha: 0.0001
    beta: 0.75
  }
}
layer {
  name: "pool2"
  type: "Pooling"
  bottom: "norm2"
  top: "pool2"
  pooling_param {
    pool: MAX
    kernel_size: 3
    stride: 2
  }
}
layer {
  name: "splitpool2"
  type: "Split"
  bottom: "pool2"
  top: "splitpool2"
}
layer {
  name: "conv3a"
  type: "Convolution"
  bottom: "splitpool2"
  top: "conv3a"
  param {
    lr_mult: 1
    decay_mult: 1
  }
  param {
    lr_mult: 2
    decay_mult: 0
  }
  convolution_param {
    num_output: 384
    pad: 1
    kernel_size: 3
    weight_filler {
      type: "gaussian"
      std: 0.01
    }
    bias_filler {
      type: "constant"
      value: 0
    }
  }
}
layer {
  name: "relu3a"
  type: "ReLU"
  bottom: "conv3a"
  top: "conv3a"
}
layer {
  name: "conv4a"
  type: "Convolution"
  bottom: "conv3a"
  top: "conv4a"
  param {
    lr_mult: 1
    decay_mult: 1
  }
  param {
    lr_mult: 2
    decay_mult: 0
  }
  convolution_param {
    num_output: 384
    pad: 1
    kernel_size: 3
    group: 2
    weight_filler {
      type: "gaussian"
      std: 0.01
    }
    bias_filler {
      type: "constant"
      value: 1
    }
  }
}
layer {
  name: "relu4a"
  type: "ReLU"
  bottom: "conv4a"
  top: "conv4a"
}
layer {
  name: "conv5a"
  type: "Convolution"
  bottom: "conv4a"
  top: "conv5a"
  param {
    lr_mult: 1
    decay_mult: 1
  }
  param {
    lr_mult: 2
    decay_mult: 0
  }
  convolution_param {
    num_output: 256
    pad: 1
    kernel_size: 3
    group: 2
    weight_filler {
      type: "gaussian"
      std: 0.01
    }
    bias_filler {
      type: "constant"
      value: 1
    }
  }
}
layer {
  name: "relu5a"
  type: "ReLU"
  bottom: "conv5a"
  top: "conv5a"
}
layer {
  name: "pool5a"
  type: "Pooling"
  bottom: "conv5a"
  top: "pool5a"
  pooling_param {
    pool: MAX
    kernel_size: 3
    stride: 2
  }
}
layer {
  name: "conv3b"
  type: "Convolution"
  bottom: "splitpool2"
  top: "conv3b"
  param {
    lr_mult: 1
    decay_mult: 1
  }
  param {
    lr_mult: 2
    decay_mult: 0
  }
  convolution_param {
    num_output: 384
    pad: 1
    kernel_size: 3
    weight_filler {
      type: "gaussian"
      std: 0.01
    }
    bias_filler {
      type: "constant"
      value: 0
    }
  }
}
layer {
  name: "relu3b"
  type: "ReLU"
  bottom: "conv3b"
  top: "conv3b"
}
layer {
  name: "conv4b"
  type: "Convolution"
  bottom: "conv3b"
  top: "conv4b"
  param {
    lr_mult: 1
    decay_mult: 1
  }
  param {
    lr_mult: 2
    decay_mult: 0
  }
  convolution_param {
    num_output: 384
    pad: 1
    kernel_size: 3
    group: 2
    weight_filler {
      type: "gaussian"
      std: 0.01
    }
    bias_filler {
      type: "constant"
      value: 1
    }
  }
}
layer {
  name: "relu4b"
  type: "ReLU"
  bottom: "conv4b"
  top: "conv4b"
}
layer {
  name: "conv5b"
  type: "Convolution"
  bottom: "conv4b"
  top: "conv5b"
  param {
    lr_mult: 1
    decay_mult: 1
  }
  param {
    lr_mult: 2
    decay_mult: 0
  }
  convolution_param {
    num_output: 256
    pad: 1
    kernel_size: 3
    group: 2
    weight_filler {
      type: "gaussian"
      std: 0.01
    }
    bias_filler {
      type: "constant"
      value: 1
    }
  }
}
layer {
  name: "relu5b"
  type: "ReLU"
  bottom: "conv5b"
  top: "conv5b"
}
layer {
  name: "pool5b"
  type: "Pooling"
  bottom: "conv5b"
  top: "pool5b"
  pooling_param {
    pool: MAX
    kernel_size: 3
    stride: 2
  }
}
layer {
  name: "switch"
  type: "Switch"
  bottom: "pool5a"
  bottom: "pool5b"
  bottom: "outputLabel"
  top: "switch"
}
layer {
  name: "fc6"
  type: "InnerProduct"
  bottom: "switch"
  top: "fc6"
  param {
    lr_mult: 1
    decay_mult: 1
  }
  param {
    lr_mult: 2
    decay_mult: 0
  }
  inner_product_param {
    num_output: 4096
    weight_filler {
      type: "gaussian"
      std: 0.005
    }
    bias_filler {
      type: "constant"
      value: 1
    }
  }
}
layer {
  name: "relu6"
  type: "ReLU"
  bottom: "fc6"
  top: "fc6"
}
layer {
  name: "drop6"
  type: "Dropout"
  bottom: "fc6"
  top: "fc6"
  dropout_param {
    dropout_ratio: 0.5
  }
}
layer {
  name: "fc7"
  type: "InnerProduct"
  bottom: "fc6"
  top: "fc7"
  param {
    lr_mult: 1
    decay_mult: 1
  }
  param {
    lr_mult: 2
    decay_mult: 0
  }
  inner_product_param {
    num_output: 4096
    weight_filler {
      type: "gaussian"
      std: 0.005
    }
    bias_filler {
      type: "constant"
      value: 1
    }
  }
}
layer {
  name: "relu7"
  type: "ReLU"
  bottom: "fc7"
  top: "fc7"
}
layer {
  name: "drop7"
  type: "Dropout"
  bottom: "fc7"
  top: "fc7"
  dropout_param {
    dropout_ratio: 0.5
  }
}
layer {
  name: "fc8_modA"
  type: "InnerProduct"
  bottom: "fc7"
  top: "fc8_modA"
  param {
    lr_mult: 10
    decay_mult: 1
  }
  param {
    lr_mult: 20
    decay_mult: 0
  }
  inner_product_param {
    num_output: 50
    weight_filler {
      type: "gaussian"
      std: 0.01
    }
    bias_filler {
      type: "constant"
      value: 0
    }
  }
}
layer {
  name: "accuracy"
  type: "Accuracy"
  bottom: "fc8_modA"
  bottom: "label"
  top: "accuracy"
  include {
    phase: TEST
  }
}
layer {
  name: "loss"
  type: "SoftmaxWithLoss"
  bottom: "fc8_modA"
  bottom: "label"
  top: "loss"
}
I0330 15:15:08.457948 30162 layer_factory.hpp:77] Creating layer data
I0330 15:15:08.457969 30162 net.cpp:91] Creating Layer data
I0330 15:15:08.457979 30162 net.cpp:399] data -> data
I0330 15:15:08.457993 30162 net.cpp:399] data -> label
I0330 15:15:08.458006 30162 data_transformer.cpp:25] Loading mean file from: /home/val/Documents/ModelA/mean/mean227alex.binaryproto
I0330 15:15:08.460078 30162 image_data_layer.cpp:38] Opening file /home/val/Documents/img_folderAlexCrop1/val1.txt
I0330 15:15:08.462318 30162 image_data_layer.cpp:53] A total of 6875 images.
I0330 15:15:08.462904 30162 image_data_layer.cpp:80] output data size: 100,3,227,227
I0330 15:15:08.546375 30162 net.cpp:141] Setting up data
I0330 15:15:08.546414 30162 net.cpp:148] Top shape: 100 3 227 227 (15458700)
I0330 15:15:08.546425 30162 net.cpp:148] Top shape: 100 (100)
I0330 15:15:08.546432 30162 net.cpp:156] Memory required for data: 61835200
I0330 15:15:08.546464 30162 layer_factory.hpp:77] Creating layer label_data_1_split
I0330 15:15:08.546483 30162 net.cpp:91] Creating Layer label_data_1_split
I0330 15:15:08.546494 30162 net.cpp:425] label_data_1_split <- label
I0330 15:15:08.546506 30162 net.cpp:399] label_data_1_split -> label_data_1_split_0
I0330 15:15:08.546527 30162 net.cpp:399] label_data_1_split -> label_data_1_split_1
I0330 15:15:08.546574 30162 net.cpp:141] Setting up label_data_1_split
I0330 15:15:08.546586 30162 net.cpp:148] Top shape: 100 (100)
I0330 15:15:08.546596 30162 net.cpp:148] Top shape: 100 (100)
I0330 15:15:08.546603 30162 net.cpp:156] Memory required for data: 61836000
I0330 15:15:08.546610 30162 layer_factory.hpp:77] Creating layer conv1
I0330 15:15:08.546628 30162 net.cpp:91] Creating Layer conv1
I0330 15:15:08.546638 30162 net.cpp:425] conv1 <- data
I0330 15:15:08.546649 30162 net.cpp:399] conv1 -> conv1
I0330 15:15:08.557024 30162 net.cpp:141] Setting up conv1
I0330 15:15:08.557046 30162 net.cpp:148] Top shape: 100 96 55 55 (29040000)
I0330 15:15:08.557054 30162 net.cpp:156] Memory required for data: 177996000
I0330 15:15:08.557073 30162 layer_factory.hpp:77] Creating layer relu1
I0330 15:15:08.557090 30162 net.cpp:91] Creating Layer relu1
I0330 15:15:08.557099 30162 net.cpp:425] relu1 <- conv1
I0330 15:15:08.557111 30162 net.cpp:386] relu1 -> conv1 (in-place)
I0330 15:15:08.557126 30162 net.cpp:141] Setting up relu1
I0330 15:15:08.557137 30162 net.cpp:148] Top shape: 100 96 55 55 (29040000)
I0330 15:15:08.557145 30162 net.cpp:156] Memory required for data: 294156000
I0330 15:15:08.557153 30162 layer_factory.hpp:77] Creating layer norm1
I0330 15:15:08.557168 30162 net.cpp:91] Creating Layer norm1
I0330 15:15:08.557176 30162 net.cpp:425] norm1 <- conv1
I0330 15:15:08.557186 30162 net.cpp:399] norm1 -> norm1
I0330 15:15:08.557225 30162 net.cpp:141] Setting up norm1
I0330 15:15:08.557237 30162 net.cpp:148] Top shape: 100 96 55 55 (29040000)
I0330 15:15:08.557245 30162 net.cpp:156] Memory required for data: 410316000
I0330 15:15:08.557252 30162 layer_factory.hpp:77] Creating layer pool1
I0330 15:15:08.557265 30162 net.cpp:91] Creating Layer pool1
I0330 15:15:08.557273 30162 net.cpp:425] pool1 <- norm1
I0330 15:15:08.557284 30162 net.cpp:399] pool1 -> pool1
I0330 15:15:08.557322 30162 net.cpp:141] Setting up pool1
I0330 15:15:08.557333 30162 net.cpp:148] Top shape: 100 96 27 27 (6998400)
I0330 15:15:08.557340 30162 net.cpp:156] Memory required for data: 438309600
I0330 15:15:08.557348 30162 layer_factory.hpp:77] Creating layer splitpool1
I0330 15:15:08.557358 30162 net.cpp:91] Creating Layer splitpool1
I0330 15:15:08.557366 30162 net.cpp:425] splitpool1 <- pool1
I0330 15:15:08.557375 30162 net.cpp:399] splitpool1 -> splitpool1
I0330 15:15:08.557404 30162 net.cpp:141] Setting up splitpool1
I0330 15:15:08.557415 30162 net.cpp:148] Top shape: 100 96 27 27 (6998400)
I0330 15:15:08.557422 30162 net.cpp:156] Memory required for data: 466303200
I0330 15:15:08.557430 30162 layer_factory.hpp:77] Creating layer splitpool1_splitpool1_0_split
I0330 15:15:08.557440 30162 net.cpp:91] Creating Layer splitpool1_splitpool1_0_split
I0330 15:15:08.557446 30162 net.cpp:425] splitpool1_splitpool1_0_split <- splitpool1
I0330 15:15:08.557456 30162 net.cpp:399] splitpool1_splitpool1_0_split -> splitpool1_splitpool1_0_split_0
I0330 15:15:08.557469 30162 net.cpp:399] splitpool1_splitpool1_0_split -> splitpool1_splitpool1_0_split_1
I0330 15:15:08.557505 30162 net.cpp:141] Setting up splitpool1_splitpool1_0_split
I0330 15:15:08.557517 30162 net.cpp:148] Top shape: 100 96 27 27 (6998400)
I0330 15:15:08.557526 30162 net.cpp:148] Top shape: 100 96 27 27 (6998400)
I0330 15:15:08.557533 30162 net.cpp:156] Memory required for data: 522290400
I0330 15:15:08.557541 30162 layer_factory.hpp:77] Creating layer conv2_mod
I0330 15:15:08.557569 30162 net.cpp:91] Creating Layer conv2_mod
I0330 15:15:08.557579 30162 net.cpp:425] conv2_mod <- splitpool1_splitpool1_0_split_0
I0330 15:15:08.557590 30162 net.cpp:399] conv2_mod -> conv2_mod
I0330 15:15:08.559943 30162 net.cpp:141] Setting up conv2_mod
I0330 15:15:08.559959 30162 net.cpp:148] Top shape: 100 96 27 27 (6998400)
I0330 15:15:08.559967 30162 net.cpp:156] Memory required for data: 550284000
I0330 15:15:08.559981 30162 layer_factory.hpp:77] Creating layer relu2_mod
I0330 15:15:08.559994 30162 net.cpp:91] Creating Layer relu2_mod
I0330 15:15:08.560004 30162 net.cpp:425] relu2_mod <- conv2_mod
I0330 15:15:08.560014 30162 net.cpp:386] relu2_mod -> conv2_mod (in-place)
I0330 15:15:08.560027 30162 net.cpp:141] Setting up relu2_mod
I0330 15:15:08.560039 30162 net.cpp:148] Top shape: 100 96 27 27 (6998400)
I0330 15:15:08.560046 30162 net.cpp:156] Memory required for data: 578277600
I0330 15:15:08.560055 30162 layer_factory.hpp:77] Creating layer norm2_mod
I0330 15:15:08.560065 30162 net.cpp:91] Creating Layer norm2_mod
I0330 15:15:08.560073 30162 net.cpp:425] norm2_mod <- conv2_mod
I0330 15:15:08.560084 30162 net.cpp:399] norm2_mod -> norm2_mod
I0330 15:15:08.560125 30162 net.cpp:141] Setting up norm2_mod
I0330 15:15:08.560137 30162 net.cpp:148] Top shape: 100 96 27 27 (6998400)
I0330 15:15:08.560145 30162 net.cpp:156] Memory required for data: 606271200
I0330 15:15:08.560153 30162 layer_factory.hpp:77] Creating layer poolGlobal
I0330 15:15:08.560164 30162 net.cpp:91] Creating Layer poolGlobal
I0330 15:15:08.560173 30162 net.cpp:425] poolGlobal <- norm2_mod
I0330 15:15:08.560184 30162 net.cpp:399] poolGlobal -> poolGlobal
I0330 15:15:08.560214 30162 net.cpp:141] Setting up poolGlobal
I0330 15:15:08.560225 30162 net.cpp:148] Top shape: 100 96 1 1 (9600)
I0330 15:15:08.560231 30162 net.cpp:156] Memory required for data: 606309600
I0330 15:15:08.560240 30162 layer_factory.hpp:77] Creating layer fc1a
I0330 15:15:08.560252 30162 net.cpp:91] Creating Layer fc1a
I0330 15:15:08.560262 30162 net.cpp:425] fc1a <- poolGlobal
I0330 15:15:08.560273 30162 net.cpp:399] fc1a -> fc1a
I0330 15:15:08.560590 30162 net.cpp:141] Setting up fc1a
I0330 15:15:08.560602 30162 net.cpp:148] Top shape: 100 96 (9600)
I0330 15:15:08.560609 30162 net.cpp:156] Memory required for data: 606348000
I0330 15:15:08.560624 30162 layer_factory.hpp:77] Creating layer relu1a
I0330 15:15:08.560636 30162 net.cpp:91] Creating Layer relu1a
I0330 15:15:08.560647 30162 net.cpp:425] relu1a <- fc1a
I0330 15:15:08.560657 30162 net.cpp:386] relu1a -> fc1a (in-place)
I0330 15:15:08.560670 30162 net.cpp:141] Setting up relu1a
I0330 15:15:08.560683 30162 net.cpp:148] Top shape: 100 96 (9600)
I0330 15:15:08.560691 30162 net.cpp:156] Memory required for data: 606386400
I0330 15:15:08.560699 30162 layer_factory.hpp:77] Creating layer drop1a
I0330 15:15:08.560711 30162 net.cpp:91] Creating Layer drop1a
I0330 15:15:08.560719 30162 net.cpp:425] drop1a <- fc1a
I0330 15:15:08.560730 30162 net.cpp:386] drop1a -> fc1a (in-place)
I0330 15:15:08.560760 30162 net.cpp:141] Setting up drop1a
I0330 15:15:08.560770 30162 net.cpp:148] Top shape: 100 96 (9600)
I0330 15:15:08.560777 30162 net.cpp:156] Memory required for data: 606424800
I0330 15:15:08.560784 30162 layer_factory.hpp:77] Creating layer fc1b
I0330 15:15:08.560796 30162 net.cpp:91] Creating Layer fc1b
I0330 15:15:08.560802 30162 net.cpp:425] fc1b <- fc1a
I0330 15:15:08.560812 30162 net.cpp:399] fc1b -> fc1b
I0330 15:15:08.561503 30162 net.cpp:141] Setting up fc1b
I0330 15:15:08.561517 30162 net.cpp:148] Top shape: 100 256 (25600)
I0330 15:15:08.561523 30162 net.cpp:156] Memory required for data: 606527200
I0330 15:15:08.561535 30162 layer_factory.hpp:77] Creating layer relu1b
I0330 15:15:08.561548 30162 net.cpp:91] Creating Layer relu1b
I0330 15:15:08.561558 30162 net.cpp:425] relu1b <- fc1b
I0330 15:15:08.561568 30162 net.cpp:386] relu1b -> fc1b (in-place)
I0330 15:15:08.561578 30162 net.cpp:141] Setting up relu1b
I0330 15:15:08.561589 30162 net.cpp:148] Top shape: 100 256 (25600)
I0330 15:15:08.561597 30162 net.cpp:156] Memory required for data: 606629600
I0330 15:15:08.561604 30162 layer_factory.hpp:77] Creating layer drop1b
I0330 15:15:08.561614 30162 net.cpp:91] Creating Layer drop1b
I0330 15:15:08.561633 30162 net.cpp:425] drop1b <- fc1b
I0330 15:15:08.561645 30162 net.cpp:386] drop1b -> fc1b (in-place)
I0330 15:15:08.561674 30162 net.cpp:141] Setting up drop1b
I0330 15:15:08.561686 30162 net.cpp:148] Top shape: 100 256 (25600)
I0330 15:15:08.561692 30162 net.cpp:156] Memory required for data: 606732000
I0330 15:15:08.561700 30162 layer_factory.hpp:77] Creating layer fc_switchbottom
I0330 15:15:08.561712 30162 net.cpp:91] Creating Layer fc_switchbottom
I0330 15:15:08.561720 30162 net.cpp:425] fc_switchbottom <- fc1b
I0330 15:15:08.561733 30162 net.cpp:399] fc_switchbottom -> fc_switchbottom
I0330 15:15:08.561833 30162 net.cpp:141] Setting up fc_switchbottom
I0330 15:15:08.561846 30162 net.cpp:148] Top shape: 100 2 (200)
I0330 15:15:08.561854 30162 net.cpp:156] Memory required for data: 606732800
I0330 15:15:08.561883 30162 layer_factory.hpp:77] Creating layer prob
I0330 15:15:08.561899 30162 net.cpp:91] Creating Layer prob
I0330 15:15:08.561908 30162 net.cpp:425] prob <- fc_switchbottom
I0330 15:15:08.561919 30162 net.cpp:399] prob -> prob
I0330 15:15:08.561980 30162 net.cpp:141] Setting up prob
I0330 15:15:08.561991 30162 net.cpp:148] Top shape: 100 2 (200)
I0330 15:15:08.561998 30162 net.cpp:156] Memory required for data: 606733600
I0330 15:15:08.562006 30162 layer_factory.hpp:77] Creating layer outputLabel
I0330 15:15:08.562017 30162 net.cpp:91] Creating Layer outputLabel
I0330 15:15:08.562026 30162 net.cpp:425] outputLabel <- prob
I0330 15:15:08.562036 30162 net.cpp:399] outputLabel -> outputLabel
I0330 15:15:08.562067 30162 net.cpp:141] Setting up outputLabel
I0330 15:15:08.562077 30162 net.cpp:148] Top shape: 100 1 1 (100)
I0330 15:15:08.562084 30162 net.cpp:156] Memory required for data: 606734000
I0330 15:15:08.562091 30162 layer_factory.hpp:77] Creating layer conv2
I0330 15:15:08.562108 30162 net.cpp:91] Creating Layer conv2
I0330 15:15:08.562117 30162 net.cpp:425] conv2 <- splitpool1_splitpool1_0_split_1
I0330 15:15:08.562129 30162 net.cpp:399] conv2 -> conv2
I0330 15:15:08.570251 30162 net.cpp:141] Setting up conv2
I0330 15:15:08.570273 30162 net.cpp:148] Top shape: 100 256 27 27 (18662400)
I0330 15:15:08.570281 30162 net.cpp:156] Memory required for data: 681383600
I0330 15:15:08.570293 30162 layer_factory.hpp:77] Creating layer relu2
I0330 15:15:08.570305 30162 net.cpp:91] Creating Layer relu2
I0330 15:15:08.570318 30162 net.cpp:425] relu2 <- conv2
I0330 15:15:08.570329 30162 net.cpp:386] relu2 -> conv2 (in-place)
I0330 15:15:08.570343 30162 net.cpp:141] Setting up relu2
I0330 15:15:08.570354 30162 net.cpp:148] Top shape: 100 256 27 27 (18662400)
I0330 15:15:08.570365 30162 net.cpp:156] Memory required for data: 756033200
I0330 15:15:08.570372 30162 layer_factory.hpp:77] Creating layer norm2
I0330 15:15:08.570386 30162 net.cpp:91] Creating Layer norm2
I0330 15:15:08.570396 30162 net.cpp:425] norm2 <- conv2
I0330 15:15:08.570407 30162 net.cpp:399] norm2 -> norm2
I0330 15:15:08.570451 30162 net.cpp:141] Setting up norm2
I0330 15:15:08.570461 30162 net.cpp:148] Top shape: 100 256 27 27 (18662400)
I0330 15:15:08.570469 30162 net.cpp:156] Memory required for data: 830682800
I0330 15:15:08.570477 30162 layer_factory.hpp:77] Creating layer pool2
I0330 15:15:08.570487 30162 net.cpp:91] Creating Layer pool2
I0330 15:15:08.570494 30162 net.cpp:425] pool2 <- norm2
I0330 15:15:08.570508 30162 net.cpp:399] pool2 -> pool2
I0330 15:15:08.570547 30162 net.cpp:141] Setting up pool2
I0330 15:15:08.570562 30162 net.cpp:148] Top shape: 100 256 13 13 (4326400)
I0330 15:15:08.570571 30162 net.cpp:156] Memory required for data: 847988400
I0330 15:15:08.570580 30162 layer_factory.hpp:77] Creating layer splitpool2
I0330 15:15:08.570591 30162 net.cpp:91] Creating Layer splitpool2
I0330 15:15:08.570600 30162 net.cpp:425] splitpool2 <- pool2
I0330 15:15:08.570611 30162 net.cpp:399] splitpool2 -> splitpool2
I0330 15:15:08.570641 30162 net.cpp:141] Setting up splitpool2
I0330 15:15:08.570652 30162 net.cpp:148] Top shape: 100 256 13 13 (4326400)
I0330 15:15:08.570659 30162 net.cpp:156] Memory required for data: 865294000
I0330 15:15:08.570682 30162 layer_factory.hpp:77] Creating layer splitpool2_splitpool2_0_split
I0330 15:15:08.570693 30162 net.cpp:91] Creating Layer splitpool2_splitpool2_0_split
I0330 15:15:08.570699 30162 net.cpp:425] splitpool2_splitpool2_0_split <- splitpool2
I0330 15:15:08.570713 30162 net.cpp:399] splitpool2_splitpool2_0_split -> splitpool2_splitpool2_0_split_0
I0330 15:15:08.570726 30162 net.cpp:399] splitpool2_splitpool2_0_split -> splitpool2_splitpool2_0_split_1
I0330 15:15:08.570766 30162 net.cpp:141] Setting up splitpool2_splitpool2_0_split
I0330 15:15:08.570777 30162 net.cpp:148] Top shape: 100 256 13 13 (4326400)
I0330 15:15:08.570787 30162 net.cpp:148] Top shape: 100 256 13 13 (4326400)
I0330 15:15:08.570794 30162 net.cpp:156] Memory required for data: 899905200
I0330 15:15:08.570801 30162 layer_factory.hpp:77] Creating layer conv3a
I0330 15:15:08.570818 30162 net.cpp:91] Creating Layer conv3a
I0330 15:15:08.570827 30162 net.cpp:425] conv3a <- splitpool2_splitpool2_0_split_0
I0330 15:15:08.570838 30162 net.cpp:399] conv3a -> conv3a
I0330 15:15:08.593637 30162 net.cpp:141] Setting up conv3a
I0330 15:15:08.593663 30162 net.cpp:148] Top shape: 100 384 13 13 (6489600)
I0330 15:15:08.593672 30162 net.cpp:156] Memory required for data: 925863600
I0330 15:15:08.593685 30162 layer_factory.hpp:77] Creating layer relu3a
I0330 15:15:08.593703 30162 net.cpp:91] Creating Layer relu3a
I0330 15:15:08.593713 30162 net.cpp:425] relu3a <- conv3a
I0330 15:15:08.593731 30162 net.cpp:386] relu3a -> conv3a (in-place)
I0330 15:15:08.593749 30162 net.cpp:141] Setting up relu3a
I0330 15:15:08.593760 30162 net.cpp:148] Top shape: 100 384 13 13 (6489600)
I0330 15:15:08.593767 30162 net.cpp:156] Memory required for data: 951822000
I0330 15:15:08.593775 30162 layer_factory.hpp:77] Creating layer conv4a
I0330 15:15:08.593794 30162 net.cpp:91] Creating Layer conv4a
I0330 15:15:08.593802 30162 net.cpp:425] conv4a <- conv3a
I0330 15:15:08.593814 30162 net.cpp:399] conv4a -> conv4a
I0330 15:15:08.610935 30162 net.cpp:141] Setting up conv4a
I0330 15:15:08.610965 30162 net.cpp:148] Top shape: 100 384 13 13 (6489600)
I0330 15:15:08.610971 30162 net.cpp:156] Memory required for data: 977780400
I0330 15:15:08.610985 30162 layer_factory.hpp:77] Creating layer relu4a
I0330 15:15:08.610999 30162 net.cpp:91] Creating Layer relu4a
I0330 15:15:08.611008 30162 net.cpp:425] relu4a <- conv4a
I0330 15:15:08.611021 30162 net.cpp:386] relu4a -> conv4a (in-place)
I0330 15:15:08.611037 30162 net.cpp:141] Setting up relu4a
I0330 15:15:08.611048 30162 net.cpp:148] Top shape: 100 384 13 13 (6489600)
I0330 15:15:08.611057 30162 net.cpp:156] Memory required for data: 1003738800
I0330 15:15:08.611064 30162 layer_factory.hpp:77] Creating layer conv5a
I0330 15:15:08.611083 30162 net.cpp:91] Creating Layer conv5a
I0330 15:15:08.611091 30162 net.cpp:425] conv5a <- conv4a
I0330 15:15:08.611105 30162 net.cpp:399] conv5a -> conv5a
I0330 15:15:08.622648 30162 net.cpp:141] Setting up conv5a
I0330 15:15:08.622670 30162 net.cpp:148] Top shape: 100 256 13 13 (4326400)
I0330 15:15:08.622678 30162 net.cpp:156] Memory required for data: 1021044400
I0330 15:15:08.622704 30162 layer_factory.hpp:77] Creating layer relu5a
I0330 15:15:08.622727 30162 net.cpp:91] Creating Layer relu5a
I0330 15:15:08.622737 30162 net.cpp:425] relu5a <- conv5a
I0330 15:15:08.622750 30162 net.cpp:386] relu5a -> conv5a (in-place)
I0330 15:15:08.622766 30162 net.cpp:141] Setting up relu5a
I0330 15:15:08.622776 30162 net.cpp:148] Top shape: 100 256 13 13 (4326400)
I0330 15:15:08.622783 30162 net.cpp:156] Memory required for data: 1038350000
I0330 15:15:08.622792 30162 layer_factory.hpp:77] Creating layer pool5a
I0330 15:15:08.622808 30162 net.cpp:91] Creating Layer pool5a
I0330 15:15:08.622819 30162 net.cpp:425] pool5a <- conv5a
I0330 15:15:08.622835 30162 net.cpp:399] pool5a -> pool5a
I0330 15:15:08.622882 30162 net.cpp:141] Setting up pool5a
I0330 15:15:08.622895 30162 net.cpp:148] Top shape: 100 256 6 6 (921600)
I0330 15:15:08.622901 30162 net.cpp:156] Memory required for data: 1042036400
I0330 15:15:08.622910 30162 layer_factory.hpp:77] Creating layer conv3b
I0330 15:15:08.622944 30162 net.cpp:91] Creating Layer conv3b
I0330 15:15:08.622953 30162 net.cpp:425] conv3b <- splitpool2_splitpool2_0_split_1
I0330 15:15:08.622966 30162 net.cpp:399] conv3b -> conv3b
I0330 15:15:08.646127 30162 net.cpp:141] Setting up conv3b
I0330 15:15:08.646155 30162 net.cpp:148] Top shape: 100 384 13 13 (6489600)
I0330 15:15:08.646163 30162 net.cpp:156] Memory required for data: 1067994800
I0330 15:15:08.646178 30162 layer_factory.hpp:77] Creating layer relu3b
I0330 15:15:08.646195 30162 net.cpp:91] Creating Layer relu3b
I0330 15:15:08.646208 30162 net.cpp:425] relu3b <- conv3b
I0330 15:15:08.646225 30162 net.cpp:386] relu3b -> conv3b (in-place)
I0330 15:15:08.646244 30162 net.cpp:141] Setting up relu3b
I0330 15:15:08.646255 30162 net.cpp:148] Top shape: 100 384 13 13 (6489600)
I0330 15:15:08.646262 30162 net.cpp:156] Memory required for data: 1093953200
I0330 15:15:08.646270 30162 layer_factory.hpp:77] Creating layer conv4b
I0330 15:15:08.646288 30162 net.cpp:91] Creating Layer conv4b
I0330 15:15:08.646297 30162 net.cpp:425] conv4b <- conv3b
I0330 15:15:08.646312 30162 net.cpp:399] conv4b -> conv4b
I0330 15:15:08.669318 30162 net.cpp:141] Setting up conv4b
I0330 15:15:08.669338 30162 net.cpp:148] Top shape: 100 384 13 13 (6489600)
I0330 15:15:08.669345 30162 net.cpp:156] Memory required for data: 1119911600
I0330 15:15:08.669359 30162 layer_factory.hpp:77] Creating layer relu4b
I0330 15:15:08.669373 30162 net.cpp:91] Creating Layer relu4b
I0330 15:15:08.669384 30162 net.cpp:425] relu4b <- conv4b
I0330 15:15:08.669394 30162 net.cpp:386] relu4b -> conv4b (in-place)
I0330 15:15:08.669409 30162 net.cpp:141] Setting up relu4b
I0330 15:15:08.669422 30162 net.cpp:148] Top shape: 100 384 13 13 (6489600)
I0330 15:15:08.669430 30162 net.cpp:156] Memory required for data: 1145870000
I0330 15:15:08.669437 30162 layer_factory.hpp:77] Creating layer conv5b
I0330 15:15:08.669456 30162 net.cpp:91] Creating Layer conv5b
I0330 15:15:08.669464 30162 net.cpp:425] conv5b <- conv4b
I0330 15:15:08.669476 30162 net.cpp:399] conv5b -> conv5b
I0330 15:15:08.681005 30162 net.cpp:141] Setting up conv5b
I0330 15:15:08.681028 30162 net.cpp:148] Top shape: 100 256 13 13 (4326400)
I0330 15:15:08.681035 30162 net.cpp:156] Memory required for data: 1163175600
I0330 15:15:08.681049 30162 layer_factory.hpp:77] Creating layer relu5b
I0330 15:15:08.681063 30162 net.cpp:91] Creating Layer relu5b
I0330 15:15:08.681077 30162 net.cpp:425] relu5b <- conv5b
I0330 15:15:08.681092 30162 net.cpp:386] relu5b -> conv5b (in-place)
I0330 15:15:08.681107 30162 net.cpp:141] Setting up relu5b
I0330 15:15:08.681120 30162 net.cpp:148] Top shape: 100 256 13 13 (4326400)
I0330 15:15:08.681128 30162 net.cpp:156] Memory required for data: 1180481200
I0330 15:15:08.681135 30162 layer_factory.hpp:77] Creating layer pool5b
I0330 15:15:08.681146 30162 net.cpp:91] Creating Layer pool5b
I0330 15:15:08.681156 30162 net.cpp:425] pool5b <- conv5b
I0330 15:15:08.681167 30162 net.cpp:399] pool5b -> pool5b
I0330 15:15:08.681216 30162 net.cpp:141] Setting up pool5b
I0330 15:15:08.681227 30162 net.cpp:148] Top shape: 100 256 6 6 (921600)
I0330 15:15:08.681234 30162 net.cpp:156] Memory required for data: 1184167600
I0330 15:15:08.681241 30162 layer_factory.hpp:77] Creating layer switch
I0330 15:15:08.681253 30162 net.cpp:91] Creating Layer switch
I0330 15:15:08.681262 30162 net.cpp:425] switch <- pool5a
I0330 15:15:08.681269 30162 net.cpp:425] switch <- pool5b
I0330 15:15:08.681280 30162 net.cpp:425] switch <- outputLabel
I0330 15:15:08.681294 30162 net.cpp:399] switch -> switch
I0330 15:15:08.681329 30162 net.cpp:141] Setting up switch
I0330 15:15:08.681342 30162 net.cpp:148] Top shape: 100 256 6 6 (921600)
I0330 15:15:08.681349 30162 net.cpp:156] Memory required for data: 1187854000
I0330 15:15:08.681357 30162 layer_factory.hpp:77] Creating layer fc6
I0330 15:15:08.681375 30162 net.cpp:91] Creating Layer fc6
I0330 15:15:08.681382 30162 net.cpp:425] fc6 <- switch
I0330 15:15:08.681394 30162 net.cpp:399] fc6 -> fc6
I0330 15:15:09.631091 30162 net.cpp:141] Setting up fc6
I0330 15:15:09.631126 30162 net.cpp:148] Top shape: 100 4096 (409600)
I0330 15:15:09.631134 30162 net.cpp:156] Memory required for data: 1189492400
I0330 15:15:09.631150 30162 layer_factory.hpp:77] Creating layer relu6
I0330 15:15:09.631165 30162 net.cpp:91] Creating Layer relu6
I0330 15:15:09.631175 30162 net.cpp:425] relu6 <- fc6
I0330 15:15:09.631186 30162 net.cpp:386] relu6 -> fc6 (in-place)
I0330 15:15:09.631203 30162 net.cpp:141] Setting up relu6
I0330 15:15:09.631213 30162 net.cpp:148] Top shape: 100 4096 (409600)
I0330 15:15:09.631224 30162 net.cpp:156] Memory required for data: 1191130800
I0330 15:15:09.631233 30162 layer_factory.hpp:77] Creating layer drop6
I0330 15:15:09.631252 30162 net.cpp:91] Creating Layer drop6
I0330 15:15:09.631260 30162 net.cpp:425] drop6 <- fc6
I0330 15:15:09.631271 30162 net.cpp:386] drop6 -> fc6 (in-place)
I0330 15:15:09.631307 30162 net.cpp:141] Setting up drop6
I0330 15:15:09.631319 30162 net.cpp:148] Top shape: 100 4096 (409600)
I0330 15:15:09.631326 30162 net.cpp:156] Memory required for data: 1192769200
I0330 15:15:09.631333 30162 layer_factory.hpp:77] Creating layer fc7
I0330 15:15:09.631347 30162 net.cpp:91] Creating Layer fc7
I0330 15:15:09.631358 30162 net.cpp:425] fc7 <- fc6
I0330 15:15:09.631372 30162 net.cpp:399] fc7 -> fc7
I0330 15:15:10.052099 30162 net.cpp:141] Setting up fc7
I0330 15:15:10.052137 30162 net.cpp:148] Top shape: 100 4096 (409600)
I0330 15:15:10.052145 30162 net.cpp:156] Memory required for data: 1194407600
I0330 15:15:10.052161 30162 layer_factory.hpp:77] Creating layer relu7
I0330 15:15:10.052180 30162 net.cpp:91] Creating Layer relu7
I0330 15:15:10.052196 30162 net.cpp:425] relu7 <- fc7
I0330 15:15:10.052209 30162 net.cpp:386] relu7 -> fc7 (in-place)
I0330 15:15:10.052227 30162 net.cpp:141] Setting up relu7
I0330 15:15:10.052238 30162 net.cpp:148] Top shape: 100 4096 (409600)
I0330 15:15:10.052245 30162 net.cpp:156] Memory required for data: 1196046000
I0330 15:15:10.052253 30162 layer_factory.hpp:77] Creating layer drop7
I0330 15:15:10.052264 30162 net.cpp:91] Creating Layer drop7
I0330 15:15:10.052273 30162 net.cpp:425] drop7 <- fc7
I0330 15:15:10.052283 30162 net.cpp:386] drop7 -> fc7 (in-place)
I0330 15:15:10.052315 30162 net.cpp:141] Setting up drop7
I0330 15:15:10.052326 30162 net.cpp:148] Top shape: 100 4096 (409600)
I0330 15:15:10.052333 30162 net.cpp:156] Memory required for data: 1197684400
I0330 15:15:10.052340 30162 layer_factory.hpp:77] Creating layer fc8_modA
I0330 15:15:10.052356 30162 net.cpp:91] Creating Layer fc8_modA
I0330 15:15:10.052366 30162 net.cpp:425] fc8_modA <- fc7
I0330 15:15:10.052377 30162 net.cpp:399] fc8_modA -> fc8_modA
I0330 15:15:10.057781 30162 net.cpp:141] Setting up fc8_modA
I0330 15:15:10.057796 30162 net.cpp:148] Top shape: 100 50 (5000)
I0330 15:15:10.057803 30162 net.cpp:156] Memory required for data: 1197704400
I0330 15:15:10.057816 30162 layer_factory.hpp:77] Creating layer fc8_modA_fc8_modA_0_split
I0330 15:15:10.057827 30162 net.cpp:91] Creating Layer fc8_modA_fc8_modA_0_split
I0330 15:15:10.057838 30162 net.cpp:425] fc8_modA_fc8_modA_0_split <- fc8_modA
I0330 15:15:10.057852 30162 net.cpp:399] fc8_modA_fc8_modA_0_split -> fc8_modA_fc8_modA_0_split_0
I0330 15:15:10.057868 30162 net.cpp:399] fc8_modA_fc8_modA_0_split -> fc8_modA_fc8_modA_0_split_1
I0330 15:15:10.057909 30162 net.cpp:141] Setting up fc8_modA_fc8_modA_0_split
I0330 15:15:10.057924 30162 net.cpp:148] Top shape: 100 50 (5000)
I0330 15:15:10.057934 30162 net.cpp:148] Top shape: 100 50 (5000)
I0330 15:15:10.057945 30162 net.cpp:156] Memory required for data: 1197744400
I0330 15:15:10.057953 30162 layer_factory.hpp:77] Creating layer accuracy
I0330 15:15:10.057965 30162 net.cpp:91] Creating Layer accuracy
I0330 15:15:10.057971 30162 net.cpp:425] accuracy <- fc8_modA_fc8_modA_0_split_0
I0330 15:15:10.057981 30162 net.cpp:425] accuracy <- label_data_1_split_0
I0330 15:15:10.057991 30162 net.cpp:399] accuracy -> accuracy
…
