…
I0415 06:54:23.747710  5960 net.cpp:313] The NetState phase (0) differed from the phase (1) specified by a rule in layer accuracy
I0415 06:54:23.747920  5960 net.cpp:49] Initializing net from parameters: 
name: "AlexNet"
state {
  phase: TRAIN
}
layer {
  name: "data"
  type: "ImageData"
  top: "data"
  top: "label"
  include {
    phase: TRAIN
  }
  transform_param {
    mirror: true
    mean_file: "/home/shiv/SegNet/ModelA/mean/mean227alex.binaryproto"
  }
  image_data_param {
    source: "/home/shiv/SegNet/img_folderAlexCrop3/train3.txt"
    batch_size: 250
    shuffle: true
  }
}
layer {
  name: "conv1a"
  type: "Convolution"
  bottom: "data"
  top: "conv1a"
  param {
    lr_mult: 1
    decay_mult: 1
  }
  param {
    lr_mult: 2
    decay_mult: 0
  }
  convolution_param {
    num_output: 96
    kernel_size: 11
    stride: 4
    weight_filler {
      type: "gaussian"
      std: 0.01
    }
    bias_filler {
      type: "constant"
      value: 0
    }
  }
}
layer {
  name: "relu1a"
  type: "ReLU"
  bottom: "conv1a"
  top: "conv1a"
}
layer {
  name: "norm1a"
  type: "LRN"
  bottom: "conv1a"
  top: "norm1a"
  lrn_param {
    local_size: 5
    alpha: 0.0001
    beta: 0.75
  }
}
layer {
  name: "pool1a"
  type: "Pooling"
  bottom: "norm1a"
  top: "pool1a"
  pooling_param {
    pool: MAX
    kernel_size: 3
    stride: 2
  }
}
layer {
  name: "conv2a"
  type: "Convolution"
  bottom: "pool1a"
  top: "conv2a"
  param {
    lr_mult: 1
    decay_mult: 1
  }
  param {
    lr_mult: 2
    decay_mult: 0
  }
  convolution_param {
    num_output: 256
    pad: 2
    kernel_size: 5
    group: 2
    weight_filler {
      type: "gaussian"
      std: 0.01
    }
    bias_filler {
      type: "constant"
      value: 1
    }
  }
}
layer {
  name: "relu2a"
  type: "ReLU"
  bottom: "conv2a"
  top: "conv2a"
}
layer {
  name: "norm2a"
  type: "LRN"
  bottom: "conv2a"
  top: "norm2a"
  lrn_param {
    local_size: 5
    alpha: 0.0001
    beta: 0.75
  }
}
layer {
  name: "pool2a"
  type: "Pooling"
  bottom: "norm2a"
  top: "pool2a"
  pooling_param {
    pool: MAX
    kernel_size: 3
    stride: 2
  }
}
layer {
  name: "conv1b"
  type: "Convolution"
  bottom: "data"
  top: "conv1b"
  param {
    lr_mult: 4
    decay_mult: 1
  }
  param {
    lr_mult: 8
    decay_mult: 0
  }
  convolution_param {
    num_output: 96
    kernel_size: 11
    stride: 4
    weight_filler {
      type: "gaussian"
      std: 0.01
    }
    bias_filler {
      type: "constant"
      value: 0
    }
  }
}
layer {
  name: "relu1b"
  type: "ReLU"
  bottom: "conv1b"
  top: "conv1b"
}
layer {
  name: "norm1b"
  type: "LRN"
  bottom: "conv1b"
  top: "norm1b"
  lrn_param {
    local_size: 5
    alpha: 0.0001
    beta: 0.75
  }
}
layer {
  name: "pool1b"
  type: "Pooling"
  bottom: "norm1b"
  top: "pool1b"
  pooling_param {
    pool: MAX
    kernel_size: 3
    stride: 2
  }
}
layer {
  name: "conv2b"
  type: "Convolution"
  bottom: "pool1b"
  top: "conv2b"
  param {
    lr_mult: 4
    decay_mult: 1
  }
  param {
    lr_mult: 8
    decay_mult: 0
  }
  convolution_param {
    num_output: 256
    pad: 2
    kernel_size: 5
    group: 2
    weight_filler {
      type: "gaussian"
      std: 0.01
    }
    bias_filler {
      type: "constant"
      value: 1
    }
  }
}
layer {
  name: "relu2b"
  type: "ReLU"
  bottom: "conv2b"
  top: "conv2b"
}
layer {
  name: "norm2b"
  type: "LRN"
  bottom: "conv2b"
  top: "norm2b"
  lrn_param {
    local_size: 5
    alpha: 0.0001
    beta: 0.75
  }
}
layer {
  name: "pool2b"
  type: "Pooling"
  bottom: "norm2b"
  top: "pool2b"
  pooling_param {
    pool: MAX
    kernel_size: 3
    stride: 2
  }
}
layer {
  name: "conv1_mod"
  type: "Convolution"
  bottom: "data"
  top: "conv1_mod"
  param {
    lr_mult: 0
    decay_mult: 0
  }
  param {
    lr_mult: 0
    decay_mult: 0
  }
  convolution_param {
    num_output: 96
    kernel_size: 11
    stride: 4
    weight_filler {
      type: "gaussian"
      std: 0.01
    }
    bias_filler {
      type: "constant"
      value: 0
    }
  }
}
layer {
  name: "relu1_mod"
  type: "ReLU"
  bottom: "conv1_mod"
  top: "conv1_mod"
}
layer {
  name: "norm1_mod"
  type: "LRN"
  bottom: "conv1_mod"
  top: "norm1_mod"
  lrn_param {
    local_size: 5
    alpha: 0.0001
    beta: 0.75
  }
}
layer {
  name: "pool1_mod"
  type: "Pooling"
  bottom: "norm1_mod"
  top: "pool1_mod"
  pooling_param {
    pool: MAX
    kernel_size: 3
    stride: 2
  }
}
layer {
  name: "conv2_mod"
  type: "Convolution"
  bottom: "pool1_mod"
  top: "conv2_mod"
  param {
    lr_mult: 0
    decay_mult: 0
  }
  param {
    lr_mult: 0
    decay_mult: 0
  }
  convolution_param {
    num_output: 96
    pad: 1
    kernel_size: 3
    weight_filler {
      type: "gaussian"
      std: 0.01
    }
    bias_filler {
      type: "constant"
      value: 0.5
    }
  }
}
layer {
  name: "relu2_mod"
  type: "ReLU"
  bottom: "conv2_mod"
  top: "conv2_mod"
}
layer {
  name: "norm2_mod"
  type: "LRN"
  bottom: "conv2_mod"
  top: "norm2_mod"
  lrn_param {
    local_size: 3
    alpha: 0.0001
    beta: 0.75
  }
}
layer {
  name: "poolGlobal"
  type: "Pooling"
  bottom: "norm2_mod"
  top: "poolGlobal"
  pooling_param {
    pool: AVE
    global_pooling: true
  }
}
layer {
  name: "fc1a"
  type: "InnerProduct"
  bottom: "poolGlobal"
  top: "fc1a"
  param {
    lr_mult: 0
    decay_mult: 0
  }
  param {
    lr_mult: 0
    decay_mult: 0
  }
  inner_product_param {
    num_output: 96
    weight_filler {
      type: "gaussian"
      std: 0.005
    }
    bias_filler {
      type: "constant"
      value: 0.5
    }
  }
}
layer {
  name: "relu1a"
  type: "ReLU"
  bottom: "fc1a"
  top: "fc1a"
}
layer {
  name: "fc1b"
  type: "InnerProduct"
  bottom: "fc1a"
  top: "fc1b"
  param {
    lr_mult: 0
    decay_mult: 0
  }
  param {
    lr_mult: 0
    decay_mult: 0
  }
  inner_product_param {
    num_output: 256
    weight_filler {
      type: "gaussian"
      std: 0.005
    }
    bias_filler {
      type: "constant"
      value: 0.5
    }
  }
}
layer {
  name: "relu1b"
  type: "ReLU"
  bottom: "fc1b"
  top: "fc1b"
}
layer {
  name: "fc_switchbottom"
  type: "InnerProduct"
  bottom: "fc1b"
  top: "fc_switchbottom"
  param {
    lr_mult: 0
    decay_mult: 0
  }
  param {
    lr_mult: 0
    decay_mult: 0
  }
  inner_product_param {
    num_output: 2
    weight_filler {
      type: "gaussian"
      std: 0.005
    }
    bias_filler {
      type: "constant"
      value: 0.5
    }
  }
}
layer {
  name: "prob"
  type: "Softmax"
  bottom: "fc_switchbottom"
  top: "prob"
}
layer {
  name: "outputLabel"
  type: "ArgMax"
  bottom: "prob"
  top: "outputLabel"
}
layer {
  name: "switch"
  type: "Switch"
  bottom: "pool2a"
  bottom: "pool2b"
  bottom: "outputLabel"
  top: "switch"
}
layer {
  name: "conv3"
  type: "Convolution"
  bottom: "switch"
  top: "conv3"
  param {
    lr_mult: 4
    decay_mult: 1
  }
  param {
    lr_mult: 8
    decay_mult: 0
  }
  convolution_param {
    num_output: 384
    pad: 1
    kernel_size: 3
    weight_filler {
      type: "gaussian"
      std: 0.01
    }
    bias_filler {
      type: "constant"
      value: 0
    }
  }
}
layer {
  name: "relu3"
  type: "ReLU"
  bottom: "conv3"
  top: "conv3"
}
layer {
  name: "conv4"
  type: "Convolution"
  bottom: "conv3"
  top: "conv4"
  param {
    lr_mult: 4
    decay_mult: 1
  }
  param {
    lr_mult: 8
    decay_mult: 0
  }
  convolution_param {
    num_output: 384
    pad: 1
    kernel_size: 3
    group: 2
    weight_filler {
      type: "gaussian"
      std: 0.01
    }
    bias_filler {
      type: "constant"
      value: 1
    }
  }
}
layer {
  name: "relu4"
  type: "ReLU"
  bottom: "conv4"
  top: "conv4"
}
layer {
  name: "conv5"
  type: "Convolution"
  bottom: "conv4"
  top: "conv5"
  param {
    lr_mult: 4
    decay_mult: 1
  }
  param {
    lr_mult: 8
    decay_mult: 0
  }
  convolution_param {
    num_output: 256
    pad: 1
    kernel_size: 3
    group: 2
    weight_filler {
      type: "gaussian"
      std: 0.01
    }
    bias_filler {
      type: "constant"
      value: 1
    }
  }
}
layer {
  name: "relu5"
  type: "ReLU"
  bottom: "conv5"
  top: "conv5"
}
layer {
  name: "pool5"
  type: "Pooling"
  bottom: "conv5"
  top: "pool5"
  pooling_param {
    pool: MAX
    kernel_size: 3
    stride: 2
  }
}
layer {
  name: "fc6"
  type: "InnerProduct"
  bottom: "pool5"
  top: "fc6"
  param {
    lr_mult: 4
    decay_mult: 1
  }
  param {
    lr_mult: 8
    decay_mult: 0
  }
  inner_product_param {
    num_output: 4096
    weight_filler {
      type: "gaussian"
      std: 0.005
    }
    bias_filler {
      type: "constant"
      value: 1
    }
  }
}
layer {
  name: "relu6"
  type: "ReLU"
  bottom: "fc6"
  top: "fc6"
}
layer {
  name: "drop6"
  type: "Dropout"
  bottom: "fc6"
  top: "fc6"
  dropout_param {
    dropout_ratio: 0.5
  }
}
layer {
  name: "fc7"
  type: "InnerProduct"
  bottom: "fc6"
  top: "fc7"
  param {
    lr_mult: 4
    decay_mult: 1
  }
  param {
    lr_mult: 8
    decay_mult: 0
  }
  inner_product_param {
    num_output: 4096
    weight_filler {
      type: "gaussian"
      std: 0.005
    }
    bias_filler {
      type: "constant"
      value: 1
    }
  }
}
layer {
  name: "relu7"
  type: "ReLU"
  bottom: "fc7"
  top: "fc7"
}
layer {
  name: "drop7"
  type: "Dropout"
  bottom: "fc7"
  top: "fc7"
  dropout_param {
    dropout_ratio: 0.5
  }
}
layer {
  name: "fc8_modA"
  type: "InnerProduct"
  bottom: "fc7"
  top: "fc8_modA"
  param {
    lr_mult: 10
    decay_mult: 1
  }
  param {
    lr_mult: 20
    decay_mult: 0
  }
  inner_product_param {
    num_output: 50
    weight_filler {
      type: "gaussian"
      std: 0.01
    }
    bias_filler {
      type: "constant"
      value: 0
    }
  }
}
layer {
  name: "loss"
  type: "SoftmaxWithLoss"
  bottom: "fc8_modA"
  bottom: "label"
  top: "loss"
}
I0415 06:54:23.748103  5960 layer_factory.hpp:77] Creating layer data
I0415 06:54:23.748136  5960 net.cpp:91] Creating Layer data
I0415 06:54:23.748144  5960 net.cpp:399] data -> data
I0415 06:54:23.748167  5960 net.cpp:399] data -> label
I0415 06:54:23.748232  5960 data_transformer.cpp:25] Loading mean file from: /home/shiv/SegNet/ModelA/mean/mean227alex.binaryproto
I0415 06:54:23.755923  5960 image_data_layer.cpp:38] Opening file /home/shiv/SegNet/img_folderAlexCrop3/train3.txt
I0415 06:54:23.761039  5960 image_data_layer.cpp:48] Shuffling data
I0415 06:54:23.761937  5960 image_data_layer.cpp:53] A total of 15000 images.
I0415 06:54:23.762542  5960 image_data_layer.cpp:80] output data size: 250,3,227,227
I0415 06:54:24.069085  5960 net.cpp:141] Setting up data
I0415 06:54:24.069118  5960 net.cpp:148] Top shape: 250 3 227 227 (38646750)
I0415 06:54:24.069123  5960 net.cpp:148] Top shape: 250 (250)
I0415 06:54:24.069128  5960 net.cpp:156] Memory required for data: 154588000
I0415 06:54:24.069136  5960 layer_factory.hpp:77] Creating layer data_data_0_split
I0415 06:54:24.069149  5960 net.cpp:91] Creating Layer data_data_0_split
I0415 06:54:24.069154  5960 net.cpp:425] data_data_0_split <- data
I0415 06:54:24.069166  5960 net.cpp:399] data_data_0_split -> data_data_0_split_0
I0415 06:54:24.069180  5960 net.cpp:399] data_data_0_split -> data_data_0_split_1
I0415 06:54:24.069185  5960 net.cpp:399] data_data_0_split -> data_data_0_split_2
I0415 06:54:24.069265  5960 net.cpp:141] Setting up data_data_0_split
I0415 06:54:24.069274  5960 net.cpp:148] Top shape: 250 3 227 227 (38646750)
I0415 06:54:24.069278  5960 net.cpp:148] Top shape: 250 3 227 227 (38646750)
I0415 06:54:24.069284  5960 net.cpp:148] Top shape: 250 3 227 227 (38646750)
I0415 06:54:24.069288  5960 net.cpp:156] Memory required for data: 618349000
I0415 06:54:24.069701  5960 layer_factory.hpp:77] Creating layer conv1a
I0415 06:54:24.069720  5960 net.cpp:91] Creating Layer conv1a
I0415 06:54:24.069723  5960 net.cpp:425] conv1a <- data_data_0_split_0
I0415 06:54:24.069730  5960 net.cpp:399] conv1a -> conv1a
I0415 06:54:24.071482  5960 net.cpp:141] Setting up conv1a
I0415 06:54:24.071498  5960 net.cpp:148] Top shape: 250 96 55 55 (72600000)
I0415 06:54:24.071503  5960 net.cpp:156] Memory required for data: 908749000
I0415 06:54:24.071516  5960 layer_factory.hpp:77] Creating layer relu1a
I0415 06:54:24.071529  5960 net.cpp:91] Creating Layer relu1a
I0415 06:54:24.071537  5960 net.cpp:425] relu1a <- conv1a
I0415 06:54:24.071544  5960 net.cpp:386] relu1a -> conv1a (in-place)
I0415 06:54:24.071563  5960 net.cpp:141] Setting up relu1a
I0415 06:54:24.071576  5960 net.cpp:148] Top shape: 250 96 55 55 (72600000)
I0415 06:54:24.071584  5960 net.cpp:156] Memory required for data: 1199149000
I0415 06:54:24.071591  5960 layer_factory.hpp:77] Creating layer norm1a
I0415 06:54:24.071606  5960 net.cpp:91] Creating Layer norm1a
I0415 06:54:24.071612  5960 net.cpp:425] norm1a <- conv1a
I0415 06:54:24.071619  5960 net.cpp:399] norm1a -> norm1a
I0415 06:54:24.117820  5960 net.cpp:141] Setting up norm1a
I0415 06:54:24.117841  5960 net.cpp:148] Top shape: 250 96 55 55 (72600000)
I0415 06:54:24.117846  5960 net.cpp:156] Memory required for data: 1489549000
I0415 06:54:24.117852  5960 layer_factory.hpp:77] Creating layer pool1a
I0415 06:54:24.117861  5960 net.cpp:91] Creating Layer pool1a
I0415 06:54:24.117866  5960 net.cpp:425] pool1a <- norm1a
I0415 06:54:24.117871  5960 net.cpp:399] pool1a -> pool1a
I0415 06:54:24.117914  5960 net.cpp:141] Setting up pool1a
I0415 06:54:24.117923  5960 net.cpp:148] Top shape: 250 96 27 27 (17496000)
I0415 06:54:24.117928  5960 net.cpp:156] Memory required for data: 1559533000
I0415 06:54:24.117933  5960 layer_factory.hpp:77] Creating layer conv2a
I0415 06:54:24.117944  5960 net.cpp:91] Creating Layer conv2a
I0415 06:54:24.117949  5960 net.cpp:425] conv2a <- pool1a
I0415 06:54:24.117955  5960 net.cpp:399] conv2a -> conv2a
I0415 06:54:24.126405  5960 net.cpp:141] Setting up conv2a
I0415 06:54:24.126426  5960 net.cpp:148] Top shape: 250 256 27 27 (46656000)
I0415 06:54:24.126431  5960 net.cpp:156] Memory required for data: 1746157000
I0415 06:54:24.126442  5960 layer_factory.hpp:77] Creating layer relu2a
I0415 06:54:24.126451  5960 net.cpp:91] Creating Layer relu2a
I0415 06:54:24.126456  5960 net.cpp:425] relu2a <- conv2a
I0415 06:54:24.126461  5960 net.cpp:386] relu2a -> conv2a (in-place)
I0415 06:54:24.126468  5960 net.cpp:141] Setting up relu2a
I0415 06:54:24.126473  5960 net.cpp:148] Top shape: 250 256 27 27 (46656000)
I0415 06:54:24.126480  5960 net.cpp:156] Memory required for data: 1932781000
I0415 06:54:24.126484  5960 layer_factory.hpp:77] Creating layer norm2a
I0415 06:54:24.126492  5960 net.cpp:91] Creating Layer norm2a
I0415 06:54:24.126497  5960 net.cpp:425] norm2a <- conv2a
I0415 06:54:24.126502  5960 net.cpp:399] norm2a -> norm2a
I0415 06:54:24.126531  5960 net.cpp:141] Setting up norm2a
I0415 06:54:24.126538  5960 net.cpp:148] Top shape: 250 256 27 27 (46656000)
I0415 06:54:24.126541  5960 net.cpp:156] Memory required for data: 2119405000
I0415 06:54:24.126545  5960 layer_factory.hpp:77] Creating layer pool2a
I0415 06:54:24.126552  5960 net.cpp:91] Creating Layer pool2a
I0415 06:54:24.126556  5960 net.cpp:425] pool2a <- norm2a
I0415 06:54:24.126561  5960 net.cpp:399] pool2a -> pool2a
I0415 06:54:24.126584  5960 net.cpp:141] Setting up pool2a
I0415 06:54:24.126592  5960 net.cpp:148] Top shape: 250 256 13 13 (10816000)
I0415 06:54:24.126596  5960 net.cpp:156] Memory required for data: 2162669000
I0415 06:54:24.126601  5960 layer_factory.hpp:77] Creating layer conv1b
I0415 06:54:24.126610  5960 net.cpp:91] Creating Layer conv1b
I0415 06:54:24.126616  5960 net.cpp:425] conv1b <- data_data_0_split_1
I0415 06:54:24.126632  5960 net.cpp:399] conv1b -> conv1b
I0415 06:54:24.127732  5960 net.cpp:141] Setting up conv1b
I0415 06:54:24.127744  5960 net.cpp:148] Top shape: 250 96 55 55 (72600000)
I0415 06:54:24.127764  5960 net.cpp:156] Memory required for data: 2453069000
I0415 06:54:24.127774  5960 layer_factory.hpp:77] Creating layer relu1b
I0415 06:54:24.127780  5960 net.cpp:91] Creating Layer relu1b
I0415 06:54:24.127785  5960 net.cpp:425] relu1b <- conv1b
I0415 06:54:24.127791  5960 net.cpp:386] relu1b -> conv1b (in-place)
I0415 06:54:24.127799  5960 net.cpp:141] Setting up relu1b
I0415 06:54:24.127802  5960 net.cpp:148] Top shape: 250 96 55 55 (72600000)
I0415 06:54:24.127806  5960 net.cpp:156] Memory required for data: 2743469000
I0415 06:54:24.127810  5960 layer_factory.hpp:77] Creating layer norm1b
I0415 06:54:24.127817  5960 net.cpp:91] Creating Layer norm1b
I0415 06:54:24.127821  5960 net.cpp:425] norm1b <- conv1b
I0415 06:54:24.127826  5960 net.cpp:399] norm1b -> norm1b
I0415 06:54:24.127856  5960 net.cpp:141] Setting up norm1b
I0415 06:54:24.127866  5960 net.cpp:148] Top shape: 250 96 55 55 (72600000)
I0415 06:54:24.127871  5960 net.cpp:156] Memory required for data: 3033869000
I0415 06:54:24.127874  5960 layer_factory.hpp:77] Creating layer pool1b
I0415 06:54:24.127881  5960 net.cpp:91] Creating Layer pool1b
I0415 06:54:24.127885  5960 net.cpp:425] pool1b <- norm1b
I0415 06:54:24.127892  5960 net.cpp:399] pool1b -> pool1b
I0415 06:54:24.127920  5960 net.cpp:141] Setting up pool1b
I0415 06:54:24.127926  5960 net.cpp:148] Top shape: 250 96 27 27 (17496000)
I0415 06:54:24.127930  5960 net.cpp:156] Memory required for data: 3103853000
I0415 06:54:24.127933  5960 layer_factory.hpp:77] Creating layer conv2b
I0415 06:54:24.127944  5960 net.cpp:91] Creating Layer conv2b
I0415 06:54:24.127954  5960 net.cpp:425] conv2b <- pool1b
I0415 06:54:24.127964  5960 net.cpp:399] conv2b -> conv2b
I0415 06:54:24.136185  5960 net.cpp:141] Setting up conv2b
I0415 06:54:24.136203  5960 net.cpp:148] Top shape: 250 256 27 27 (46656000)
I0415 06:54:24.136209  5960 net.cpp:156] Memory required for data: 3290477000
I0415 06:54:24.136219  5960 layer_factory.hpp:77] Creating layer relu2b
I0415 06:54:24.136234  5960 net.cpp:91] Creating Layer relu2b
I0415 06:54:24.136240  5960 net.cpp:425] relu2b <- conv2b
I0415 06:54:24.136245  5960 net.cpp:386] relu2b -> conv2b (in-place)
I0415 06:54:24.136252  5960 net.cpp:141] Setting up relu2b
I0415 06:54:24.136257  5960 net.cpp:148] Top shape: 250 256 27 27 (46656000)
I0415 06:54:24.136261  5960 net.cpp:156] Memory required for data: 3477101000
I0415 06:54:24.136265  5960 layer_factory.hpp:77] Creating layer norm2b
I0415 06:54:24.136276  5960 net.cpp:91] Creating Layer norm2b
I0415 06:54:24.136281  5960 net.cpp:425] norm2b <- conv2b
I0415 06:54:24.136286  5960 net.cpp:399] norm2b -> norm2b
I0415 06:54:24.136317  5960 net.cpp:141] Setting up norm2b
I0415 06:54:24.136325  5960 net.cpp:148] Top shape: 250 256 27 27 (46656000)
I0415 06:54:24.136329  5960 net.cpp:156] Memory required for data: 3663725000
I0415 06:54:24.136333  5960 layer_factory.hpp:77] Creating layer pool2b
I0415 06:54:24.136340  5960 net.cpp:91] Creating Layer pool2b
I0415 06:54:24.136344  5960 net.cpp:425] pool2b <- norm2b
I0415 06:54:24.136350  5960 net.cpp:399] pool2b -> pool2b
I0415 06:54:24.136379  5960 net.cpp:141] Setting up pool2b
I0415 06:54:24.136387  5960 net.cpp:148] Top shape: 250 256 13 13 (10816000)
I0415 06:54:24.136391  5960 net.cpp:156] Memory required for data: 3706989000
I0415 06:54:24.136394  5960 layer_factory.hpp:77] Creating layer conv1_mod
I0415 06:54:24.136405  5960 net.cpp:91] Creating Layer conv1_mod
I0415 06:54:24.136411  5960 net.cpp:425] conv1_mod <- data_data_0_split_2
I0415 06:54:24.136417  5960 net.cpp:399] conv1_mod -> conv1_mod
I0415 06:54:24.137431  5960 net.cpp:141] Setting up conv1_mod
I0415 06:54:24.137442  5960 net.cpp:148] Top shape: 250 96 55 55 (72600000)
I0415 06:54:24.137446  5960 net.cpp:156] Memory required for data: 3997389000
I0415 06:54:24.137455  5960 layer_factory.hpp:77] Creating layer relu1_mod
I0415 06:54:24.137462  5960 net.cpp:91] Creating Layer relu1_mod
I0415 06:54:24.137466  5960 net.cpp:425] relu1_mod <- conv1_mod
I0415 06:54:24.137482  5960 net.cpp:386] relu1_mod -> conv1_mod (in-place)
I0415 06:54:24.137490  5960 net.cpp:141] Setting up relu1_mod
I0415 06:54:24.137495  5960 net.cpp:148] Top shape: 250 96 55 55 (72600000)
I0415 06:54:24.137501  5960 net.cpp:156] Memory required for data: 4287789000
I0415 06:54:24.137504  5960 layer_factory.hpp:77] Creating layer norm1_mod
I0415 06:54:24.137511  5960 net.cpp:91] Creating Layer norm1_mod
I0415 06:54:24.137516  5960 net.cpp:425] norm1_mod <- conv1_mod
I0415 06:54:24.137521  5960 net.cpp:399] norm1_mod -> norm1_mod
I0415 06:54:24.137549  5960 net.cpp:141] Setting up norm1_mod
I0415 06:54:24.137557  5960 net.cpp:148] Top shape: 250 96 55 55 (72600000)
I0415 06:54:24.137559  5960 net.cpp:156] Memory required for data: 4578189000
I0415 06:54:24.137563  5960 layer_factory.hpp:77] Creating layer pool1_mod
I0415 06:54:24.137569  5960 net.cpp:91] Creating Layer pool1_mod
I0415 06:54:24.137573  5960 net.cpp:425] pool1_mod <- norm1_mod
I0415 06:54:24.137579  5960 net.cpp:399] pool1_mod -> pool1_mod
I0415 06:54:24.137605  5960 net.cpp:141] Setting up pool1_mod
I0415 06:54:24.137614  5960 net.cpp:148] Top shape: 250 96 27 27 (17496000)
I0415 06:54:24.137617  5960 net.cpp:156] Memory required for data: 4648173000
I0415 06:54:24.137621  5960 layer_factory.hpp:77] Creating layer conv2_mod
I0415 06:54:24.137635  5960 net.cpp:91] Creating Layer conv2_mod
I0415 06:54:24.137644  5960 net.cpp:425] conv2_mod <- pool1_mod
I0415 06:54:24.137650  5960 net.cpp:399] conv2_mod -> conv2_mod
I0415 06:54:24.139835  5960 net.cpp:141] Setting up conv2_mod
I0415 06:54:24.139847  5960 net.cpp:148] Top shape: 250 96 27 27 (17496000)
I0415 06:54:24.139850  5960 net.cpp:156] Memory required for data: 4718157000
I0415 06:54:24.139856  5960 layer_factory.hpp:77] Creating layer relu2_mod
I0415 06:54:24.139863  5960 net.cpp:91] Creating Layer relu2_mod
I0415 06:54:24.139866  5960 net.cpp:425] relu2_mod <- conv2_mod
I0415 06:54:24.139871  5960 net.cpp:386] relu2_mod -> conv2_mod (in-place)
I0415 06:54:24.139878  5960 net.cpp:141] Setting up relu2_mod
I0415 06:54:24.139881  5960 net.cpp:148] Top shape: 250 96 27 27 (17496000)
I0415 06:54:24.139885  5960 net.cpp:156] Memory required for data: 4788141000
I0415 06:54:24.139889  5960 layer_factory.hpp:77] Creating layer norm2_mod
I0415 06:54:24.139896  5960 net.cpp:91] Creating Layer norm2_mod
I0415 06:54:24.139904  5960 net.cpp:425] norm2_mod <- conv2_mod
I0415 06:54:24.139909  5960 net.cpp:399] norm2_mod -> norm2_mod
I0415 06:54:24.139943  5960 net.cpp:141] Setting up norm2_mod
I0415 06:54:24.139950  5960 net.cpp:148] Top shape: 250 96 27 27 (17496000)
I0415 06:54:24.139952  5960 net.cpp:156] Memory required for data: 4858125000
I0415 06:54:24.139956  5960 layer_factory.hpp:77] Creating layer poolGlobal
I0415 06:54:24.139962  5960 net.cpp:91] Creating Layer poolGlobal
I0415 06:54:24.139966  5960 net.cpp:425] poolGlobal <- norm2_mod
I0415 06:54:24.139971  5960 net.cpp:399] poolGlobal -> poolGlobal
I0415 06:54:24.139986  5960 net.cpp:141] Setting up poolGlobal
I0415 06:54:24.139992  5960 net.cpp:148] Top shape: 250 96 1 1 (24000)
I0415 06:54:24.139996  5960 net.cpp:156] Memory required for data: 4858221000
I0415 06:54:24.139999  5960 layer_factory.hpp:77] Creating layer fc1a
I0415 06:54:24.140008  5960 net.cpp:91] Creating Layer fc1a
I0415 06:54:24.140012  5960 net.cpp:425] fc1a <- poolGlobal
I0415 06:54:24.140018  5960 net.cpp:399] fc1a -> fc1a
I0415 06:54:24.140715  5960 net.cpp:141] Setting up fc1a
I0415 06:54:24.140730  5960 net.cpp:148] Top shape: 250 96 (24000)
I0415 06:54:24.140736  5960 net.cpp:156] Memory required for data: 4858317000
I0415 06:54:24.140743  5960 layer_factory.hpp:77] Creating layer relu1a
I0415 06:54:24.140749  5960 net.cpp:91] Creating Layer relu1a
I0415 06:54:24.140756  5960 net.cpp:425] relu1a <- fc1a
I0415 06:54:24.140764  5960 net.cpp:386] relu1a -> fc1a (in-place)
I0415 06:54:24.140771  5960 net.cpp:141] Setting up relu1a
I0415 06:54:24.140776  5960 net.cpp:148] Top shape: 250 96 (24000)
I0415 06:54:24.140779  5960 net.cpp:156] Memory required for data: 4858413000
I0415 06:54:24.140794  5960 layer_factory.hpp:77] Creating layer fc1b
I0415 06:54:24.140801  5960 net.cpp:91] Creating Layer fc1b
I0415 06:54:24.140806  5960 net.cpp:425] fc1b <- fc1a
I0415 06:54:24.140812  5960 net.cpp:399] fc1b -> fc1b
I0415 06:54:24.141486  5960 net.cpp:141] Setting up fc1b
I0415 06:54:24.141496  5960 net.cpp:148] Top shape: 250 256 (64000)
I0415 06:54:24.141500  5960 net.cpp:156] Memory required for data: 4858669000
I0415 06:54:24.141506  5960 layer_factory.hpp:77] Creating layer relu1b
I0415 06:54:24.141512  5960 net.cpp:91] Creating Layer relu1b
I0415 06:54:24.141516  5960 net.cpp:425] relu1b <- fc1b
I0415 06:54:24.141521  5960 net.cpp:386] relu1b -> fc1b (in-place)
I0415 06:54:24.141527  5960 net.cpp:141] Setting up relu1b
I0415 06:54:24.141531  5960 net.cpp:148] Top shape: 250 256 (64000)
I0415 06:54:24.141535  5960 net.cpp:156] Memory required for data: 4858925000
I0415 06:54:24.141538  5960 layer_factory.hpp:77] Creating layer fc_switchbottom
I0415 06:54:24.141551  5960 net.cpp:91] Creating Layer fc_switchbottom
I0415 06:54:24.141556  5960 net.cpp:425] fc_switchbottom <- fc1b
I0415 06:54:24.141561  5960 net.cpp:399] fc_switchbottom -> fc_switchbottom
I0415 06:54:24.141644  5960 net.cpp:141] Setting up fc_switchbottom
I0415 06:54:24.141654  5960 net.cpp:148] Top shape: 250 2 (500)
I0415 06:54:24.141657  5960 net.cpp:156] Memory required for data: 4858927000
I0415 06:54:24.141666  5960 layer_factory.hpp:77] Creating layer prob
I0415 06:54:24.141676  5960 net.cpp:91] Creating Layer prob
I0415 06:54:24.141681  5960 net.cpp:425] prob <- fc_switchbottom
I0415 06:54:24.141687  5960 net.cpp:399] prob -> prob
I0415 06:54:24.141752  5960 net.cpp:141] Setting up prob
I0415 06:54:24.141763  5960 net.cpp:148] Top shape: 250 2 (500)
I0415 06:54:24.141769  5960 net.cpp:156] Memory required for data: 4858929000
I0415 06:54:24.141806  5960 layer_factory.hpp:77] Creating layer outputLabel
I0415 06:54:24.141856  5960 net.cpp:91] Creating Layer outputLabel
I0415 06:54:24.141865  5960 net.cpp:425] outputLabel <- prob
I0415 06:54:24.141875  5960 net.cpp:399] outputLabel -> outputLabel
I0415 06:54:24.141906  5960 net.cpp:141] Setting up outputLabel
I0415 06:54:24.141916  5960 net.cpp:148] Top shape: 250 1 1 (250)
I0415 06:54:24.141919  5960 net.cpp:156] Memory required for data: 4858930000
I0415 06:54:24.141923  5960 layer_factory.hpp:77] Creating layer switch
I0415 06:54:24.141937  5960 net.cpp:91] Creating Layer switch
I0415 06:54:24.141942  5960 net.cpp:425] switch <- pool2a
I0415 06:54:24.141948  5960 net.cpp:425] switch <- pool2b
I0415 06:54:24.141953  5960 net.cpp:425] switch <- outputLabel
I0415 06:54:24.141962  5960 net.cpp:399] switch -> switch
I0415 06:54:24.141998  5960 net.cpp:141] Setting up switch
I0415 06:54:24.142005  5960 net.cpp:148] Top shape: 250 256 13 13 (10816000)
I0415 06:54:24.142009  5960 net.cpp:156] Memory required for data: 4902194000
I0415 06:54:24.142014  5960 layer_factory.hpp:77] Creating layer conv3
I0415 06:54:24.142021  5960 net.cpp:91] Creating Layer conv3
I0415 06:54:24.142027  5960 net.cpp:425] conv3 <- switch
I0415 06:54:24.142035  5960 net.cpp:399] conv3 -> conv3
I0415 06:54:24.165055  5960 net.cpp:141] Setting up conv3
I0415 06:54:24.165077  5960 net.cpp:148] Top shape: 250 384 13 13 (16224000)
I0415 06:54:24.165082  5960 net.cpp:156] Memory required for data: 4967090000
I0415 06:54:24.165091  5960 layer_factory.hpp:77] Creating layer relu3
I0415 06:54:24.165101  5960 net.cpp:91] Creating Layer relu3
I0415 06:54:24.165108  5960 net.cpp:425] relu3 <- conv3
I0415 06:54:24.165114  5960 net.cpp:386] relu3 -> conv3 (in-place)
I0415 06:54:24.165123  5960 net.cpp:141] Setting up relu3
I0415 06:54:24.165128  5960 net.cpp:148] Top shape: 250 384 13 13 (16224000)
I0415 06:54:24.165132  5960 net.cpp:156] Memory required for data: 5031986000
I0415 06:54:24.165137  5960 layer_factory.hpp:77] Creating layer conv4
I0415 06:54:24.165148  5960 net.cpp:91] Creating Layer conv4
I0415 06:54:24.165153  5960 net.cpp:425] conv4 <- conv3
I0415 06:54:24.165158  5960 net.cpp:399] conv4 -> conv4
I0415 06:54:24.182492  5960 net.cpp:141] Setting up conv4
I0415 06:54:24.182512  5960 net.cpp:148] Top shape: 250 384 13 13 (16224000)
I0415 06:54:24.182517  5960 net.cpp:156] Memory required for data: 5096882000
I0415 06:54:24.182525  5960 layer_factory.hpp:77] Creating layer relu4
I0415 06:54:24.182534  5960 net.cpp:91] Creating Layer relu4
I0415 06:54:24.182541  5960 net.cpp:425] relu4 <- conv4
I0415 06:54:24.182548  5960 net.cpp:386] relu4 -> conv4 (in-place)
I0415 06:54:24.182555  5960 net.cpp:141] Setting up relu4
I0415 06:54:24.182560  5960 net.cpp:148] Top shape: 250 384 13 13 (16224000)
I0415 06:54:24.182564  5960 net.cpp:156] Memory required for data: 5161778000
I0415 06:54:24.182567  5960 layer_factory.hpp:77] Creating layer conv5
I0415 06:54:24.182584  5960 net.cpp:91] Creating Layer conv5
I0415 06:54:24.182591  5960 net.cpp:425] conv5 <- conv4
I0415 06:54:24.182597  5960 net.cpp:399] conv5 -> conv5
I0415 06:54:24.194046  5960 net.cpp:141] Setting up conv5
I0415 06:54:24.194067  5960 net.cpp:148] Top shape: 250 256 13 13 (10816000)
I0415 06:54:24.194072  5960 net.cpp:156] Memory required for data: 5205042000
I0415 06:54:24.194079  5960 layer_factory.hpp:77] Creating layer relu5
I0415 06:54:24.194087  5960 net.cpp:91] Creating Layer relu5
I0415 06:54:24.194093  5960 net.cpp:425] relu5 <- conv5
I0415 06:54:24.194098  5960 net.cpp:386] relu5 -> conv5 (in-place)
I0415 06:54:24.194108  5960 net.cpp:141] Setting up relu5
I0415 06:54:24.194113  5960 net.cpp:148] Top shape: 250 256 13 13 (10816000)
I0415 06:54:24.194118  5960 net.cpp:156] Memory required for data: 5248306000
I0415 06:54:24.194121  5960 layer_factory.hpp:77] Creating layer pool5
I0415 06:54:24.194128  5960 net.cpp:91] Creating Layer pool5
I0415 06:54:24.194133  5960 net.cpp:425] pool5 <- conv5
I0415 06:54:24.194141  5960 net.cpp:399] pool5 -> pool5
I0415 06:54:24.194180  5960 net.cpp:141] Setting up pool5
I0415 06:54:24.194190  5960 net.cpp:148] Top shape: 250 256 6 6 (2304000)
I0415 06:54:24.194193  5960 net.cpp:156] Memory required for data: 5257522000
I0415 06:54:24.194197  5960 layer_factory.hpp:77] Creating layer fc6
I0415 06:54:24.194207  5960 net.cpp:91] Creating Layer fc6
I0415 06:54:24.194211  5960 net.cpp:425] fc6 <- pool5
I0415 06:54:24.194218  5960 net.cpp:399] fc6 -> fc6
I0415 06:54:25.136018  5960 net.cpp:141] Setting up fc6
I0415 06:54:25.136054  5960 net.cpp:148] Top shape: 250 4096 (1024000)
I0415 06:54:25.136059  5960 net.cpp:156] Memory required for data: 5261618000
I0415 06:54:25.136070  5960 layer_factory.hpp:77] Creating layer relu6
I0415 06:54:25.136078  5960 net.cpp:91] Creating Layer relu6
I0415 06:54:25.136083  5960 net.cpp:425] relu6 <- fc6
I0415 06:54:25.136090  5960 net.cpp:386] relu6 -> fc6 (in-place)
I0415 06:54:25.136099  5960 net.cpp:141] Setting up relu6
I0415 06:54:25.136104  5960 net.cpp:148] Top shape: 250 4096 (1024000)
I0415 06:54:25.136108  5960 net.cpp:156] Memory required for data: 5265714000
I0415 06:54:25.136112  5960 layer_factory.hpp:77] Creating layer drop6
I0415 06:54:25.136118  5960 net.cpp:91] Creating Layer drop6
I0415 06:54:25.136122  5960 net.cpp:425] drop6 <- fc6
I0415 06:54:25.136127  5960 net.cpp:386] drop6 -> fc6 (in-place)
I0415 06:54:25.136150  5960 net.cpp:141] Setting up drop6
I0415 06:54:25.136158  5960 net.cpp:148] Top shape: 250 4096 (1024000)
I0415 06:54:25.136162  5960 net.cpp:156] Memory required for data: 5269810000
I0415 06:54:25.136168  5960 layer_factory.hpp:77] Creating layer fc7
I0415 06:54:25.136174  5960 net.cpp:91] Creating Layer fc7
I0415 06:54:25.136183  5960 net.cpp:425] fc7 <- fc6
I0415 06:54:25.136189  5960 net.cpp:399] fc7 -> fc7
I0415 06:54:25.540141  5960 net.cpp:141] Setting up fc7
I0415 06:54:25.540168  5960 net.cpp:148] Top shape: 250 4096 (1024000)
I0415 06:54:25.540172  5960 net.cpp:156] Memory required for data: 5273906000
I0415 06:54:25.540180  5960 layer_factory.hpp:77] Creating layer relu7
I0415 06:54:25.540189  5960 net.cpp:91] Creating Layer relu7
I0415 06:54:25.540194  5960 net.cpp:425] relu7 <- fc7
I0415 06:54:25.540201  5960 net.cpp:386] relu7 -> fc7 (in-place)
I0415 06:54:25.540241  5960 net.cpp:141] Setting up relu7
I0415 06:54:25.540246  5960 net.cpp:148] Top shape: 250 4096 (1024000)
I0415 06:54:25.540249  5960 net.cpp:156] Memory required for data: 5278002000
I0415 06:54:25.540253  5960 layer_factory.hpp:77] Creating layer drop7
I0415 06:54:25.540261  5960 net.cpp:91] Creating Layer drop7
I0415 06:54:25.540264  5960 net.cpp:425] drop7 <- fc7
I0415 06:54:25.540271  5960 net.cpp:386] drop7 -> fc7 (in-place)
I0415 06:54:25.540289  5960 net.cpp:141] Setting up drop7
I0415 06:54:25.540295  5960 net.cpp:148] Top shape: 250 4096 (1024000)
I0415 06:54:25.540299  5960 net.cpp:156] Memory required for data: 5282098000
I0415 06:54:25.540302  5960 layer_factory.hpp:77] Creating layer fc8_modA
I0415 06:54:25.540312  5960 net.cpp:91] Creating Layer fc8_modA
I0415 06:54:25.540319  5960 net.cpp:425] fc8_modA <- fc7
I0415 06:54:25.540325  5960 net.cpp:399] fc8_modA -> fc8_modA
I0415 06:54:25.545614  5960 net.cpp:141] Setting up fc8_modA
I0415 06:54:25.545629  5960 net.cpp:148] Top shape: 250 50 (12500)
I0415 06:54:25.545632  5960 net.cpp:156] Memory required for data: 5282148000
I0415 06:54:25.545639  5960 layer_factory.hpp:77] Creating layer loss
I0415 06:54:25.545645  5960 net.cpp:91] Creating Layer loss
I0415 06:54:25.545650  5960 net.cpp:425] loss <- fc8_modA
I0415 06:54:25.545655  5960 net.cpp:425] loss <- label
I0415 06:54:25.545661  5960 net.cpp:399] loss -> loss
I0415 06:54:25.545670  5960 layer_factory.hpp:77] Creating layer loss
…
I0415 06:54:25.546916  5960 net.cpp:313] The NetState phase (1) differed from the phase (0) specified by a rule in layer data
I0415 06:54:25.547137  5960 net.cpp:49] Initializing net from parameters: 
name: "AlexNet"
state {
  phase: TEST
}
layer {
  name: "data"
  type: "ImageData"
  top: "data"
  top: "label"
  include {
    phase: TEST
  }
  transform_param {
    mirror: false
    mean_file: "/home/shiv/SegNet/ModelA/mean/mean227alex.binaryproto"
  }
  image_data_param {
    source: "/home/shiv/SegNet/img_folderAlexCrop3/val3.txt"
    batch_size: 100
    shuffle: false
  }
}
layer {
  name: "conv1a"
  type: "Convolution"
  bottom: "data"
  top: "conv1a"
  param {
    lr_mult: 1
    decay_mult: 1
  }
  param {
    lr_mult: 2
    decay_mult: 0
  }
  convolution_param {
    num_output: 96
    kernel_size: 11
    stride: 4
    weight_filler {
      type: "gaussian"
      std: 0.01
    }
    bias_filler {
      type: "constant"
      value: 0
    }
  }
}
layer {
  name: "relu1a"
  type: "ReLU"
  bottom: "conv1a"
  top: "conv1a"
}
layer {
  name: "norm1a"
  type: "LRN"
  bottom: "conv1a"
  top: "norm1a"
  lrn_param {
    local_size: 5
    alpha: 0.0001
    beta: 0.75
  }
}
layer {
  name: "pool1a"
  type: "Pooling"
  bottom: "norm1a"
  top: "pool1a"
  pooling_param {
    pool: MAX
    kernel_size: 3
    stride: 2
  }
}
layer {
  name: "conv2a"
  type: "Convolution"
  bottom: "pool1a"
  top: "conv2a"
  param {
    lr_mult: 1
    decay_mult: 1
  }
  param {
    lr_mult: 2
    decay_mult: 0
  }
  convolution_param {
    num_output: 256
    pad: 2
    kernel_size: 5
    group: 2
    weight_filler {
      type: "gaussian"
      std: 0.01
    }
    bias_filler {
      type: "constant"
      value: 1
    }
  }
}
layer {
  name: "relu2a"
  type: "ReLU"
  bottom: "conv2a"
  top: "conv2a"
}
layer {
  name: "norm2a"
  type: "LRN"
  bottom: "conv2a"
  top: "norm2a"
  lrn_param {
    local_size: 5
    alpha: 0.0001
    beta: 0.75
  }
}
layer {
  name: "pool2a"
  type: "Pooling"
  bottom: "norm2a"
  top: "pool2a"
  pooling_param {
    pool: MAX
    kernel_size: 3
    stride: 2
  }
}
layer {
  name: "conv1b"
  type: "Convolution"
  bottom: "data"
  top: "conv1b"
  param {
    lr_mult: 4
    decay_mult: 1
  }
  param {
    lr_mult: 8
    decay_mult: 0
  }
  convolution_param {
    num_output: 96
    kernel_size: 11
    stride: 4
    weight_filler {
      type: "gaussian"
      std: 0.01
    }
    bias_filler {
      type: "constant"
      value: 0
    }
  }
}
layer {
  name: "relu1b"
  type: "ReLU"
  bottom: "conv1b"
  top: "conv1b"
}
layer {
  name: "norm1b"
  type: "LRN"
  bottom: "conv1b"
  top: "norm1b"
  lrn_param {
    local_size: 5
    alpha: 0.0001
    beta: 0.75
  }
}
layer {
  name: "pool1b"
  type: "Pooling"
  bottom: "norm1b"
  top: "pool1b"
  pooling_param {
    pool: MAX
    kernel_size: 3
    stride: 2
  }
}
layer {
  name: "conv2b"
  type: "Convolution"
  bottom: "pool1b"
  top: "conv2b"
  param {
    lr_mult: 4
    decay_mult: 1
  }
  param {
    lr_mult: 8
    decay_mult: 0
  }
  convolution_param {
    num_output: 256
    pad: 2
    kernel_size: 5
    group: 2
    weight_filler {
      type: "gaussian"
      std: 0.01
    }
    bias_filler {
      type: "constant"
      value: 1
    }
  }
}
layer {
  name: "relu2b"
  type: "ReLU"
  bottom: "conv2b"
  top: "conv2b"
}
layer {
  name: "norm2b"
  type: "LRN"
  bottom: "conv2b"
  top: "norm2b"
  lrn_param {
    local_size: 5
    alpha: 0.0001
    beta: 0.75
  }
}
layer {
  name: "pool2b"
  type: "Pooling"
  bottom: "norm2b"
  top: "pool2b"
  pooling_param {
    pool: MAX
    kernel_size: 3
    stride: 2
  }
}
layer {
  name: "conv1_mod"
  type: "Convolution"
  bottom: "data"
  top: "conv1_mod"
  param {
    lr_mult: 0
    decay_mult: 0
  }
  param {
    lr_mult: 0
    decay_mult: 0
  }
  convolution_param {
    num_output: 96
    kernel_size: 11
    stride: 4
    weight_filler {
      type: "gaussian"
      std: 0.01
    }
    bias_filler {
      type: "constant"
      value: 0
    }
  }
}
layer {
  name: "relu1_mod"
  type: "ReLU"
  bottom: "conv1_mod"
  top: "conv1_mod"
}
layer {
  name: "norm1_mod"
  type: "LRN"
  bottom: "conv1_mod"
  top: "norm1_mod"
  lrn_param {
    local_size: 5
    alpha: 0.0001
    beta: 0.75
  }
}
layer {
  name: "pool1_mod"
  type: "Pooling"
  bottom: "norm1_mod"
  top: "pool1_mod"
  pooling_param {
    pool: MAX
    kernel_size: 3
    stride: 2
  }
}
layer {
  name: "conv2_mod"
  type: "Convolution"
  bottom: "pool1_mod"
  top: "conv2_mod"
  param {
    lr_mult: 0
    decay_mult: 0
  }
  param {
    lr_mult: 0
    decay_mult: 0
  }
  convolution_param {
    num_output: 96
    pad: 1
    kernel_size: 3
    weight_filler {
      type: "gaussian"
      std: 0.01
    }
    bias_filler {
      type: "constant"
      value: 0.5
    }
  }
}
layer {
  name: "relu2_mod"
  type: "ReLU"
  bottom: "conv2_mod"
  top: "conv2_mod"
}
layer {
  name: "norm2_mod"
  type: "LRN"
  bottom: "conv2_mod"
  top: "norm2_mod"
  lrn_param {
    local_size: 3
    alpha: 0.0001
    beta: 0.75
  }
}
layer {
  name: "poolGlobal"
  type: "Pooling"
  bottom: "norm2_mod"
  top: "poolGlobal"
  pooling_param {
    pool: AVE
    global_pooling: true
  }
}
layer {
  name: "fc1a"
  type: "InnerProduct"
  bottom: "poolGlobal"
  top: "fc1a"
  param {
    lr_mult: 0
    decay_mult: 0
  }
  param {
    lr_mult: 0
    decay_mult: 0
  }
  inner_product_param {
    num_output: 96
    weight_filler {
      type: "gaussian"
      std: 0.005
    }
    bias_filler {
      type: "constant"
      value: 0.5
    }
  }
}
layer {
  name: "relu1a"
  type: "ReLU"
  bottom: "fc1a"
  top: "fc1a"
}
layer {
  name: "fc1b"
  type: "InnerProduct"
  bottom: "fc1a"
  top: "fc1b"
  param {
    lr_mult: 0
    decay_mult: 0
  }
  param {
    lr_mult: 0
    decay_mult: 0
  }
  inner_product_param {
    num_output: 256
    weight_filler {
      type: "gaussian"
      std: 0.005
    }
    bias_filler {
      type: "constant"
      value: 0.5
    }
  }
}
layer {
  name: "relu1b"
  type: "ReLU"
  bottom: "fc1b"
  top: "fc1b"
}
layer {
  name: "fc_switchbottom"
  type: "InnerProduct"
  bottom: "fc1b"
  top: "fc_switchbottom"
  param {
    lr_mult: 0
    decay_mult: 0
  }
  param {
    lr_mult: 0
    decay_mult: 0
  }
  inner_product_param {
    num_output: 2
    weight_filler {
      type: "gaussian"
      std: 0.005
    }
    bias_filler {
      type: "constant"
      value: 0.5
    }
  }
}
layer {
  name: "prob"
  type: "Softmax"
  bottom: "fc_switchbottom"
  top: "prob"
}
layer {
  name: "outputLabel"
  type: "ArgMax"
  bottom: "prob"
  top: "outputLabel"
}
layer {
  name: "switch"
  type: "Switch"
  bottom: "pool2a"
  bottom: "pool2b"
  bottom: "outputLabel"
  top: "switch"
}
layer {
  name: "conv3"
  type: "Convolution"
  bottom: "switch"
  top: "conv3"
  param {
    lr_mult: 4
    decay_mult: 1
  }
  param {
    lr_mult: 8
    decay_mult: 0
  }
  convolution_param {
    num_output: 384
    pad: 1
    kernel_size: 3
    weight_filler {
      type: "gaussian"
      std: 0.01
    }
    bias_filler {
      type: "constant"
      value: 0
    }
  }
}
layer {
  name: "relu3"
  type: "ReLU"
  bottom: "conv3"
  top: "conv3"
}
layer {
  name: "conv4"
  type: "Convolution"
  bottom: "conv3"
  top: "conv4"
  param {
    lr_mult: 4
    decay_mult: 1
  }
  param {
    lr_mult: 8
    decay_mult: 0
  }
  convolution_param {
    num_output: 384
    pad: 1
    kernel_size: 3
    group: 2
    weight_filler {
      type: "gaussian"
      std: 0.01
    }
    bias_filler {
      type: "constant"
      value: 1
    }
  }
}
layer {
  name: "relu4"
  type: "ReLU"
  bottom: "conv4"
  top: "conv4"
}
layer {
  name: "conv5"
  type: "Convolution"
  bottom: "conv4"
  top: "conv5"
  param {
    lr_mult: 4
    decay_mult: 1
  }
  param {
    lr_mult: 8
    decay_mult: 0
  }
  convolution_param {
    num_output: 256
    pad: 1
    kernel_size: 3
    group: 2
    weight_filler {
      type: "gaussian"
      std: 0.01
    }
    bias_filler {
      type: "constant"
      value: 1
    }
  }
}
layer {
  name: "relu5"
  type: "ReLU"
  bottom: "conv5"
  top: "conv5"
}
layer {
  name: "pool5"
  type: "Pooling"
  bottom: "conv5"
  top: "pool5"
  pooling_param {
    pool: MAX
    kernel_size: 3
    stride: 2
  }
}
layer {
  name: "fc6"
  type: "InnerProduct"
  bottom: "pool5"
  top: "fc6"
  param {
    lr_mult: 4
    decay_mult: 1
  }
  param {
    lr_mult: 8
    decay_mult: 0
  }
  inner_product_param {
    num_output: 4096
    weight_filler {
      type: "gaussian"
      std: 0.005
    }
    bias_filler {
      type: "constant"
      value: 1
    }
  }
}
layer {
  name: "relu6"
  type: "ReLU"
  bottom: "fc6"
  top: "fc6"
}
layer {
  name: "drop6"
  type: "Dropout"
  bottom: "fc6"
  top: "fc6"
  dropout_param {
    dropout_ratio: 0.5
  }
}
layer {
  name: "fc7"
  type: "InnerProduct"
  bottom: "fc6"
  top: "fc7"
  param {
    lr_mult: 4
    decay_mult: 1
  }
  param {
    lr_mult: 8
    decay_mult: 0
  }
  inner_product_param {
    num_output: 4096
    weight_filler {
      type: "gaussian"
      std: 0.005
    }
    bias_filler {
      type: "constant"
      value: 1
    }
  }
}
layer {
  name: "relu7"
  type: "ReLU"
  bottom: "fc7"
  top: "fc7"
}
layer {
  name: "drop7"
  type: "Dropout"
  bottom: "fc7"
  top: "fc7"
  dropout_param {
    dropout_ratio: 0.5
  }
}
layer {
  name: "fc8_modA"
  type: "InnerProduct"
  bottom: "fc7"
  top: "fc8_modA"
  param {
    lr_mult: 10
    decay_mult: 1
  }
  param {
    lr_mult: 20
    decay_mult: 0
  }
  inner_product_param {
    num_output: 50
    weight_filler {
      type: "gaussian"
      std: 0.01
    }
    bias_filler {
      type: "constant"
      value: 0
    }
  }
}
layer {
  name: "accuracy"
  type: "Accuracy"
  bottom: "fc8_modA"
  bottom: "label"
  top: "accuracy"
  include {
    phase: TEST
  }
}
layer {
  name: "loss"
  type: "SoftmaxWithLoss"
  bottom: "fc8_modA"
  bottom: "label"
  top: "loss"
}
I0415 06:54:25.547286  5960 layer_factory.hpp:77] Creating layer data
I0415 06:54:25.547298  5960 net.cpp:91] Creating Layer data
I0415 06:54:25.547303  5960 net.cpp:399] data -> data
I0415 06:54:25.547312  5960 net.cpp:399] data -> label
I0415 06:54:25.547320  5960 data_transformer.cpp:25] Loading mean file from: /home/shiv/SegNet/ModelA/mean/mean227alex.binaryproto
I0415 06:54:25.548930  5960 image_data_layer.cpp:38] Opening file /home/shiv/SegNet/img_folderAlexCrop3/val3.txt
I0415 06:54:25.551030  5960 image_data_layer.cpp:53] A total of 6875 images.
I0415 06:54:25.551568  5960 image_data_layer.cpp:80] output data size: 100,3,227,227
I0415 06:54:25.665776  5960 net.cpp:141] Setting up data
I0415 06:54:25.665807  5960 net.cpp:148] Top shape: 100 3 227 227 (15458700)
I0415 06:54:25.665817  5960 net.cpp:148] Top shape: 100 (100)
I0415 06:54:25.665819  5960 net.cpp:156] Memory required for data: 61835200
I0415 06:54:25.665827  5960 layer_factory.hpp:77] Creating layer data_data_0_split
I0415 06:54:25.665838  5960 net.cpp:91] Creating Layer data_data_0_split
I0415 06:54:25.665844  5960 net.cpp:425] data_data_0_split <- data
I0415 06:54:25.665850  5960 net.cpp:399] data_data_0_split -> data_data_0_split_0
I0415 06:54:25.665859  5960 net.cpp:399] data_data_0_split -> data_data_0_split_1
I0415 06:54:25.665865  5960 net.cpp:399] data_data_0_split -> data_data_0_split_2
I0415 06:54:25.665940  5960 net.cpp:141] Setting up data_data_0_split
I0415 06:54:25.665949  5960 net.cpp:148] Top shape: 100 3 227 227 (15458700)
I0415 06:54:25.665954  5960 net.cpp:148] Top shape: 100 3 227 227 (15458700)
I0415 06:54:25.665961  5960 net.cpp:148] Top shape: 100 3 227 227 (15458700)
I0415 06:54:25.665963  5960 net.cpp:156] Memory required for data: 247339600
I0415 06:54:25.665967  5960 layer_factory.hpp:77] Creating layer label_data_1_split
I0415 06:54:25.665973  5960 net.cpp:91] Creating Layer label_data_1_split
I0415 06:54:25.665977  5960 net.cpp:425] label_data_1_split <- label
I0415 06:54:25.665982  5960 net.cpp:399] label_data_1_split -> label_data_1_split_0
I0415 06:54:25.665988  5960 net.cpp:399] label_data_1_split -> label_data_1_split_1
I0415 06:54:25.666057  5960 net.cpp:141] Setting up label_data_1_split
I0415 06:54:25.666066  5960 net.cpp:148] Top shape: 100 (100)
I0415 06:54:25.666071  5960 net.cpp:148] Top shape: 100 (100)
I0415 06:54:25.666075  5960 net.cpp:156] Memory required for data: 247340400
I0415 06:54:25.666079  5960 layer_factory.hpp:77] Creating layer conv1a
I0415 06:54:25.666090  5960 net.cpp:91] Creating Layer conv1a
I0415 06:54:25.666095  5960 net.cpp:425] conv1a <- data_data_0_split_0
I0415 06:54:25.666100  5960 net.cpp:399] conv1a -> conv1a
I0415 06:54:25.667165  5960 net.cpp:141] Setting up conv1a
I0415 06:54:25.667176  5960 net.cpp:148] Top shape: 100 96 55 55 (29040000)
I0415 06:54:25.667181  5960 net.cpp:156] Memory required for data: 363500400
I0415 06:54:25.667191  5960 layer_factory.hpp:77] Creating layer relu1a
I0415 06:54:25.667197  5960 net.cpp:91] Creating Layer relu1a
I0415 06:54:25.667202  5960 net.cpp:425] relu1a <- conv1a
I0415 06:54:25.667207  5960 net.cpp:386] relu1a -> conv1a (in-place)
I0415 06:54:25.667214  5960 net.cpp:141] Setting up relu1a
I0415 06:54:25.667218  5960 net.cpp:148] Top shape: 100 96 55 55 (29040000)
I0415 06:54:25.667222  5960 net.cpp:156] Memory required for data: 479660400
I0415 06:54:25.667225  5960 layer_factory.hpp:77] Creating layer norm1a
I0415 06:54:25.667232  5960 net.cpp:91] Creating Layer norm1a
I0415 06:54:25.667237  5960 net.cpp:425] norm1a <- conv1a
I0415 06:54:25.667242  5960 net.cpp:399] norm1a -> norm1a
I0415 06:54:25.667269  5960 net.cpp:141] Setting up norm1a
I0415 06:54:25.667278  5960 net.cpp:148] Top shape: 100 96 55 55 (29040000)
I0415 06:54:25.667281  5960 net.cpp:156] Memory required for data: 595820400
I0415 06:54:25.667286  5960 layer_factory.hpp:77] Creating layer pool1a
I0415 06:54:25.667292  5960 net.cpp:91] Creating Layer pool1a
I0415 06:54:25.667296  5960 net.cpp:425] pool1a <- norm1a
I0415 06:54:25.667302  5960 net.cpp:399] pool1a -> pool1a
I0415 06:54:25.667326  5960 net.cpp:141] Setting up pool1a
I0415 06:54:25.667332  5960 net.cpp:148] Top shape: 100 96 27 27 (6998400)
I0415 06:54:25.667335  5960 net.cpp:156] Memory required for data: 623814000
I0415 06:54:25.667340  5960 layer_factory.hpp:77] Creating layer conv2a
I0415 06:54:25.667347  5960 net.cpp:91] Creating Layer conv2a
I0415 06:54:25.667351  5960 net.cpp:425] conv2a <- pool1a
I0415 06:54:25.667356  5960 net.cpp:399] conv2a -> conv2a
I0415 06:54:25.687872  5960 net.cpp:141] Setting up conv2a
I0415 06:54:25.687891  5960 net.cpp:148] Top shape: 100 256 27 27 (18662400)
I0415 06:54:25.687913  5960 net.cpp:156] Memory required for data: 698463600
I0415 06:54:25.687924  5960 layer_factory.hpp:77] Creating layer relu2a
I0415 06:54:25.687932  5960 net.cpp:91] Creating Layer relu2a
I0415 06:54:25.687937  5960 net.cpp:425] relu2a <- conv2a
I0415 06:54:25.687942  5960 net.cpp:386] relu2a -> conv2a (in-place)
I0415 06:54:25.687950  5960 net.cpp:141] Setting up relu2a
I0415 06:54:25.687955  5960 net.cpp:148] Top shape: 100 256 27 27 (18662400)
I0415 06:54:25.687959  5960 net.cpp:156] Memory required for data: 773113200
I0415 06:54:25.687963  5960 layer_factory.hpp:77] Creating layer norm2a
I0415 06:54:25.687970  5960 net.cpp:91] Creating Layer norm2a
I0415 06:54:25.687974  5960 net.cpp:425] norm2a <- conv2a
I0415 06:54:25.687980  5960 net.cpp:399] norm2a -> norm2a
I0415 06:54:25.688017  5960 net.cpp:141] Setting up norm2a
I0415 06:54:25.688026  5960 net.cpp:148] Top shape: 100 256 27 27 (18662400)
I0415 06:54:25.688030  5960 net.cpp:156] Memory required for data: 847762800
I0415 06:54:25.688033  5960 layer_factory.hpp:77] Creating layer pool2a
I0415 06:54:25.688040  5960 net.cpp:91] Creating Layer pool2a
I0415 06:54:25.688043  5960 net.cpp:425] pool2a <- norm2a
I0415 06:54:25.688048  5960 net.cpp:399] pool2a -> pool2a
I0415 06:54:25.688071  5960 net.cpp:141] Setting up pool2a
I0415 06:54:25.688078  5960 net.cpp:148] Top shape: 100 256 13 13 (4326400)
I0415 06:54:25.688082  5960 net.cpp:156] Memory required for data: 865068400
I0415 06:54:25.688086  5960 layer_factory.hpp:77] Creating layer conv1b
I0415 06:54:25.688094  5960 net.cpp:91] Creating Layer conv1b
I0415 06:54:25.688100  5960 net.cpp:425] conv1b <- data_data_0_split_1
I0415 06:54:25.688107  5960 net.cpp:399] conv1b -> conv1b
I0415 06:54:25.689122  5960 net.cpp:141] Setting up conv1b
I0415 06:54:25.689131  5960 net.cpp:148] Top shape: 100 96 55 55 (29040000)
I0415 06:54:25.689146  5960 net.cpp:156] Memory required for data: 981228400
I0415 06:54:25.689154  5960 layer_factory.hpp:77] Creating layer relu1b
I0415 06:54:25.689160  5960 net.cpp:91] Creating Layer relu1b
I0415 06:54:25.689164  5960 net.cpp:425] relu1b <- conv1b
I0415 06:54:25.689172  5960 net.cpp:386] relu1b -> conv1b (in-place)
I0415 06:54:25.689177  5960 net.cpp:141] Setting up relu1b
I0415 06:54:25.689182  5960 net.cpp:148] Top shape: 100 96 55 55 (29040000)
I0415 06:54:25.689185  5960 net.cpp:156] Memory required for data: 1097388400
I0415 06:54:25.689189  5960 layer_factory.hpp:77] Creating layer norm1b
I0415 06:54:25.689194  5960 net.cpp:91] Creating Layer norm1b
I0415 06:54:25.689198  5960 net.cpp:425] norm1b <- conv1b
I0415 06:54:25.689203  5960 net.cpp:399] norm1b -> norm1b
I0415 06:54:25.689229  5960 net.cpp:141] Setting up norm1b
I0415 06:54:25.689234  5960 net.cpp:148] Top shape: 100 96 55 55 (29040000)
I0415 06:54:25.689239  5960 net.cpp:156] Memory required for data: 1213548400
I0415 06:54:25.689241  5960 layer_factory.hpp:77] Creating layer pool1b
I0415 06:54:25.689249  5960 net.cpp:91] Creating Layer pool1b
I0415 06:54:25.689252  5960 net.cpp:425] pool1b <- norm1b
I0415 06:54:25.689256  5960 net.cpp:399] pool1b -> pool1b
I0415 06:54:25.689280  5960 net.cpp:141] Setting up pool1b
I0415 06:54:25.689287  5960 net.cpp:148] Top shape: 100 96 27 27 (6998400)
I0415 06:54:25.689291  5960 net.cpp:156] Memory required for data: 1241542000
I0415 06:54:25.689294  5960 layer_factory.hpp:77] Creating layer conv2b
I0415 06:54:25.689304  5960 net.cpp:91] Creating Layer conv2b
I0415 06:54:25.689308  5960 net.cpp:425] conv2b <- pool1b
I0415 06:54:25.689314  5960 net.cpp:399] conv2b -> conv2b
I0415 06:54:25.697099  5960 net.cpp:141] Setting up conv2b
I0415 06:54:25.697114  5960 net.cpp:148] Top shape: 100 256 27 27 (18662400)
I0415 06:54:25.697118  5960 net.cpp:156] Memory required for data: 1316191600
I0415 06:54:25.697124  5960 layer_factory.hpp:77] Creating layer relu2b
I0415 06:54:25.697132  5960 net.cpp:91] Creating Layer relu2b
I0415 06:54:25.697137  5960 net.cpp:425] relu2b <- conv2b
I0415 06:54:25.697142  5960 net.cpp:386] relu2b -> conv2b (in-place)
I0415 06:54:25.697160  5960 net.cpp:141] Setting up relu2b
I0415 06:54:25.697165  5960 net.cpp:148] Top shape: 100 256 27 27 (18662400)
I0415 06:54:25.697170  5960 net.cpp:156] Memory required for data: 1390841200
I0415 06:54:25.697172  5960 layer_factory.hpp:77] Creating layer norm2b
I0415 06:54:25.697180  5960 net.cpp:91] Creating Layer norm2b
I0415 06:54:25.697183  5960 net.cpp:425] norm2b <- conv2b
I0415 06:54:25.697188  5960 net.cpp:399] norm2b -> norm2b
I0415 06:54:25.697218  5960 net.cpp:141] Setting up norm2b
I0415 06:54:25.697227  5960 net.cpp:148] Top shape: 100 256 27 27 (18662400)
I0415 06:54:25.697229  5960 net.cpp:156] Memory required for data: 1465490800
I0415 06:54:25.697234  5960 layer_factory.hpp:77] Creating layer pool2b
I0415 06:54:25.697239  5960 net.cpp:91] Creating Layer pool2b
I0415 06:54:25.697243  5960 net.cpp:425] pool2b <- norm2b
I0415 06:54:25.697249  5960 net.cpp:399] pool2b -> pool2b
I0415 06:54:25.697274  5960 net.cpp:141] Setting up pool2b
I0415 06:54:25.697281  5960 net.cpp:148] Top shape: 100 256 13 13 (4326400)
I0415 06:54:25.697285  5960 net.cpp:156] Memory required for data: 1482796400
I0415 06:54:25.697288  5960 layer_factory.hpp:77] Creating layer conv1_mod
I0415 06:54:25.697298  5960 net.cpp:91] Creating Layer conv1_mod
I0415 06:54:25.697305  5960 net.cpp:425] conv1_mod <- data_data_0_split_2
I0415 06:54:25.697311  5960 net.cpp:399] conv1_mod -> conv1_mod
I0415 06:54:25.698369  5960 net.cpp:141] Setting up conv1_mod
I0415 06:54:25.698379  5960 net.cpp:148] Top shape: 100 96 55 55 (29040000)
I0415 06:54:25.698382  5960 net.cpp:156] Memory required for data: 1598956400
I0415 06:54:25.698391  5960 layer_factory.hpp:77] Creating layer relu1_mod
I0415 06:54:25.698397  5960 net.cpp:91] Creating Layer relu1_mod
I0415 06:54:25.698401  5960 net.cpp:425] relu1_mod <- conv1_mod
I0415 06:54:25.698406  5960 net.cpp:386] relu1_mod -> conv1_mod (in-place)
I0415 06:54:25.698415  5960 net.cpp:141] Setting up relu1_mod
I0415 06:54:25.698421  5960 net.cpp:148] Top shape: 100 96 55 55 (29040000)
I0415 06:54:25.698423  5960 net.cpp:156] Memory required for data: 1715116400
I0415 06:54:25.698426  5960 layer_factory.hpp:77] Creating layer norm1_mod
I0415 06:54:25.698432  5960 net.cpp:91] Creating Layer norm1_mod
I0415 06:54:25.698436  5960 net.cpp:425] norm1_mod <- conv1_mod
I0415 06:54:25.698442  5960 net.cpp:399] norm1_mod -> norm1_mod
I0415 06:54:25.698472  5960 net.cpp:141] Setting up norm1_mod
I0415 06:54:25.698478  5960 net.cpp:148] Top shape: 100 96 55 55 (29040000)
I0415 06:54:25.698482  5960 net.cpp:156] Memory required for data: 1831276400
I0415 06:54:25.698485  5960 layer_factory.hpp:77] Creating layer pool1_mod
I0415 06:54:25.698493  5960 net.cpp:91] Creating Layer pool1_mod
I0415 06:54:25.698496  5960 net.cpp:425] pool1_mod <- norm1_mod
I0415 06:54:25.698503  5960 net.cpp:399] pool1_mod -> pool1_mod
I0415 06:54:25.698534  5960 net.cpp:141] Setting up pool1_mod
I0415 06:54:25.698542  5960 net.cpp:148] Top shape: 100 96 27 27 (6998400)
I0415 06:54:25.698545  5960 net.cpp:156] Memory required for data: 1859270000
I0415 06:54:25.698549  5960 layer_factory.hpp:77] Creating layer conv2_mod
I0415 06:54:25.698557  5960 net.cpp:91] Creating Layer conv2_mod
I0415 06:54:25.698565  5960 net.cpp:425] conv2_mod <- pool1_mod
I0415 06:54:25.698572  5960 net.cpp:399] conv2_mod -> conv2_mod
I0415 06:54:25.700709  5960 net.cpp:141] Setting up conv2_mod
I0415 06:54:25.700718  5960 net.cpp:148] Top shape: 100 96 27 27 (6998400)
I0415 06:54:25.700722  5960 net.cpp:156] Memory required for data: 1887263600
I0415 06:54:25.700728  5960 layer_factory.hpp:77] Creating layer relu2_mod
I0415 06:54:25.700733  5960 net.cpp:91] Creating Layer relu2_mod
I0415 06:54:25.700742  5960 net.cpp:425] relu2_mod <- conv2_mod
I0415 06:54:25.700748  5960 net.cpp:386] relu2_mod -> conv2_mod (in-place)
I0415 06:54:25.700753  5960 net.cpp:141] Setting up relu2_mod
I0415 06:54:25.700760  5960 net.cpp:148] Top shape: 100 96 27 27 (6998400)
I0415 06:54:25.700764  5960 net.cpp:156] Memory required for data: 1915257200
I0415 06:54:25.700776  5960 layer_factory.hpp:77] Creating layer norm2_mod
I0415 06:54:25.700783  5960 net.cpp:91] Creating Layer norm2_mod
I0415 06:54:25.700789  5960 net.cpp:425] norm2_mod <- conv2_mod
I0415 06:54:25.700794  5960 net.cpp:399] norm2_mod -> norm2_mod
I0415 06:54:25.700824  5960 net.cpp:141] Setting up norm2_mod
I0415 06:54:25.700830  5960 net.cpp:148] Top shape: 100 96 27 27 (6998400)
I0415 06:54:25.700834  5960 net.cpp:156] Memory required for data: 1943250800
I0415 06:54:25.700839  5960 layer_factory.hpp:77] Creating layer poolGlobal
I0415 06:54:25.700844  5960 net.cpp:91] Creating Layer poolGlobal
I0415 06:54:25.700846  5960 net.cpp:425] poolGlobal <- norm2_mod
I0415 06:54:25.700851  5960 net.cpp:399] poolGlobal -> poolGlobal
I0415 06:54:25.700867  5960 net.cpp:141] Setting up poolGlobal
I0415 06:54:25.700875  5960 net.cpp:148] Top shape: 100 96 1 1 (9600)
I0415 06:54:25.700880  5960 net.cpp:156] Memory required for data: 1943289200
I0415 06:54:25.700883  5960 layer_factory.hpp:77] Creating layer fc1a
I0415 06:54:25.700893  5960 net.cpp:91] Creating Layer fc1a
I0415 06:54:25.700897  5960 net.cpp:425] fc1a <- poolGlobal
I0415 06:54:25.700903  5960 net.cpp:399] fc1a -> fc1a
I0415 06:54:25.701202  5960 net.cpp:141] Setting up fc1a
I0415 06:54:25.701210  5960 net.cpp:148] Top shape: 100 96 (9600)
I0415 06:54:25.701215  5960 net.cpp:156] Memory required for data: 1943327600
I0415 06:54:25.701220  5960 layer_factory.hpp:77] Creating layer relu1a
I0415 06:54:25.701228  5960 net.cpp:91] Creating Layer relu1a
I0415 06:54:25.701236  5960 net.cpp:425] relu1a <- fc1a
I0415 06:54:25.701241  5960 net.cpp:386] relu1a -> fc1a (in-place)
I0415 06:54:25.701252  5960 net.cpp:141] Setting up relu1a
I0415 06:54:25.701256  5960 net.cpp:148] Top shape: 100 96 (9600)
I0415 06:54:25.701259  5960 net.cpp:156] Memory required for data: 1943366000
I0415 06:54:25.701263  5960 layer_factory.hpp:77] Creating layer fc1b
I0415 06:54:25.701269  5960 net.cpp:91] Creating Layer fc1b
I0415 06:54:25.701273  5960 net.cpp:425] fc1b <- fc1a
I0415 06:54:25.701278  5960 net.cpp:399] fc1b -> fc1b
I0415 06:54:25.701931  5960 net.cpp:141] Setting up fc1b
I0415 06:54:25.702013  5960 net.cpp:148] Top shape: 100 256 (25600)
I0415 06:54:25.702018  5960 net.cpp:156] Memory required for data: 1943468400
I0415 06:54:25.702023  5960 layer_factory.hpp:77] Creating layer relu1b
I0415 06:54:25.702028  5960 net.cpp:91] Creating Layer relu1b
I0415 06:54:25.702033  5960 net.cpp:425] relu1b <- fc1b
I0415 06:54:25.702038  5960 net.cpp:386] relu1b -> fc1b (in-place)
I0415 06:54:25.702042  5960 net.cpp:141] Setting up relu1b
I0415 06:54:25.702047  5960 net.cpp:148] Top shape: 100 256 (25600)
I0415 06:54:25.702050  5960 net.cpp:156] Memory required for data: 1943570800
I0415 06:54:25.702054  5960 layer_factory.hpp:77] Creating layer fc_switchbottom
I0415 06:54:25.702061  5960 net.cpp:91] Creating Layer fc_switchbottom
I0415 06:54:25.702065  5960 net.cpp:425] fc_switchbottom <- fc1b
I0415 06:54:25.702071  5960 net.cpp:399] fc_switchbottom -> fc_switchbottom
I0415 06:54:25.702157  5960 net.cpp:141] Setting up fc_switchbottom
I0415 06:54:25.702165  5960 net.cpp:148] Top shape: 100 2 (200)
I0415 06:54:25.702168  5960 net.cpp:156] Memory required for data: 1943571600
I0415 06:54:25.702177  5960 layer_factory.hpp:77] Creating layer prob
I0415 06:54:25.702185  5960 net.cpp:91] Creating Layer prob
I0415 06:54:25.702191  5960 net.cpp:425] prob <- fc_switchbottom
I0415 06:54:25.702198  5960 net.cpp:399] prob -> prob
I0415 06:54:25.702240  5960 net.cpp:141] Setting up prob
I0415 06:54:25.702249  5960 net.cpp:148] Top shape: 100 2 (200)
I0415 06:54:25.702253  5960 net.cpp:156] Memory required for data: 1943572400
I0415 06:54:25.702256  5960 layer_factory.hpp:77] Creating layer outputLabel
I0415 06:54:25.702263  5960 net.cpp:91] Creating Layer outputLabel
I0415 06:54:25.702267  5960 net.cpp:425] outputLabel <- prob
I0415 06:54:25.702272  5960 net.cpp:399] outputLabel -> outputLabel
I0415 06:54:25.702291  5960 net.cpp:141] Setting up outputLabel
I0415 06:54:25.702297  5960 net.cpp:148] Top shape: 100 1 1 (100)
I0415 06:54:25.702308  5960 net.cpp:156] Memory required for data: 1943572800
I0415 06:54:25.702312  5960 layer_factory.hpp:77] Creating layer switch
I0415 06:54:25.702318  5960 net.cpp:91] Creating Layer switch
I0415 06:54:25.702322  5960 net.cpp:425] switch <- pool2a
I0415 06:54:25.702327  5960 net.cpp:425] switch <- pool2b
I0415 06:54:25.702332  5960 net.cpp:425] switch <- outputLabel
I0415 06:54:25.702338  5960 net.cpp:399] switch -> switch
I0415 06:54:25.702358  5960 net.cpp:141] Setting up switch
I0415 06:54:25.702364  5960 net.cpp:148] Top shape: 100 256 13 13 (4326400)
I0415 06:54:25.702368  5960 net.cpp:156] Memory required for data: 1960878400
I0415 06:54:25.702373  5960 layer_factory.hpp:77] Creating layer conv3
I0415 06:54:25.702383  5960 net.cpp:91] Creating Layer conv3
I0415 06:54:25.702390  5960 net.cpp:425] conv3 <- switch
I0415 06:54:25.702396  5960 net.cpp:399] conv3 -> conv3
I0415 06:54:25.724690  5960 net.cpp:141] Setting up conv3
I0415 06:54:25.724711  5960 net.cpp:148] Top shape: 100 384 13 13 (6489600)
I0415 06:54:25.724716  5960 net.cpp:156] Memory required for data: 1986836800
I0415 06:54:25.724725  5960 layer_factory.hpp:77] Creating layer relu3
I0415 06:54:25.724735  5960 net.cpp:91] Creating Layer relu3
I0415 06:54:25.724740  5960 net.cpp:425] relu3 <- conv3
I0415 06:54:25.724746  5960 net.cpp:386] relu3 -> conv3 (in-place)
I0415 06:54:25.724756  5960 net.cpp:141] Setting up relu3
I0415 06:54:25.724762  5960 net.cpp:148] Top shape: 100 384 13 13 (6489600)
I0415 06:54:25.724766  5960 net.cpp:156] Memory required for data: 2012795200
I0415 06:54:25.724771  5960 layer_factory.hpp:77] Creating layer conv4
I0415 06:54:25.724783  5960 net.cpp:91] Creating Layer conv4
I0415 06:54:25.724787  5960 net.cpp:425] conv4 <- conv3
I0415 06:54:25.724794  5960 net.cpp:399] conv4 -> conv4
I0415 06:54:25.741531  5960 net.cpp:141] Setting up conv4
I0415 06:54:25.741550  5960 net.cpp:148] Top shape: 100 384 13 13 (6489600)
I0415 06:54:25.741555  5960 net.cpp:156] Memory required for data: 2038753600
I0415 06:54:25.741562  5960 layer_factory.hpp:77] Creating layer relu4
I0415 06:54:25.741572  5960 net.cpp:91] Creating Layer relu4
I0415 06:54:25.741577  5960 net.cpp:425] relu4 <- conv4
I0415 06:54:25.741583  5960 net.cpp:386] relu4 -> conv4 (in-place)
I0415 06:54:25.741590  5960 net.cpp:141] Setting up relu4
I0415 06:54:25.741595  5960 net.cpp:148] Top shape: 100 384 13 13 (6489600)
I0415 06:54:25.741598  5960 net.cpp:156] Memory required for data: 2064712000
I0415 06:54:25.741602  5960 layer_factory.hpp:77] Creating layer conv5
I0415 06:54:25.741611  5960 net.cpp:91] Creating Layer conv5
I0415 06:54:25.741616  5960 net.cpp:425] conv5 <- conv4
I0415 06:54:25.741622  5960 net.cpp:399] conv5 -> conv5
I0415 06:54:25.752851  5960 net.cpp:141] Setting up conv5
I0415 06:54:25.752867  5960 net.cpp:148] Top shape: 100 256 13 13 (4326400)
I0415 06:54:25.752872  5960 net.cpp:156] Memory required for data: 2082017600
I0415 06:54:25.752879  5960 layer_factory.hpp:77] Creating layer relu5
I0415 06:54:25.752887  5960 net.cpp:91] Creating Layer relu5
I0415 06:54:25.752892  5960 net.cpp:425] relu5 <- conv5
I0415 06:54:25.752899  5960 net.cpp:386] relu5 -> conv5 (in-place)
I0415 06:54:25.752907  5960 net.cpp:141] Setting up relu5
I0415 06:54:25.752912  5960 net.cpp:148] Top shape: 100 256 13 13 (4326400)
I0415 06:54:25.752915  5960 net.cpp:156] Memory required for data: 2099323200
I0415 06:54:25.752919  5960 layer_factory.hpp:77] Creating layer pool5
I0415 06:54:25.752925  5960 net.cpp:91] Creating Layer pool5
I0415 06:54:25.752929  5960 net.cpp:425] pool5 <- conv5
I0415 06:54:25.752936  5960 net.cpp:399] pool5 -> pool5
I0415 06:54:25.752969  5960 net.cpp:141] Setting up pool5
I0415 06:54:25.752977  5960 net.cpp:148] Top shape: 100 256 6 6 (921600)
I0415 06:54:25.752981  5960 net.cpp:156] Memory required for data: 2103009600
I0415 06:54:25.752985  5960 layer_factory.hpp:77] Creating layer fc6
I0415 06:54:25.752995  5960 net.cpp:91] Creating Layer fc6
I0415 06:54:25.752998  5960 net.cpp:425] fc6 <- pool5
I0415 06:54:25.753017  5960 net.cpp:399] fc6 -> fc6
I0415 06:54:26.669126  5960 net.cpp:141] Setting up fc6
I0415 06:54:26.669164  5960 net.cpp:148] Top shape: 100 4096 (409600)
I0415 06:54:26.669169  5960 net.cpp:156] Memory required for data: 2104648000
I0415 06:54:26.669178  5960 layer_factory.hpp:77] Creating layer relu6
I0415 06:54:26.669189  5960 net.cpp:91] Creating Layer relu6
I0415 06:54:26.669194  5960 net.cpp:425] relu6 <- fc6
I0415 06:54:26.669201  5960 net.cpp:386] relu6 -> fc6 (in-place)
I0415 06:54:26.669210  5960 net.cpp:141] Setting up relu6
I0415 06:54:26.669215  5960 net.cpp:148] Top shape: 100 4096 (409600)
I0415 06:54:26.669219  5960 net.cpp:156] Memory required for data: 2106286400
I0415 06:54:26.669222  5960 layer_factory.hpp:77] Creating layer drop6
I0415 06:54:26.669229  5960 net.cpp:91] Creating Layer drop6
I0415 06:54:26.669232  5960 net.cpp:425] drop6 <- fc6
I0415 06:54:26.669239  5960 net.cpp:386] drop6 -> fc6 (in-place)
I0415 06:54:26.669260  5960 net.cpp:141] Setting up drop6
I0415 06:54:26.669268  5960 net.cpp:148] Top shape: 100 4096 (409600)
I0415 06:54:26.669272  5960 net.cpp:156] Memory required for data: 2107924800
I0415 06:54:26.669276  5960 layer_factory.hpp:77] Creating layer fc7
I0415 06:54:26.669283  5960 net.cpp:91] Creating Layer fc7
I0415 06:54:26.669288  5960 net.cpp:425] fc7 <- fc6
I0415 06:54:26.669293  5960 net.cpp:399] fc7 -> fc7
I0415 06:54:27.070987  5960 net.cpp:141] Setting up fc7
I0415 06:54:27.071014  5960 net.cpp:148] Top shape: 100 4096 (409600)
I0415 06:54:27.071019  5960 net.cpp:156] Memory required for data: 2109563200
I0415 06:54:27.071028  5960 layer_factory.hpp:77] Creating layer relu7
I0415 06:54:27.071036  5960 net.cpp:91] Creating Layer relu7
I0415 06:54:27.071041  5960 net.cpp:425] relu7 <- fc7
I0415 06:54:27.071048  5960 net.cpp:386] relu7 -> fc7 (in-place)
I0415 06:54:27.071058  5960 net.cpp:141] Setting up relu7
I0415 06:54:27.071075  5960 net.cpp:148] Top shape: 100 4096 (409600)
I0415 06:54:27.071079  5960 net.cpp:156] Memory required for data: 2111201600
I0415 06:54:27.071082  5960 layer_factory.hpp:77] Creating layer drop7
I0415 06:54:27.071089  5960 net.cpp:91] Creating Layer drop7
I0415 06:54:27.071092  5960 net.cpp:425] drop7 <- fc7
I0415 06:54:27.071097  5960 net.cpp:386] drop7 -> fc7 (in-place)
I0415 06:54:27.071120  5960 net.cpp:141] Setting up drop7
I0415 06:54:27.071125  5960 net.cpp:148] Top shape: 100 4096 (409600)
I0415 06:54:27.071128  5960 net.cpp:156] Memory required for data: 2112840000
I0415 06:54:27.071131  5960 layer_factory.hpp:77] Creating layer fc8_modA
I0415 06:54:27.071141  5960 net.cpp:91] Creating Layer fc8_modA
I0415 06:54:27.071144  5960 net.cpp:425] fc8_modA <- fc7
I0415 06:54:27.071151  5960 net.cpp:399] fc8_modA -> fc8_modA
I0415 06:54:27.076189  5960 net.cpp:141] Setting up fc8_modA
I0415 06:54:27.076202  5960 net.cpp:148] Top shape: 100 50 (5000)
I0415 06:54:27.076207  5960 net.cpp:156] Memory required for data: 2112860000
I0415 06:54:27.076213  5960 layer_factory.hpp:77] Creating layer fc8_modA_fc8_modA_0_split
I0415 06:54:27.076220  5960 net.cpp:91] Creating Layer fc8_modA_fc8_modA_0_split
I0415 06:54:27.076225  5960 net.cpp:425] fc8_modA_fc8_modA_0_split <- fc8_modA
I0415 06:54:27.076230  5960 net.cpp:399] fc8_modA_fc8_modA_0_split -> fc8_modA_fc8_modA_0_split_0
I0415 06:54:27.076237  5960 net.cpp:399] fc8_modA_fc8_modA_0_split -> fc8_modA_fc8_modA_0_split_1
I0415 06:54:27.076266  5960 net.cpp:141] Setting up fc8_modA_fc8_modA_0_split
I0415 06:54:27.076273  5960 net.cpp:148] Top shape: 100 50 (5000)
I0415 06:54:27.076277  5960 net.cpp:148] Top shape: 100 50 (5000)
I0415 06:54:27.076282  5960 net.cpp:156] Memory required for data: 2112900000
I0415 06:54:27.076285  5960 layer_factory.hpp:77] Creating layer accuracy
I0415 06:54:27.076292  5960 net.cpp:91] Creating Layer accuracy
I0415 06:54:27.076297  5960 net.cpp:425] accuracy <- fc8_modA_fc8_modA_0_split_0
I0415 06:54:27.076302  5960 net.cpp:425] accuracy <- label_data_1_split_0
I0415 06:54:27.076306  5960 net.cpp:399] accuracy -> accuracy
…
