…
I0414 12:06:28.501984 22438 net.cpp:313] The NetState phase (0) differed from the phase (1) specified by a rule in layer accuracy
I0414 12:06:28.502207 22438 net.cpp:49] Initializing net from parameters: 
name: "AlexNet"
state {
  phase: TRAIN
}
layer {
  name: "data"
  type: "ImageData"
  top: "data"
  top: "label"
  include {
    phase: TRAIN
  }
  transform_param {
    mirror: true
    mean_file: "/home/shiv/SegNet/ModelA/mean/mean227alex.binaryproto"
  }
  image_data_param {
    source: "/home/shiv/SegNet/img_folderAlexCrop3/train3.txt"
    batch_size: 250
    shuffle: true
  }
}
layer {
  name: "conv1a"
  type: "Convolution"
  bottom: "data"
  top: "conv1a"
  param {
    lr_mult: 1
    decay_mult: 1
  }
  param {
    lr_mult: 2
    decay_mult: 0
  }
  convolution_param {
    num_output: 96
    kernel_size: 11
    stride: 4
    weight_filler {
      type: "gaussian"
      std: 0.01
    }
    bias_filler {
      type: "constant"
      value: 0
    }
  }
}
layer {
  name: "relu1a"
  type: "ReLU"
  bottom: "conv1a"
  top: "conv1a"
}
layer {
  name: "norm1a"
  type: "LRN"
  bottom: "conv1a"
  top: "norm1a"
  lrn_param {
    local_size: 5
    alpha: 0.0001
    beta: 0.75
  }
}
layer {
  name: "pool1a"
  type: "Pooling"
  bottom: "norm1a"
  top: "pool1a"
  pooling_param {
    pool: MAX
    kernel_size: 3
    stride: 2
  }
}
layer {
  name: "conv1b"
  type: "Convolution"
  bottom: "data"
  top: "conv1b"
  param {
    lr_mult: 4
    decay_mult: 1
  }
  param {
    lr_mult: 8
    decay_mult: 0
  }
  convolution_param {
    num_output: 96
    kernel_size: 11
    stride: 4
    weight_filler {
      type: "gaussian"
      std: 0.01
    }
    bias_filler {
      type: "constant"
      value: 0
    }
  }
}
layer {
  name: "relu1b"
  type: "ReLU"
  bottom: "conv1b"
  top: "conv1b"
}
layer {
  name: "norm1b"
  type: "LRN"
  bottom: "conv1b"
  top: "norm1b"
  lrn_param {
    local_size: 5
    alpha: 0.0001
    beta: 0.75
  }
}
layer {
  name: "pool1b"
  type: "Pooling"
  bottom: "norm1b"
  top: "pool1b"
  pooling_param {
    pool: MAX
    kernel_size: 3
    stride: 2
  }
}
layer {
  name: "conv1_mod"
  type: "Convolution"
  bottom: "data"
  top: "conv1_mod"
  param {
    lr_mult: 0
    decay_mult: 0
  }
  param {
    lr_mult: 0
    decay_mult: 0
  }
  convolution_param {
    num_output: 96
    kernel_size: 11
    stride: 4
    weight_filler {
      type: "gaussian"
      std: 0.01
    }
    bias_filler {
      type: "constant"
      value: 0
    }
  }
}
layer {
  name: "relu1_mod"
  type: "ReLU"
  bottom: "conv1_mod"
  top: "conv1_mod"
}
layer {
  name: "norm1_mod"
  type: "LRN"
  bottom: "conv1_mod"
  top: "norm1_mod"
  lrn_param {
    local_size: 5
    alpha: 0.0001
    beta: 0.75
  }
}
layer {
  name: "pool1_mod"
  type: "Pooling"
  bottom: "norm1_mod"
  top: "pool1_mod"
  pooling_param {
    pool: MAX
    kernel_size: 3
    stride: 2
  }
}
layer {
  name: "conv2_mod"
  type: "Convolution"
  bottom: "pool1_mod"
  top: "conv2_mod"
  param {
    lr_mult: 0
    decay_mult: 0
  }
  param {
    lr_mult: 0
    decay_mult: 0
  }
  convolution_param {
    num_output: 96
    pad: 1
    kernel_size: 3
    weight_filler {
      type: "gaussian"
      std: 0.01
    }
    bias_filler {
      type: "constant"
      value: 0.5
    }
  }
}
layer {
  name: "relu2_mod"
  type: "ReLU"
  bottom: "conv2_mod"
  top: "conv2_mod"
}
layer {
  name: "norm2_mod"
  type: "LRN"
  bottom: "conv2_mod"
  top: "norm2_mod"
  lrn_param {
    local_size: 3
    alpha: 0.0001
    beta: 0.75
  }
}
layer {
  name: "poolGlobal"
  type: "Pooling"
  bottom: "norm2_mod"
  top: "poolGlobal"
  pooling_param {
    pool: AVE
    global_pooling: true
  }
}
layer {
  name: "fc1a"
  type: "InnerProduct"
  bottom: "poolGlobal"
  top: "fc1a"
  param {
    lr_mult: 0
    decay_mult: 0
  }
  param {
    lr_mult: 0
    decay_mult: 0
  }
  inner_product_param {
    num_output: 96
    weight_filler {
      type: "gaussian"
      std: 0.005
    }
    bias_filler {
      type: "constant"
      value: 0.5
    }
  }
}
layer {
  name: "relu1a"
  type: "ReLU"
  bottom: "fc1a"
  top: "fc1a"
}
layer {
  name: "fc1b"
  type: "InnerProduct"
  bottom: "fc1a"
  top: "fc1b"
  param {
    lr_mult: 0
    decay_mult: 0
  }
  param {
    lr_mult: 0
    decay_mult: 0
  }
  inner_product_param {
    num_output: 256
    weight_filler {
      type: "gaussian"
      std: 0.005
    }
    bias_filler {
      type: "constant"
      value: 0.5
    }
  }
}
layer {
  name: "relu1b"
  type: "ReLU"
  bottom: "fc1b"
  top: "fc1b"
}
layer {
  name: "fc_switchbottom"
  type: "InnerProduct"
  bottom: "fc1b"
  top: "fc_switchbottom"
  param {
    lr_mult: 0
    decay_mult: 0
  }
  param {
    lr_mult: 0
    decay_mult: 0
  }
  inner_product_param {
    num_output: 2
    weight_filler {
      type: "gaussian"
      std: 0.005
    }
    bias_filler {
      type: "constant"
      value: 0.5
    }
  }
}
layer {
  name: "prob"
  type: "Softmax"
  bottom: "fc_switchbottom"
  top: "prob"
}
layer {
  name: "outputLabel"
  type: "ArgMax"
  bottom: "prob"
  top: "outputLabel"
}
layer {
  name: "switch"
  type: "Switch"
  bottom: "pool1a"
  bottom: "pool1b"
  bottom: "outputLabel"
  top: "switch"
}
layer {
  name: "conv2"
  type: "Convolution"
  bottom: "switch"
  top: "conv2"
  param {
    lr_mult: 4
    decay_mult: 1
  }
  param {
    lr_mult: 8
    decay_mult: 0
  }
  convolution_param {
    num_output: 256
    pad: 2
    kernel_size: 5
    group: 2
    weight_filler {
      type: "gaussian"
      std: 0.01
    }
    bias_filler {
      type: "constant"
      value: 1
    }
  }
}
layer {
  name: "relu2"
  type: "ReLU"
  bottom: "conv2"
  top: "conv2"
}
layer {
  name: "norm2"
  type: "LRN"
  bottom: "conv2"
  top: "norm2"
  lrn_param {
    local_size: 5
    alpha: 0.0001
    beta: 0.75
  }
}
layer {
  name: "pool2"
  type: "Pooling"
  bottom: "norm2"
  top: "pool2"
  pooling_param {
    pool: MAX
    kernel_size: 3
    stride: 2
  }
}
layer {
  name: "conv3"
  type: "Convolution"
  bottom: "pool2"
  top: "conv3"
  param {
    lr_mult: 4
    decay_mult: 1
  }
  param {
    lr_mult: 8
    decay_mult: 0
  }
  convolution_param {
    num_output: 384
    pad: 1
    kernel_size: 3
    weight_filler {
      type: "gaussian"
      std: 0.01
    }
    bias_filler {
      type: "constant"
      value: 0
    }
  }
}
layer {
  name: "relu3"
  type: "ReLU"
  bottom: "conv3"
  top: "conv3"
}
layer {
  name: "conv4"
  type: "Convolution"
  bottom: "conv3"
  top: "conv4"
  param {
    lr_mult: 4
    decay_mult: 1
  }
  param {
    lr_mult: 8
    decay_mult: 0
  }
  convolution_param {
    num_output: 384
    pad: 1
    kernel_size: 3
    group: 2
    weight_filler {
      type: "gaussian"
      std: 0.01
    }
    bias_filler {
      type: "constant"
      value: 1
    }
  }
}
layer {
  name: "relu4"
  type: "ReLU"
  bottom: "conv4"
  top: "conv4"
}
layer {
  name: "conv5"
  type: "Convolution"
  bottom: "conv4"
  top: "conv5"
  param {
    lr_mult: 4
    decay_mult: 1
  }
  param {
    lr_mult: 8
    decay_mult: 0
  }
  convolution_param {
    num_output: 256
    pad: 1
    kernel_size: 3
    group: 2
    weight_filler {
      type: "gaussian"
      std: 0.01
    }
    bias_filler {
      type: "constant"
      value: 1
    }
  }
}
layer {
  name: "relu5"
  type: "ReLU"
  bottom: "conv5"
  top: "conv5"
}
layer {
  name: "pool5"
  type: "Pooling"
  bottom: "conv5"
  top: "pool5"
  pooling_param {
    pool: MAX
    kernel_size: 3
    stride: 2
  }
}
layer {
  name: "fc6"
  type: "InnerProduct"
  bottom: "pool5"
  top: "fc6"
  param {
    lr_mult: 4
    decay_mult: 1
  }
  param {
    lr_mult: 8
    decay_mult: 0
  }
  inner_product_param {
    num_output: 4096
    weight_filler {
      type: "gaussian"
      std: 0.005
    }
    bias_filler {
      type: "constant"
      value: 1
    }
  }
}
layer {
  name: "relu6"
  type: "ReLU"
  bottom: "fc6"
  top: "fc6"
}
layer {
  name: "drop6"
  type: "Dropout"
  bottom: "fc6"
  top: "fc6"
  dropout_param {
    dropout_ratio: 0.5
  }
}
layer {
  name: "fc7"
  type: "InnerProduct"
  bottom: "fc6"
  top: "fc7"
  param {
    lr_mult: 4
    decay_mult: 1
  }
  param {
    lr_mult: 8
    decay_mult: 0
  }
  inner_product_param {
    num_output: 4096
    weight_filler {
      type: "gaussian"
      std: 0.005
    }
    bias_filler {
      type: "constant"
      value: 1
    }
  }
}
layer {
  name: "relu7"
  type: "ReLU"
  bottom: "fc7"
  top: "fc7"
}
layer {
  name: "drop7"
  type: "Dropout"
  bottom: "fc7"
  top: "fc7"
  dropout_param {
    dropout_ratio: 0.5
  }
}
layer {
  name: "fc8_modA"
  type: "InnerProduct"
  bottom: "fc7"
  top: "fc8_modA"
  param {
    lr_mult: 10
    decay_mult: 1
  }
  param {
    lr_mult: 20
    decay_mult: 0
  }
  inner_product_param {
    num_output: 50
    weight_filler {
      type: "gaussian"
      std: 0.01
    }
    bias_filler {
      type: "constant"
      value: 0
    }
  }
}
layer {
  name: "loss"
  type: "SoftmaxWithLoss"
  bottom: "fc8_modA"
  bottom: "label"
  top: "loss"
}
I0414 12:06:28.502404 22438 layer_factory.hpp:77] Creating layer data
I0414 12:06:28.502444 22438 net.cpp:91] Creating Layer data
I0414 12:06:28.502452 22438 net.cpp:399] data -> data
I0414 12:06:28.502481 22438 net.cpp:399] data -> label
I0414 12:06:28.502498 22438 data_transformer.cpp:25] Loading mean file from: /home/shiv/SegNet/ModelA/mean/mean227alex.binaryproto
I0414 12:06:28.511081 22438 image_data_layer.cpp:38] Opening file /home/shiv/SegNet/img_folderAlexCrop3/train3.txt
I0414 12:06:28.516621 22438 image_data_layer.cpp:48] Shuffling data
I0414 12:06:28.517590 22438 image_data_layer.cpp:53] A total of 15000 images.
I0414 12:06:28.518249 22438 image_data_layer.cpp:80] output data size: 250,3,227,227
I0414 12:06:28.831271 22438 net.cpp:141] Setting up data
I0414 12:06:28.831305 22438 net.cpp:148] Top shape: 250 3 227 227 (38646750)
I0414 12:06:28.831311 22438 net.cpp:148] Top shape: 250 (250)
I0414 12:06:28.831315 22438 net.cpp:156] Memory required for data: 154588000
I0414 12:06:28.831324 22438 layer_factory.hpp:77] Creating layer data_data_0_split
I0414 12:06:28.831338 22438 net.cpp:91] Creating Layer data_data_0_split
I0414 12:06:28.831344 22438 net.cpp:425] data_data_0_split <- data
I0414 12:06:28.831356 22438 net.cpp:399] data_data_0_split -> data_data_0_split_0
I0414 12:06:28.831367 22438 net.cpp:399] data_data_0_split -> data_data_0_split_1
I0414 12:06:28.831373 22438 net.cpp:399] data_data_0_split -> data_data_0_split_2
I0414 12:06:28.831486 22438 net.cpp:141] Setting up data_data_0_split
I0414 12:06:28.831497 22438 net.cpp:148] Top shape: 250 3 227 227 (38646750)
I0414 12:06:28.831502 22438 net.cpp:148] Top shape: 250 3 227 227 (38646750)
I0414 12:06:28.831507 22438 net.cpp:148] Top shape: 250 3 227 227 (38646750)
I0414 12:06:28.831511 22438 net.cpp:156] Memory required for data: 618349000
I0414 12:06:28.831516 22438 layer_factory.hpp:77] Creating layer conv1a
I0414 12:06:28.831532 22438 net.cpp:91] Creating Layer conv1a
I0414 12:06:28.831537 22438 net.cpp:425] conv1a <- data_data_0_split_0
I0414 12:06:28.831544 22438 net.cpp:399] conv1a -> conv1a
I0414 12:06:28.833720 22438 net.cpp:141] Setting up conv1a
I0414 12:06:28.833735 22438 net.cpp:148] Top shape: 250 96 55 55 (72600000)
I0414 12:06:28.833739 22438 net.cpp:156] Memory required for data: 908749000
I0414 12:06:28.833755 22438 layer_factory.hpp:77] Creating layer relu1a
I0414 12:06:28.833762 22438 net.cpp:91] Creating Layer relu1a
I0414 12:06:28.833767 22438 net.cpp:425] relu1a <- conv1a
I0414 12:06:28.833773 22438 net.cpp:386] relu1a -> conv1a (in-place)
I0414 12:06:28.833786 22438 net.cpp:141] Setting up relu1a
I0414 12:06:28.833808 22438 net.cpp:148] Top shape: 250 96 55 55 (72600000)
I0414 12:06:28.833813 22438 net.cpp:156] Memory required for data: 1199149000
I0414 12:06:28.833817 22438 layer_factory.hpp:77] Creating layer norm1a
I0414 12:06:28.833825 22438 net.cpp:91] Creating Layer norm1a
I0414 12:06:28.833829 22438 net.cpp:425] norm1a <- conv1a
I0414 12:06:28.833835 22438 net.cpp:399] norm1a -> norm1a
I0414 12:06:28.833868 22438 net.cpp:141] Setting up norm1a
I0414 12:06:28.833874 22438 net.cpp:148] Top shape: 250 96 55 55 (72600000)
I0414 12:06:28.833878 22438 net.cpp:156] Memory required for data: 1489549000
I0414 12:06:28.833883 22438 layer_factory.hpp:77] Creating layer pool1a
I0414 12:06:28.833890 22438 net.cpp:91] Creating Layer pool1a
I0414 12:06:28.833896 22438 net.cpp:425] pool1a <- norm1a
I0414 12:06:28.833901 22438 net.cpp:399] pool1a -> pool1a
I0414 12:06:28.833931 22438 net.cpp:141] Setting up pool1a
I0414 12:06:28.833937 22438 net.cpp:148] Top shape: 250 96 27 27 (17496000)
I0414 12:06:28.833942 22438 net.cpp:156] Memory required for data: 1559533000
I0414 12:06:28.833946 22438 layer_factory.hpp:77] Creating layer conv1b
I0414 12:06:28.833956 22438 net.cpp:91] Creating Layer conv1b
I0414 12:06:28.833959 22438 net.cpp:425] conv1b <- data_data_0_split_1
I0414 12:06:28.833966 22438 net.cpp:399] conv1b -> conv1b
I0414 12:06:28.834981 22438 net.cpp:141] Setting up conv1b
I0414 12:06:28.834991 22438 net.cpp:148] Top shape: 250 96 55 55 (72600000)
I0414 12:06:28.834996 22438 net.cpp:156] Memory required for data: 1849933000
I0414 12:06:28.835005 22438 layer_factory.hpp:77] Creating layer relu1b
I0414 12:06:28.835011 22438 net.cpp:91] Creating Layer relu1b
I0414 12:06:28.835016 22438 net.cpp:425] relu1b <- conv1b
I0414 12:06:28.835022 22438 net.cpp:386] relu1b -> conv1b (in-place)
I0414 12:06:28.835031 22438 net.cpp:141] Setting up relu1b
I0414 12:06:28.835036 22438 net.cpp:148] Top shape: 250 96 55 55 (72600000)
I0414 12:06:28.835039 22438 net.cpp:156] Memory required for data: 2140333000
I0414 12:06:28.835044 22438 layer_factory.hpp:77] Creating layer norm1b
I0414 12:06:28.835052 22438 net.cpp:91] Creating Layer norm1b
I0414 12:06:28.835057 22438 net.cpp:425] norm1b <- conv1b
I0414 12:06:28.835062 22438 net.cpp:399] norm1b -> norm1b
I0414 12:06:28.881289 22438 net.cpp:141] Setting up norm1b
I0414 12:06:28.881312 22438 net.cpp:148] Top shape: 250 96 55 55 (72600000)
I0414 12:06:28.881328 22438 net.cpp:156] Memory required for data: 2430733000
I0414 12:06:28.881335 22438 layer_factory.hpp:77] Creating layer pool1b
I0414 12:06:28.881345 22438 net.cpp:91] Creating Layer pool1b
I0414 12:06:28.881350 22438 net.cpp:425] pool1b <- norm1b
I0414 12:06:28.881357 22438 net.cpp:399] pool1b -> pool1b
I0414 12:06:28.881391 22438 net.cpp:141] Setting up pool1b
I0414 12:06:28.881398 22438 net.cpp:148] Top shape: 250 96 27 27 (17496000)
I0414 12:06:28.881402 22438 net.cpp:156] Memory required for data: 2500717000
I0414 12:06:28.881407 22438 layer_factory.hpp:77] Creating layer conv1_mod
I0414 12:06:28.881419 22438 net.cpp:91] Creating Layer conv1_mod
I0414 12:06:28.881424 22438 net.cpp:425] conv1_mod <- data_data_0_split_2
I0414 12:06:28.881433 22438 net.cpp:399] conv1_mod -> conv1_mod
I0414 12:06:28.882679 22438 net.cpp:141] Setting up conv1_mod
I0414 12:06:28.882693 22438 net.cpp:148] Top shape: 250 96 55 55 (72600000)
I0414 12:06:28.882696 22438 net.cpp:156] Memory required for data: 2791117000
I0414 12:06:28.882707 22438 layer_factory.hpp:77] Creating layer relu1_mod
I0414 12:06:28.882715 22438 net.cpp:91] Creating Layer relu1_mod
I0414 12:06:28.882720 22438 net.cpp:425] relu1_mod <- conv1_mod
I0414 12:06:28.882726 22438 net.cpp:386] relu1_mod -> conv1_mod (in-place)
I0414 12:06:28.882735 22438 net.cpp:141] Setting up relu1_mod
I0414 12:06:28.882740 22438 net.cpp:148] Top shape: 250 96 55 55 (72600000)
I0414 12:06:28.882745 22438 net.cpp:156] Memory required for data: 3081517000
I0414 12:06:28.882750 22438 layer_factory.hpp:77] Creating layer norm1_mod
I0414 12:06:28.882757 22438 net.cpp:91] Creating Layer norm1_mod
I0414 12:06:28.882776 22438 net.cpp:425] norm1_mod <- conv1_mod
I0414 12:06:28.882786 22438 net.cpp:399] norm1_mod -> norm1_mod
I0414 12:06:28.882819 22438 net.cpp:141] Setting up norm1_mod
I0414 12:06:28.882827 22438 net.cpp:148] Top shape: 250 96 55 55 (72600000)
I0414 12:06:28.882833 22438 net.cpp:156] Memory required for data: 3371917000
I0414 12:06:28.882838 22438 layer_factory.hpp:77] Creating layer pool1_mod
I0414 12:06:28.882846 22438 net.cpp:91] Creating Layer pool1_mod
I0414 12:06:28.882851 22438 net.cpp:425] pool1_mod <- norm1_mod
I0414 12:06:28.882858 22438 net.cpp:399] pool1_mod -> pool1_mod
I0414 12:06:28.882887 22438 net.cpp:141] Setting up pool1_mod
I0414 12:06:28.882894 22438 net.cpp:148] Top shape: 250 96 27 27 (17496000)
I0414 12:06:28.882899 22438 net.cpp:156] Memory required for data: 3441901000
I0414 12:06:28.882905 22438 layer_factory.hpp:77] Creating layer conv2_mod
I0414 12:06:28.882915 22438 net.cpp:91] Creating Layer conv2_mod
I0414 12:06:28.882920 22438 net.cpp:425] conv2_mod <- pool1_mod
I0414 12:06:28.882930 22438 net.cpp:399] conv2_mod -> conv2_mod
I0414 12:06:28.886113 22438 net.cpp:141] Setting up conv2_mod
I0414 12:06:28.886131 22438 net.cpp:148] Top shape: 250 96 27 27 (17496000)
I0414 12:06:28.886135 22438 net.cpp:156] Memory required for data: 3511885000
I0414 12:06:28.886143 22438 layer_factory.hpp:77] Creating layer relu2_mod
I0414 12:06:28.886150 22438 net.cpp:91] Creating Layer relu2_mod
I0414 12:06:28.886155 22438 net.cpp:425] relu2_mod <- conv2_mod
I0414 12:06:28.886163 22438 net.cpp:386] relu2_mod -> conv2_mod (in-place)
I0414 12:06:28.886170 22438 net.cpp:141] Setting up relu2_mod
I0414 12:06:28.886176 22438 net.cpp:148] Top shape: 250 96 27 27 (17496000)
I0414 12:06:28.886180 22438 net.cpp:156] Memory required for data: 3581869000
I0414 12:06:28.886185 22438 layer_factory.hpp:77] Creating layer norm2_mod
I0414 12:06:28.886193 22438 net.cpp:91] Creating Layer norm2_mod
I0414 12:06:28.886198 22438 net.cpp:425] norm2_mod <- conv2_mod
I0414 12:06:28.886205 22438 net.cpp:399] norm2_mod -> norm2_mod
I0414 12:06:28.886242 22438 net.cpp:141] Setting up norm2_mod
I0414 12:06:28.886250 22438 net.cpp:148] Top shape: 250 96 27 27 (17496000)
I0414 12:06:28.886253 22438 net.cpp:156] Memory required for data: 3651853000
I0414 12:06:28.886258 22438 layer_factory.hpp:77] Creating layer poolGlobal
I0414 12:06:28.886266 22438 net.cpp:91] Creating Layer poolGlobal
I0414 12:06:28.886287 22438 net.cpp:425] poolGlobal <- norm2_mod
I0414 12:06:28.886293 22438 net.cpp:399] poolGlobal -> poolGlobal
I0414 12:06:28.886318 22438 net.cpp:141] Setting up poolGlobal
I0414 12:06:28.886325 22438 net.cpp:148] Top shape: 250 96 1 1 (24000)
I0414 12:06:28.886329 22438 net.cpp:156] Memory required for data: 3651949000
I0414 12:06:28.886334 22438 layer_factory.hpp:77] Creating layer fc1a
I0414 12:06:28.886343 22438 net.cpp:91] Creating Layer fc1a
I0414 12:06:28.886348 22438 net.cpp:425] fc1a <- poolGlobal
I0414 12:06:28.886356 22438 net.cpp:399] fc1a -> fc1a
I0414 12:06:28.887171 22438 net.cpp:141] Setting up fc1a
I0414 12:06:28.887187 22438 net.cpp:148] Top shape: 250 96 (24000)
I0414 12:06:28.887192 22438 net.cpp:156] Memory required for data: 3652045000
I0414 12:06:28.887202 22438 layer_factory.hpp:77] Creating layer relu1a
I0414 12:06:28.887210 22438 net.cpp:91] Creating Layer relu1a
I0414 12:06:28.887217 22438 net.cpp:425] relu1a <- fc1a
I0414 12:06:28.887223 22438 net.cpp:386] relu1a -> fc1a (in-place)
I0414 12:06:28.887229 22438 net.cpp:141] Setting up relu1a
I0414 12:06:28.887235 22438 net.cpp:148] Top shape: 250 96 (24000)
I0414 12:06:28.887239 22438 net.cpp:156] Memory required for data: 3652141000
I0414 12:06:28.887243 22438 layer_factory.hpp:77] Creating layer fc1b
I0414 12:06:28.887251 22438 net.cpp:91] Creating Layer fc1b
I0414 12:06:28.887255 22438 net.cpp:425] fc1b <- fc1a
I0414 12:06:28.887261 22438 net.cpp:399] fc1b -> fc1b
I0414 12:06:28.888094 22438 net.cpp:141] Setting up fc1b
I0414 12:06:28.888111 22438 net.cpp:148] Top shape: 250 256 (64000)
I0414 12:06:28.888115 22438 net.cpp:156] Memory required for data: 3652397000
I0414 12:06:28.888134 22438 layer_factory.hpp:77] Creating layer relu1b
I0414 12:06:28.888141 22438 net.cpp:91] Creating Layer relu1b
I0414 12:06:28.888146 22438 net.cpp:425] relu1b <- fc1b
I0414 12:06:28.888152 22438 net.cpp:386] relu1b -> fc1b (in-place)
I0414 12:06:28.888159 22438 net.cpp:141] Setting up relu1b
I0414 12:06:28.888164 22438 net.cpp:148] Top shape: 250 256 (64000)
I0414 12:06:28.888169 22438 net.cpp:156] Memory required for data: 3652653000
I0414 12:06:28.888172 22438 layer_factory.hpp:77] Creating layer fc_switchbottom
I0414 12:06:28.888182 22438 net.cpp:91] Creating Layer fc_switchbottom
I0414 12:06:28.888186 22438 net.cpp:425] fc_switchbottom <- fc1b
I0414 12:06:28.888193 22438 net.cpp:399] fc_switchbottom -> fc_switchbottom
I0414 12:06:28.888294 22438 net.cpp:141] Setting up fc_switchbottom
I0414 12:06:28.888305 22438 net.cpp:148] Top shape: 250 2 (500)
I0414 12:06:28.888309 22438 net.cpp:156] Memory required for data: 3652655000
I0414 12:06:28.888316 22438 layer_factory.hpp:77] Creating layer prob
I0414 12:06:28.888324 22438 net.cpp:91] Creating Layer prob
I0414 12:06:28.888329 22438 net.cpp:425] prob <- fc_switchbottom
I0414 12:06:28.888334 22438 net.cpp:399] prob -> prob
I0414 12:06:28.888396 22438 net.cpp:141] Setting up prob
I0414 12:06:28.888406 22438 net.cpp:148] Top shape: 250 2 (500)
I0414 12:06:28.888409 22438 net.cpp:156] Memory required for data: 3652657000
I0414 12:06:28.888414 22438 layer_factory.hpp:77] Creating layer outputLabel
I0414 12:06:28.888427 22438 net.cpp:91] Creating Layer outputLabel
I0414 12:06:28.888432 22438 net.cpp:425] outputLabel <- prob
I0414 12:06:28.888437 22438 net.cpp:399] outputLabel -> outputLabel
I0414 12:06:28.888458 22438 net.cpp:141] Setting up outputLabel
I0414 12:06:28.888465 22438 net.cpp:148] Top shape: 250 1 1 (250)
I0414 12:06:28.888469 22438 net.cpp:156] Memory required for data: 3652658000
I0414 12:06:28.888474 22438 layer_factory.hpp:77] Creating layer switch
I0414 12:06:28.888481 22438 net.cpp:91] Creating Layer switch
I0414 12:06:28.888486 22438 net.cpp:425] switch <- pool1a
I0414 12:06:28.888491 22438 net.cpp:425] switch <- pool1b
I0414 12:06:28.888497 22438 net.cpp:425] switch <- outputLabel
I0414 12:06:28.888519 22438 net.cpp:399] switch -> switch
I0414 12:06:28.888541 22438 net.cpp:141] Setting up switch
I0414 12:06:28.888550 22438 net.cpp:148] Top shape: 250 96 27 27 (17496000)
I0414 12:06:28.888553 22438 net.cpp:156] Memory required for data: 3722642000
I0414 12:06:28.888557 22438 layer_factory.hpp:77] Creating layer conv2
I0414 12:06:28.888567 22438 net.cpp:91] Creating Layer conv2
I0414 12:06:28.888571 22438 net.cpp:425] conv2 <- switch
I0414 12:06:28.888578 22438 net.cpp:399] conv2 -> conv2
I0414 12:06:28.898234 22438 net.cpp:141] Setting up conv2
I0414 12:06:28.898252 22438 net.cpp:148] Top shape: 250 256 27 27 (46656000)
I0414 12:06:28.898257 22438 net.cpp:156] Memory required for data: 3909266000
I0414 12:06:28.898265 22438 layer_factory.hpp:77] Creating layer relu2
I0414 12:06:28.898273 22438 net.cpp:91] Creating Layer relu2
I0414 12:06:28.898278 22438 net.cpp:425] relu2 <- conv2
I0414 12:06:28.898284 22438 net.cpp:386] relu2 -> conv2 (in-place)
I0414 12:06:28.898293 22438 net.cpp:141] Setting up relu2
I0414 12:06:28.898298 22438 net.cpp:148] Top shape: 250 256 27 27 (46656000)
I0414 12:06:28.898303 22438 net.cpp:156] Memory required for data: 4095890000
I0414 12:06:28.898306 22438 layer_factory.hpp:77] Creating layer norm2
I0414 12:06:28.898314 22438 net.cpp:91] Creating Layer norm2
I0414 12:06:28.898320 22438 net.cpp:425] norm2 <- conv2
I0414 12:06:28.898326 22438 net.cpp:399] norm2 -> norm2
I0414 12:06:28.898367 22438 net.cpp:141] Setting up norm2
I0414 12:06:28.898375 22438 net.cpp:148] Top shape: 250 256 27 27 (46656000)
I0414 12:06:28.898380 22438 net.cpp:156] Memory required for data: 4282514000
I0414 12:06:28.898383 22438 layer_factory.hpp:77] Creating layer pool2
I0414 12:06:28.898391 22438 net.cpp:91] Creating Layer pool2
I0414 12:06:28.898397 22438 net.cpp:425] pool2 <- norm2
I0414 12:06:28.898416 22438 net.cpp:399] pool2 -> pool2
I0414 12:06:28.898452 22438 net.cpp:141] Setting up pool2
I0414 12:06:28.898459 22438 net.cpp:148] Top shape: 250 256 13 13 (10816000)
I0414 12:06:28.898464 22438 net.cpp:156] Memory required for data: 4325778000
I0414 12:06:28.898469 22438 layer_factory.hpp:77] Creating layer conv3
I0414 12:06:28.898480 22438 net.cpp:91] Creating Layer conv3
I0414 12:06:28.898484 22438 net.cpp:425] conv3 <- pool2
I0414 12:06:28.898491 22438 net.cpp:399] conv3 -> conv3
I0414 12:06:28.924456 22438 net.cpp:141] Setting up conv3
I0414 12:06:28.924481 22438 net.cpp:148] Top shape: 250 384 13 13 (16224000)
I0414 12:06:28.924485 22438 net.cpp:156] Memory required for data: 4390674000
I0414 12:06:28.924510 22438 layer_factory.hpp:77] Creating layer relu3
I0414 12:06:28.924520 22438 net.cpp:91] Creating Layer relu3
I0414 12:06:28.924526 22438 net.cpp:425] relu3 <- conv3
I0414 12:06:28.924532 22438 net.cpp:386] relu3 -> conv3 (in-place)
I0414 12:06:28.924541 22438 net.cpp:141] Setting up relu3
I0414 12:06:28.924546 22438 net.cpp:148] Top shape: 250 384 13 13 (16224000)
I0414 12:06:28.924551 22438 net.cpp:156] Memory required for data: 4455570000
I0414 12:06:28.924554 22438 layer_factory.hpp:77] Creating layer conv4
I0414 12:06:28.924569 22438 net.cpp:91] Creating Layer conv4
I0414 12:06:28.924574 22438 net.cpp:425] conv4 <- conv3
I0414 12:06:28.924581 22438 net.cpp:399] conv4 -> conv4
I0414 12:06:28.942967 22438 net.cpp:141] Setting up conv4
I0414 12:06:28.942986 22438 net.cpp:148] Top shape: 250 384 13 13 (16224000)
I0414 12:06:28.942991 22438 net.cpp:156] Memory required for data: 4520466000
I0414 12:06:28.942997 22438 layer_factory.hpp:77] Creating layer relu4
I0414 12:06:28.943006 22438 net.cpp:91] Creating Layer relu4
I0414 12:06:28.943011 22438 net.cpp:425] relu4 <- conv4
I0414 12:06:28.943019 22438 net.cpp:386] relu4 -> conv4 (in-place)
I0414 12:06:28.943027 22438 net.cpp:141] Setting up relu4
I0414 12:06:28.943032 22438 net.cpp:148] Top shape: 250 384 13 13 (16224000)
I0414 12:06:28.943035 22438 net.cpp:156] Memory required for data: 4585362000
I0414 12:06:28.943039 22438 layer_factory.hpp:77] Creating layer conv5
I0414 12:06:28.943049 22438 net.cpp:91] Creating Layer conv5
I0414 12:06:28.943053 22438 net.cpp:425] conv5 <- conv4
I0414 12:06:28.943059 22438 net.cpp:399] conv5 -> conv5
I0414 12:06:28.955108 22438 net.cpp:141] Setting up conv5
I0414 12:06:28.955124 22438 net.cpp:148] Top shape: 250 256 13 13 (10816000)
I0414 12:06:28.955128 22438 net.cpp:156] Memory required for data: 4628626000
I0414 12:06:28.955134 22438 layer_factory.hpp:77] Creating layer relu5
I0414 12:06:28.955142 22438 net.cpp:91] Creating Layer relu5
I0414 12:06:28.955145 22438 net.cpp:425] relu5 <- conv5
I0414 12:06:28.955152 22438 net.cpp:386] relu5 -> conv5 (in-place)
I0414 12:06:28.955158 22438 net.cpp:141] Setting up relu5
I0414 12:06:28.955163 22438 net.cpp:148] Top shape: 250 256 13 13 (10816000)
I0414 12:06:28.955166 22438 net.cpp:156] Memory required for data: 4671890000
I0414 12:06:28.955170 22438 layer_factory.hpp:77] Creating layer pool5
I0414 12:06:28.955179 22438 net.cpp:91] Creating Layer pool5
I0414 12:06:28.955183 22438 net.cpp:425] pool5 <- conv5
I0414 12:06:28.955189 22438 net.cpp:399] pool5 -> pool5
I0414 12:06:28.955221 22438 net.cpp:141] Setting up pool5
I0414 12:06:28.955227 22438 net.cpp:148] Top shape: 250 256 6 6 (2304000)
I0414 12:06:28.955231 22438 net.cpp:156] Memory required for data: 4681106000
I0414 12:06:28.955235 22438 layer_factory.hpp:77] Creating layer fc6
I0414 12:06:28.955242 22438 net.cpp:91] Creating Layer fc6
I0414 12:06:28.955247 22438 net.cpp:425] fc6 <- pool5
I0414 12:06:28.955255 22438 net.cpp:399] fc6 -> fc6
I0414 12:06:29.905221 22438 net.cpp:141] Setting up fc6
I0414 12:06:29.905246 22438 net.cpp:148] Top shape: 250 4096 (1024000)
I0414 12:06:29.905249 22438 net.cpp:156] Memory required for data: 4685202000
I0414 12:06:29.905258 22438 layer_factory.hpp:77] Creating layer relu6
I0414 12:06:29.905267 22438 net.cpp:91] Creating Layer relu6
I0414 12:06:29.905272 22438 net.cpp:425] relu6 <- fc6
I0414 12:06:29.905297 22438 net.cpp:386] relu6 -> fc6 (in-place)
I0414 12:06:29.905318 22438 net.cpp:141] Setting up relu6
I0414 12:06:29.905323 22438 net.cpp:148] Top shape: 250 4096 (1024000)
I0414 12:06:29.905325 22438 net.cpp:156] Memory required for data: 4689298000
I0414 12:06:29.905329 22438 layer_factory.hpp:77] Creating layer drop6
I0414 12:06:29.905338 22438 net.cpp:91] Creating Layer drop6
I0414 12:06:29.905341 22438 net.cpp:425] drop6 <- fc6
I0414 12:06:29.905345 22438 net.cpp:386] drop6 -> fc6 (in-place)
I0414 12:06:29.905369 22438 net.cpp:141] Setting up drop6
I0414 12:06:29.905374 22438 net.cpp:148] Top shape: 250 4096 (1024000)
I0414 12:06:29.905377 22438 net.cpp:156] Memory required for data: 4693394000
I0414 12:06:29.905380 22438 layer_factory.hpp:77] Creating layer fc7
I0414 12:06:29.905387 22438 net.cpp:91] Creating Layer fc7
I0414 12:06:29.905391 22438 net.cpp:425] fc7 <- fc6
I0414 12:06:29.905397 22438 net.cpp:399] fc7 -> fc7
I0414 12:06:30.305085 22438 net.cpp:141] Setting up fc7
I0414 12:06:30.305114 22438 net.cpp:148] Top shape: 250 4096 (1024000)
I0414 12:06:30.305119 22438 net.cpp:156] Memory required for data: 4697490000
I0414 12:06:30.305129 22438 layer_factory.hpp:77] Creating layer relu7
I0414 12:06:30.305138 22438 net.cpp:91] Creating Layer relu7
I0414 12:06:30.305143 22438 net.cpp:425] relu7 <- fc7
I0414 12:06:30.305150 22438 net.cpp:386] relu7 -> fc7 (in-place)
I0414 12:06:30.305160 22438 net.cpp:141] Setting up relu7
I0414 12:06:30.305166 22438 net.cpp:148] Top shape: 250 4096 (1024000)
I0414 12:06:30.305169 22438 net.cpp:156] Memory required for data: 4701586000
I0414 12:06:30.305174 22438 layer_factory.hpp:77] Creating layer drop7
I0414 12:06:30.305181 22438 net.cpp:91] Creating Layer drop7
I0414 12:06:30.305184 22438 net.cpp:425] drop7 <- fc7
I0414 12:06:30.305189 22438 net.cpp:386] drop7 -> fc7 (in-place)
I0414 12:06:30.305208 22438 net.cpp:141] Setting up drop7
I0414 12:06:30.305214 22438 net.cpp:148] Top shape: 250 4096 (1024000)
I0414 12:06:30.305217 22438 net.cpp:156] Memory required for data: 4705682000
I0414 12:06:30.305222 22438 layer_factory.hpp:77] Creating layer fc8_modA
I0414 12:06:30.305229 22438 net.cpp:91] Creating Layer fc8_modA
I0414 12:06:30.305233 22438 net.cpp:425] fc8_modA <- fc7
I0414 12:06:30.305238 22438 net.cpp:399] fc8_modA -> fc8_modA
I0414 12:06:30.310367 22438 net.cpp:141] Setting up fc8_modA
I0414 12:06:30.310379 22438 net.cpp:148] Top shape: 250 50 (12500)
I0414 12:06:30.310384 22438 net.cpp:156] Memory required for data: 4705732000
I0414 12:06:30.310389 22438 layer_factory.hpp:77] Creating layer loss
I0414 12:06:30.310395 22438 net.cpp:91] Creating Layer loss
I0414 12:06:30.310400 22438 net.cpp:425] loss <- fc8_modA
I0414 12:06:30.310405 22438 net.cpp:425] loss <- label
I0414 12:06:30.310412 22438 net.cpp:399] loss -> loss
I0414 12:06:30.310420 22438 layer_factory.hpp:77] Creating layer loss
…
I0414 12:06:30.311532 22438 net.cpp:313] The NetState phase (1) differed from the phase (0) specified by a rule in layer data
I0414 12:06:30.311733 22438 net.cpp:49] Initializing net from parameters: 
name: "AlexNet"
state {
  phase: TEST
}
layer {
  name: "data"
  type: "ImageData"
  top: "data"
  top: "label"
  include {
    phase: TEST
  }
  transform_param {
    mirror: false
    mean_file: "/home/shiv/SegNet/ModelA/mean/mean227alex.binaryproto"
  }
  image_data_param {
    source: "/home/shiv/SegNet/img_folderAlexCrop3/val3.txt"
    batch_size: 100
    shuffle: false
  }
}
layer {
  name: "conv1a"
  type: "Convolution"
  bottom: "data"
  top: "conv1a"
  param {
    lr_mult: 1
    decay_mult: 1
  }
  param {
    lr_mult: 2
    decay_mult: 0
  }
  convolution_param {
    num_output: 96
    kernel_size: 11
    stride: 4
    weight_filler {
      type: "gaussian"
      std: 0.01
    }
    bias_filler {
      type: "constant"
      value: 0
    }
  }
}
layer {
  name: "relu1a"
  type: "ReLU"
  bottom: "conv1a"
  top: "conv1a"
}
layer {
  name: "norm1a"
  type: "LRN"
  bottom: "conv1a"
  top: "norm1a"
  lrn_param {
    local_size: 5
    alpha: 0.0001
    beta: 0.75
  }
}
layer {
  name: "pool1a"
  type: "Pooling"
  bottom: "norm1a"
  top: "pool1a"
  pooling_param {
    pool: MAX
    kernel_size: 3
    stride: 2
  }
}
layer {
  name: "conv1b"
  type: "Convolution"
  bottom: "data"
  top: "conv1b"
  param {
    lr_mult: 4
    decay_mult: 1
  }
  param {
    lr_mult: 8
    decay_mult: 0
  }
  convolution_param {
    num_output: 96
    kernel_size: 11
    stride: 4
    weight_filler {
      type: "gaussian"
      std: 0.01
    }
    bias_filler {
      type: "constant"
      value: 0
    }
  }
}
layer {
  name: "relu1b"
  type: "ReLU"
  bottom: "conv1b"
  top: "conv1b"
}
layer {
  name: "norm1b"
  type: "LRN"
  bottom: "conv1b"
  top: "norm1b"
  lrn_param {
    local_size: 5
    alpha: 0.0001
    beta: 0.75
  }
}
layer {
  name: "pool1b"
  type: "Pooling"
  bottom: "norm1b"
  top: "pool1b"
  pooling_param {
    pool: MAX
    kernel_size: 3
    stride: 2
  }
}
layer {
  name: "conv1_mod"
  type: "Convolution"
  bottom: "data"
  top: "conv1_mod"
  param {
    lr_mult: 0
    decay_mult: 0
  }
  param {
    lr_mult: 0
    decay_mult: 0
  }
  convolution_param {
    num_output: 96
    kernel_size: 11
    stride: 4
    weight_filler {
      type: "gaussian"
      std: 0.01
    }
    bias_filler {
      type: "constant"
      value: 0
    }
  }
}
layer {
  name: "relu1_mod"
  type: "ReLU"
  bottom: "conv1_mod"
  top: "conv1_mod"
}
layer {
  name: "norm1_mod"
  type: "LRN"
  bottom: "conv1_mod"
  top: "norm1_mod"
  lrn_param {
    local_size: 5
    alpha: 0.0001
    beta: 0.75
  }
}
layer {
  name: "pool1_mod"
  type: "Pooling"
  bottom: "norm1_mod"
  top: "pool1_mod"
  pooling_param {
    pool: MAX
    kernel_size: 3
    stride: 2
  }
}
layer {
  name: "conv2_mod"
  type: "Convolution"
  bottom: "pool1_mod"
  top: "conv2_mod"
  param {
    lr_mult: 0
    decay_mult: 0
  }
  param {
    lr_mult: 0
    decay_mult: 0
  }
  convolution_param {
    num_output: 96
    pad: 1
    kernel_size: 3
    weight_filler {
      type: "gaussian"
      std: 0.01
    }
    bias_filler {
      type: "constant"
      value: 0.5
    }
  }
}
layer {
  name: "relu2_mod"
  type: "ReLU"
  bottom: "conv2_mod"
  top: "conv2_mod"
}
layer {
  name: "norm2_mod"
  type: "LRN"
  bottom: "conv2_mod"
  top: "norm2_mod"
  lrn_param {
    local_size: 3
    alpha: 0.0001
    beta: 0.75
  }
}
layer {
  name: "poolGlobal"
  type: "Pooling"
  bottom: "norm2_mod"
  top: "poolGlobal"
  pooling_param {
    pool: AVE
    global_pooling: true
  }
}
layer {
  name: "fc1a"
  type: "InnerProduct"
  bottom: "poolGlobal"
  top: "fc1a"
  param {
    lr_mult: 0
    decay_mult: 0
  }
  param {
    lr_mult: 0
    decay_mult: 0
  }
  inner_product_param {
    num_output: 96
    weight_filler {
      type: "gaussian"
      std: 0.005
    }
    bias_filler {
      type: "constant"
      value: 0.5
    }
  }
}
layer {
  name: "relu1a"
  type: "ReLU"
  bottom: "fc1a"
  top: "fc1a"
}
layer {
  name: "fc1b"
  type: "InnerProduct"
  bottom: "fc1a"
  top: "fc1b"
  param {
    lr_mult: 0
    decay_mult: 0
  }
  param {
    lr_mult: 0
    decay_mult: 0
  }
  inner_product_param {
    num_output: 256
    weight_filler {
      type: "gaussian"
      std: 0.005
    }
    bias_filler {
      type: "constant"
      value: 0.5
    }
  }
}
layer {
  name: "relu1b"
  type: "ReLU"
  bottom: "fc1b"
  top: "fc1b"
}
layer {
  name: "fc_switchbottom"
  type: "InnerProduct"
  bottom: "fc1b"
  top: "fc_switchbottom"
  param {
    lr_mult: 0
    decay_mult: 0
  }
  param {
    lr_mult: 0
    decay_mult: 0
  }
  inner_product_param {
    num_output: 2
    weight_filler {
      type: "gaussian"
      std: 0.005
    }
    bias_filler {
      type: "constant"
      value: 0.5
    }
  }
}
layer {
  name: "prob"
  type: "Softmax"
  bottom: "fc_switchbottom"
  top: "prob"
}
layer {
  name: "outputLabel"
  type: "ArgMax"
  bottom: "prob"
  top: "outputLabel"
}
layer {
  name: "switch"
  type: "Switch"
  bottom: "pool1a"
  bottom: "pool1b"
  bottom: "outputLabel"
  top: "switch"
}
layer {
  name: "conv2"
  type: "Convolution"
  bottom: "switch"
  top: "conv2"
  param {
    lr_mult: 4
    decay_mult: 1
  }
  param {
    lr_mult: 8
    decay_mult: 0
  }
  convolution_param {
    num_output: 256
    pad: 2
    kernel_size: 5
    group: 2
    weight_filler {
      type: "gaussian"
      std: 0.01
    }
    bias_filler {
      type: "constant"
      value: 1
    }
  }
}
layer {
  name: "relu2"
  type: "ReLU"
  bottom: "conv2"
  top: "conv2"
}
layer {
  name: "norm2"
  type: "LRN"
  bottom: "conv2"
  top: "norm2"
  lrn_param {
    local_size: 5
    alpha: 0.0001
    beta: 0.75
  }
}
layer {
  name: "pool2"
  type: "Pooling"
  bottom: "norm2"
  top: "pool2"
  pooling_param {
    pool: MAX
    kernel_size: 3
    stride: 2
  }
}
layer {
  name: "conv3"
  type: "Convolution"
  bottom: "pool2"
  top: "conv3"
  param {
    lr_mult: 4
    decay_mult: 1
  }
  param {
    lr_mult: 8
    decay_mult: 0
  }
  convolution_param {
    num_output: 384
    pad: 1
    kernel_size: 3
    weight_filler {
      type: "gaussian"
      std: 0.01
    }
    bias_filler {
      type: "constant"
      value: 0
    }
  }
}
layer {
  name: "relu3"
  type: "ReLU"
  bottom: "conv3"
  top: "conv3"
}
layer {
  name: "conv4"
  type: "Convolution"
  bottom: "conv3"
  top: "conv4"
  param {
    lr_mult: 4
    decay_mult: 1
  }
  param {
    lr_mult: 8
    decay_mult: 0
  }
  convolution_param {
    num_output: 384
    pad: 1
    kernel_size: 3
    group: 2
    weight_filler {
      type: "gaussian"
      std: 0.01
    }
    bias_filler {
      type: "constant"
      value: 1
    }
  }
}
layer {
  name: "relu4"
  type: "ReLU"
  bottom: "conv4"
  top: "conv4"
}
layer {
  name: "conv5"
  type: "Convolution"
  bottom: "conv4"
  top: "conv5"
  param {
    lr_mult: 4
    decay_mult: 1
  }
  param {
    lr_mult: 8
    decay_mult: 0
  }
  convolution_param {
    num_output: 256
    pad: 1
    kernel_size: 3
    group: 2
    weight_filler {
      type: "gaussian"
      std: 0.01
    }
    bias_filler {
      type: "constant"
      value: 1
    }
  }
}
layer {
  name: "relu5"
  type: "ReLU"
  bottom: "conv5"
  top: "conv5"
}
layer {
  name: "pool5"
  type: "Pooling"
  bottom: "conv5"
  top: "pool5"
  pooling_param {
    pool: MAX
    kernel_size: 3
    stride: 2
  }
}
layer {
  name: "fc6"
  type: "InnerProduct"
  bottom: "pool5"
  top: "fc6"
  param {
    lr_mult: 4
    decay_mult: 1
  }
  param {
    lr_mult: 8
    decay_mult: 0
  }
  inner_product_param {
    num_output: 4096
    weight_filler {
      type: "gaussian"
      std: 0.005
    }
    bias_filler {
      type: "constant"
      value: 1
    }
  }
}
layer {
  name: "relu6"
  type: "ReLU"
  bottom: "fc6"
  top: "fc6"
}
layer {
  name: "drop6"
  type: "Dropout"
  bottom: "fc6"
  top: "fc6"
  dropout_param {
    dropout_ratio: 0.5
  }
}
layer {
  name: "fc7"
  type: "InnerProduct"
  bottom: "fc6"
  top: "fc7"
  param {
    lr_mult: 4
    decay_mult: 1
  }
  param {
    lr_mult: 8
    decay_mult: 0
  }
  inner_product_param {
    num_output: 4096
    weight_filler {
      type: "gaussian"
      std: 0.005
    }
    bias_filler {
      type: "constant"
      value: 1
    }
  }
}
layer {
  name: "relu7"
  type: "ReLU"
  bottom: "fc7"
  top: "fc7"
}
layer {
  name: "drop7"
  type: "Dropout"
  bottom: "fc7"
  top: "fc7"
  dropout_param {
    dropout_ratio: 0.5
  }
}
layer {
  name: "fc8_modA"
  type: "InnerProduct"
  bottom: "fc7"
  top: "fc8_modA"
  param {
    lr_mult: 10
    decay_mult: 1
  }
  param {
    lr_mult: 20
    decay_mult: 0
  }
  inner_product_param {
    num_output: 50
    weight_filler {
      type: "gaussian"
      std: 0.01
    }
    bias_filler {
      type: "constant"
      value: 0
    }
  }
}
layer {
  name: "accuracy"
  type: "Accuracy"
  bottom: "fc8_modA"
  bottom: "label"
  top: "accuracy"
  include {
    phase: TEST
  }
}
layer {
  name: "loss"
  type: "SoftmaxWithLoss"
  bottom: "fc8_modA"
  bottom: "label"
  top: "loss"
}
I0414 12:06:30.311869 22438 layer_factory.hpp:77] Creating layer data
I0414 12:06:30.311882 22438 net.cpp:91] Creating Layer data
I0414 12:06:30.311887 22438 net.cpp:399] data -> data
I0414 12:06:30.311895 22438 net.cpp:399] data -> label
I0414 12:06:30.311909 22438 data_transformer.cpp:25] Loading mean file from: /home/shiv/SegNet/ModelA/mean/mean227alex.binaryproto
I0414 12:06:30.313415 22438 image_data_layer.cpp:38] Opening file /home/shiv/SegNet/img_folderAlexCrop3/val3.txt
I0414 12:06:30.315587 22438 image_data_layer.cpp:53] A total of 6875 images.
I0414 12:06:30.316112 22438 image_data_layer.cpp:80] output data size: 100,3,227,227
I0414 12:06:30.431982 22438 net.cpp:141] Setting up data
I0414 12:06:30.432021 22438 net.cpp:148] Top shape: 100 3 227 227 (15458700)
I0414 12:06:30.432027 22438 net.cpp:148] Top shape: 100 (100)
I0414 12:06:30.432031 22438 net.cpp:156] Memory required for data: 61835200
I0414 12:06:30.432037 22438 layer_factory.hpp:77] Creating layer data_data_0_split
I0414 12:06:30.432050 22438 net.cpp:91] Creating Layer data_data_0_split
I0414 12:06:30.432054 22438 net.cpp:425] data_data_0_split <- data
I0414 12:06:30.432061 22438 net.cpp:399] data_data_0_split -> data_data_0_split_0
I0414 12:06:30.432070 22438 net.cpp:399] data_data_0_split -> data_data_0_split_1
I0414 12:06:30.432075 22438 net.cpp:399] data_data_0_split -> data_data_0_split_2
I0414 12:06:30.432122 22438 net.cpp:141] Setting up data_data_0_split
I0414 12:06:30.432128 22438 net.cpp:148] Top shape: 100 3 227 227 (15458700)
I0414 12:06:30.432134 22438 net.cpp:148] Top shape: 100 3 227 227 (15458700)
I0414 12:06:30.432138 22438 net.cpp:148] Top shape: 100 3 227 227 (15458700)
I0414 12:06:30.432142 22438 net.cpp:156] Memory required for data: 247339600
I0414 12:06:30.432145 22438 layer_factory.hpp:77] Creating layer label_data_1_split
I0414 12:06:30.432152 22438 net.cpp:91] Creating Layer label_data_1_split
I0414 12:06:30.432155 22438 net.cpp:425] label_data_1_split <- label
I0414 12:06:30.432160 22438 net.cpp:399] label_data_1_split -> label_data_1_split_0
I0414 12:06:30.432166 22438 net.cpp:399] label_data_1_split -> label_data_1_split_1
I0414 12:06:30.432190 22438 net.cpp:141] Setting up label_data_1_split
I0414 12:06:30.432195 22438 net.cpp:148] Top shape: 100 (100)
I0414 12:06:30.432199 22438 net.cpp:148] Top shape: 100 (100)
I0414 12:06:30.432204 22438 net.cpp:156] Memory required for data: 247340400
I0414 12:06:30.432206 22438 layer_factory.hpp:77] Creating layer conv1a
I0414 12:06:30.432217 22438 net.cpp:91] Creating Layer conv1a
I0414 12:06:30.432221 22438 net.cpp:425] conv1a <- data_data_0_split_0
I0414 12:06:30.432227 22438 net.cpp:399] conv1a -> conv1a
I0414 12:06:30.433255 22438 net.cpp:141] Setting up conv1a
I0414 12:06:30.433264 22438 net.cpp:148] Top shape: 100 96 55 55 (29040000)
I0414 12:06:30.433269 22438 net.cpp:156] Memory required for data: 363500400
I0414 12:06:30.433277 22438 layer_factory.hpp:77] Creating layer relu1a
I0414 12:06:30.433284 22438 net.cpp:91] Creating Layer relu1a
I0414 12:06:30.433289 22438 net.cpp:425] relu1a <- conv1a
I0414 12:06:30.433293 22438 net.cpp:386] relu1a -> conv1a (in-place)
I0414 12:06:30.433300 22438 net.cpp:141] Setting up relu1a
I0414 12:06:30.433303 22438 net.cpp:148] Top shape: 100 96 55 55 (29040000)
I0414 12:06:30.433307 22438 net.cpp:156] Memory required for data: 479660400
I0414 12:06:30.433310 22438 layer_factory.hpp:77] Creating layer norm1a
I0414 12:06:30.433317 22438 net.cpp:91] Creating Layer norm1a
I0414 12:06:30.433320 22438 net.cpp:425] norm1a <- conv1a
I0414 12:06:30.433326 22438 net.cpp:399] norm1a -> norm1a
I0414 12:06:30.433351 22438 net.cpp:141] Setting up norm1a
I0414 12:06:30.433357 22438 net.cpp:148] Top shape: 100 96 55 55 (29040000)
I0414 12:06:30.433359 22438 net.cpp:156] Memory required for data: 595820400
I0414 12:06:30.433363 22438 layer_factory.hpp:77] Creating layer pool1a
I0414 12:06:30.433369 22438 net.cpp:91] Creating Layer pool1a
I0414 12:06:30.433373 22438 net.cpp:425] pool1a <- norm1a
I0414 12:06:30.433377 22438 net.cpp:399] pool1a -> pool1a
I0414 12:06:30.433399 22438 net.cpp:141] Setting up pool1a
I0414 12:06:30.433404 22438 net.cpp:148] Top shape: 100 96 27 27 (6998400)
I0414 12:06:30.433408 22438 net.cpp:156] Memory required for data: 623814000
I0414 12:06:30.433426 22438 layer_factory.hpp:77] Creating layer conv1b
I0414 12:06:30.433435 22438 net.cpp:91] Creating Layer conv1b
I0414 12:06:30.433439 22438 net.cpp:425] conv1b <- data_data_0_split_1
I0414 12:06:30.433444 22438 net.cpp:399] conv1b -> conv1b
I0414 12:06:30.452612 22438 net.cpp:141] Setting up conv1b
I0414 12:06:30.452627 22438 net.cpp:148] Top shape: 100 96 55 55 (29040000)
I0414 12:06:30.452631 22438 net.cpp:156] Memory required for data: 739974000
I0414 12:06:30.452641 22438 layer_factory.hpp:77] Creating layer relu1b
I0414 12:06:30.452649 22438 net.cpp:91] Creating Layer relu1b
I0414 12:06:30.452653 22438 net.cpp:425] relu1b <- conv1b
I0414 12:06:30.452658 22438 net.cpp:386] relu1b -> conv1b (in-place)
I0414 12:06:30.452666 22438 net.cpp:141] Setting up relu1b
I0414 12:06:30.452671 22438 net.cpp:148] Top shape: 100 96 55 55 (29040000)
I0414 12:06:30.452674 22438 net.cpp:156] Memory required for data: 856134000
I0414 12:06:30.452678 22438 layer_factory.hpp:77] Creating layer norm1b
I0414 12:06:30.452683 22438 net.cpp:91] Creating Layer norm1b
I0414 12:06:30.452687 22438 net.cpp:425] norm1b <- conv1b
I0414 12:06:30.452692 22438 net.cpp:399] norm1b -> norm1b
I0414 12:06:30.452718 22438 net.cpp:141] Setting up norm1b
I0414 12:06:30.452724 22438 net.cpp:148] Top shape: 100 96 55 55 (29040000)
I0414 12:06:30.452728 22438 net.cpp:156] Memory required for data: 972294000
I0414 12:06:30.452731 22438 layer_factory.hpp:77] Creating layer pool1b
I0414 12:06:30.452736 22438 net.cpp:91] Creating Layer pool1b
I0414 12:06:30.452740 22438 net.cpp:425] pool1b <- norm1b
I0414 12:06:30.452745 22438 net.cpp:399] pool1b -> pool1b
I0414 12:06:30.452767 22438 net.cpp:141] Setting up pool1b
I0414 12:06:30.452772 22438 net.cpp:148] Top shape: 100 96 27 27 (6998400)
I0414 12:06:30.452775 22438 net.cpp:156] Memory required for data: 1000287600
I0414 12:06:30.452780 22438 layer_factory.hpp:77] Creating layer conv1_mod
I0414 12:06:30.452787 22438 net.cpp:91] Creating Layer conv1_mod
I0414 12:06:30.452791 22438 net.cpp:425] conv1_mod <- data_data_0_split_2
I0414 12:06:30.452796 22438 net.cpp:399] conv1_mod -> conv1_mod
I0414 12:06:30.453778 22438 net.cpp:141] Setting up conv1_mod
I0414 12:06:30.453786 22438 net.cpp:148] Top shape: 100 96 55 55 (29040000)
I0414 12:06:30.453790 22438 net.cpp:156] Memory required for data: 1116447600
I0414 12:06:30.453797 22438 layer_factory.hpp:77] Creating layer relu1_mod
I0414 12:06:30.453804 22438 net.cpp:91] Creating Layer relu1_mod
I0414 12:06:30.453807 22438 net.cpp:425] relu1_mod <- conv1_mod
I0414 12:06:30.453811 22438 net.cpp:386] relu1_mod -> conv1_mod (in-place)
I0414 12:06:30.453817 22438 net.cpp:141] Setting up relu1_mod
I0414 12:06:30.453821 22438 net.cpp:148] Top shape: 100 96 55 55 (29040000)
I0414 12:06:30.453825 22438 net.cpp:156] Memory required for data: 1232607600
I0414 12:06:30.453829 22438 layer_factory.hpp:77] Creating layer norm1_mod
I0414 12:06:30.453835 22438 net.cpp:91] Creating Layer norm1_mod
I0414 12:06:30.453837 22438 net.cpp:425] norm1_mod <- conv1_mod
I0414 12:06:30.453842 22438 net.cpp:399] norm1_mod -> norm1_mod
I0414 12:06:30.453867 22438 net.cpp:141] Setting up norm1_mod
I0414 12:06:30.453872 22438 net.cpp:148] Top shape: 100 96 55 55 (29040000)
I0414 12:06:30.453876 22438 net.cpp:156] Memory required for data: 1348767600
I0414 12:06:30.453879 22438 layer_factory.hpp:77] Creating layer pool1_mod
I0414 12:06:30.453886 22438 net.cpp:91] Creating Layer pool1_mod
I0414 12:06:30.453891 22438 net.cpp:425] pool1_mod <- norm1_mod
I0414 12:06:30.453894 22438 net.cpp:399] pool1_mod -> pool1_mod
I0414 12:06:30.453917 22438 net.cpp:141] Setting up pool1_mod
I0414 12:06:30.453923 22438 net.cpp:148] Top shape: 100 96 27 27 (6998400)
I0414 12:06:30.453927 22438 net.cpp:156] Memory required for data: 1376761200
I0414 12:06:30.453930 22438 layer_factory.hpp:77] Creating layer conv2_mod
I0414 12:06:30.453939 22438 net.cpp:91] Creating Layer conv2_mod
I0414 12:06:30.453944 22438 net.cpp:425] conv2_mod <- pool1_mod
I0414 12:06:30.453950 22438 net.cpp:399] conv2_mod -> conv2_mod
I0414 12:06:30.456090 22438 net.cpp:141] Setting up conv2_mod
I0414 12:06:30.456101 22438 net.cpp:148] Top shape: 100 96 27 27 (6998400)
I0414 12:06:30.456106 22438 net.cpp:156] Memory required for data: 1404754800
I0414 12:06:30.456113 22438 layer_factory.hpp:77] Creating layer relu2_mod
I0414 12:06:30.456120 22438 net.cpp:91] Creating Layer relu2_mod
I0414 12:06:30.456125 22438 net.cpp:425] relu2_mod <- conv2_mod
I0414 12:06:30.456131 22438 net.cpp:386] relu2_mod -> conv2_mod (in-place)
I0414 12:06:30.456138 22438 net.cpp:141] Setting up relu2_mod
I0414 12:06:30.456143 22438 net.cpp:148] Top shape: 100 96 27 27 (6998400)
I0414 12:06:30.456146 22438 net.cpp:156] Memory required for data: 1432748400
I0414 12:06:30.456152 22438 layer_factory.hpp:77] Creating layer norm2_mod
I0414 12:06:30.456159 22438 net.cpp:91] Creating Layer norm2_mod
I0414 12:06:30.456163 22438 net.cpp:425] norm2_mod <- conv2_mod
I0414 12:06:30.456169 22438 net.cpp:399] norm2_mod -> norm2_mod
I0414 12:06:30.456195 22438 net.cpp:141] Setting up norm2_mod
I0414 12:06:30.456202 22438 net.cpp:148] Top shape: 100 96 27 27 (6998400)
I0414 12:06:30.456205 22438 net.cpp:156] Memory required for data: 1460742000
I0414 12:06:30.456209 22438 layer_factory.hpp:77] Creating layer poolGlobal
I0414 12:06:30.456215 22438 net.cpp:91] Creating Layer poolGlobal
I0414 12:06:30.456220 22438 net.cpp:425] poolGlobal <- norm2_mod
I0414 12:06:30.456225 22438 net.cpp:399] poolGlobal -> poolGlobal
I0414 12:06:30.456241 22438 net.cpp:141] Setting up poolGlobal
I0414 12:06:30.456248 22438 net.cpp:148] Top shape: 100 96 1 1 (9600)
I0414 12:06:30.456251 22438 net.cpp:156] Memory required for data: 1460780400
I0414 12:06:30.456255 22438 layer_factory.hpp:77] Creating layer fc1a
I0414 12:06:30.456264 22438 net.cpp:91] Creating Layer fc1a
I0414 12:06:30.456269 22438 net.cpp:425] fc1a <- poolGlobal
I0414 12:06:30.456274 22438 net.cpp:399] fc1a -> fc1a
I0414 12:06:30.456583 22438 net.cpp:141] Setting up fc1a
I0414 12:06:30.456593 22438 net.cpp:148] Top shape: 100 96 (9600)
I0414 12:06:30.456596 22438 net.cpp:156] Memory required for data: 1460818800
I0414 12:06:30.456604 22438 layer_factory.hpp:77] Creating layer relu1a
I0414 12:06:30.456612 22438 net.cpp:91] Creating Layer relu1a
I0414 12:06:30.456617 22438 net.cpp:425] relu1a <- fc1a
I0414 12:06:30.456621 22438 net.cpp:386] relu1a -> fc1a (in-place)
I0414 12:06:30.456629 22438 net.cpp:141] Setting up relu1a
I0414 12:06:30.456632 22438 net.cpp:148] Top shape: 100 96 (9600)
I0414 12:06:30.456636 22438 net.cpp:156] Memory required for data: 1460857200
I0414 12:06:30.456640 22438 layer_factory.hpp:77] Creating layer fc1b
I0414 12:06:30.456646 22438 net.cpp:91] Creating Layer fc1b
I0414 12:06:30.456650 22438 net.cpp:425] fc1b <- fc1a
I0414 12:06:30.456656 22438 net.cpp:399] fc1b -> fc1b
I0414 12:06:30.457334 22438 net.cpp:141] Setting up fc1b
I0414 12:06:30.457341 22438 net.cpp:148] Top shape: 100 256 (25600)
I0414 12:06:30.457345 22438 net.cpp:156] Memory required for data: 1460959600
I0414 12:06:30.457350 22438 layer_factory.hpp:77] Creating layer relu1b
I0414 12:06:30.457356 22438 net.cpp:91] Creating Layer relu1b
I0414 12:06:30.457360 22438 net.cpp:425] relu1b <- fc1b
I0414 12:06:30.457365 22438 net.cpp:386] relu1b -> fc1b (in-place)
I0414 12:06:30.457370 22438 net.cpp:141] Setting up relu1b
I0414 12:06:30.457375 22438 net.cpp:148] Top shape: 100 256 (25600)
I0414 12:06:30.457378 22438 net.cpp:156] Memory required for data: 1461062000
I0414 12:06:30.457381 22438 layer_factory.hpp:77] Creating layer fc_switchbottom
I0414 12:06:30.457388 22438 net.cpp:91] Creating Layer fc_switchbottom
I0414 12:06:30.457392 22438 net.cpp:425] fc_switchbottom <- fc1b
I0414 12:06:30.457398 22438 net.cpp:399] fc_switchbottom -> fc_switchbottom
I0414 12:06:30.457480 22438 net.cpp:141] Setting up fc_switchbottom
I0414 12:06:30.457486 22438 net.cpp:148] Top shape: 100 2 (200)
I0414 12:06:30.457490 22438 net.cpp:156] Memory required for data: 1461062800
I0414 12:06:30.457496 22438 layer_factory.hpp:77] Creating layer prob
I0414 12:06:30.457504 22438 net.cpp:91] Creating Layer prob
I0414 12:06:30.457516 22438 net.cpp:425] prob <- fc_switchbottom
I0414 12:06:30.457522 22438 net.cpp:399] prob -> prob
I0414 12:06:30.457571 22438 net.cpp:141] Setting up prob
I0414 12:06:30.457581 22438 net.cpp:148] Top shape: 100 2 (200)
I0414 12:06:30.457586 22438 net.cpp:156] Memory required for data: 1461063600
I0414 12:06:30.457589 22438 layer_factory.hpp:77] Creating layer outputLabel
I0414 12:06:30.457595 22438 net.cpp:91] Creating Layer outputLabel
I0414 12:06:30.457600 22438 net.cpp:425] outputLabel <- prob
I0414 12:06:30.457605 22438 net.cpp:399] outputLabel -> outputLabel
I0414 12:06:30.457624 22438 net.cpp:141] Setting up outputLabel
I0414 12:06:30.457629 22438 net.cpp:148] Top shape: 100 1 1 (100)
I0414 12:06:30.457634 22438 net.cpp:156] Memory required for data: 1461064000
I0414 12:06:30.457638 22438 layer_factory.hpp:77] Creating layer switch
I0414 12:06:30.457643 22438 net.cpp:91] Creating Layer switch
I0414 12:06:30.457648 22438 net.cpp:425] switch <- pool1a
I0414 12:06:30.457653 22438 net.cpp:425] switch <- pool1b
I0414 12:06:30.457659 22438 net.cpp:425] switch <- outputLabel
I0414 12:06:30.457664 22438 net.cpp:399] switch -> switch
I0414 12:06:30.457679 22438 net.cpp:141] Setting up switch
I0414 12:06:30.457686 22438 net.cpp:148] Top shape: 100 96 27 27 (6998400)
I0414 12:06:30.457690 22438 net.cpp:156] Memory required for data: 1489057600
I0414 12:06:30.457695 22438 layer_factory.hpp:77] Creating layer conv2
I0414 12:06:30.457702 22438 net.cpp:91] Creating Layer conv2
I0414 12:06:30.457707 22438 net.cpp:425] conv2 <- switch
I0414 12:06:30.457713 22438 net.cpp:399] conv2 -> conv2
I0414 12:06:30.465409 22438 net.cpp:141] Setting up conv2
I0414 12:06:30.465422 22438 net.cpp:148] Top shape: 100 256 27 27 (18662400)
I0414 12:06:30.465437 22438 net.cpp:156] Memory required for data: 1563707200
I0414 12:06:30.465443 22438 layer_factory.hpp:77] Creating layer relu2
I0414 12:06:30.465448 22438 net.cpp:91] Creating Layer relu2
I0414 12:06:30.465452 22438 net.cpp:425] relu2 <- conv2
I0414 12:06:30.465458 22438 net.cpp:386] relu2 -> conv2 (in-place)
I0414 12:06:30.465464 22438 net.cpp:141] Setting up relu2
I0414 12:06:30.465468 22438 net.cpp:148] Top shape: 100 256 27 27 (18662400)
I0414 12:06:30.465472 22438 net.cpp:156] Memory required for data: 1638356800
I0414 12:06:30.465476 22438 layer_factory.hpp:77] Creating layer norm2
I0414 12:06:30.465483 22438 net.cpp:91] Creating Layer norm2
I0414 12:06:30.465487 22438 net.cpp:425] norm2 <- conv2
I0414 12:06:30.465492 22438 net.cpp:399] norm2 -> norm2
I0414 12:06:30.465520 22438 net.cpp:141] Setting up norm2
I0414 12:06:30.465525 22438 net.cpp:148] Top shape: 100 256 27 27 (18662400)
I0414 12:06:30.465529 22438 net.cpp:156] Memory required for data: 1713006400
I0414 12:06:30.465533 22438 layer_factory.hpp:77] Creating layer pool2
I0414 12:06:30.465538 22438 net.cpp:91] Creating Layer pool2
I0414 12:06:30.465543 22438 net.cpp:425] pool2 <- norm2
I0414 12:06:30.465548 22438 net.cpp:399] pool2 -> pool2
I0414 12:06:30.465570 22438 net.cpp:141] Setting up pool2
I0414 12:06:30.465577 22438 net.cpp:148] Top shape: 100 256 13 13 (4326400)
I0414 12:06:30.465580 22438 net.cpp:156] Memory required for data: 1730312000
I0414 12:06:30.465584 22438 layer_factory.hpp:77] Creating layer conv3
I0414 12:06:30.465593 22438 net.cpp:91] Creating Layer conv3
I0414 12:06:30.465597 22438 net.cpp:425] conv3 <- pool2
I0414 12:06:30.465602 22438 net.cpp:399] conv3 -> conv3
I0414 12:06:30.487300 22438 net.cpp:141] Setting up conv3
I0414 12:06:30.487321 22438 net.cpp:148] Top shape: 100 384 13 13 (6489600)
I0414 12:06:30.487325 22438 net.cpp:156] Memory required for data: 1756270400
I0414 12:06:30.487339 22438 layer_factory.hpp:77] Creating layer relu3
I0414 12:06:30.487350 22438 net.cpp:91] Creating Layer relu3
I0414 12:06:30.487355 22438 net.cpp:425] relu3 <- conv3
I0414 12:06:30.487360 22438 net.cpp:386] relu3 -> conv3 (in-place)
I0414 12:06:30.487370 22438 net.cpp:141] Setting up relu3
I0414 12:06:30.487373 22438 net.cpp:148] Top shape: 100 384 13 13 (6489600)
I0414 12:06:30.487396 22438 net.cpp:156] Memory required for data: 1782228800
I0414 12:06:30.487399 22438 layer_factory.hpp:77] Creating layer conv4
I0414 12:06:30.487409 22438 net.cpp:91] Creating Layer conv4
I0414 12:06:30.487413 22438 net.cpp:425] conv4 <- conv3
I0414 12:06:30.487421 22438 net.cpp:399] conv4 -> conv4
I0414 12:06:30.503784 22438 net.cpp:141] Setting up conv4
I0414 12:06:30.503800 22438 net.cpp:148] Top shape: 100 384 13 13 (6489600)
I0414 12:06:30.503805 22438 net.cpp:156] Memory required for data: 1808187200
I0414 12:06:30.503811 22438 layer_factory.hpp:77] Creating layer relu4
I0414 12:06:30.503818 22438 net.cpp:91] Creating Layer relu4
I0414 12:06:30.503824 22438 net.cpp:425] relu4 <- conv4
I0414 12:06:30.503831 22438 net.cpp:386] relu4 -> conv4 (in-place)
I0414 12:06:30.503839 22438 net.cpp:141] Setting up relu4
I0414 12:06:30.503844 22438 net.cpp:148] Top shape: 100 384 13 13 (6489600)
I0414 12:06:30.503847 22438 net.cpp:156] Memory required for data: 1834145600
I0414 12:06:30.503851 22438 layer_factory.hpp:77] Creating layer conv5
I0414 12:06:30.503860 22438 net.cpp:91] Creating Layer conv5
I0414 12:06:30.503865 22438 net.cpp:425] conv5 <- conv4
I0414 12:06:30.503870 22438 net.cpp:399] conv5 -> conv5
I0414 12:06:30.514950 22438 net.cpp:141] Setting up conv5
I0414 12:06:30.514964 22438 net.cpp:148] Top shape: 100 256 13 13 (4326400)
I0414 12:06:30.514978 22438 net.cpp:156] Memory required for data: 1851451200
I0414 12:06:30.514986 22438 layer_factory.hpp:77] Creating layer relu5
I0414 12:06:30.514992 22438 net.cpp:91] Creating Layer relu5
I0414 12:06:30.514997 22438 net.cpp:425] relu5 <- conv5
I0414 12:06:30.515002 22438 net.cpp:386] relu5 -> conv5 (in-place)
I0414 12:06:30.515009 22438 net.cpp:141] Setting up relu5
I0414 12:06:30.515013 22438 net.cpp:148] Top shape: 100 256 13 13 (4326400)
I0414 12:06:30.515017 22438 net.cpp:156] Memory required for data: 1868756800
I0414 12:06:30.515020 22438 layer_factory.hpp:77] Creating layer pool5
I0414 12:06:30.515027 22438 net.cpp:91] Creating Layer pool5
I0414 12:06:30.515032 22438 net.cpp:425] pool5 <- conv5
I0414 12:06:30.515038 22438 net.cpp:399] pool5 -> pool5
I0414 12:06:30.515069 22438 net.cpp:141] Setting up pool5
I0414 12:06:30.515074 22438 net.cpp:148] Top shape: 100 256 6 6 (921600)
I0414 12:06:30.515079 22438 net.cpp:156] Memory required for data: 1872443200
I0414 12:06:30.515081 22438 layer_factory.hpp:77] Creating layer fc6
I0414 12:06:30.515089 22438 net.cpp:91] Creating Layer fc6
I0414 12:06:30.515092 22438 net.cpp:425] fc6 <- pool5
I0414 12:06:30.515100 22438 net.cpp:399] fc6 -> fc6
I0414 12:06:31.424921 22438 net.cpp:141] Setting up fc6
I0414 12:06:31.424952 22438 net.cpp:148] Top shape: 100 4096 (409600)
I0414 12:06:31.424957 22438 net.cpp:156] Memory required for data: 1874081600
I0414 12:06:31.424965 22438 layer_factory.hpp:77] Creating layer relu6
I0414 12:06:31.424975 22438 net.cpp:91] Creating Layer relu6
I0414 12:06:31.424980 22438 net.cpp:425] relu6 <- fc6
I0414 12:06:31.424988 22438 net.cpp:386] relu6 -> fc6 (in-place)
I0414 12:06:31.424998 22438 net.cpp:141] Setting up relu6
I0414 12:06:31.425003 22438 net.cpp:148] Top shape: 100 4096 (409600)
I0414 12:06:31.425006 22438 net.cpp:156] Memory required for data: 1875720000
I0414 12:06:31.425010 22438 layer_factory.hpp:77] Creating layer drop6
I0414 12:06:31.425017 22438 net.cpp:91] Creating Layer drop6
I0414 12:06:31.425021 22438 net.cpp:425] drop6 <- fc6
I0414 12:06:31.425026 22438 net.cpp:386] drop6 -> fc6 (in-place)
I0414 12:06:31.425050 22438 net.cpp:141] Setting up drop6
I0414 12:06:31.425055 22438 net.cpp:148] Top shape: 100 4096 (409600)
I0414 12:06:31.425060 22438 net.cpp:156] Memory required for data: 1877358400
I0414 12:06:31.425063 22438 layer_factory.hpp:77] Creating layer fc7
I0414 12:06:31.425072 22438 net.cpp:91] Creating Layer fc7
I0414 12:06:31.425076 22438 net.cpp:425] fc7 <- fc6
I0414 12:06:31.425081 22438 net.cpp:399] fc7 -> fc7
I0414 12:06:31.824347 22438 net.cpp:141] Setting up fc7
I0414 12:06:31.824373 22438 net.cpp:148] Top shape: 100 4096 (409600)
I0414 12:06:31.824398 22438 net.cpp:156] Memory required for data: 1878996800
I0414 12:06:31.824406 22438 layer_factory.hpp:77] Creating layer relu7
I0414 12:06:31.824416 22438 net.cpp:91] Creating Layer relu7
I0414 12:06:31.824422 22438 net.cpp:425] relu7 <- fc7
I0414 12:06:31.824439 22438 net.cpp:386] relu7 -> fc7 (in-place)
I0414 12:06:31.824447 22438 net.cpp:141] Setting up relu7
I0414 12:06:31.824451 22438 net.cpp:148] Top shape: 100 4096 (409600)
I0414 12:06:31.824455 22438 net.cpp:156] Memory required for data: 1880635200
I0414 12:06:31.824458 22438 layer_factory.hpp:77] Creating layer drop7
I0414 12:06:31.824465 22438 net.cpp:91] Creating Layer drop7
I0414 12:06:31.824468 22438 net.cpp:425] drop7 <- fc7
I0414 12:06:31.824475 22438 net.cpp:386] drop7 -> fc7 (in-place)
I0414 12:06:31.824496 22438 net.cpp:141] Setting up drop7
I0414 12:06:31.824512 22438 net.cpp:148] Top shape: 100 4096 (409600)
I0414 12:06:31.824515 22438 net.cpp:156] Memory required for data: 1882273600
I0414 12:06:31.824519 22438 layer_factory.hpp:77] Creating layer fc8_modA
I0414 12:06:31.824527 22438 net.cpp:91] Creating Layer fc8_modA
I0414 12:06:31.824532 22438 net.cpp:425] fc8_modA <- fc7
I0414 12:06:31.824537 22438 net.cpp:399] fc8_modA -> fc8_modA
I0414 12:06:31.829748 22438 net.cpp:141] Setting up fc8_modA
I0414 12:06:31.829761 22438 net.cpp:148] Top shape: 100 50 (5000)
I0414 12:06:31.829776 22438 net.cpp:156] Memory required for data: 1882293600
I0414 12:06:31.829782 22438 layer_factory.hpp:77] Creating layer fc8_modA_fc8_modA_0_split
I0414 12:06:31.829788 22438 net.cpp:91] Creating Layer fc8_modA_fc8_modA_0_split
I0414 12:06:31.829793 22438 net.cpp:425] fc8_modA_fc8_modA_0_split <- fc8_modA
I0414 12:06:31.829800 22438 net.cpp:399] fc8_modA_fc8_modA_0_split -> fc8_modA_fc8_modA_0_split_0
I0414 12:06:31.829807 22438 net.cpp:399] fc8_modA_fc8_modA_0_split -> fc8_modA_fc8_modA_0_split_1
I0414 12:06:31.829834 22438 net.cpp:141] Setting up fc8_modA_fc8_modA_0_split
I0414 12:06:31.829841 22438 net.cpp:148] Top shape: 100 50 (5000)
I0414 12:06:31.829845 22438 net.cpp:148] Top shape: 100 50 (5000)
I0414 12:06:31.829849 22438 net.cpp:156] Memory required for data: 1882333600
I0414 12:06:31.829854 22438 layer_factory.hpp:77] Creating layer accuracy
I0414 12:06:31.829861 22438 net.cpp:91] Creating Layer accuracy
I0414 12:06:31.829866 22438 net.cpp:425] accuracy <- fc8_modA_fc8_modA_0_split_0
I0414 12:06:31.829871 22438 net.cpp:425] accuracy <- label_data_1_split_0
I0414 12:06:31.829879 22438 net.cpp:399] accuracy -> accuracy
…
