…
I0415 07:01:46.730448 18774 net.cpp:313] The NetState phase (0) differed from the phase (1) specified by a rule in layer accuracy
I0415 07:01:46.730661 18774 net.cpp:49] Initializing net from parameters: 
name: "AlexNet"
state {
  phase: TRAIN
}
layer {
  name: "data"
  type: "ImageData"
  top: "data"
  top: "label"
  include {
    phase: TRAIN
  }
  transform_param {
    mirror: true
    mean_file: "/home/shiv/SegNet/ModelA/mean/mean227alex.binaryproto"
  }
  image_data_param {
    source: "/home/shiv/SegNet/img_folderAlexCrop3/train3.txt"
    batch_size: 250
    shuffle: true
  }
}
layer {
  name: "conv1a"
  type: "Convolution"
  bottom: "data"
  top: "conv1a"
  param {
    lr_mult: 1
    decay_mult: 1
  }
  param {
    lr_mult: 2
    decay_mult: 0
  }
  convolution_param {
    num_output: 96
    kernel_size: 11
    stride: 4
    weight_filler {
      type: "gaussian"
      std: 0.01
    }
    bias_filler {
      type: "constant"
      value: 0
    }
  }
}
layer {
  name: "relu1a"
  type: "ReLU"
  bottom: "conv1a"
  top: "conv1a"
}
layer {
  name: "norm1a"
  type: "LRN"
  bottom: "conv1a"
  top: "norm1a"
  lrn_param {
    local_size: 5
    alpha: 0.0001
    beta: 0.75
  }
}
layer {
  name: "pool1a"
  type: "Pooling"
  bottom: "norm1a"
  top: "pool1a"
  pooling_param {
    pool: MAX
    kernel_size: 3
    stride: 2
  }
}
layer {
  name: "conv2a"
  type: "Convolution"
  bottom: "pool1a"
  top: "conv2a"
  param {
    lr_mult: 1
    decay_mult: 1
  }
  param {
    lr_mult: 2
    decay_mult: 0
  }
  convolution_param {
    num_output: 256
    pad: 2
    kernel_size: 5
    group: 2
    weight_filler {
      type: "gaussian"
      std: 0.01
    }
    bias_filler {
      type: "constant"
      value: 1
    }
  }
}
layer {
  name: "relu2a"
  type: "ReLU"
  bottom: "conv2a"
  top: "conv2a"
}
layer {
  name: "norm2a"
  type: "LRN"
  bottom: "conv2a"
  top: "norm2a"
  lrn_param {
    local_size: 5
    alpha: 0.0001
    beta: 0.75
  }
}
layer {
  name: "pool2a"
  type: "Pooling"
  bottom: "norm2a"
  top: "pool2a"
  pooling_param {
    pool: MAX
    kernel_size: 3
    stride: 2
  }
}
layer {
  name: "conv3a"
  type: "Convolution"
  bottom: "pool2a"
  top: "conv3a"
  param {
    lr_mult: 1
    decay_mult: 1
  }
  param {
    lr_mult: 2
    decay_mult: 0
  }
  convolution_param {
    num_output: 384
    pad: 1
    kernel_size: 3
    weight_filler {
      type: "gaussian"
      std: 0.01
    }
    bias_filler {
      type: "constant"
      value: 0
    }
  }
}
layer {
  name: "relu3a"
  type: "ReLU"
  bottom: "conv3a"
  top: "conv3a"
}
layer {
  name: "conv4a"
  type: "Convolution"
  bottom: "conv3a"
  top: "conv4a"
  param {
    lr_mult: 1
    decay_mult: 1
  }
  param {
    lr_mult: 2
    decay_mult: 0
  }
  convolution_param {
    num_output: 384
    pad: 1
    kernel_size: 3
    group: 2
    weight_filler {
      type: "gaussian"
      std: 0.01
    }
    bias_filler {
      type: "constant"
      value: 1
    }
  }
}
layer {
  name: "relu4a"
  type: "ReLU"
  bottom: "conv4a"
  top: "conv4a"
}
layer {
  name: "conv1b"
  type: "Convolution"
  bottom: "data"
  top: "conv1b"
  param {
    lr_mult: 4
    decay_mult: 1
  }
  param {
    lr_mult: 8
    decay_mult: 0
  }
  convolution_param {
    num_output: 96
    kernel_size: 11
    stride: 4
    weight_filler {
      type: "gaussian"
      std: 0.01
    }
    bias_filler {
      type: "constant"
      value: 0
    }
  }
}
layer {
  name: "relu1b"
  type: "ReLU"
  bottom: "conv1b"
  top: "conv1b"
}
layer {
  name: "norm1b"
  type: "LRN"
  bottom: "conv1b"
  top: "norm1b"
  lrn_param {
    local_size: 5
    alpha: 0.0001
    beta: 0.75
  }
}
layer {
  name: "pool1b"
  type: "Pooling"
  bottom: "norm1b"
  top: "pool1b"
  pooling_param {
    pool: MAX
    kernel_size: 3
    stride: 2
  }
}
layer {
  name: "conv2b"
  type: "Convolution"
  bottom: "pool1b"
  top: "conv2b"
  param {
    lr_mult: 4
    decay_mult: 1
  }
  param {
    lr_mult: 8
    decay_mult: 0
  }
  convolution_param {
    num_output: 256
    pad: 2
    kernel_size: 5
    group: 2
    weight_filler {
      type: "gaussian"
      std: 0.01
    }
    bias_filler {
      type: "constant"
      value: 1
    }
  }
}
layer {
  name: "relu2b"
  type: "ReLU"
  bottom: "conv2b"
  top: "conv2b"
}
layer {
  name: "norm2b"
  type: "LRN"
  bottom: "conv2b"
  top: "norm2b"
  lrn_param {
    local_size: 5
    alpha: 0.0001
    beta: 0.75
  }
}
layer {
  name: "pool2b"
  type: "Pooling"
  bottom: "norm2b"
  top: "pool2b"
  pooling_param {
    pool: MAX
    kernel_size: 3
    stride: 2
  }
}
layer {
  name: "conv3b"
  type: "Convolution"
  bottom: "pool2b"
  top: "conv3b"
  param {
    lr_mult: 4
    decay_mult: 1
  }
  param {
    lr_mult: 8
    decay_mult: 0
  }
  convolution_param {
    num_output: 384
    pad: 1
    kernel_size: 3
    weight_filler {
      type: "gaussian"
      std: 0.01
    }
    bias_filler {
      type: "constant"
      value: 0
    }
  }
}
layer {
  name: "relu3b"
  type: "ReLU"
  bottom: "conv3b"
  top: "conv3b"
}
layer {
  name: "conv4b"
  type: "Convolution"
  bottom: "conv3b"
  top: "conv4b"
  param {
    lr_mult: 4
    decay_mult: 1
  }
  param {
    lr_mult: 8
    decay_mult: 0
  }
  convolution_param {
    num_output: 384
    pad: 1
    kernel_size: 3
    group: 2
    weight_filler {
      type: "gaussian"
      std: 0.01
    }
    bias_filler {
      type: "constant"
      value: 1
    }
  }
}
layer {
  name: "relu4b"
  type: "ReLU"
  bottom: "conv4b"
  top: "conv4b"
}
layer {
  name: "conv1_mod"
  type: "Convolution"
  bottom: "data"
  top: "conv1_mod"
  param {
    lr_mult: 0
    decay_mult: 0
  }
  param {
    lr_mult: 0
    decay_mult: 0
  }
  convolution_param {
    num_output: 96
    kernel_size: 11
    stride: 4
    weight_filler {
      type: "gaussian"
      std: 0.01
    }
    bias_filler {
      type: "constant"
      value: 0
    }
  }
}
layer {
  name: "relu1_mod"
  type: "ReLU"
  bottom: "conv1_mod"
  top: "conv1_mod"
}
layer {
  name: "norm1_mod"
  type: "LRN"
  bottom: "conv1_mod"
  top: "norm1_mod"
  lrn_param {
    local_size: 5
    alpha: 0.0001
    beta: 0.75
  }
}
layer {
  name: "pool1_mod"
  type: "Pooling"
  bottom: "norm1_mod"
  top: "pool1_mod"
  pooling_param {
    pool: MAX
    kernel_size: 3
    stride: 2
  }
}
layer {
  name: "conv2_mod"
  type: "Convolution"
  bottom: "pool1_mod"
  top: "conv2_mod"
  param {
    lr_mult: 0
    decay_mult: 0
  }
  param {
    lr_mult: 0
    decay_mult: 0
  }
  convolution_param {
    num_output: 96
    pad: 1
    kernel_size: 3
    weight_filler {
      type: "gaussian"
      std: 0.01
    }
    bias_filler {
      type: "constant"
      value: 0.5
    }
  }
}
layer {
  name: "relu2_mod"
  type: "ReLU"
  bottom: "conv2_mod"
  top: "conv2_mod"
}
layer {
  name: "norm2_mod"
  type: "LRN"
  bottom: "conv2_mod"
  top: "norm2_mod"
  lrn_param {
    local_size: 3
    alpha: 0.0001
    beta: 0.75
  }
}
layer {
  name: "poolGlobal"
  type: "Pooling"
  bottom: "norm2_mod"
  top: "poolGlobal"
  pooling_param {
    pool: AVE
    global_pooling: true
  }
}
layer {
  name: "fc1a"
  type: "InnerProduct"
  bottom: "poolGlobal"
  top: "fc1a"
  param {
    lr_mult: 0
    decay_mult: 0
  }
  param {
    lr_mult: 0
    decay_mult: 0
  }
  inner_product_param {
    num_output: 96
    weight_filler {
      type: "gaussian"
      std: 0.005
    }
    bias_filler {
      type: "constant"
      value: 0.5
    }
  }
}
layer {
  name: "relu1a"
  type: "ReLU"
  bottom: "fc1a"
  top: "fc1a"
}
layer {
  name: "fc1b"
  type: "InnerProduct"
  bottom: "fc1a"
  top: "fc1b"
  param {
    lr_mult: 0
    decay_mult: 0
  }
  param {
    lr_mult: 0
    decay_mult: 0
  }
  inner_product_param {
    num_output: 256
    weight_filler {
      type: "gaussian"
      std: 0.005
    }
    bias_filler {
      type: "constant"
      value: 0.5
    }
  }
}
layer {
  name: "relu1b"
  type: "ReLU"
  bottom: "fc1b"
  top: "fc1b"
}
layer {
  name: "fc_switchbottom"
  type: "InnerProduct"
  bottom: "fc1b"
  top: "fc_switchbottom"
  param {
    lr_mult: 0
    decay_mult: 0
  }
  param {
    lr_mult: 0
    decay_mult: 0
  }
  inner_product_param {
    num_output: 2
    weight_filler {
      type: "gaussian"
      std: 0.005
    }
    bias_filler {
      type: "constant"
      value: 0.5
    }
  }
}
layer {
  name: "prob"
  type: "Softmax"
  bottom: "fc_switchbottom"
  top: "prob"
}
layer {
  name: "outputLabel"
  type: "ArgMax"
  bottom: "prob"
  top: "outputLabel"
}
layer {
  name: "switch"
  type: "Switch"
  bottom: "conv4a"
  bottom: "conv4b"
  bottom: "outputLabel"
  top: "switch"
}
layer {
  name: "conv5"
  type: "Convolution"
  bottom: "switch"
  top: "conv5"
  param {
    lr_mult: 4
    decay_mult: 1
  }
  param {
    lr_mult: 8
    decay_mult: 0
  }
  convolution_param {
    num_output: 256
    pad: 1
    kernel_size: 3
    group: 2
    weight_filler {
      type: "gaussian"
      std: 0.01
    }
    bias_filler {
      type: "constant"
      value: 1
    }
  }
}
layer {
  name: "relu5"
  type: "ReLU"
  bottom: "conv5"
  top: "conv5"
}
layer {
  name: "pool5"
  type: "Pooling"
  bottom: "conv5"
  top: "pool5"
  pooling_param {
    pool: MAX
    kernel_size: 3
    stride: 2
  }
}
layer {
  name: "fc6"
  type: "InnerProduct"
  bottom: "pool5"
  top: "fc6"
  param {
    lr_mult: 4
    decay_mult: 1
  }
  param {
    lr_mult: 8
    decay_mult: 0
  }
  inner_product_param {
    num_output: 4096
    weight_filler {
      type: "gaussian"
      std: 0.005
    }
    bias_filler {
      type: "constant"
      value: 1
    }
  }
}
layer {
  name: "relu6"
  type: "ReLU"
  bottom: "fc6"
  top: "fc6"
}
layer {
  name: "drop6"
  type: "Dropout"
  bottom: "fc6"
  top: "fc6"
  dropout_param {
    dropout_ratio: 0.5
  }
}
layer {
  name: "fc7"
  type: "InnerProduct"
  bottom: "fc6"
  top: "fc7"
  param {
    lr_mult: 4
    decay_mult: 1
  }
  param {
    lr_mult: 8
    decay_mult: 0
  }
  inner_product_param {
    num_output: 4096
    weight_filler {
      type: "gaussian"
      std: 0.005
    }
    bias_filler {
      type: "constant"
      value: 1
    }
  }
}
layer {
  name: "relu7"
  type: "ReLU"
  bottom: "fc7"
  top: "fc7"
}
layer {
  name: "drop7"
  type: "Dropout"
  bottom: "fc7"
  top: "fc7"
  dropout_param {
    dropout_ratio: 0.5
  }
}
layer {
  name: "fc8_modA"
  type: "InnerProduct"
  bottom: "fc7"
  top: "fc8_modA"
  param {
    lr_mult: 10
    decay_mult: 1
  }
  param {
    lr_mult: 20
    decay_mult: 0
  }
  inner_product_param {
    num_output: 50
    weight_filler {
      type: "gaussian"
      std: 0.01
    }
    bias_filler {
      type: "constant"
      value: 0
    }
  }
}
layer {
  name: "loss"
  type: "SoftmaxWithLoss"
  bottom: "fc8_modA"
  bottom: "label"
  top: "loss"
}
I0415 07:01:46.730897 18774 layer_factory.hpp:77] Creating layer data
I0415 07:01:46.732619 18774 net.cpp:91] Creating Layer data
I0415 07:01:46.732628 18774 net.cpp:399] data -> data
I0415 07:01:46.732648 18774 net.cpp:399] data -> label
I0415 07:01:46.732662 18774 data_transformer.cpp:25] Loading mean file from: /home/shiv/SegNet/ModelA/mean/mean227alex.binaryproto
I0415 07:01:46.811542 18774 image_data_layer.cpp:38] Opening file /home/shiv/SegNet/img_folderAlexCrop3/train3.txt
I0415 07:01:46.841349 18774 image_data_layer.cpp:48] Shuffling data
I0415 07:01:46.842064 18774 image_data_layer.cpp:53] A total of 15000 images.
I0415 07:01:46.842492 18774 image_data_layer.cpp:80] output data size: 250,3,227,227
I0415 07:01:47.018616 18774 net.cpp:141] Setting up data
I0415 07:01:47.018646 18774 net.cpp:148] Top shape: 250 3 227 227 (38646750)
I0415 07:01:47.018674 18774 net.cpp:148] Top shape: 250 (250)
I0415 07:01:47.018679 18774 net.cpp:156] Memory required for data: 154588000
I0415 07:01:47.018687 18774 layer_factory.hpp:77] Creating layer data_data_0_split
I0415 07:01:47.018702 18774 net.cpp:91] Creating Layer data_data_0_split
I0415 07:01:47.018708 18774 net.cpp:425] data_data_0_split <- data
I0415 07:01:47.018723 18774 net.cpp:399] data_data_0_split -> data_data_0_split_0
I0415 07:01:47.018733 18774 net.cpp:399] data_data_0_split -> data_data_0_split_1
I0415 07:01:47.018741 18774 net.cpp:399] data_data_0_split -> data_data_0_split_2
I0415 07:01:47.043413 18774 net.cpp:141] Setting up data_data_0_split
I0415 07:01:47.043426 18774 net.cpp:148] Top shape: 250 3 227 227 (38646750)
I0415 07:01:47.043432 18774 net.cpp:148] Top shape: 250 3 227 227 (38646750)
I0415 07:01:47.043438 18774 net.cpp:148] Top shape: 250 3 227 227 (38646750)
I0415 07:01:47.043442 18774 net.cpp:156] Memory required for data: 618349000
I0415 07:01:47.043447 18774 layer_factory.hpp:77] Creating layer conv1a
I0415 07:01:47.043462 18774 net.cpp:91] Creating Layer conv1a
I0415 07:01:47.043467 18774 net.cpp:425] conv1a <- data_data_0_split_0
I0415 07:01:47.043475 18774 net.cpp:399] conv1a -> conv1a
I0415 07:01:47.045934 18774 net.cpp:141] Setting up conv1a
I0415 07:01:47.045948 18774 net.cpp:148] Top shape: 250 96 55 55 (72600000)
I0415 07:01:47.045951 18774 net.cpp:156] Memory required for data: 908749000
I0415 07:01:47.045965 18774 layer_factory.hpp:77] Creating layer relu1a
I0415 07:01:47.045976 18774 net.cpp:91] Creating Layer relu1a
I0415 07:01:47.045982 18774 net.cpp:425] relu1a <- conv1a
I0415 07:01:47.045989 18774 net.cpp:386] relu1a -> conv1a (in-place)
I0415 07:01:47.046000 18774 net.cpp:141] Setting up relu1a
I0415 07:01:47.046007 18774 net.cpp:148] Top shape: 250 96 55 55 (72600000)
I0415 07:01:47.046011 18774 net.cpp:156] Memory required for data: 1199149000
I0415 07:01:47.046015 18774 layer_factory.hpp:77] Creating layer norm1a
I0415 07:01:47.046023 18774 net.cpp:91] Creating Layer norm1a
I0415 07:01:47.046028 18774 net.cpp:425] norm1a <- conv1a
I0415 07:01:47.046035 18774 net.cpp:399] norm1a -> norm1a
I0415 07:01:47.046066 18774 net.cpp:141] Setting up norm1a
I0415 07:01:47.046072 18774 net.cpp:148] Top shape: 250 96 55 55 (72600000)
I0415 07:01:47.046077 18774 net.cpp:156] Memory required for data: 1489549000
I0415 07:01:47.046080 18774 layer_factory.hpp:77] Creating layer pool1a
I0415 07:01:47.046087 18774 net.cpp:91] Creating Layer pool1a
I0415 07:01:47.046092 18774 net.cpp:425] pool1a <- norm1a
I0415 07:01:47.046098 18774 net.cpp:399] pool1a -> pool1a
I0415 07:01:47.046730 18774 net.cpp:141] Setting up pool1a
I0415 07:01:47.046738 18774 net.cpp:148] Top shape: 250 96 27 27 (17496000)
I0415 07:01:47.046742 18774 net.cpp:156] Memory required for data: 1559533000
I0415 07:01:47.046746 18774 layer_factory.hpp:77] Creating layer conv2a
I0415 07:01:47.046756 18774 net.cpp:91] Creating Layer conv2a
I0415 07:01:47.046761 18774 net.cpp:425] conv2a <- pool1a
I0415 07:01:47.046769 18774 net.cpp:399] conv2a -> conv2a
I0415 07:01:47.053503 18774 net.cpp:141] Setting up conv2a
I0415 07:01:47.053515 18774 net.cpp:148] Top shape: 250 256 27 27 (46656000)
I0415 07:01:47.053519 18774 net.cpp:156] Memory required for data: 1746157000
I0415 07:01:47.053529 18774 layer_factory.hpp:77] Creating layer relu2a
I0415 07:01:47.053537 18774 net.cpp:91] Creating Layer relu2a
I0415 07:01:47.053541 18774 net.cpp:425] relu2a <- conv2a
I0415 07:01:47.053549 18774 net.cpp:386] relu2a -> conv2a (in-place)
I0415 07:01:47.053555 18774 net.cpp:141] Setting up relu2a
I0415 07:01:47.053565 18774 net.cpp:148] Top shape: 250 256 27 27 (46656000)
I0415 07:01:47.053568 18774 net.cpp:156] Memory required for data: 1932781000
I0415 07:01:47.053572 18774 layer_factory.hpp:77] Creating layer norm2a
I0415 07:01:47.053580 18774 net.cpp:91] Creating Layer norm2a
I0415 07:01:47.053586 18774 net.cpp:425] norm2a <- conv2a
I0415 07:01:47.053592 18774 net.cpp:399] norm2a -> norm2a
I0415 07:01:47.053620 18774 net.cpp:141] Setting up norm2a
I0415 07:01:47.053635 18774 net.cpp:148] Top shape: 250 256 27 27 (46656000)
I0415 07:01:47.053640 18774 net.cpp:156] Memory required for data: 2119405000
I0415 07:01:47.053645 18774 layer_factory.hpp:77] Creating layer pool2a
I0415 07:01:47.053652 18774 net.cpp:91] Creating Layer pool2a
I0415 07:01:47.053655 18774 net.cpp:425] pool2a <- norm2a
I0415 07:01:47.053661 18774 net.cpp:399] pool2a -> pool2a
I0415 07:01:47.053686 18774 net.cpp:141] Setting up pool2a
I0415 07:01:47.053694 18774 net.cpp:148] Top shape: 250 256 13 13 (10816000)
I0415 07:01:47.053697 18774 net.cpp:156] Memory required for data: 2162669000
I0415 07:01:47.053701 18774 layer_factory.hpp:77] Creating layer conv3a
I0415 07:01:47.053711 18774 net.cpp:91] Creating Layer conv3a
I0415 07:01:47.053716 18774 net.cpp:425] conv3a <- pool2a
I0415 07:01:47.053724 18774 net.cpp:399] conv3a -> conv3a
I0415 07:01:47.071722 18774 net.cpp:141] Setting up conv3a
I0415 07:01:47.071738 18774 net.cpp:148] Top shape: 250 384 13 13 (16224000)
I0415 07:01:47.071743 18774 net.cpp:156] Memory required for data: 2227565000
I0415 07:01:47.071768 18774 layer_factory.hpp:77] Creating layer relu3a
I0415 07:01:47.071776 18774 net.cpp:91] Creating Layer relu3a
I0415 07:01:47.071781 18774 net.cpp:425] relu3a <- conv3a
I0415 07:01:47.071789 18774 net.cpp:386] relu3a -> conv3a (in-place)
I0415 07:01:47.071796 18774 net.cpp:141] Setting up relu3a
I0415 07:01:47.071802 18774 net.cpp:148] Top shape: 250 384 13 13 (16224000)
I0415 07:01:47.071810 18774 net.cpp:156] Memory required for data: 2292461000
I0415 07:01:47.071815 18774 layer_factory.hpp:77] Creating layer conv4a
I0415 07:01:47.071825 18774 net.cpp:91] Creating Layer conv4a
I0415 07:01:47.071830 18774 net.cpp:425] conv4a <- conv3a
I0415 07:01:47.071837 18774 net.cpp:399] conv4a -> conv4a
I0415 07:01:47.085415 18774 net.cpp:141] Setting up conv4a
I0415 07:01:47.085429 18774 net.cpp:148] Top shape: 250 384 13 13 (16224000)
I0415 07:01:47.085433 18774 net.cpp:156] Memory required for data: 2357357000
I0415 07:01:47.085441 18774 layer_factory.hpp:77] Creating layer relu4a
I0415 07:01:47.085449 18774 net.cpp:91] Creating Layer relu4a
I0415 07:01:47.085454 18774 net.cpp:425] relu4a <- conv4a
I0415 07:01:47.085461 18774 net.cpp:386] relu4a -> conv4a (in-place)
I0415 07:01:47.085474 18774 net.cpp:141] Setting up relu4a
I0415 07:01:47.085480 18774 net.cpp:148] Top shape: 250 384 13 13 (16224000)
I0415 07:01:47.085485 18774 net.cpp:156] Memory required for data: 2422253000
I0415 07:01:47.085489 18774 layer_factory.hpp:77] Creating layer conv1b
I0415 07:01:47.085501 18774 net.cpp:91] Creating Layer conv1b
I0415 07:01:47.085506 18774 net.cpp:425] conv1b <- data_data_0_split_1
I0415 07:01:47.085515 18774 net.cpp:399] conv1b -> conv1b
I0415 07:01:47.086347 18774 net.cpp:141] Setting up conv1b
I0415 07:01:47.086355 18774 net.cpp:148] Top shape: 250 96 55 55 (72600000)
I0415 07:01:47.086359 18774 net.cpp:156] Memory required for data: 2712653000
I0415 07:01:47.086371 18774 layer_factory.hpp:77] Creating layer relu1b
I0415 07:01:47.086380 18774 net.cpp:91] Creating Layer relu1b
I0415 07:01:47.086383 18774 net.cpp:425] relu1b <- conv1b
I0415 07:01:47.086390 18774 net.cpp:386] relu1b -> conv1b (in-place)
I0415 07:01:47.086398 18774 net.cpp:141] Setting up relu1b
I0415 07:01:47.086405 18774 net.cpp:148] Top shape: 250 96 55 55 (72600000)
I0415 07:01:47.086410 18774 net.cpp:156] Memory required for data: 3003053000
I0415 07:01:47.086413 18774 layer_factory.hpp:77] Creating layer norm1b
I0415 07:01:47.086422 18774 net.cpp:91] Creating Layer norm1b
I0415 07:01:47.086427 18774 net.cpp:425] norm1b <- conv1b
I0415 07:01:47.086434 18774 net.cpp:399] norm1b -> norm1b
I0415 07:01:47.086460 18774 net.cpp:141] Setting up norm1b
I0415 07:01:47.086467 18774 net.cpp:148] Top shape: 250 96 55 55 (72600000)
I0415 07:01:47.086470 18774 net.cpp:156] Memory required for data: 3293453000
I0415 07:01:47.086474 18774 layer_factory.hpp:77] Creating layer pool1b
I0415 07:01:47.086482 18774 net.cpp:91] Creating Layer pool1b
I0415 07:01:47.086485 18774 net.cpp:425] pool1b <- norm1b
I0415 07:01:47.086503 18774 net.cpp:399] pool1b -> pool1b
I0415 07:01:47.086539 18774 net.cpp:141] Setting up pool1b
I0415 07:01:47.086552 18774 net.cpp:148] Top shape: 250 96 27 27 (17496000)
I0415 07:01:47.086557 18774 net.cpp:156] Memory required for data: 3363437000
I0415 07:01:47.086561 18774 layer_factory.hpp:77] Creating layer conv2b
I0415 07:01:47.086570 18774 net.cpp:91] Creating Layer conv2b
I0415 07:01:47.086575 18774 net.cpp:425] conv2b <- pool1b
I0415 07:01:47.086583 18774 net.cpp:399] conv2b -> conv2b
I0415 07:01:47.093013 18774 net.cpp:141] Setting up conv2b
I0415 07:01:47.093024 18774 net.cpp:148] Top shape: 250 256 27 27 (46656000)
I0415 07:01:47.093027 18774 net.cpp:156] Memory required for data: 3550061000
I0415 07:01:47.093035 18774 layer_factory.hpp:77] Creating layer relu2b
I0415 07:01:47.093044 18774 net.cpp:91] Creating Layer relu2b
I0415 07:01:47.093047 18774 net.cpp:425] relu2b <- conv2b
I0415 07:01:47.093055 18774 net.cpp:386] relu2b -> conv2b (in-place)
I0415 07:01:47.093061 18774 net.cpp:141] Setting up relu2b
I0415 07:01:47.093070 18774 net.cpp:148] Top shape: 250 256 27 27 (46656000)
I0415 07:01:47.093073 18774 net.cpp:156] Memory required for data: 3736685000
I0415 07:01:47.093077 18774 layer_factory.hpp:77] Creating layer norm2b
I0415 07:01:47.093086 18774 net.cpp:91] Creating Layer norm2b
I0415 07:01:47.093091 18774 net.cpp:425] norm2b <- conv2b
I0415 07:01:47.093098 18774 net.cpp:399] norm2b -> norm2b
I0415 07:01:47.093127 18774 net.cpp:141] Setting up norm2b
I0415 07:01:47.093133 18774 net.cpp:148] Top shape: 250 256 27 27 (46656000)
I0415 07:01:47.093137 18774 net.cpp:156] Memory required for data: 3923309000
I0415 07:01:47.093142 18774 layer_factory.hpp:77] Creating layer pool2b
I0415 07:01:47.093148 18774 net.cpp:91] Creating Layer pool2b
I0415 07:01:47.093152 18774 net.cpp:425] pool2b <- norm2b
I0415 07:01:47.093160 18774 net.cpp:399] pool2b -> pool2b
I0415 07:01:47.093184 18774 net.cpp:141] Setting up pool2b
I0415 07:01:47.093191 18774 net.cpp:148] Top shape: 250 256 13 13 (10816000)
I0415 07:01:47.093195 18774 net.cpp:156] Memory required for data: 3966573000
I0415 07:01:47.093199 18774 layer_factory.hpp:77] Creating layer conv3b
I0415 07:01:47.093211 18774 net.cpp:91] Creating Layer conv3b
I0415 07:01:47.093216 18774 net.cpp:425] conv3b <- pool2b
I0415 07:01:47.093225 18774 net.cpp:399] conv3b -> conv3b
I0415 07:01:47.111266 18774 net.cpp:141] Setting up conv3b
I0415 07:01:47.111284 18774 net.cpp:148] Top shape: 250 384 13 13 (16224000)
I0415 07:01:47.111287 18774 net.cpp:156] Memory required for data: 4031469000
I0415 07:01:47.111294 18774 layer_factory.hpp:77] Creating layer relu3b
I0415 07:01:47.111304 18774 net.cpp:91] Creating Layer relu3b
I0415 07:01:47.111309 18774 net.cpp:425] relu3b <- conv3b
I0415 07:01:47.111325 18774 net.cpp:386] relu3b -> conv3b (in-place)
I0415 07:01:47.111346 18774 net.cpp:141] Setting up relu3b
I0415 07:01:47.111351 18774 net.cpp:148] Top shape: 250 384 13 13 (16224000)
I0415 07:01:47.111356 18774 net.cpp:156] Memory required for data: 4096365000
I0415 07:01:47.111359 18774 layer_factory.hpp:77] Creating layer conv4b
I0415 07:01:47.111371 18774 net.cpp:91] Creating Layer conv4b
I0415 07:01:47.111377 18774 net.cpp:425] conv4b <- conv3b
I0415 07:01:47.111383 18774 net.cpp:399] conv4b -> conv4b
I0415 07:01:47.125143 18774 net.cpp:141] Setting up conv4b
I0415 07:01:47.125159 18774 net.cpp:148] Top shape: 250 384 13 13 (16224000)
I0415 07:01:47.125164 18774 net.cpp:156] Memory required for data: 4161261000
I0415 07:01:47.125172 18774 layer_factory.hpp:77] Creating layer relu4b
I0415 07:01:47.125181 18774 net.cpp:91] Creating Layer relu4b
I0415 07:01:47.125187 18774 net.cpp:425] relu4b <- conv4b
I0415 07:01:47.125195 18774 net.cpp:386] relu4b -> conv4b (in-place)
I0415 07:01:47.125203 18774 net.cpp:141] Setting up relu4b
I0415 07:01:47.125211 18774 net.cpp:148] Top shape: 250 384 13 13 (16224000)
I0415 07:01:47.125214 18774 net.cpp:156] Memory required for data: 4226157000
I0415 07:01:47.125219 18774 layer_factory.hpp:77] Creating layer conv1_mod
I0415 07:01:47.125242 18774 net.cpp:91] Creating Layer conv1_mod
I0415 07:01:47.125247 18774 net.cpp:425] conv1_mod <- data_data_0_split_2
I0415 07:01:47.125257 18774 net.cpp:399] conv1_mod -> conv1_mod
I0415 07:01:47.126098 18774 net.cpp:141] Setting up conv1_mod
I0415 07:01:47.126107 18774 net.cpp:148] Top shape: 250 96 55 55 (72600000)
I0415 07:01:47.126111 18774 net.cpp:156] Memory required for data: 4516557000
I0415 07:01:47.126124 18774 layer_factory.hpp:77] Creating layer relu1_mod
I0415 07:01:47.126132 18774 net.cpp:91] Creating Layer relu1_mod
I0415 07:01:47.126137 18774 net.cpp:425] relu1_mod <- conv1_mod
I0415 07:01:47.126142 18774 net.cpp:386] relu1_mod -> conv1_mod (in-place)
I0415 07:01:47.126152 18774 net.cpp:141] Setting up relu1_mod
I0415 07:01:47.126157 18774 net.cpp:148] Top shape: 250 96 55 55 (72600000)
I0415 07:01:47.126162 18774 net.cpp:156] Memory required for data: 4806957000
I0415 07:01:47.126165 18774 layer_factory.hpp:77] Creating layer norm1_mod
I0415 07:01:47.126174 18774 net.cpp:91] Creating Layer norm1_mod
I0415 07:01:47.126179 18774 net.cpp:425] norm1_mod <- conv1_mod
I0415 07:01:47.126185 18774 net.cpp:399] norm1_mod -> norm1_mod
I0415 07:01:47.126212 18774 net.cpp:141] Setting up norm1_mod
I0415 07:01:47.126219 18774 net.cpp:148] Top shape: 250 96 55 55 (72600000)
I0415 07:01:47.126224 18774 net.cpp:156] Memory required for data: 5097357000
I0415 07:01:47.126227 18774 layer_factory.hpp:77] Creating layer pool1_mod
I0415 07:01:47.126235 18774 net.cpp:91] Creating Layer pool1_mod
I0415 07:01:47.126240 18774 net.cpp:425] pool1_mod <- norm1_mod
I0415 07:01:47.126247 18774 net.cpp:399] pool1_mod -> pool1_mod
I0415 07:01:47.126281 18774 net.cpp:141] Setting up pool1_mod
I0415 07:01:47.126287 18774 net.cpp:148] Top shape: 250 96 27 27 (17496000)
I0415 07:01:47.126291 18774 net.cpp:156] Memory required for data: 5167341000
I0415 07:01:47.126296 18774 layer_factory.hpp:77] Creating layer conv2_mod
I0415 07:01:47.126305 18774 net.cpp:91] Creating Layer conv2_mod
I0415 07:01:47.126312 18774 net.cpp:425] conv2_mod <- pool1_mod
I0415 07:01:47.126329 18774 net.cpp:399] conv2_mod -> conv2_mod
I0415 07:01:47.128089 18774 net.cpp:141] Setting up conv2_mod
I0415 07:01:47.128098 18774 net.cpp:148] Top shape: 250 96 27 27 (17496000)
I0415 07:01:47.128101 18774 net.cpp:156] Memory required for data: 5237325000
I0415 07:01:47.128108 18774 layer_factory.hpp:77] Creating layer relu2_mod
I0415 07:01:47.128114 18774 net.cpp:91] Creating Layer relu2_mod
I0415 07:01:47.128120 18774 net.cpp:425] relu2_mod <- conv2_mod
I0415 07:01:47.128128 18774 net.cpp:386] relu2_mod -> conv2_mod (in-place)
I0415 07:01:47.128135 18774 net.cpp:141] Setting up relu2_mod
I0415 07:01:47.128142 18774 net.cpp:148] Top shape: 250 96 27 27 (17496000)
I0415 07:01:47.128146 18774 net.cpp:156] Memory required for data: 5307309000
I0415 07:01:47.128151 18774 layer_factory.hpp:77] Creating layer norm2_mod
I0415 07:01:47.128161 18774 net.cpp:91] Creating Layer norm2_mod
I0415 07:01:47.128165 18774 net.cpp:425] norm2_mod <- conv2_mod
I0415 07:01:47.128172 18774 net.cpp:399] norm2_mod -> norm2_mod
I0415 07:01:47.128197 18774 net.cpp:141] Setting up norm2_mod
I0415 07:01:47.128204 18774 net.cpp:148] Top shape: 250 96 27 27 (17496000)
I0415 07:01:47.128208 18774 net.cpp:156] Memory required for data: 5377293000
I0415 07:01:47.128212 18774 layer_factory.hpp:77] Creating layer poolGlobal
I0415 07:01:47.128218 18774 net.cpp:91] Creating Layer poolGlobal
I0415 07:01:47.128223 18774 net.cpp:425] poolGlobal <- norm2_mod
I0415 07:01:47.128231 18774 net.cpp:399] poolGlobal -> poolGlobal
I0415 07:01:47.128249 18774 net.cpp:141] Setting up poolGlobal
I0415 07:01:47.128257 18774 net.cpp:148] Top shape: 250 96 1 1 (24000)
I0415 07:01:47.128260 18774 net.cpp:156] Memory required for data: 5377389000
I0415 07:01:47.128264 18774 layer_factory.hpp:77] Creating layer fc1a
I0415 07:01:47.129091 18774 net.cpp:91] Creating Layer fc1a
I0415 07:01:47.129097 18774 net.cpp:425] fc1a <- poolGlobal
I0415 07:01:47.129106 18774 net.cpp:399] fc1a -> fc1a
I0415 07:01:47.129662 18774 net.cpp:141] Setting up fc1a
I0415 07:01:47.129673 18774 net.cpp:148] Top shape: 250 96 (24000)
I0415 07:01:47.129678 18774 net.cpp:156] Memory required for data: 5377485000
I0415 07:01:47.129684 18774 layer_factory.hpp:77] Creating layer relu1a
I0415 07:01:47.129691 18774 net.cpp:91] Creating Layer relu1a
I0415 07:01:47.129696 18774 net.cpp:425] relu1a <- fc1a
I0415 07:01:47.129703 18774 net.cpp:386] relu1a -> fc1a (in-place)
I0415 07:01:47.129709 18774 net.cpp:141] Setting up relu1a
I0415 07:01:47.129731 18774 net.cpp:148] Top shape: 250 96 (24000)
I0415 07:01:47.129737 18774 net.cpp:156] Memory required for data: 5377581000
I0415 07:01:47.129741 18774 layer_factory.hpp:77] Creating layer fc1b
I0415 07:01:47.129750 18774 net.cpp:91] Creating Layer fc1b
I0415 07:01:47.129765 18774 net.cpp:425] fc1b <- fc1a
I0415 07:01:47.129772 18774 net.cpp:399] fc1b -> fc1b
I0415 07:01:47.130327 18774 net.cpp:141] Setting up fc1b
I0415 07:01:47.130336 18774 net.cpp:148] Top shape: 250 256 (64000)
I0415 07:01:47.130339 18774 net.cpp:156] Memory required for data: 5377837000
I0415 07:01:47.130347 18774 layer_factory.hpp:77] Creating layer relu1b
I0415 07:01:47.130352 18774 net.cpp:91] Creating Layer relu1b
I0415 07:01:47.130358 18774 net.cpp:425] relu1b <- fc1b
I0415 07:01:47.130364 18774 net.cpp:386] relu1b -> fc1b (in-place)
I0415 07:01:47.130372 18774 net.cpp:141] Setting up relu1b
I0415 07:01:47.130388 18774 net.cpp:148] Top shape: 250 256 (64000)
I0415 07:01:47.130393 18774 net.cpp:156] Memory required for data: 5378093000
I0415 07:01:47.130398 18774 layer_factory.hpp:77] Creating layer fc_switchbottom
I0415 07:01:47.130405 18774 net.cpp:91] Creating Layer fc_switchbottom
I0415 07:01:47.130410 18774 net.cpp:425] fc_switchbottom <- fc1b
I0415 07:01:47.130419 18774 net.cpp:399] fc_switchbottom -> fc_switchbottom
I0415 07:01:47.130507 18774 net.cpp:141] Setting up fc_switchbottom
I0415 07:01:47.130517 18774 net.cpp:148] Top shape: 250 2 (500)
I0415 07:01:47.130520 18774 net.cpp:156] Memory required for data: 5378095000
I0415 07:01:47.130527 18774 layer_factory.hpp:77] Creating layer prob
I0415 07:01:47.130534 18774 net.cpp:91] Creating Layer prob
I0415 07:01:47.130539 18774 net.cpp:425] prob <- fc_switchbottom
I0415 07:01:47.130547 18774 net.cpp:399] prob -> prob
I0415 07:01:47.130591 18774 net.cpp:141] Setting up prob
I0415 07:01:47.130599 18774 net.cpp:148] Top shape: 250 2 (500)
I0415 07:01:47.130604 18774 net.cpp:156] Memory required for data: 5378097000
I0415 07:01:47.130607 18774 layer_factory.hpp:77] Creating layer outputLabel
I0415 07:01:47.130616 18774 net.cpp:91] Creating Layer outputLabel
I0415 07:01:47.130622 18774 net.cpp:425] outputLabel <- prob
I0415 07:01:47.130630 18774 net.cpp:399] outputLabel -> outputLabel
I0415 07:01:47.130656 18774 net.cpp:141] Setting up outputLabel
I0415 07:01:47.130676 18774 net.cpp:148] Top shape: 250 1 1 (250)
I0415 07:01:47.130691 18774 net.cpp:156] Memory required for data: 5378098000
I0415 07:01:47.130695 18774 layer_factory.hpp:77] Creating layer switch
I0415 07:01:47.130703 18774 net.cpp:91] Creating Layer switch
I0415 07:01:47.130708 18774 net.cpp:425] switch <- conv4a
I0415 07:01:47.130714 18774 net.cpp:425] switch <- conv4b
I0415 07:01:47.130719 18774 net.cpp:425] switch <- outputLabel
I0415 07:01:47.130725 18774 net.cpp:399] switch -> switch
I0415 07:01:47.130748 18774 net.cpp:141] Setting up switch
I0415 07:01:47.130755 18774 net.cpp:148] Top shape: 250 384 13 13 (16224000)
I0415 07:01:47.130759 18774 net.cpp:156] Memory required for data: 5442994000
I0415 07:01:47.130764 18774 layer_factory.hpp:77] Creating layer conv5
I0415 07:01:47.130790 18774 net.cpp:91] Creating Layer conv5
I0415 07:01:47.130805 18774 net.cpp:425] conv5 <- switch
I0415 07:01:47.130815 18774 net.cpp:399] conv5 -> conv5
I0415 07:01:47.139958 18774 net.cpp:141] Setting up conv5
I0415 07:01:47.139974 18774 net.cpp:148] Top shape: 250 256 13 13 (10816000)
I0415 07:01:47.139978 18774 net.cpp:156] Memory required for data: 5486258000
I0415 07:01:47.139986 18774 layer_factory.hpp:77] Creating layer relu5
I0415 07:01:47.140008 18774 net.cpp:91] Creating Layer relu5
I0415 07:01:47.140015 18774 net.cpp:425] relu5 <- conv5
I0415 07:01:47.140022 18774 net.cpp:386] relu5 -> conv5 (in-place)
I0415 07:01:47.140033 18774 net.cpp:141] Setting up relu5
I0415 07:01:47.140039 18774 net.cpp:148] Top shape: 250 256 13 13 (10816000)
I0415 07:01:47.140043 18774 net.cpp:156] Memory required for data: 5529522000
I0415 07:01:47.140048 18774 layer_factory.hpp:77] Creating layer pool5
I0415 07:01:47.140056 18774 net.cpp:91] Creating Layer pool5
I0415 07:01:47.140072 18774 net.cpp:425] pool5 <- conv5
I0415 07:01:47.140089 18774 net.cpp:399] pool5 -> pool5
I0415 07:01:47.140135 18774 net.cpp:141] Setting up pool5
I0415 07:01:47.140141 18774 net.cpp:148] Top shape: 250 256 6 6 (2304000)
I0415 07:01:47.140146 18774 net.cpp:156] Memory required for data: 5538738000
I0415 07:01:47.140151 18774 layer_factory.hpp:77] Creating layer fc6
I0415 07:01:47.140164 18774 net.cpp:91] Creating Layer fc6
I0415 07:01:47.140169 18774 net.cpp:425] fc6 <- pool5
I0415 07:01:47.140177 18774 net.cpp:399] fc6 -> fc6
I0415 07:01:47.905113 18774 net.cpp:141] Setting up fc6
I0415 07:01:47.905135 18774 net.cpp:148] Top shape: 250 4096 (1024000)
I0415 07:01:47.905138 18774 net.cpp:156] Memory required for data: 5542834000
I0415 07:01:47.905145 18774 layer_factory.hpp:77] Creating layer relu6
I0415 07:01:47.905153 18774 net.cpp:91] Creating Layer relu6
I0415 07:01:47.905158 18774 net.cpp:425] relu6 <- fc6
I0415 07:01:47.905163 18774 net.cpp:386] relu6 -> fc6 (in-place)
I0415 07:01:47.905169 18774 net.cpp:141] Setting up relu6
I0415 07:01:47.905174 18774 net.cpp:148] Top shape: 250 4096 (1024000)
I0415 07:01:47.905176 18774 net.cpp:156] Memory required for data: 5546930000
I0415 07:01:47.905179 18774 layer_factory.hpp:77] Creating layer drop6
I0415 07:01:47.905189 18774 net.cpp:91] Creating Layer drop6
I0415 07:01:47.905192 18774 net.cpp:425] drop6 <- fc6
I0415 07:01:47.905196 18774 net.cpp:386] drop6 -> fc6 (in-place)
I0415 07:01:47.905216 18774 net.cpp:141] Setting up drop6
I0415 07:01:47.905221 18774 net.cpp:148] Top shape: 250 4096 (1024000)
I0415 07:01:47.905223 18774 net.cpp:156] Memory required for data: 5551026000
I0415 07:01:47.905226 18774 layer_factory.hpp:77] Creating layer fc7
I0415 07:01:47.905230 18774 net.cpp:91] Creating Layer fc7
I0415 07:01:47.905233 18774 net.cpp:425] fc7 <- fc6
I0415 07:01:47.905237 18774 net.cpp:399] fc7 -> fc7
I0415 07:01:48.244398 18774 net.cpp:141] Setting up fc7
I0415 07:01:48.244421 18774 net.cpp:148] Top shape: 250 4096 (1024000)
I0415 07:01:48.244423 18774 net.cpp:156] Memory required for data: 5555122000
I0415 07:01:48.244431 18774 layer_factory.hpp:77] Creating layer relu7
I0415 07:01:48.244438 18774 net.cpp:91] Creating Layer relu7
I0415 07:01:48.244441 18774 net.cpp:425] relu7 <- fc7
I0415 07:01:48.244446 18774 net.cpp:386] relu7 -> fc7 (in-place)
I0415 07:01:48.244453 18774 net.cpp:141] Setting up relu7
I0415 07:01:48.244457 18774 net.cpp:148] Top shape: 250 4096 (1024000)
I0415 07:01:48.244460 18774 net.cpp:156] Memory required for data: 5559218000
I0415 07:01:48.244462 18774 layer_factory.hpp:77] Creating layer drop7
I0415 07:01:48.244467 18774 net.cpp:91] Creating Layer drop7
I0415 07:01:48.244469 18774 net.cpp:425] drop7 <- fc7
I0415 07:01:48.244473 18774 net.cpp:386] drop7 -> fc7 (in-place)
I0415 07:01:48.244488 18774 net.cpp:141] Setting up drop7
I0415 07:01:48.244493 18774 net.cpp:148] Top shape: 250 4096 (1024000)
I0415 07:01:48.244496 18774 net.cpp:156] Memory required for data: 5563314000
I0415 07:01:48.244498 18774 layer_factory.hpp:77] Creating layer fc8_modA
I0415 07:01:48.244504 18774 net.cpp:91] Creating Layer fc8_modA
I0415 07:01:48.244509 18774 net.cpp:425] fc8_modA <- fc7
I0415 07:01:48.244513 18774 net.cpp:399] fc8_modA -> fc8_modA
I0415 07:01:48.248878 18774 net.cpp:141] Setting up fc8_modA
I0415 07:01:48.248888 18774 net.cpp:148] Top shape: 250 50 (12500)
I0415 07:01:48.248890 18774 net.cpp:156] Memory required for data: 5563364000
I0415 07:01:48.248900 18774 layer_factory.hpp:77] Creating layer loss
I0415 07:01:48.248915 18774 net.cpp:91] Creating Layer loss
I0415 07:01:48.248921 18774 net.cpp:425] loss <- fc8_modA
I0415 07:01:48.248924 18774 net.cpp:425] loss <- label
I0415 07:01:48.248932 18774 net.cpp:399] loss -> loss
I0415 07:01:48.248944 18774 layer_factory.hpp:77] Creating layer loss
…
I0415 07:01:48.250216 18774 net.cpp:313] The NetState phase (1) differed from the phase (0) specified by a rule in layer data
I0415 07:01:48.250443 18774 net.cpp:49] Initializing net from parameters: 
name: "AlexNet"
state {
  phase: TEST
}
layer {
  name: "data"
  type: "ImageData"
  top: "data"
  top: "label"
  include {
    phase: TEST
  }
  transform_param {
    mirror: false
    mean_file: "/home/shiv/SegNet/ModelA/mean/mean227alex.binaryproto"
  }
  image_data_param {
    source: "/home/shiv/SegNet/img_folderAlexCrop3/val3.txt"
    batch_size: 100
    shuffle: false
  }
}
layer {
  name: "conv1a"
  type: "Convolution"
  bottom: "data"
  top: "conv1a"
  param {
    lr_mult: 1
    decay_mult: 1
  }
  param {
    lr_mult: 2
    decay_mult: 0
  }
  convolution_param {
    num_output: 96
    kernel_size: 11
    stride: 4
    weight_filler {
      type: "gaussian"
      std: 0.01
    }
    bias_filler {
      type: "constant"
      value: 0
    }
  }
}
layer {
  name: "relu1a"
  type: "ReLU"
  bottom: "conv1a"
  top: "conv1a"
}
layer {
  name: "norm1a"
  type: "LRN"
  bottom: "conv1a"
  top: "norm1a"
  lrn_param {
    local_size: 5
    alpha: 0.0001
    beta: 0.75
  }
}
layer {
  name: "pool1a"
  type: "Pooling"
  bottom: "norm1a"
  top: "pool1a"
  pooling_param {
    pool: MAX
    kernel_size: 3
    stride: 2
  }
}
layer {
  name: "conv2a"
  type: "Convolution"
  bottom: "pool1a"
  top: "conv2a"
  param {
    lr_mult: 1
    decay_mult: 1
  }
  param {
    lr_mult: 2
    decay_mult: 0
  }
  convolution_param {
    num_output: 256
    pad: 2
    kernel_size: 5
    group: 2
    weight_filler {
      type: "gaussian"
      std: 0.01
    }
    bias_filler {
      type: "constant"
      value: 1
    }
  }
}
layer {
  name: "relu2a"
  type: "ReLU"
  bottom: "conv2a"
  top: "conv2a"
}
layer {
  name: "norm2a"
  type: "LRN"
  bottom: "conv2a"
  top: "norm2a"
  lrn_param {
    local_size: 5
    alpha: 0.0001
    beta: 0.75
  }
}
layer {
  name: "pool2a"
  type: "Pooling"
  bottom: "norm2a"
  top: "pool2a"
  pooling_param {
    pool: MAX
    kernel_size: 3
    stride: 2
  }
}
layer {
  name: "conv3a"
  type: "Convolution"
  bottom: "pool2a"
  top: "conv3a"
  param {
    lr_mult: 1
    decay_mult: 1
  }
  param {
    lr_mult: 2
    decay_mult: 0
  }
  convolution_param {
    num_output: 384
    pad: 1
    kernel_size: 3
    weight_filler {
      type: "gaussian"
      std: 0.01
    }
    bias_filler {
      type: "constant"
      value: 0
    }
  }
}
layer {
  name: "relu3a"
  type: "ReLU"
  bottom: "conv3a"
  top: "conv3a"
}
layer {
  name: "conv4a"
  type: "Convolution"
  bottom: "conv3a"
  top: "conv4a"
  param {
    lr_mult: 1
    decay_mult: 1
  }
  param {
    lr_mult: 2
    decay_mult: 0
  }
  convolution_param {
    num_output: 384
    pad: 1
    kernel_size: 3
    group: 2
    weight_filler {
      type: "gaussian"
      std: 0.01
    }
    bias_filler {
      type: "constant"
      value: 1
    }
  }
}
layer {
  name: "relu4a"
  type: "ReLU"
  bottom: "conv4a"
  top: "conv4a"
}
layer {
  name: "conv1b"
  type: "Convolution"
  bottom: "data"
  top: "conv1b"
  param {
    lr_mult: 4
    decay_mult: 1
  }
  param {
    lr_mult: 8
    decay_mult: 0
  }
  convolution_param {
    num_output: 96
    kernel_size: 11
    stride: 4
    weight_filler {
      type: "gaussian"
      std: 0.01
    }
    bias_filler {
      type: "constant"
      value: 0
    }
  }
}
layer {
  name: "relu1b"
  type: "ReLU"
  bottom: "conv1b"
  top: "conv1b"
}
layer {
  name: "norm1b"
  type: "LRN"
  bottom: "conv1b"
  top: "norm1b"
  lrn_param {
    local_size: 5
    alpha: 0.0001
    beta: 0.75
  }
}
layer {
  name: "pool1b"
  type: "Pooling"
  bottom: "norm1b"
  top: "pool1b"
  pooling_param {
    pool: MAX
    kernel_size: 3
    stride: 2
  }
}
layer {
  name: "conv2b"
  type: "Convolution"
  bottom: "pool1b"
  top: "conv2b"
  param {
    lr_mult: 4
    decay_mult: 1
  }
  param {
    lr_mult: 8
    decay_mult: 0
  }
  convolution_param {
    num_output: 256
    pad: 2
    kernel_size: 5
    group: 2
    weight_filler {
      type: "gaussian"
      std: 0.01
    }
    bias_filler {
      type: "constant"
      value: 1
    }
  }
}
layer {
  name: "relu2b"
  type: "ReLU"
  bottom: "conv2b"
  top: "conv2b"
}
layer {
  name: "norm2b"
  type: "LRN"
  bottom: "conv2b"
  top: "norm2b"
  lrn_param {
    local_size: 5
    alpha: 0.0001
    beta: 0.75
  }
}
layer {
  name: "pool2b"
  type: "Pooling"
  bottom: "norm2b"
  top: "pool2b"
  pooling_param {
    pool: MAX
    kernel_size: 3
    stride: 2
  }
}
layer {
  name: "conv3b"
  type: "Convolution"
  bottom: "pool2b"
  top: "conv3b"
  param {
    lr_mult: 4
    decay_mult: 1
  }
  param {
    lr_mult: 8
    decay_mult: 0
  }
  convolution_param {
    num_output: 384
    pad: 1
    kernel_size: 3
    weight_filler {
      type: "gaussian"
      std: 0.01
    }
    bias_filler {
      type: "constant"
      value: 0
    }
  }
}
layer {
  name: "relu3b"
  type: "ReLU"
  bottom: "conv3b"
  top: "conv3b"
}
layer {
  name: "conv4b"
  type: "Convolution"
  bottom: "conv3b"
  top: "conv4b"
  param {
    lr_mult: 4
    decay_mult: 1
  }
  param {
    lr_mult: 8
    decay_mult: 0
  }
  convolution_param {
    num_output: 384
    pad: 1
    kernel_size: 3
    group: 2
    weight_filler {
      type: "gaussian"
      std: 0.01
    }
    bias_filler {
      type: "constant"
      value: 1
    }
  }
}
layer {
  name: "relu4b"
  type: "ReLU"
  bottom: "conv4b"
  top: "conv4b"
}
layer {
  name: "conv1_mod"
  type: "Convolution"
  bottom: "data"
  top: "conv1_mod"
  param {
    lr_mult: 0
    decay_mult: 0
  }
  param {
    lr_mult: 0
    decay_mult: 0
  }
  convolution_param {
    num_output: 96
    kernel_size: 11
    stride: 4
    weight_filler {
      type: "gaussian"
      std: 0.01
    }
    bias_filler {
      type: "constant"
      value: 0
    }
  }
}
layer {
  name: "relu1_mod"
  type: "ReLU"
  bottom: "conv1_mod"
  top: "conv1_mod"
}
layer {
  name: "norm1_mod"
  type: "LRN"
  bottom: "conv1_mod"
  top: "norm1_mod"
  lrn_param {
    local_size: 5
    alpha: 0.0001
    beta: 0.75
  }
}
layer {
  name: "pool1_mod"
  type: "Pooling"
  bottom: "norm1_mod"
  top: "pool1_mod"
  pooling_param {
    pool: MAX
    kernel_size: 3
    stride: 2
  }
}
layer {
  name: "conv2_mod"
  type: "Convolution"
  bottom: "pool1_mod"
  top: "conv2_mod"
  param {
    lr_mult: 0
    decay_mult: 0
  }
  param {
    lr_mult: 0
    decay_mult: 0
  }
  convolution_param {
    num_output: 96
    pad: 1
    kernel_size: 3
    weight_filler {
      type: "gaussian"
      std: 0.01
    }
    bias_filler {
      type: "constant"
      value: 0.5
    }
  }
}
layer {
  name: "relu2_mod"
  type: "ReLU"
  bottom: "conv2_mod"
  top: "conv2_mod"
}
layer {
  name: "norm2_mod"
  type: "LRN"
  bottom: "conv2_mod"
  top: "norm2_mod"
  lrn_param {
    local_size: 3
    alpha: 0.0001
    beta: 0.75
  }
}
layer {
  name: "poolGlobal"
  type: "Pooling"
  bottom: "norm2_mod"
  top: "poolGlobal"
  pooling_param {
    pool: AVE
    global_pooling: true
  }
}
layer {
  name: "fc1a"
  type: "InnerProduct"
  bottom: "poolGlobal"
  top: "fc1a"
  param {
    lr_mult: 0
    decay_mult: 0
  }
  param {
    lr_mult: 0
    decay_mult: 0
  }
  inner_product_param {
    num_output: 96
    weight_filler {
      type: "gaussian"
      std: 0.005
    }
    bias_filler {
      type: "constant"
      value: 0.5
    }
  }
}
layer {
  name: "relu1a"
  type: "ReLU"
  bottom: "fc1a"
  top: "fc1a"
}
layer {
  name: "fc1b"
  type: "InnerProduct"
  bottom: "fc1a"
  top: "fc1b"
  param {
    lr_mult: 0
    decay_mult: 0
  }
  param {
    lr_mult: 0
    decay_mult: 0
  }
  inner_product_param {
    num_output: 256
    weight_filler {
      type: "gaussian"
      std: 0.005
    }
    bias_filler {
      type: "constant"
      value: 0.5
    }
  }
}
layer {
  name: "relu1b"
  type: "ReLU"
  bottom: "fc1b"
  top: "fc1b"
}
layer {
  name: "fc_switchbottom"
  type: "InnerProduct"
  bottom: "fc1b"
  top: "fc_switchbottom"
  param {
    lr_mult: 0
    decay_mult: 0
  }
  param {
    lr_mult: 0
    decay_mult: 0
  }
  inner_product_param {
    num_output: 2
    weight_filler {
      type: "gaussian"
      std: 0.005
    }
    bias_filler {
      type: "constant"
      value: 0.5
    }
  }
}
layer {
  name: "prob"
  type: "Softmax"
  bottom: "fc_switchbottom"
  top: "prob"
}
layer {
  name: "outputLabel"
  type: "ArgMax"
  bottom: "prob"
  top: "outputLabel"
}
layer {
  name: "switch"
  type: "Switch"
  bottom: "conv4a"
  bottom: "conv4b"
  bottom: "outputLabel"
  top: "switch"
}
layer {
  name: "conv5"
  type: "Convolution"
  bottom: "switch"
  top: "conv5"
  param {
    lr_mult: 4
    decay_mult: 1
  }
  param {
    lr_mult: 8
    decay_mult: 0
  }
  convolution_param {
    num_output: 256
    pad: 1
    kernel_size: 3
    group: 2
    weight_filler {
      type: "gaussian"
      std: 0.01
    }
    bias_filler {
      type: "constant"
      value: 1
    }
  }
}
layer {
  name: "relu5"
  type: "ReLU"
  bottom: "conv5"
  top: "conv5"
}
layer {
  name: "pool5"
  type: "Pooling"
  bottom: "conv5"
  top: "pool5"
  pooling_param {
    pool: MAX
    kernel_size: 3
    stride: 2
  }
}
layer {
  name: "fc6"
  type: "InnerProduct"
  bottom: "pool5"
  top: "fc6"
  param {
    lr_mult: 4
    decay_mult: 1
  }
  param {
    lr_mult: 8
    decay_mult: 0
  }
  inner_product_param {
    num_output: 4096
    weight_filler {
      type: "gaussian"
      std: 0.005
    }
    bias_filler {
      type: "constant"
      value: 1
    }
  }
}
layer {
  name: "relu6"
  type: "ReLU"
  bottom: "fc6"
  top: "fc6"
}
layer {
  name: "drop6"
  type: "Dropout"
  bottom: "fc6"
  top: "fc6"
  dropout_param {
    dropout_ratio: 0.5
  }
}
layer {
  name: "fc7"
  type: "InnerProduct"
  bottom: "fc6"
  top: "fc7"
  param {
    lr_mult: 4
    decay_mult: 1
  }
  param {
    lr_mult: 8
    decay_mult: 0
  }
  inner_product_param {
    num_output: 4096
    weight_filler {
      type: "gaussian"
      std: 0.005
    }
    bias_filler {
      type: "constant"
      value: 1
    }
  }
}
layer {
  name: "relu7"
  type: "ReLU"
  bottom: "fc7"
  top: "fc7"
}
layer {
  name: "drop7"
  type: "Dropout"
  bottom: "fc7"
  top: "fc7"
  dropout_param {
    dropout_ratio: 0.5
  }
}
layer {
  name: "fc8_modA"
  type: "InnerProduct"
  bottom: "fc7"
  top: "fc8_modA"
  param {
    lr_mult: 10
    decay_mult: 1
  }
  param {
    lr_mult: 20
    decay_mult: 0
  }
  inner_product_param {
    num_output: 50
    weight_filler {
      type: "gaussian"
      std: 0.01
    }
    bias_filler {
      type: "constant"
      value: 0
    }
  }
}
layer {
  name: "accuracy"
  type: "Accuracy"
  bottom: "fc8_modA"
  bottom: "label"
  top: "accuracy"
  include {
    phase: TEST
  }
}
layer {
  name: "loss"
  type: "SoftmaxWithLoss"
  bottom: "fc8_modA"
  bottom: "label"
  top: "loss"
}
I0415 07:01:48.250593 18774 layer_factory.hpp:77] Creating layer data
I0415 07:01:48.250604 18774 net.cpp:91] Creating Layer data
I0415 07:01:48.250608 18774 net.cpp:399] data -> data
I0415 07:01:48.250614 18774 net.cpp:399] data -> label
I0415 07:01:48.250619 18774 data_transformer.cpp:25] Loading mean file from: /home/shiv/SegNet/ModelA/mean/mean227alex.binaryproto
I0415 07:01:48.251775 18774 image_data_layer.cpp:38] Opening file /home/shiv/SegNet/img_folderAlexCrop3/val3.txt
I0415 07:01:48.270454 18774 image_data_layer.cpp:53] A total of 6875 images.
I0415 07:01:48.270877 18774 image_data_layer.cpp:80] output data size: 100,3,227,227
I0415 07:01:48.350168 18774 net.cpp:141] Setting up data
I0415 07:01:48.350191 18774 net.cpp:148] Top shape: 100 3 227 227 (15458700)
I0415 07:01:48.350195 18774 net.cpp:148] Top shape: 100 (100)
I0415 07:01:48.350198 18774 net.cpp:156] Memory required for data: 61835200
I0415 07:01:48.350203 18774 layer_factory.hpp:77] Creating layer data_data_0_split
I0415 07:01:48.350213 18774 net.cpp:91] Creating Layer data_data_0_split
I0415 07:01:48.350215 18774 net.cpp:425] data_data_0_split <- data
I0415 07:01:48.350220 18774 net.cpp:399] data_data_0_split -> data_data_0_split_0
I0415 07:01:48.350226 18774 net.cpp:399] data_data_0_split -> data_data_0_split_1
I0415 07:01:48.350231 18774 net.cpp:399] data_data_0_split -> data_data_0_split_2
I0415 07:01:48.350287 18774 net.cpp:141] Setting up data_data_0_split
I0415 07:01:48.350296 18774 net.cpp:148] Top shape: 100 3 227 227 (15458700)
I0415 07:01:48.350301 18774 net.cpp:148] Top shape: 100 3 227 227 (15458700)
I0415 07:01:48.350306 18774 net.cpp:148] Top shape: 100 3 227 227 (15458700)
I0415 07:01:48.350308 18774 net.cpp:156] Memory required for data: 247339600
I0415 07:01:48.350312 18774 layer_factory.hpp:77] Creating layer label_data_1_split
I0415 07:01:48.350319 18774 net.cpp:91] Creating Layer label_data_1_split
I0415 07:01:48.350325 18774 net.cpp:425] label_data_1_split <- label
I0415 07:01:48.350332 18774 net.cpp:399] label_data_1_split -> label_data_1_split_0
I0415 07:01:48.350339 18774 net.cpp:399] label_data_1_split -> label_data_1_split_1
I0415 07:01:48.350363 18774 net.cpp:141] Setting up label_data_1_split
I0415 07:01:48.350370 18774 net.cpp:148] Top shape: 100 (100)
I0415 07:01:48.350373 18774 net.cpp:148] Top shape: 100 (100)
I0415 07:01:48.350375 18774 net.cpp:156] Memory required for data: 247340400
I0415 07:01:48.350378 18774 layer_factory.hpp:77] Creating layer conv1a
I0415 07:01:48.350385 18774 net.cpp:91] Creating Layer conv1a
I0415 07:01:48.350389 18774 net.cpp:425] conv1a <- data_data_0_split_0
I0415 07:01:48.350395 18774 net.cpp:399] conv1a -> conv1a
I0415 07:01:48.351239 18774 net.cpp:141] Setting up conv1a
I0415 07:01:48.351246 18774 net.cpp:148] Top shape: 100 96 55 55 (29040000)
I0415 07:01:48.351248 18774 net.cpp:156] Memory required for data: 363500400
I0415 07:01:48.351255 18774 layer_factory.hpp:77] Creating layer relu1a
I0415 07:01:48.351261 18774 net.cpp:91] Creating Layer relu1a
I0415 07:01:48.351263 18774 net.cpp:425] relu1a <- conv1a
I0415 07:01:48.351268 18774 net.cpp:386] relu1a -> conv1a (in-place)
I0415 07:01:48.351271 18774 net.cpp:141] Setting up relu1a
I0415 07:01:48.351274 18774 net.cpp:148] Top shape: 100 96 55 55 (29040000)
I0415 07:01:48.351277 18774 net.cpp:156] Memory required for data: 479660400
I0415 07:01:48.351279 18774 layer_factory.hpp:77] Creating layer norm1a
I0415 07:01:48.351285 18774 net.cpp:91] Creating Layer norm1a
I0415 07:01:48.351290 18774 net.cpp:425] norm1a <- conv1a
I0415 07:01:48.351296 18774 net.cpp:399] norm1a -> norm1a
I0415 07:01:48.360783 18774 net.cpp:141] Setting up norm1a
I0415 07:01:48.360792 18774 net.cpp:148] Top shape: 100 96 55 55 (29040000)
I0415 07:01:48.360795 18774 net.cpp:156] Memory required for data: 595820400
I0415 07:01:48.360797 18774 layer_factory.hpp:77] Creating layer pool1a
I0415 07:01:48.360802 18774 net.cpp:91] Creating Layer pool1a
I0415 07:01:48.360805 18774 net.cpp:425] pool1a <- norm1a
I0415 07:01:48.360808 18774 net.cpp:399] pool1a -> pool1a
I0415 07:01:48.360828 18774 net.cpp:141] Setting up pool1a
I0415 07:01:48.360836 18774 net.cpp:148] Top shape: 100 96 27 27 (6998400)
I0415 07:01:48.360841 18774 net.cpp:156] Memory required for data: 623814000
I0415 07:01:48.360844 18774 layer_factory.hpp:77] Creating layer conv2a
I0415 07:01:48.360851 18774 net.cpp:91] Creating Layer conv2a
I0415 07:01:48.360853 18774 net.cpp:425] conv2a <- pool1a
I0415 07:01:48.360857 18774 net.cpp:399] conv2a -> conv2a
I0415 07:01:48.367298 18774 net.cpp:141] Setting up conv2a
I0415 07:01:48.367319 18774 net.cpp:148] Top shape: 100 256 27 27 (18662400)
I0415 07:01:48.367322 18774 net.cpp:156] Memory required for data: 698463600
I0415 07:01:48.367329 18774 layer_factory.hpp:77] Creating layer relu2a
I0415 07:01:48.367336 18774 net.cpp:91] Creating Layer relu2a
I0415 07:01:48.367337 18774 net.cpp:425] relu2a <- conv2a
I0415 07:01:48.367341 18774 net.cpp:386] relu2a -> conv2a (in-place)
I0415 07:01:48.367347 18774 net.cpp:141] Setting up relu2a
I0415 07:01:48.367349 18774 net.cpp:148] Top shape: 100 256 27 27 (18662400)
I0415 07:01:48.367352 18774 net.cpp:156] Memory required for data: 773113200
I0415 07:01:48.367354 18774 layer_factory.hpp:77] Creating layer norm2a
I0415 07:01:48.367358 18774 net.cpp:91] Creating Layer norm2a
I0415 07:01:48.367362 18774 net.cpp:425] norm2a <- conv2a
I0415 07:01:48.367367 18774 net.cpp:399] norm2a -> norm2a
I0415 07:01:48.367396 18774 net.cpp:141] Setting up norm2a
I0415 07:01:48.367403 18774 net.cpp:148] Top shape: 100 256 27 27 (18662400)
I0415 07:01:48.367406 18774 net.cpp:156] Memory required for data: 847762800
I0415 07:01:48.367410 18774 layer_factory.hpp:77] Creating layer pool2a
I0415 07:01:48.367419 18774 net.cpp:91] Creating Layer pool2a
I0415 07:01:48.367426 18774 net.cpp:425] pool2a <- norm2a
I0415 07:01:48.367430 18774 net.cpp:399] pool2a -> pool2a
I0415 07:01:48.367454 18774 net.cpp:141] Setting up pool2a
I0415 07:01:48.367461 18774 net.cpp:148] Top shape: 100 256 13 13 (4326400)
I0415 07:01:48.367463 18774 net.cpp:156] Memory required for data: 865068400
I0415 07:01:48.367466 18774 layer_factory.hpp:77] Creating layer conv3a
I0415 07:01:48.367472 18774 net.cpp:91] Creating Layer conv3a
I0415 07:01:48.367475 18774 net.cpp:425] conv3a <- pool2a
I0415 07:01:48.367480 18774 net.cpp:399] conv3a -> conv3a
I0415 07:01:48.385548 18774 net.cpp:141] Setting up conv3a
I0415 07:01:48.385563 18774 net.cpp:148] Top shape: 100 384 13 13 (6489600)
I0415 07:01:48.385566 18774 net.cpp:156] Memory required for data: 891026800
I0415 07:01:48.385574 18774 layer_factory.hpp:77] Creating layer relu3a
I0415 07:01:48.385581 18774 net.cpp:91] Creating Layer relu3a
I0415 07:01:48.385584 18774 net.cpp:425] relu3a <- conv3a
I0415 07:01:48.385588 18774 net.cpp:386] relu3a -> conv3a (in-place)
I0415 07:01:48.385593 18774 net.cpp:141] Setting up relu3a
I0415 07:01:48.385596 18774 net.cpp:148] Top shape: 100 384 13 13 (6489600)
I0415 07:01:48.385598 18774 net.cpp:156] Memory required for data: 916985200
I0415 07:01:48.385601 18774 layer_factory.hpp:77] Creating layer conv4a
I0415 07:01:48.385607 18774 net.cpp:91] Creating Layer conv4a
I0415 07:01:48.385609 18774 net.cpp:425] conv4a <- conv3a
I0415 07:01:48.385613 18774 net.cpp:399] conv4a -> conv4a
I0415 07:01:48.399261 18774 net.cpp:141] Setting up conv4a
I0415 07:01:48.399276 18774 net.cpp:148] Top shape: 100 384 13 13 (6489600)
I0415 07:01:48.399278 18774 net.cpp:156] Memory required for data: 942943600
I0415 07:01:48.399284 18774 layer_factory.hpp:77] Creating layer relu4a
I0415 07:01:48.399291 18774 net.cpp:91] Creating Layer relu4a
I0415 07:01:48.399293 18774 net.cpp:425] relu4a <- conv4a
I0415 07:01:48.399297 18774 net.cpp:386] relu4a -> conv4a (in-place)
I0415 07:01:48.399303 18774 net.cpp:141] Setting up relu4a
I0415 07:01:48.399307 18774 net.cpp:148] Top shape: 100 384 13 13 (6489600)
I0415 07:01:48.399308 18774 net.cpp:156] Memory required for data: 968902000
I0415 07:01:48.399310 18774 layer_factory.hpp:77] Creating layer conv1b
I0415 07:01:48.399317 18774 net.cpp:91] Creating Layer conv1b
I0415 07:01:48.399319 18774 net.cpp:425] conv1b <- data_data_0_split_1
I0415 07:01:48.399323 18774 net.cpp:399] conv1b -> conv1b
I0415 07:01:48.400173 18774 net.cpp:141] Setting up conv1b
I0415 07:01:48.400182 18774 net.cpp:148] Top shape: 100 96 55 55 (29040000)
I0415 07:01:48.400183 18774 net.cpp:156] Memory required for data: 1085062000
I0415 07:01:48.400190 18774 layer_factory.hpp:77] Creating layer relu1b
I0415 07:01:48.400195 18774 net.cpp:91] Creating Layer relu1b
I0415 07:01:48.400198 18774 net.cpp:425] relu1b <- conv1b
I0415 07:01:48.400220 18774 net.cpp:386] relu1b -> conv1b (in-place)
I0415 07:01:48.400233 18774 net.cpp:141] Setting up relu1b
I0415 07:01:48.400238 18774 net.cpp:148] Top shape: 100 96 55 55 (29040000)
I0415 07:01:48.400240 18774 net.cpp:156] Memory required for data: 1201222000
I0415 07:01:48.400243 18774 layer_factory.hpp:77] Creating layer norm1b
I0415 07:01:48.400249 18774 net.cpp:91] Creating Layer norm1b
I0415 07:01:48.400252 18774 net.cpp:425] norm1b <- conv1b
I0415 07:01:48.400259 18774 net.cpp:399] norm1b -> norm1b
I0415 07:01:48.400287 18774 net.cpp:141] Setting up norm1b
I0415 07:01:48.400293 18774 net.cpp:148] Top shape: 100 96 55 55 (29040000)
I0415 07:01:48.400296 18774 net.cpp:156] Memory required for data: 1317382000
I0415 07:01:48.400298 18774 layer_factory.hpp:77] Creating layer pool1b
I0415 07:01:48.400302 18774 net.cpp:91] Creating Layer pool1b
I0415 07:01:48.400305 18774 net.cpp:425] pool1b <- norm1b
I0415 07:01:48.400308 18774 net.cpp:399] pool1b -> pool1b
I0415 07:01:48.400332 18774 net.cpp:141] Setting up pool1b
I0415 07:01:48.400337 18774 net.cpp:148] Top shape: 100 96 27 27 (6998400)
I0415 07:01:48.400341 18774 net.cpp:156] Memory required for data: 1345375600
I0415 07:01:48.400342 18774 layer_factory.hpp:77] Creating layer conv2b
I0415 07:01:48.400349 18774 net.cpp:91] Creating Layer conv2b
I0415 07:01:48.400353 18774 net.cpp:425] conv2b <- pool1b
I0415 07:01:48.400359 18774 net.cpp:399] conv2b -> conv2b
I0415 07:01:48.407282 18774 net.cpp:141] Setting up conv2b
I0415 07:01:48.407297 18774 net.cpp:148] Top shape: 100 256 27 27 (18662400)
I0415 07:01:48.407301 18774 net.cpp:156] Memory required for data: 1420025200
I0415 07:01:48.407308 18774 layer_factory.hpp:77] Creating layer relu2b
I0415 07:01:48.407315 18774 net.cpp:91] Creating Layer relu2b
I0415 07:01:48.407318 18774 net.cpp:425] relu2b <- conv2b
I0415 07:01:48.407325 18774 net.cpp:386] relu2b -> conv2b (in-place)
I0415 07:01:48.407331 18774 net.cpp:141] Setting up relu2b
I0415 07:01:48.407336 18774 net.cpp:148] Top shape: 100 256 27 27 (18662400)
I0415 07:01:48.407346 18774 net.cpp:156] Memory required for data: 1494674800
I0415 07:01:48.407351 18774 layer_factory.hpp:77] Creating layer norm2b
I0415 07:01:48.407356 18774 net.cpp:91] Creating Layer norm2b
I0415 07:01:48.407361 18774 net.cpp:425] norm2b <- conv2b
I0415 07:01:48.407366 18774 net.cpp:399] norm2b -> norm2b
I0415 07:01:48.407397 18774 net.cpp:141] Setting up norm2b
I0415 07:01:48.407403 18774 net.cpp:148] Top shape: 100 256 27 27 (18662400)
I0415 07:01:48.407407 18774 net.cpp:156] Memory required for data: 1569324400
I0415 07:01:48.407410 18774 layer_factory.hpp:77] Creating layer pool2b
I0415 07:01:48.407416 18774 net.cpp:91] Creating Layer pool2b
I0415 07:01:48.407420 18774 net.cpp:425] pool2b <- norm2b
I0415 07:01:48.407425 18774 net.cpp:399] pool2b -> pool2b
I0415 07:01:48.407451 18774 net.cpp:141] Setting up pool2b
I0415 07:01:48.407459 18774 net.cpp:148] Top shape: 100 256 13 13 (4326400)
I0415 07:01:48.407462 18774 net.cpp:156] Memory required for data: 1586630000
I0415 07:01:48.407466 18774 layer_factory.hpp:77] Creating layer conv3b
I0415 07:01:48.407474 18774 net.cpp:91] Creating Layer conv3b
I0415 07:01:48.407480 18774 net.cpp:425] conv3b <- pool2b
I0415 07:01:48.407485 18774 net.cpp:399] conv3b -> conv3b
I0415 07:01:48.431071 18774 net.cpp:141] Setting up conv3b
I0415 07:01:48.431092 18774 net.cpp:148] Top shape: 100 384 13 13 (6489600)
I0415 07:01:48.431095 18774 net.cpp:156] Memory required for data: 1612588400
I0415 07:01:48.431103 18774 layer_factory.hpp:77] Creating layer relu3b
I0415 07:01:48.431113 18774 net.cpp:91] Creating Layer relu3b
I0415 07:01:48.431118 18774 net.cpp:425] relu3b <- conv3b
I0415 07:01:48.431138 18774 net.cpp:386] relu3b -> conv3b (in-place)
I0415 07:01:48.431150 18774 net.cpp:141] Setting up relu3b
I0415 07:01:48.431156 18774 net.cpp:148] Top shape: 100 384 13 13 (6489600)
I0415 07:01:48.431160 18774 net.cpp:156] Memory required for data: 1638546800
I0415 07:01:48.431164 18774 layer_factory.hpp:77] Creating layer conv4b
I0415 07:01:48.431190 18774 net.cpp:91] Creating Layer conv4b
I0415 07:01:48.431196 18774 net.cpp:425] conv4b <- conv3b
I0415 07:01:48.431203 18774 net.cpp:399] conv4b -> conv4b
I0415 07:01:48.458006 18774 net.cpp:141] Setting up conv4b
I0415 07:01:48.458022 18774 net.cpp:148] Top shape: 100 384 13 13 (6489600)
I0415 07:01:48.458026 18774 net.cpp:156] Memory required for data: 1664505200
I0415 07:01:48.458034 18774 layer_factory.hpp:77] Creating layer relu4b
I0415 07:01:48.458041 18774 net.cpp:91] Creating Layer relu4b
I0415 07:01:48.458046 18774 net.cpp:425] relu4b <- conv4b
I0415 07:01:48.458051 18774 net.cpp:386] relu4b -> conv4b (in-place)
I0415 07:01:48.458060 18774 net.cpp:141] Setting up relu4b
I0415 07:01:48.458068 18774 net.cpp:148] Top shape: 100 384 13 13 (6489600)
I0415 07:01:48.458071 18774 net.cpp:156] Memory required for data: 1690463600
I0415 07:01:48.458076 18774 layer_factory.hpp:77] Creating layer conv1_mod
I0415 07:01:48.458091 18774 net.cpp:91] Creating Layer conv1_mod
I0415 07:01:48.458097 18774 net.cpp:425] conv1_mod <- data_data_0_split_2
I0415 07:01:48.458103 18774 net.cpp:399] conv1_mod -> conv1_mod
I0415 07:01:48.459195 18774 net.cpp:141] Setting up conv1_mod
I0415 07:01:48.459203 18774 net.cpp:148] Top shape: 100 96 55 55 (29040000)
I0415 07:01:48.459208 18774 net.cpp:156] Memory required for data: 1806623600
I0415 07:01:48.459218 18774 layer_factory.hpp:77] Creating layer relu1_mod
I0415 07:01:48.459226 18774 net.cpp:91] Creating Layer relu1_mod
I0415 07:01:48.459231 18774 net.cpp:425] relu1_mod <- conv1_mod
I0415 07:01:48.459236 18774 net.cpp:386] relu1_mod -> conv1_mod (in-place)
I0415 07:01:48.459242 18774 net.cpp:141] Setting up relu1_mod
I0415 07:01:48.459249 18774 net.cpp:148] Top shape: 100 96 55 55 (29040000)
I0415 07:01:48.459252 18774 net.cpp:156] Memory required for data: 1922783600
I0415 07:01:48.459256 18774 layer_factory.hpp:77] Creating layer norm1_mod
I0415 07:01:48.459261 18774 net.cpp:91] Creating Layer norm1_mod
I0415 07:01:48.459265 18774 net.cpp:425] norm1_mod <- conv1_mod
I0415 07:01:48.459270 18774 net.cpp:399] norm1_mod -> norm1_mod
I0415 07:01:48.459300 18774 net.cpp:141] Setting up norm1_mod
I0415 07:01:48.459307 18774 net.cpp:148] Top shape: 100 96 55 55 (29040000)
I0415 07:01:48.459311 18774 net.cpp:156] Memory required for data: 2038943600
I0415 07:01:48.459314 18774 layer_factory.hpp:77] Creating layer pool1_mod
I0415 07:01:48.459321 18774 net.cpp:91] Creating Layer pool1_mod
I0415 07:01:48.459324 18774 net.cpp:425] pool1_mod <- norm1_mod
I0415 07:01:48.459331 18774 net.cpp:399] pool1_mod -> pool1_mod
I0415 07:01:48.459358 18774 net.cpp:141] Setting up pool1_mod
I0415 07:01:48.459365 18774 net.cpp:148] Top shape: 100 96 27 27 (6998400)
I0415 07:01:48.459368 18774 net.cpp:156] Memory required for data: 2066937200
I0415 07:01:48.459372 18774 layer_factory.hpp:77] Creating layer conv2_mod
I0415 07:01:48.459379 18774 net.cpp:91] Creating Layer conv2_mod
I0415 07:01:48.459383 18774 net.cpp:425] conv2_mod <- pool1_mod
I0415 07:01:48.459389 18774 net.cpp:399] conv2_mod -> conv2_mod
I0415 07:01:48.461719 18774 net.cpp:141] Setting up conv2_mod
I0415 07:01:48.461729 18774 net.cpp:148] Top shape: 100 96 27 27 (6998400)
I0415 07:01:48.461732 18774 net.cpp:156] Memory required for data: 2094930800
I0415 07:01:48.461738 18774 layer_factory.hpp:77] Creating layer relu2_mod
I0415 07:01:48.461746 18774 net.cpp:91] Creating Layer relu2_mod
I0415 07:01:48.461750 18774 net.cpp:425] relu2_mod <- conv2_mod
I0415 07:01:48.461756 18774 net.cpp:386] relu2_mod -> conv2_mod (in-place)
I0415 07:01:48.461762 18774 net.cpp:141] Setting up relu2_mod
I0415 07:01:48.461767 18774 net.cpp:148] Top shape: 100 96 27 27 (6998400)
I0415 07:01:48.461771 18774 net.cpp:156] Memory required for data: 2122924400
I0415 07:01:48.461774 18774 layer_factory.hpp:77] Creating layer norm2_mod
I0415 07:01:48.461781 18774 net.cpp:91] Creating Layer norm2_mod
I0415 07:01:48.461783 18774 net.cpp:425] norm2_mod <- conv2_mod
I0415 07:01:48.461788 18774 net.cpp:399] norm2_mod -> norm2_mod
I0415 07:01:48.461817 18774 net.cpp:141] Setting up norm2_mod
I0415 07:01:48.461835 18774 net.cpp:148] Top shape: 100 96 27 27 (6998400)
I0415 07:01:48.461839 18774 net.cpp:156] Memory required for data: 2150918000
I0415 07:01:48.461843 18774 layer_factory.hpp:77] Creating layer poolGlobal
I0415 07:01:48.461848 18774 net.cpp:91] Creating Layer poolGlobal
I0415 07:01:48.461853 18774 net.cpp:425] poolGlobal <- norm2_mod
I0415 07:01:48.461858 18774 net.cpp:399] poolGlobal -> poolGlobal
I0415 07:01:48.461875 18774 net.cpp:141] Setting up poolGlobal
I0415 07:01:48.461882 18774 net.cpp:148] Top shape: 100 96 1 1 (9600)
I0415 07:01:48.461886 18774 net.cpp:156] Memory required for data: 2150956400
I0415 07:01:48.461890 18774 layer_factory.hpp:77] Creating layer fc1a
I0415 07:01:48.461896 18774 net.cpp:91] Creating Layer fc1a
I0415 07:01:48.461900 18774 net.cpp:425] fc1a <- poolGlobal
I0415 07:01:48.461905 18774 net.cpp:399] fc1a -> fc1a
I0415 07:01:48.462234 18774 net.cpp:141] Setting up fc1a
I0415 07:01:48.462240 18774 net.cpp:148] Top shape: 100 96 (9600)
I0415 07:01:48.462244 18774 net.cpp:156] Memory required for data: 2150994800
I0415 07:01:48.462250 18774 layer_factory.hpp:77] Creating layer relu1a
I0415 07:01:48.462256 18774 net.cpp:91] Creating Layer relu1a
I0415 07:01:48.462260 18774 net.cpp:425] relu1a <- fc1a
I0415 07:01:48.462265 18774 net.cpp:386] relu1a -> fc1a (in-place)
I0415 07:01:48.462271 18774 net.cpp:141] Setting up relu1a
I0415 07:01:48.462275 18774 net.cpp:148] Top shape: 100 96 (9600)
I0415 07:01:48.462280 18774 net.cpp:156] Memory required for data: 2151033200
I0415 07:01:48.462283 18774 layer_factory.hpp:77] Creating layer fc1b
I0415 07:01:48.462288 18774 net.cpp:91] Creating Layer fc1b
I0415 07:01:48.462292 18774 net.cpp:425] fc1b <- fc1a
I0415 07:01:48.462297 18774 net.cpp:399] fc1b -> fc1b
I0415 07:01:48.463016 18774 net.cpp:141] Setting up fc1b
I0415 07:01:48.463022 18774 net.cpp:148] Top shape: 100 256 (25600)
I0415 07:01:48.463027 18774 net.cpp:156] Memory required for data: 2151135600
I0415 07:01:48.463032 18774 layer_factory.hpp:77] Creating layer relu1b
I0415 07:01:48.463037 18774 net.cpp:91] Creating Layer relu1b
I0415 07:01:48.463042 18774 net.cpp:425] relu1b <- fc1b
I0415 07:01:48.463047 18774 net.cpp:386] relu1b -> fc1b (in-place)
I0415 07:01:48.463052 18774 net.cpp:141] Setting up relu1b
I0415 07:01:48.463057 18774 net.cpp:148] Top shape: 100 256 (25600)
I0415 07:01:48.463060 18774 net.cpp:156] Memory required for data: 2151238000
I0415 07:01:48.463063 18774 layer_factory.hpp:77] Creating layer fc_switchbottom
I0415 07:01:48.463070 18774 net.cpp:91] Creating Layer fc_switchbottom
I0415 07:01:48.463073 18774 net.cpp:425] fc_switchbottom <- fc1b
I0415 07:01:48.463079 18774 net.cpp:399] fc_switchbottom -> fc_switchbottom
I0415 07:01:48.463174 18774 net.cpp:141] Setting up fc_switchbottom
I0415 07:01:48.463182 18774 net.cpp:148] Top shape: 100 2 (200)
I0415 07:01:48.463186 18774 net.cpp:156] Memory required for data: 2151238800
I0415 07:01:48.463191 18774 layer_factory.hpp:77] Creating layer prob
I0415 07:01:48.463199 18774 net.cpp:91] Creating Layer prob
I0415 07:01:48.463203 18774 net.cpp:425] prob <- fc_switchbottom
I0415 07:01:48.463208 18774 net.cpp:399] prob -> prob
I0415 07:01:48.463259 18774 net.cpp:141] Setting up prob
I0415 07:01:48.463266 18774 net.cpp:148] Top shape: 100 2 (200)
I0415 07:01:48.463269 18774 net.cpp:156] Memory required for data: 2151239600
I0415 07:01:48.463274 18774 layer_factory.hpp:77] Creating layer outputLabel
I0415 07:01:48.463279 18774 net.cpp:91] Creating Layer outputLabel
I0415 07:01:48.463282 18774 net.cpp:425] outputLabel <- prob
I0415 07:01:48.463287 18774 net.cpp:399] outputLabel -> outputLabel
I0415 07:01:48.463305 18774 net.cpp:141] Setting up outputLabel
I0415 07:01:48.463312 18774 net.cpp:148] Top shape: 100 1 1 (100)
I0415 07:01:48.463315 18774 net.cpp:156] Memory required for data: 2151240000
I0415 07:01:48.463320 18774 layer_factory.hpp:77] Creating layer switch
I0415 07:01:48.463325 18774 net.cpp:91] Creating Layer switch
I0415 07:01:48.463328 18774 net.cpp:425] switch <- conv4a
I0415 07:01:48.463340 18774 net.cpp:425] switch <- conv4b
I0415 07:01:48.463345 18774 net.cpp:425] switch <- outputLabel
I0415 07:01:48.463349 18774 net.cpp:399] switch -> switch
I0415 07:01:48.463369 18774 net.cpp:141] Setting up switch
I0415 07:01:48.463376 18774 net.cpp:148] Top shape: 100 384 13 13 (6489600)
I0415 07:01:48.463381 18774 net.cpp:156] Memory required for data: 2177198400
I0415 07:01:48.463383 18774 layer_factory.hpp:77] Creating layer conv5
I0415 07:01:48.463392 18774 net.cpp:91] Creating Layer conv5
I0415 07:01:48.463395 18774 net.cpp:425] conv5 <- switch
I0415 07:01:48.463402 18774 net.cpp:399] conv5 -> conv5
I0415 07:01:48.475373 18774 net.cpp:141] Setting up conv5
I0415 07:01:48.475386 18774 net.cpp:148] Top shape: 100 256 13 13 (4326400)
I0415 07:01:48.475390 18774 net.cpp:156] Memory required for data: 2194504000
I0415 07:01:48.475399 18774 layer_factory.hpp:77] Creating layer relu5
I0415 07:01:48.475405 18774 net.cpp:91] Creating Layer relu5
I0415 07:01:48.475409 18774 net.cpp:425] relu5 <- conv5
I0415 07:01:48.475415 18774 net.cpp:386] relu5 -> conv5 (in-place)
I0415 07:01:48.475421 18774 net.cpp:141] Setting up relu5
I0415 07:01:48.475430 18774 net.cpp:148] Top shape: 100 256 13 13 (4326400)
I0415 07:01:48.475435 18774 net.cpp:156] Memory required for data: 2211809600
I0415 07:01:48.475438 18774 layer_factory.hpp:77] Creating layer pool5
I0415 07:01:48.475445 18774 net.cpp:91] Creating Layer pool5
I0415 07:01:48.475447 18774 net.cpp:425] pool5 <- conv5
I0415 07:01:48.475453 18774 net.cpp:399] pool5 -> pool5
I0415 07:01:48.475484 18774 net.cpp:141] Setting up pool5
I0415 07:01:48.475492 18774 net.cpp:148] Top shape: 100 256 6 6 (921600)
I0415 07:01:48.475495 18774 net.cpp:156] Memory required for data: 2215496000
I0415 07:01:48.475499 18774 layer_factory.hpp:77] Creating layer fc6
I0415 07:01:48.475505 18774 net.cpp:91] Creating Layer fc6
I0415 07:01:48.475509 18774 net.cpp:425] fc6 <- pool5
I0415 07:01:48.475514 18774 net.cpp:399] fc6 -> fc6
I0415 07:01:49.798602 18774 net.cpp:141] Setting up fc6
I0415 07:01:49.798643 18774 net.cpp:148] Top shape: 100 4096 (409600)
I0415 07:01:49.798655 18774 net.cpp:156] Memory required for data: 2217134400
I0415 07:01:49.798676 18774 layer_factory.hpp:77] Creating layer relu6
I0415 07:01:49.798701 18774 net.cpp:91] Creating Layer relu6
I0415 07:01:49.798718 18774 net.cpp:425] relu6 <- fc6
I0415 07:01:49.798739 18774 net.cpp:386] relu6 -> fc6 (in-place)
I0415 07:01:49.798780 18774 net.cpp:141] Setting up relu6
I0415 07:01:49.798795 18774 net.cpp:148] Top shape: 100 4096 (409600)
I0415 07:01:49.798809 18774 net.cpp:156] Memory required for data: 2218772800
I0415 07:01:49.798821 18774 layer_factory.hpp:77] Creating layer drop6
I0415 07:01:49.798840 18774 net.cpp:91] Creating Layer drop6
I0415 07:01:49.798852 18774 net.cpp:425] drop6 <- fc6
I0415 07:01:49.798869 18774 net.cpp:386] drop6 -> fc6 (in-place)
I0415 07:01:49.798930 18774 net.cpp:141] Setting up drop6
I0415 07:01:49.798941 18774 net.cpp:148] Top shape: 100 4096 (409600)
I0415 07:01:49.798951 18774 net.cpp:156] Memory required for data: 2220411200
I0415 07:01:49.798964 18774 layer_factory.hpp:77] Creating layer fc7
I0415 07:01:49.798992 18774 net.cpp:91] Creating Layer fc7
I0415 07:01:49.799001 18774 net.cpp:425] fc7 <- fc6
I0415 07:01:49.799033 18774 net.cpp:399] fc7 -> fc7
I0415 07:01:50.325662 18774 net.cpp:141] Setting up fc7
I0415 07:01:50.325701 18774 net.cpp:148] Top shape: 100 4096 (409600)
I0415 07:01:50.325716 18774 net.cpp:156] Memory required for data: 2222049600
I0415 07:01:50.325741 18774 layer_factory.hpp:77] Creating layer relu7
I0415 07:01:50.325763 18774 net.cpp:91] Creating Layer relu7
I0415 07:01:50.325778 18774 net.cpp:425] relu7 <- fc7
I0415 07:01:50.325817 18774 net.cpp:386] relu7 -> fc7 (in-place)
I0415 07:01:50.325844 18774 net.cpp:141] Setting up relu7
I0415 07:01:50.325857 18774 net.cpp:148] Top shape: 100 4096 (409600)
I0415 07:01:50.325870 18774 net.cpp:156] Memory required for data: 2223688000
I0415 07:01:50.325883 18774 layer_factory.hpp:77] Creating layer drop7
I0415 07:01:50.325902 18774 net.cpp:91] Creating Layer drop7
I0415 07:01:50.325939 18774 net.cpp:425] drop7 <- fc7
I0415 07:01:50.325959 18774 net.cpp:386] drop7 -> fc7 (in-place)
I0415 07:01:50.326014 18774 net.cpp:141] Setting up drop7
I0415 07:01:50.326027 18774 net.cpp:148] Top shape: 100 4096 (409600)
I0415 07:01:50.326040 18774 net.cpp:156] Memory required for data: 2225326400
I0415 07:01:50.326064 18774 layer_factory.hpp:77] Creating layer fc8_modA
I0415 07:01:50.326084 18774 net.cpp:91] Creating Layer fc8_modA
I0415 07:01:50.326097 18774 net.cpp:425] fc8_modA <- fc7
I0415 07:01:50.326115 18774 net.cpp:399] fc8_modA -> fc8_modA
I0415 07:01:50.335408 18774 net.cpp:141] Setting up fc8_modA
I0415 07:01:50.335430 18774 net.cpp:148] Top shape: 100 50 (5000)
I0415 07:01:50.335443 18774 net.cpp:156] Memory required for data: 2225346400
I0415 07:01:50.335489 18774 layer_factory.hpp:77] Creating layer fc8_modA_fc8_modA_0_split
I0415 07:01:50.335505 18774 net.cpp:91] Creating Layer fc8_modA_fc8_modA_0_split
I0415 07:01:50.335520 18774 net.cpp:425] fc8_modA_fc8_modA_0_split <- fc8_modA
I0415 07:01:50.335537 18774 net.cpp:399] fc8_modA_fc8_modA_0_split -> fc8_modA_fc8_modA_0_split_0
I0415 07:01:50.335561 18774 net.cpp:399] fc8_modA_fc8_modA_0_split -> fc8_modA_fc8_modA_0_split_1
I0415 07:01:50.335631 18774 net.cpp:141] Setting up fc8_modA_fc8_modA_0_split
I0415 07:01:50.335645 18774 net.cpp:148] Top shape: 100 50 (5000)
I0415 07:01:50.335660 18774 net.cpp:148] Top shape: 100 50 (5000)
I0415 07:01:50.335674 18774 net.cpp:156] Memory required for data: 2225386400
I0415 07:01:50.335686 18774 layer_factory.hpp:77] Creating layer accuracy
I0415 07:01:50.335705 18774 net.cpp:91] Creating Layer accuracy
I0415 07:01:50.335718 18774 net.cpp:425] accuracy <- fc8_modA_fc8_modA_0_split_0
I0415 07:01:50.335747 18774 net.cpp:425] accuracy <- label_data_1_split_0
I0415 07:01:50.335762 18774 net.cpp:399] accuracy -> accuracy
…
