…
I0513 17:24:10.890894 29762 net.cpp:313] The NetState phase (0) differed from the phase (1) specified by a rule in layer accuracy
I0513 17:24:10.891351 29762 net.cpp:49] Initializing net from parameters: 
name: "VGG"
state {
  phase: TRAIN
}
layer {
  name: "data"
  type: "ImageData"
  top: "data"
  top: "label"
  include {
    phase: TRAIN
  }
  transform_param {
    mirror: true
    mean_value: 104
    mean_value: 117
    mean_value: 123
  }
  image_data_param {
    source: "/data1/shiv/img_folderAlexJitter1/train1.txt"
    batch_size: 15
    shuffle: true
  }
}
layer {
  name: "C1_1a"
  type: "Convolution"
  bottom: "data"
  top: "C1_1a"
  param {
    lr_mult: 1
    decay_mult: 1
  }
  param {
    lr_mult: 2
    decay_mult: 0
  }
  convolution_param {
    num_output: 64
    pad: 1
    kernel_size: 3
    weight_filler {
      type: "gaussian"
      std: 0.01
    }
    bias_filler {
      type: "constant"
      value: 0
    }
  }
}
layer {
  name: "bn1a"
  type: "BatchNorm"
  bottom: "C1_1a"
  top: "bn1a"
  param {
    lr_mult: 0
  }
  param {
    lr_mult: 0
  }
  param {
    lr_mult: 0
  }
}
layer {
  name: "relu1_1a"
  type: "ReLU"
  bottom: "bn1a"
  top: "relu1_1a"
}
layer {
  name: "C1_2a"
  type: "Convolution"
  bottom: "relu1_1a"
  top: "C1_2a"
  param {
    lr_mult: 1
    decay_mult: 1
  }
  param {
    lr_mult: 2
    decay_mult: 0
  }
  convolution_param {
    num_output: 64
    pad: 1
    kernel_size: 3
    weight_filler {
      type: "gaussian"
      std: 0.01
    }
    bias_filler {
      type: "constant"
      value: 0
    }
  }
}
layer {
  name: "bn2a"
  type: "BatchNorm"
  bottom: "C1_2a"
  top: "bn2a"
  param {
    lr_mult: 0
  }
  param {
    lr_mult: 0
  }
  param {
    lr_mult: 0
  }
}
layer {
  name: "relu1_2a"
  type: "ReLU"
  bottom: "bn2a"
  top: "relu1_2a"
}
layer {
  name: "pool1a"
  type: "Pooling"
  bottom: "relu1_2a"
  top: "pool1a"
  pooling_param {
    pool: MAX
    kernel_size: 2
    stride: 2
  }
}
layer {
  name: "C2_1a"
  type: "Convolution"
  bottom: "pool1a"
  top: "C2_1a"
  param {
    lr_mult: 1
    decay_mult: 1
  }
  param {
    lr_mult: 2
    decay_mult: 0
  }
  convolution_param {
    num_output: 128
    pad: 1
    kernel_size: 3
    weight_filler {
      type: "gaussian"
      std: 0.01
    }
    bias_filler {
      type: "constant"
      value: 0
    }
  }
}
layer {
  name: "bn3a"
  type: "BatchNorm"
  bottom: "C2_1a"
  top: "bn3a"
  param {
    lr_mult: 0
  }
  param {
    lr_mult: 0
  }
  param {
    lr_mult: 0
  }
}
layer {
  name: "relu2_1a"
  type: "ReLU"
  bottom: "bn3a"
  top: "relu2_1a"
}
layer {
  name: "C2_2a"
  type: "Convolution"
  bottom: "relu2_1a"
  top: "C2_2a"
  param {
    lr_mult: 1
    decay_mult: 1
  }
  param {
    lr_mult: 2
    decay_mult: 0
  }
  convolution_param {
    num_output: 128
    pad: 1
    kernel_size: 3
    weight_filler {
      type: "gaussian"
      std: 0.01
    }
    bias_filler {
      type: "constant"
      value: 0
    }
  }
}
layer {
  name: "bn4a"
  type: "BatchNorm"
  bottom: "C2_2a"
  top: "bn4a"
  param {
    lr_mult: 0
  }
  param {
    lr_mult: 0
  }
  param {
    lr_mult: 0
  }
}
layer {
  name: "relu2_2a"
  type: "ReLU"
  bottom: "bn4a"
  top: "relu2_2a"
}
layer {
  name: "pool2a"
  type: "Pooling"
  bottom: "relu2_2a"
  top: "pool2a"
  pooling_param {
    pool: MAX
    kernel_size: 2
    stride: 2
  }
}
layer {
  name: "C3_1a"
  type: "Convolution"
  bottom: "pool2a"
  top: "C3_1a"
  param {
    lr_mult: 1
    decay_mult: 1
  }
  param {
    lr_mult: 2
    decay_mult: 0
  }
  convolution_param {
    num_output: 256
    pad: 1
    kernel_size: 3
    weight_filler {
      type: "gaussian"
      std: 0.01
    }
    bias_filler {
      type: "constant"
      value: 0
    }
  }
}
layer {
  name: "bn5a"
  type: "BatchNorm"
  bottom: "C3_1a"
  top: "bn5a"
  param {
    lr_mult: 0
  }
  param {
    lr_mult: 0
  }
  param {
    lr_mult: 0
  }
}
layer {
  name: "relu3_1a"
  type: "ReLU"
  bottom: "bn5a"
  top: "relu3_1a"
}
layer {
  name: "C3_2a"
  type: "Convolution"
  bottom: "relu3_1a"
  top: "C3_2a"
  param {
    lr_mult: 1
    decay_mult: 1
  }
  param {
    lr_mult: 2
    decay_mult: 0
  }
  convolution_param {
    num_output: 256
    pad: 1
    kernel_size: 3
    weight_filler {
      type: "gaussian"
      std: 0.01
    }
    bias_filler {
      type: "constant"
      value: 0
    }
  }
}
layer {
  name: "bn6a"
  type: "BatchNorm"
  bottom: "C3_2a"
  top: "bn6a"
  param {
    lr_mult: 0
  }
  param {
    lr_mult: 0
  }
  param {
    lr_mult: 0
  }
}
layer {
  name: "relu3_2a"
  type: "ReLU"
  bottom: "bn6a"
  top: "relu3_2a"
}
layer {
  name: "C3_3a"
  type: "Convolution"
  bottom: "relu3_2a"
  top: "C3_3a"
  param {
    lr_mult: 1
    decay_mult: 1
  }
  param {
    lr_mult: 2
    decay_mult: 0
  }
  convolution_param {
    num_output: 256
    pad: 1
    kernel_size: 3
    weight_filler {
      type: "gaussian"
      std: 0.01
    }
    bias_filler {
      type: "constant"
      value: 0
    }
  }
}
layer {
  name: "bn7a"
  type: "BatchNorm"
  bottom: "C3_3a"
  top: "bn7a"
  param {
    lr_mult: 0
  }
  param {
    lr_mult: 0
  }
  param {
    lr_mult: 0
  }
}
layer {
  name: "relu3_3a"
  type: "ReLU"
  bottom: "bn7a"
  top: "relu3_3a"
}
layer {
  name: "pool3a"
  type: "Pooling"
  bottom: "relu3_3a"
  top: "pool3a"
  pooling_param {
    pool: MAX
    kernel_size: 2
    stride: 2
  }
}
layer {
  name: "C4_1a"
  type: "Convolution"
  bottom: "pool3a"
  top: "C4_1a"
  param {
    lr_mult: 1
    decay_mult: 1
  }
  param {
    lr_mult: 2
    decay_mult: 0
  }
  convolution_param {
    num_output: 512
    pad: 1
    kernel_size: 3
    weight_filler {
      type: "gaussian"
      std: 0.01
    }
    bias_filler {
      type: "constant"
      value: 0
    }
  }
}
layer {
  name: "bn8a"
  type: "BatchNorm"
  bottom: "C4_1a"
  top: "bn8a"
  param {
    lr_mult: 0
  }
  param {
    lr_mult: 0
  }
  param {
    lr_mult: 0
  }
}
layer {
  name: "relu4_1a"
  type: "ReLU"
  bottom: "bn8a"
  top: "relu4_1a"
}
layer {
  name: "C4_2a"
  type: "Convolution"
  bottom: "relu4_1a"
  top: "C4_2a"
  param {
    lr_mult: 1
    decay_mult: 1
  }
  param {
    lr_mult: 2
    decay_mult: 0
  }
  convolution_param {
    num_output: 512
    pad: 1
    kernel_size: 3
    weight_filler {
      type: "gaussian"
      std: 0.01
    }
    bias_filler {
      type: "constant"
      value: 0
    }
  }
}
layer {
  name: "bn9a"
  type: "BatchNorm"
  bottom: "C4_2a"
  top: "bn9a"
  param {
    lr_mult: 0
  }
  param {
    lr_mult: 0
  }
  param {
    lr_mult: 0
  }
}
layer {
  name: "relu4_2a"
  type: "ReLU"
  bottom: "bn9a"
  top: "relu4_2a"
}
layer {
  name: "C4_3a"
  type: "Convolution"
  bottom: "relu4_2a"
  top: "C4_3a"
  param {
    lr_mult: 1
    decay_mult: 1
  }
  param {
    lr_mult: 2
    decay_mult: 0
  }
  convolution_param {
    num_output: 512
    pad: 1
    kernel_size: 3
    weight_filler {
      type: "gaussian"
      std: 0.01
    }
    bias_filler {
      type: "constant"
      value: 0
    }
  }
}
layer {
  name: "bn10a"
  type: "BatchNorm"
  bottom: "C4_3a"
  top: "bn10a"
  param {
    lr_mult: 0
  }
  param {
    lr_mult: 0
  }
  param {
    lr_mult: 0
  }
}
layer {
  name: "relu4_3a"
  type: "ReLU"
  bottom: "bn10a"
  top: "relu4_3a"
}
layer {
  name: "pool4a"
  type: "Pooling"
  bottom: "relu4_3a"
  top: "pool4a"
  pooling_param {
    pool: MAX
    kernel_size: 2
    stride: 2
  }
}
layer {
  name: "GP"
  type: "Pooling"
  bottom: "pool4a"
  top: "GP"
  pooling_param {
    pool: AVE
    global_pooling: true
  }
}
layer {
  name: "fc"
  type: "InnerProduct"
  bottom: "GP"
  top: "fc"
  param {
    lr_mult: 1
    decay_mult: 1
  }
  param {
    lr_mult: 2
    decay_mult: 0
  }
  inner_product_param {
    num_output: 50
    weight_filler {
      type: "gaussian"
      std: 0.01
    }
    bias_filler {
      type: "constant"
      value: 0
    }
  }
}
layer {
  name: "loss"
  type: "SoftmaxWithLoss"
  bottom: "fc"
  bottom: "label"
  top: "loss"
  include {
    phase: TRAIN
  }
}
I0513 17:24:10.893649 29762 layer_factory.hpp:77] Creating layer data
I0513 17:24:10.893754 29762 net.cpp:91] Creating Layer data
I0513 17:24:10.893792 29762 net.cpp:399] data -> data
I0513 17:24:10.893851 29762 net.cpp:399] data -> label
I0513 17:24:10.894376 29762 image_data_layer.cpp:38] Opening file /data1/shiv/img_folderAlexJitter1/train1.txt
I0513 17:24:10.973778 29762 image_data_layer.cpp:48] Shuffling data
I0513 17:24:10.991325 29762 image_data_layer.cpp:53] A total of 70480 images.
I0513 17:24:11.006831 29762 image_data_layer.cpp:80] output data size: 15,3,224,224
I0513 17:24:11.026298 29762 net.cpp:141] Setting up data
I0513 17:24:11.026355 29762 net.cpp:148] Top shape: 15 3 224 224 (2257920)
I0513 17:24:11.026366 29762 net.cpp:148] Top shape: 15 (15)
I0513 17:24:11.026373 29762 net.cpp:156] Memory required for data: 9031740
I0513 17:24:11.026386 29762 layer_factory.hpp:77] Creating layer C1_1a
I0513 17:24:11.026419 29762 net.cpp:91] Creating Layer C1_1a
I0513 17:24:11.026432 29762 net.cpp:425] C1_1a <- data
I0513 17:24:11.026453 29762 net.cpp:399] C1_1a -> C1_1a
I0513 17:24:11.035145 29762 net.cpp:141] Setting up C1_1a
I0513 17:24:11.035197 29762 net.cpp:148] Top shape: 15 64 224 224 (48168960)
I0513 17:24:11.035205 29762 net.cpp:156] Memory required for data: 201707580
I0513 17:24:11.035233 29762 layer_factory.hpp:77] Creating layer bn1a
I0513 17:24:11.035269 29762 net.cpp:91] Creating Layer bn1a
I0513 17:24:11.035279 29762 net.cpp:425] bn1a <- C1_1a
I0513 17:24:11.035291 29762 net.cpp:399] bn1a -> bn1a
I0513 17:24:11.035630 29762 net.cpp:141] Setting up bn1a
I0513 17:24:11.035647 29762 net.cpp:148] Top shape: 15 64 224 224 (48168960)
I0513 17:24:11.035655 29762 net.cpp:156] Memory required for data: 394383420
I0513 17:24:11.035676 29762 layer_factory.hpp:77] Creating layer relu1_1a
I0513 17:24:11.035691 29762 net.cpp:91] Creating Layer relu1_1a
I0513 17:24:11.035701 29762 net.cpp:425] relu1_1a <- bn1a
I0513 17:24:11.035712 29762 net.cpp:399] relu1_1a -> relu1_1a
I0513 17:24:11.035753 29762 net.cpp:141] Setting up relu1_1a
I0513 17:24:11.035768 29762 net.cpp:148] Top shape: 15 64 224 224 (48168960)
I0513 17:24:11.035774 29762 net.cpp:156] Memory required for data: 587059260
I0513 17:24:11.035781 29762 layer_factory.hpp:77] Creating layer C1_2a
I0513 17:24:11.035802 29762 net.cpp:91] Creating Layer C1_2a
I0513 17:24:11.035811 29762 net.cpp:425] C1_2a <- relu1_1a
I0513 17:24:11.035823 29762 net.cpp:399] C1_2a -> C1_2a
I0513 17:24:11.037994 29762 net.cpp:141] Setting up C1_2a
I0513 17:24:11.038035 29762 net.cpp:148] Top shape: 15 64 224 224 (48168960)
I0513 17:24:11.038044 29762 net.cpp:156] Memory required for data: 779735100
I0513 17:24:11.038059 29762 layer_factory.hpp:77] Creating layer bn2a
I0513 17:24:11.038074 29762 net.cpp:91] Creating Layer bn2a
I0513 17:24:11.038082 29762 net.cpp:425] bn2a <- C1_2a
I0513 17:24:11.038094 29762 net.cpp:399] bn2a -> bn2a
I0513 17:24:11.038429 29762 net.cpp:141] Setting up bn2a
I0513 17:24:11.038445 29762 net.cpp:148] Top shape: 15 64 224 224 (48168960)
I0513 17:24:11.038452 29762 net.cpp:156] Memory required for data: 972410940
I0513 17:24:11.038472 29762 layer_factory.hpp:77] Creating layer relu1_2a
I0513 17:24:11.038486 29762 net.cpp:91] Creating Layer relu1_2a
I0513 17:24:11.038494 29762 net.cpp:425] relu1_2a <- bn2a
I0513 17:24:11.038507 29762 net.cpp:399] relu1_2a -> relu1_2a
I0513 17:24:11.038548 29762 net.cpp:141] Setting up relu1_2a
I0513 17:24:11.038563 29762 net.cpp:148] Top shape: 15 64 224 224 (48168960)
I0513 17:24:11.038569 29762 net.cpp:156] Memory required for data: 1165086780
I0513 17:24:11.038602 29762 layer_factory.hpp:77] Creating layer pool1a
I0513 17:24:11.038614 29762 net.cpp:91] Creating Layer pool1a
I0513 17:24:11.038621 29762 net.cpp:425] pool1a <- relu1_2a
I0513 17:24:11.038631 29762 net.cpp:399] pool1a -> pool1a
I0513 17:24:11.038720 29762 net.cpp:141] Setting up pool1a
I0513 17:24:11.038736 29762 net.cpp:148] Top shape: 15 64 112 112 (12042240)
I0513 17:24:11.038743 29762 net.cpp:156] Memory required for data: 1213255740
I0513 17:24:11.038750 29762 layer_factory.hpp:77] Creating layer C2_1a
I0513 17:24:11.038774 29762 net.cpp:91] Creating Layer C2_1a
I0513 17:24:11.038784 29762 net.cpp:425] C2_1a <- pool1a
I0513 17:24:11.038794 29762 net.cpp:399] C2_1a -> C2_1a
I0513 17:24:11.044230 29762 net.cpp:141] Setting up C2_1a
I0513 17:24:11.044280 29762 net.cpp:148] Top shape: 15 128 112 112 (24084480)
I0513 17:24:11.044287 29762 net.cpp:156] Memory required for data: 1309593660
I0513 17:24:11.044304 29762 layer_factory.hpp:77] Creating layer bn3a
I0513 17:24:11.044322 29762 net.cpp:91] Creating Layer bn3a
I0513 17:24:11.044340 29762 net.cpp:425] bn3a <- C2_1a
I0513 17:24:11.044353 29762 net.cpp:399] bn3a -> bn3a
I0513 17:24:11.044659 29762 net.cpp:141] Setting up bn3a
I0513 17:24:11.044677 29762 net.cpp:148] Top shape: 15 128 112 112 (24084480)
I0513 17:24:11.044683 29762 net.cpp:156] Memory required for data: 1405931580
I0513 17:24:11.044698 29762 layer_factory.hpp:77] Creating layer relu2_1a
I0513 17:24:11.044718 29762 net.cpp:91] Creating Layer relu2_1a
I0513 17:24:11.044728 29762 net.cpp:425] relu2_1a <- bn3a
I0513 17:24:11.044739 29762 net.cpp:399] relu2_1a -> relu2_1a
I0513 17:24:11.044777 29762 net.cpp:141] Setting up relu2_1a
I0513 17:24:11.044790 29762 net.cpp:148] Top shape: 15 128 112 112 (24084480)
I0513 17:24:11.044796 29762 net.cpp:156] Memory required for data: 1502269500
I0513 17:24:11.044803 29762 layer_factory.hpp:77] Creating layer C2_2a
I0513 17:24:11.044824 29762 net.cpp:91] Creating Layer C2_2a
I0513 17:24:11.044834 29762 net.cpp:425] C2_2a <- relu2_1a
I0513 17:24:11.044847 29762 net.cpp:399] C2_2a -> C2_2a
I0513 17:24:11.052367 29762 net.cpp:141] Setting up C2_2a
I0513 17:24:11.052536 29762 net.cpp:148] Top shape: 15 128 112 112 (24084480)
I0513 17:24:11.052609 29762 net.cpp:156] Memory required for data: 1598607420
I0513 17:24:11.052692 29762 layer_factory.hpp:77] Creating layer bn4a
I0513 17:24:11.052773 29762 net.cpp:91] Creating Layer bn4a
I0513 17:24:11.052841 29762 net.cpp:425] bn4a <- C2_2a
I0513 17:24:11.052914 29762 net.cpp:399] bn4a -> bn4a
I0513 17:24:11.053287 29762 net.cpp:141] Setting up bn4a
I0513 17:24:11.053370 29762 net.cpp:148] Top shape: 15 128 112 112 (24084480)
I0513 17:24:11.053437 29762 net.cpp:156] Memory required for data: 1694945340
I0513 17:24:11.053510 29762 layer_factory.hpp:77] Creating layer relu2_2a
I0513 17:24:11.053586 29762 net.cpp:91] Creating Layer relu2_2a
I0513 17:24:11.053653 29762 net.cpp:425] relu2_2a <- bn4a
I0513 17:24:11.053719 29762 net.cpp:399] relu2_2a -> relu2_2a
I0513 17:24:11.053820 29762 net.cpp:141] Setting up relu2_2a
I0513 17:24:11.053894 29762 net.cpp:148] Top shape: 15 128 112 112 (24084480)
I0513 17:24:11.053957 29762 net.cpp:156] Memory required for data: 1791283260
I0513 17:24:11.054021 29762 layer_factory.hpp:77] Creating layer pool2a
I0513 17:24:11.054117 29762 net.cpp:91] Creating Layer pool2a
I0513 17:24:11.054183 29762 net.cpp:425] pool2a <- relu2_2a
I0513 17:24:11.054251 29762 net.cpp:399] pool2a -> pool2a
I0513 17:24:11.054376 29762 net.cpp:141] Setting up pool2a
I0513 17:24:11.054451 29762 net.cpp:148] Top shape: 15 128 56 56 (6021120)
I0513 17:24:11.054515 29762 net.cpp:156] Memory required for data: 1815367740
I0513 17:24:11.054579 29762 layer_factory.hpp:77] Creating layer C3_1a
I0513 17:24:11.054658 29762 net.cpp:91] Creating Layer C3_1a
I0513 17:24:11.054724 29762 net.cpp:425] C3_1a <- pool2a
I0513 17:24:11.054791 29762 net.cpp:399] C3_1a -> C3_1a
I0513 17:24:11.070309 29762 net.cpp:141] Setting up C3_1a
I0513 17:24:11.070497 29762 net.cpp:148] Top shape: 15 256 56 56 (12042240)
I0513 17:24:11.070587 29762 net.cpp:156] Memory required for data: 1863536700
I0513 17:24:11.070664 29762 layer_factory.hpp:77] Creating layer bn5a
I0513 17:24:11.070749 29762 net.cpp:91] Creating Layer bn5a
I0513 17:24:11.070817 29762 net.cpp:425] bn5a <- C3_1a
I0513 17:24:11.070888 29762 net.cpp:399] bn5a -> bn5a
I0513 17:24:11.071252 29762 net.cpp:141] Setting up bn5a
I0513 17:24:11.071333 29762 net.cpp:148] Top shape: 15 256 56 56 (12042240)
I0513 17:24:11.071398 29762 net.cpp:156] Memory required for data: 1911705660
I0513 17:24:11.071477 29762 layer_factory.hpp:77] Creating layer relu3_1a
I0513 17:24:11.071552 29762 net.cpp:91] Creating Layer relu3_1a
I0513 17:24:11.071615 29762 net.cpp:425] relu3_1a <- bn5a
I0513 17:24:11.071683 29762 net.cpp:399] relu3_1a -> relu3_1a
I0513 17:24:11.071794 29762 net.cpp:141] Setting up relu3_1a
I0513 17:24:11.071866 29762 net.cpp:148] Top shape: 15 256 56 56 (12042240)
I0513 17:24:11.071930 29762 net.cpp:156] Memory required for data: 1959874620
I0513 17:24:11.071995 29762 layer_factory.hpp:77] Creating layer C3_2a
I0513 17:24:11.072077 29762 net.cpp:91] Creating Layer C3_2a
I0513 17:24:11.072142 29762 net.cpp:425] C3_2a <- relu3_1a
I0513 17:24:11.072211 29762 net.cpp:399] C3_2a -> C3_2a
I0513 17:24:11.102517 29762 net.cpp:141] Setting up C3_2a
I0513 17:24:11.102695 29762 net.cpp:148] Top shape: 15 256 56 56 (12042240)
I0513 17:24:11.102767 29762 net.cpp:156] Memory required for data: 2008043580
I0513 17:24:11.102844 29762 layer_factory.hpp:77] Creating layer bn6a
I0513 17:24:11.102924 29762 net.cpp:91] Creating Layer bn6a
I0513 17:24:11.102991 29762 net.cpp:425] bn6a <- C3_2a
I0513 17:24:11.103061 29762 net.cpp:399] bn6a -> bn6a
I0513 17:24:11.103436 29762 net.cpp:141] Setting up bn6a
I0513 17:24:11.103521 29762 net.cpp:148] Top shape: 15 256 56 56 (12042240)
I0513 17:24:11.103588 29762 net.cpp:156] Memory required for data: 2056212540
I0513 17:24:11.103663 29762 layer_factory.hpp:77] Creating layer relu3_2a
I0513 17:24:11.103739 29762 net.cpp:91] Creating Layer relu3_2a
I0513 17:24:11.103803 29762 net.cpp:425] relu3_2a <- bn6a
I0513 17:24:11.103870 29762 net.cpp:399] relu3_2a -> relu3_2a
I0513 17:24:11.103984 29762 net.cpp:141] Setting up relu3_2a
I0513 17:24:11.104060 29762 net.cpp:148] Top shape: 15 256 56 56 (12042240)
I0513 17:24:11.104125 29762 net.cpp:156] Memory required for data: 2104381500
I0513 17:24:11.104189 29762 layer_factory.hpp:77] Creating layer C3_3a
I0513 17:24:11.104269 29762 net.cpp:91] Creating Layer C3_3a
I0513 17:24:11.104334 29762 net.cpp:425] C3_3a <- relu3_2a
I0513 17:24:11.104408 29762 net.cpp:399] C3_3a -> C3_3a
I0513 17:24:11.134726 29762 net.cpp:141] Setting up C3_3a
I0513 17:24:11.134903 29762 net.cpp:148] Top shape: 15 256 56 56 (12042240)
I0513 17:24:11.134975 29762 net.cpp:156] Memory required for data: 2152550460
I0513 17:24:11.135051 29762 layer_factory.hpp:77] Creating layer bn7a
I0513 17:24:11.135130 29762 net.cpp:91] Creating Layer bn7a
I0513 17:24:11.135197 29762 net.cpp:425] bn7a <- C3_3a
I0513 17:24:11.135268 29762 net.cpp:399] bn7a -> bn7a
I0513 17:24:11.135632 29762 net.cpp:141] Setting up bn7a
I0513 17:24:11.135713 29762 net.cpp:148] Top shape: 15 256 56 56 (12042240)
I0513 17:24:11.135779 29762 net.cpp:156] Memory required for data: 2200719420
I0513 17:24:11.135869 29762 layer_factory.hpp:77] Creating layer relu3_3a
I0513 17:24:11.135941 29762 net.cpp:91] Creating Layer relu3_3a
I0513 17:24:11.136004 29762 net.cpp:425] relu3_3a <- bn7a
I0513 17:24:11.136071 29762 net.cpp:399] relu3_3a -> relu3_3a
I0513 17:24:11.136180 29762 net.cpp:141] Setting up relu3_3a
I0513 17:24:11.136255 29762 net.cpp:148] Top shape: 15 256 56 56 (12042240)
I0513 17:24:11.136320 29762 net.cpp:156] Memory required for data: 2248888380
I0513 17:24:11.136384 29762 layer_factory.hpp:77] Creating layer pool3a
I0513 17:24:11.136452 29762 net.cpp:91] Creating Layer pool3a
I0513 17:24:11.136514 29762 net.cpp:425] pool3a <- relu3_3a
I0513 17:24:11.136585 29762 net.cpp:399] pool3a -> pool3a
I0513 17:24:11.136730 29762 net.cpp:141] Setting up pool3a
I0513 17:24:11.136826 29762 net.cpp:148] Top shape: 15 256 28 28 (3010560)
I0513 17:24:11.136893 29762 net.cpp:156] Memory required for data: 2260930620
I0513 17:24:11.136956 29762 layer_factory.hpp:77] Creating layer C4_1a
I0513 17:24:11.137035 29762 net.cpp:91] Creating Layer C4_1a
I0513 17:24:11.137102 29762 net.cpp:425] C4_1a <- pool3a
I0513 17:24:11.137171 29762 net.cpp:399] C4_1a -> C4_1a
I0513 17:24:11.197682 29762 net.cpp:141] Setting up C4_1a
I0513 17:24:11.197726 29762 net.cpp:148] Top shape: 15 512 28 28 (6021120)
I0513 17:24:11.197734 29762 net.cpp:156] Memory required for data: 2285015100
I0513 17:24:11.197749 29762 layer_factory.hpp:77] Creating layer bn8a
I0513 17:24:11.197767 29762 net.cpp:91] Creating Layer bn8a
I0513 17:24:11.197775 29762 net.cpp:425] bn8a <- C4_1a
I0513 17:24:11.197791 29762 net.cpp:399] bn8a -> bn8a
I0513 17:24:11.198101 29762 net.cpp:141] Setting up bn8a
I0513 17:24:11.198117 29762 net.cpp:148] Top shape: 15 512 28 28 (6021120)
I0513 17:24:11.198124 29762 net.cpp:156] Memory required for data: 2309099580
I0513 17:24:11.198139 29762 layer_factory.hpp:77] Creating layer relu4_1a
I0513 17:24:11.198151 29762 net.cpp:91] Creating Layer relu4_1a
I0513 17:24:11.198158 29762 net.cpp:425] relu4_1a <- bn8a
I0513 17:24:11.198169 29762 net.cpp:399] relu4_1a -> relu4_1a
I0513 17:24:11.198210 29762 net.cpp:141] Setting up relu4_1a
I0513 17:24:11.198225 29762 net.cpp:148] Top shape: 15 512 28 28 (6021120)
I0513 17:24:11.198232 29762 net.cpp:156] Memory required for data: 2333184060
I0513 17:24:11.198240 29762 layer_factory.hpp:77] Creating layer C4_2a
I0513 17:24:11.198261 29762 net.cpp:91] Creating Layer C4_2a
I0513 17:24:11.198268 29762 net.cpp:425] C4_2a <- relu4_1a
I0513 17:24:11.198279 29762 net.cpp:399] C4_2a -> C4_2a
I0513 17:24:11.316800 29762 net.cpp:141] Setting up C4_2a
I0513 17:24:11.316915 29762 net.cpp:148] Top shape: 15 512 28 28 (6021120)
I0513 17:24:11.316941 29762 net.cpp:156] Memory required for data: 2357268540
I0513 17:24:11.316973 29762 layer_factory.hpp:77] Creating layer bn9a
I0513 17:24:11.317008 29762 net.cpp:91] Creating Layer bn9a
I0513 17:24:11.317035 29762 net.cpp:425] bn9a <- C4_2a
I0513 17:24:11.317071 29762 net.cpp:399] bn9a -> bn9a
I0513 17:24:11.317401 29762 net.cpp:141] Setting up bn9a
I0513 17:24:11.317442 29762 net.cpp:148] Top shape: 15 512 28 28 (6021120)
I0513 17:24:11.317466 29762 net.cpp:156] Memory required for data: 2381353020
I0513 17:24:11.317498 29762 layer_factory.hpp:77] Creating layer relu4_2a
I0513 17:24:11.317533 29762 net.cpp:91] Creating Layer relu4_2a
I0513 17:24:11.317560 29762 net.cpp:425] relu4_2a <- bn9a
I0513 17:24:11.317589 29762 net.cpp:399] relu4_2a -> relu4_2a
I0513 17:24:11.317651 29762 net.cpp:141] Setting up relu4_2a
I0513 17:24:11.317682 29762 net.cpp:148] Top shape: 15 512 28 28 (6021120)
I0513 17:24:11.317713 29762 net.cpp:156] Memory required for data: 2405437500
I0513 17:24:11.317739 29762 layer_factory.hpp:77] Creating layer C4_3a
I0513 17:24:11.317781 29762 net.cpp:91] Creating Layer C4_3a
I0513 17:24:11.317809 29762 net.cpp:425] C4_3a <- relu4_2a
I0513 17:24:11.317842 29762 net.cpp:399] C4_3a -> C4_3a
I0513 17:24:11.423606 29762 net.cpp:141] Setting up C4_3a
I0513 17:24:11.423646 29762 net.cpp:148] Top shape: 15 512 28 28 (6021120)
I0513 17:24:11.423651 29762 net.cpp:156] Memory required for data: 2429521980
I0513 17:24:11.423661 29762 layer_factory.hpp:77] Creating layer bn10a
I0513 17:24:11.423679 29762 net.cpp:91] Creating Layer bn10a
I0513 17:24:11.423686 29762 net.cpp:425] bn10a <- C4_3a
I0513 17:24:11.423696 29762 net.cpp:399] bn10a -> bn10a
I0513 17:24:11.423899 29762 net.cpp:141] Setting up bn10a
I0513 17:24:11.423908 29762 net.cpp:148] Top shape: 15 512 28 28 (6021120)
I0513 17:24:11.423913 29762 net.cpp:156] Memory required for data: 2453606460
I0513 17:24:11.423920 29762 layer_factory.hpp:77] Creating layer relu4_3a
I0513 17:24:11.423928 29762 net.cpp:91] Creating Layer relu4_3a
I0513 17:24:11.423933 29762 net.cpp:425] relu4_3a <- bn10a
I0513 17:24:11.423943 29762 net.cpp:399] relu4_3a -> relu4_3a
I0513 17:24:11.423990 29762 net.cpp:141] Setting up relu4_3a
I0513 17:24:11.423998 29762 net.cpp:148] Top shape: 15 512 28 28 (6021120)
I0513 17:24:11.424002 29762 net.cpp:156] Memory required for data: 2477690940
I0513 17:24:11.424006 29762 layer_factory.hpp:77] Creating layer pool4a
I0513 17:24:11.424013 29762 net.cpp:91] Creating Layer pool4a
I0513 17:24:11.424017 29762 net.cpp:425] pool4a <- relu4_3a
I0513 17:24:11.424023 29762 net.cpp:399] pool4a -> pool4a
I0513 17:24:11.424060 29762 net.cpp:141] Setting up pool4a
I0513 17:24:11.424067 29762 net.cpp:148] Top shape: 15 512 14 14 (1505280)
I0513 17:24:11.424072 29762 net.cpp:156] Memory required for data: 2483712060
I0513 17:24:11.424074 29762 layer_factory.hpp:77] Creating layer GP
I0513 17:24:11.424082 29762 net.cpp:91] Creating Layer GP
I0513 17:24:11.424087 29762 net.cpp:425] GP <- pool4a
I0513 17:24:11.424091 29762 net.cpp:399] GP -> GP
I0513 17:24:11.424114 29762 net.cpp:141] Setting up GP
I0513 17:24:11.424121 29762 net.cpp:148] Top shape: 15 512 1 1 (7680)
I0513 17:24:11.424125 29762 net.cpp:156] Memory required for data: 2483742780
I0513 17:24:11.424129 29762 layer_factory.hpp:77] Creating layer fc
I0513 17:24:11.424136 29762 net.cpp:91] Creating Layer fc
I0513 17:24:11.424140 29762 net.cpp:425] fc <- GP
I0513 17:24:11.424149 29762 net.cpp:399] fc -> fc
I0513 17:24:11.425739 29762 net.cpp:141] Setting up fc
I0513 17:24:11.425765 29762 net.cpp:148] Top shape: 15 50 (750)
I0513 17:24:11.425770 29762 net.cpp:156] Memory required for data: 2483745780
I0513 17:24:11.425779 29762 layer_factory.hpp:77] Creating layer loss
I0513 17:24:11.425789 29762 net.cpp:91] Creating Layer loss
I0513 17:24:11.425793 29762 net.cpp:425] loss <- fc
I0513 17:24:11.425799 29762 net.cpp:425] loss <- label
I0513 17:24:11.425806 29762 net.cpp:399] loss -> loss
I0513 17:24:11.425822 29762 layer_factory.hpp:77] Creating layer loss
…
I0513 17:24:11.427470 29762 net.cpp:313] The NetState phase (1) differed from the phase (0) specified by a rule in layer loss
I0513 17:24:11.427736 29762 net.cpp:49] Initializing net from parameters: 
name: "VGG"
state {
  phase: TEST
}
layer {
  name: "data"
  type: "ImageData"
  top: "data"
  top: "label"
  include {
    phase: TEST
  }
  transform_param {
    mirror: false
    mean_value: 104
    mean_value: 117
    mean_value: 123
  }
  image_data_param {
    source: "/data1/shiv/img_folderAlexJitter1/val1.txt"
    batch_size: 1
    shuffle: false
  }
}
layer {
  name: "C1_1a"
  type: "Convolution"
  bottom: "data"
  top: "C1_1a"
  param {
    lr_mult: 1
    decay_mult: 1
  }
  param {
    lr_mult: 2
    decay_mult: 0
  }
  convolution_param {
    num_output: 64
    pad: 1
    kernel_size: 3
    weight_filler {
      type: "gaussian"
      std: 0.01
    }
    bias_filler {
      type: "constant"
      value: 0
    }
  }
}
layer {
  name: "bn1a"
  type: "BatchNorm"
  bottom: "C1_1a"
  top: "bn1a"
  param {
    lr_mult: 0
  }
  param {
    lr_mult: 0
  }
  param {
    lr_mult: 0
  }
}
layer {
  name: "relu1_1a"
  type: "ReLU"
  bottom: "bn1a"
  top: "relu1_1a"
}
layer {
  name: "C1_2a"
  type: "Convolution"
  bottom: "relu1_1a"
  top: "C1_2a"
  param {
    lr_mult: 1
    decay_mult: 1
  }
  param {
    lr_mult: 2
    decay_mult: 0
  }
  convolution_param {
    num_output: 64
    pad: 1
    kernel_size: 3
    weight_filler {
      type: "gaussian"
      std: 0.01
    }
    bias_filler {
      type: "constant"
      value: 0
    }
  }
}
layer {
  name: "bn2a"
  type: "BatchNorm"
  bottom: "C1_2a"
  top: "bn2a"
  param {
    lr_mult: 0
  }
  param {
    lr_mult: 0
  }
  param {
    lr_mult: 0
  }
}
layer {
  name: "relu1_2a"
  type: "ReLU"
  bottom: "bn2a"
  top: "relu1_2a"
}
layer {
  name: "pool1a"
  type: "Pooling"
  bottom: "relu1_2a"
  top: "pool1a"
  pooling_param {
    pool: MAX
    kernel_size: 2
    stride: 2
  }
}
layer {
  name: "C2_1a"
  type: "Convolution"
  bottom: "pool1a"
  top: "C2_1a"
  param {
    lr_mult: 1
    decay_mult: 1
  }
  param {
    lr_mult: 2
    decay_mult: 0
  }
  convolution_param {
    num_output: 128
    pad: 1
    kernel_size: 3
    weight_filler {
      type: "gaussian"
      std: 0.01
    }
    bias_filler {
      type: "constant"
      value: 0
    }
  }
}
layer {
  name: "bn3a"
  type: "BatchNorm"
  bottom: "C2_1a"
  top: "bn3a"
  param {
    lr_mult: 0
  }
  param {
    lr_mult: 0
  }
  param {
    lr_mult: 0
  }
}
layer {
  name: "relu2_1a"
  type: "ReLU"
  bottom: "bn3a"
  top: "relu2_1a"
}
layer {
  name: "C2_2a"
  type: "Convolution"
  bottom: "relu2_1a"
  top: "C2_2a"
  param {
    lr_mult: 1
    decay_mult: 1
  }
  param {
    lr_mult: 2
    decay_mult: 0
  }
  convolution_param {
    num_output: 128
    pad: 1
    kernel_size: 3
    weight_filler {
      type: "gaussian"
      std: 0.01
    }
    bias_filler {
      type: "constant"
      value: 0
    }
  }
}
layer {
  name: "bn4a"
  type: "BatchNorm"
  bottom: "C2_2a"
  top: "bn4a"
  param {
    lr_mult: 0
  }
  param {
    lr_mult: 0
  }
  param {
    lr_mult: 0
  }
}
layer {
  name: "relu2_2a"
  type: "ReLU"
  bottom: "bn4a"
  top: "relu2_2a"
}
layer {
  name: "pool2a"
  type: "Pooling"
  bottom: "relu2_2a"
  top: "pool2a"
  pooling_param {
    pool: MAX
    kernel_size: 2
    stride: 2
  }
}
layer {
  name: "C3_1a"
  type: "Convolution"
  bottom: "pool2a"
  top: "C3_1a"
  param {
    lr_mult: 1
    decay_mult: 1
  }
  param {
    lr_mult: 2
    decay_mult: 0
  }
  convolution_param {
    num_output: 256
    pad: 1
    kernel_size: 3
    weight_filler {
      type: "gaussian"
      std: 0.01
    }
    bias_filler {
      type: "constant"
      value: 0
    }
  }
}
layer {
  name: "bn5a"
  type: "BatchNorm"
  bottom: "C3_1a"
  top: "bn5a"
  param {
    lr_mult: 0
  }
  param {
    lr_mult: 0
  }
  param {
    lr_mult: 0
  }
}
layer {
  name: "relu3_1a"
  type: "ReLU"
  bottom: "bn5a"
  top: "relu3_1a"
}
layer {
  name: "C3_2a"
  type: "Convolution"
  bottom: "relu3_1a"
  top: "C3_2a"
  param {
    lr_mult: 1
    decay_mult: 1
  }
  param {
    lr_mult: 2
    decay_mult: 0
  }
  convolution_param {
    num_output: 256
    pad: 1
    kernel_size: 3
    weight_filler {
      type: "gaussian"
      std: 0.01
    }
    bias_filler {
      type: "constant"
      value: 0
    }
  }
}
layer {
  name: "bn6a"
  type: "BatchNorm"
  bottom: "C3_2a"
  top: "bn6a"
  param {
    lr_mult: 0
  }
  param {
    lr_mult: 0
  }
  param {
    lr_mult: 0
  }
}
layer {
  name: "relu3_2a"
  type: "ReLU"
  bottom: "bn6a"
  top: "relu3_2a"
}
layer {
  name: "C3_3a"
  type: "Convolution"
  bottom: "relu3_2a"
  top: "C3_3a"
  param {
    lr_mult: 1
    decay_mult: 1
  }
  param {
    lr_mult: 2
    decay_mult: 0
  }
  convolution_param {
    num_output: 256
    pad: 1
    kernel_size: 3
    weight_filler {
      type: "gaussian"
      std: 0.01
    }
    bias_filler {
      type: "constant"
      value: 0
    }
  }
}
layer {
  name: "bn7a"
  type: "BatchNorm"
  bottom: "C3_3a"
  top: "bn7a"
  param {
    lr_mult: 0
  }
  param {
    lr_mult: 0
  }
  param {
    lr_mult: 0
  }
}
layer {
  name: "relu3_3a"
  type: "ReLU"
  bottom: "bn7a"
  top: "relu3_3a"
}
layer {
  name: "pool3a"
  type: "Pooling"
  bottom: "relu3_3a"
  top: "pool3a"
  pooling_param {
    pool: MAX
    kernel_size: 2
    stride: 2
  }
}
layer {
  name: "C4_1a"
  type: "Convolution"
  bottom: "pool3a"
  top: "C4_1a"
  param {
    lr_mult: 1
    decay_mult: 1
  }
  param {
    lr_mult: 2
    decay_mult: 0
  }
  convolution_param {
    num_output: 512
    pad: 1
    kernel_size: 3
    weight_filler {
      type: "gaussian"
      std: 0.01
    }
    bias_filler {
      type: "constant"
      value: 0
    }
  }
}
layer {
  name: "bn8a"
  type: "BatchNorm"
  bottom: "C4_1a"
  top: "bn8a"
  param {
    lr_mult: 0
  }
  param {
    lr_mult: 0
  }
  param {
    lr_mult: 0
  }
}
layer {
  name: "relu4_1a"
  type: "ReLU"
  bottom: "bn8a"
  top: "relu4_1a"
}
layer {
  name: "C4_2a"
  type: "Convolution"
  bottom: "relu4_1a"
  top: "C4_2a"
  param {
    lr_mult: 1
    decay_mult: 1
  }
  param {
    lr_mult: 2
    decay_mult: 0
  }
  convolution_param {
    num_output: 512
    pad: 1
    kernel_size: 3
    weight_filler {
      type: "gaussian"
      std: 0.01
    }
    bias_filler {
      type: "constant"
      value: 0
    }
  }
}
layer {
  name: "bn9a"
  type: "BatchNorm"
  bottom: "C4_2a"
  top: "bn9a"
  param {
    lr_mult: 0
  }
  param {
    lr_mult: 0
  }
  param {
    lr_mult: 0
  }
}
layer {
  name: "relu4_2a"
  type: "ReLU"
  bottom: "bn9a"
  top: "relu4_2a"
}
layer {
  name: "C4_3a"
  type: "Convolution"
  bottom: "relu4_2a"
  top: "C4_3a"
  param {
    lr_mult: 1
    decay_mult: 1
  }
  param {
    lr_mult: 2
    decay_mult: 0
  }
  convolution_param {
    num_output: 512
    pad: 1
    kernel_size: 3
    weight_filler {
      type: "gaussian"
      std: 0.01
    }
    bias_filler {
      type: "constant"
      value: 0
    }
  }
}
layer {
  name: "bn10a"
  type: "BatchNorm"
  bottom: "C4_3a"
  top: "bn10a"
  param {
    lr_mult: 0
  }
  param {
    lr_mult: 0
  }
  param {
    lr_mult: 0
  }
}
layer {
  name: "relu4_3a"
  type: "ReLU"
  bottom: "bn10a"
  top: "relu4_3a"
}
layer {
  name: "pool4a"
  type: "Pooling"
  bottom: "relu4_3a"
  top: "pool4a"
  pooling_param {
    pool: MAX
    kernel_size: 2
    stride: 2
  }
}
layer {
  name: "GP"
  type: "Pooling"
  bottom: "pool4a"
  top: "GP"
  pooling_param {
    pool: AVE
    global_pooling: true
  }
}
layer {
  name: "fc"
  type: "InnerProduct"
  bottom: "GP"
  top: "fc"
  param {
    lr_mult: 1
    decay_mult: 1
  }
  param {
    lr_mult: 2
    decay_mult: 0
  }
  inner_product_param {
    num_output: 50
    weight_filler {
      type: "gaussian"
      std: 0.01
    }
    bias_filler {
      type: "constant"
      value: 0
    }
  }
}
layer {
  name: "accuracy"
  type: "Accuracy"
  bottom: "fc"
  bottom: "label"
  top: "accuracy"
  include {
    phase: TEST
  }
}
I0513 17:24:11.427904 29762 layer_factory.hpp:77] Creating layer data
I0513 17:24:11.427922 29762 net.cpp:91] Creating Layer data
I0513 17:24:11.427928 29762 net.cpp:399] data -> data
I0513 17:24:11.427940 29762 net.cpp:399] data -> label
I0513 17:24:11.427952 29762 image_data_layer.cpp:38] Opening file /data1/shiv/img_folderAlexJitter1/val1.txt
I0513 17:24:11.461158 29762 image_data_layer.cpp:53] A total of 6875 images.
I0513 17:24:11.462365 29762 image_data_layer.cpp:80] output data size: 1,3,224,224
I0513 17:24:11.465571 29762 net.cpp:141] Setting up data
I0513 17:24:11.465620 29762 net.cpp:148] Top shape: 1 3 224 224 (150528)
I0513 17:24:11.465631 29762 net.cpp:148] Top shape: 1 (1)
I0513 17:24:11.465637 29762 net.cpp:156] Memory required for data: 602116
I0513 17:24:11.465647 29762 layer_factory.hpp:77] Creating layer C1_1a
I0513 17:24:11.465673 29762 net.cpp:91] Creating Layer C1_1a
I0513 17:24:11.465682 29762 net.cpp:425] C1_1a <- data
I0513 17:24:11.465695 29762 net.cpp:399] C1_1a -> C1_1a
I0513 17:24:11.466262 29762 net.cpp:141] Setting up C1_1a
I0513 17:24:11.466289 29762 net.cpp:148] Top shape: 1 64 224 224 (3211264)
I0513 17:24:11.466295 29762 net.cpp:156] Memory required for data: 13447172
I0513 17:24:11.466312 29762 layer_factory.hpp:77] Creating layer bn1a
I0513 17:24:11.466325 29762 net.cpp:91] Creating Layer bn1a
I0513 17:24:11.466332 29762 net.cpp:425] bn1a <- C1_1a
I0513 17:24:11.466341 29762 net.cpp:399] bn1a -> bn1a
I0513 17:24:11.466670 29762 net.cpp:141] Setting up bn1a
I0513 17:24:11.466686 29762 net.cpp:148] Top shape: 1 64 224 224 (3211264)
I0513 17:24:11.466691 29762 net.cpp:156] Memory required for data: 26292228
I0513 17:24:11.466708 29762 layer_factory.hpp:77] Creating layer relu1_1a
I0513 17:24:11.466722 29762 net.cpp:91] Creating Layer relu1_1a
I0513 17:24:11.466732 29762 net.cpp:425] relu1_1a <- bn1a
I0513 17:24:11.466739 29762 net.cpp:399] relu1_1a -> relu1_1a
I0513 17:24:11.466771 29762 net.cpp:141] Setting up relu1_1a
I0513 17:24:11.466784 29762 net.cpp:148] Top shape: 1 64 224 224 (3211264)
I0513 17:24:11.466789 29762 net.cpp:156] Memory required for data: 39137284
I0513 17:24:11.466794 29762 layer_factory.hpp:77] Creating layer C1_2a
I0513 17:24:11.466810 29762 net.cpp:91] Creating Layer C1_2a
I0513 17:24:11.466819 29762 net.cpp:425] C1_2a <- relu1_1a
I0513 17:24:11.466827 29762 net.cpp:399] C1_2a -> C1_2a
I0513 17:24:11.469276 29762 net.cpp:141] Setting up C1_2a
I0513 17:24:11.469311 29762 net.cpp:148] Top shape: 1 64 224 224 (3211264)
I0513 17:24:11.469318 29762 net.cpp:156] Memory required for data: 51982340
I0513 17:24:11.469333 29762 layer_factory.hpp:77] Creating layer bn2a
I0513 17:24:11.469348 29762 net.cpp:91] Creating Layer bn2a
I0513 17:24:11.469362 29762 net.cpp:425] bn2a <- C1_2a
I0513 17:24:11.469375 29762 net.cpp:399] bn2a -> bn2a
I0513 17:24:11.470520 29762 net.cpp:141] Setting up bn2a
I0513 17:24:11.470554 29762 net.cpp:148] Top shape: 1 64 224 224 (3211264)
I0513 17:24:11.470592 29762 net.cpp:156] Memory required for data: 64827396
I0513 17:24:11.470618 29762 layer_factory.hpp:77] Creating layer relu1_2a
I0513 17:24:11.470633 29762 net.cpp:91] Creating Layer relu1_2a
I0513 17:24:11.470639 29762 net.cpp:425] relu1_2a <- bn2a
I0513 17:24:11.470649 29762 net.cpp:399] relu1_2a -> relu1_2a
I0513 17:24:11.470688 29762 net.cpp:141] Setting up relu1_2a
I0513 17:24:11.470700 29762 net.cpp:148] Top shape: 1 64 224 224 (3211264)
I0513 17:24:11.470705 29762 net.cpp:156] Memory required for data: 77672452
I0513 17:24:11.470711 29762 layer_factory.hpp:77] Creating layer pool1a
I0513 17:24:11.470724 29762 net.cpp:91] Creating Layer pool1a
I0513 17:24:11.470731 29762 net.cpp:425] pool1a <- relu1_2a
I0513 17:24:11.470738 29762 net.cpp:399] pool1a -> pool1a
I0513 17:24:11.470794 29762 net.cpp:141] Setting up pool1a
I0513 17:24:11.470808 29762 net.cpp:148] Top shape: 1 64 112 112 (802816)
I0513 17:24:11.470813 29762 net.cpp:156] Memory required for data: 80883716
I0513 17:24:11.470818 29762 layer_factory.hpp:77] Creating layer C2_1a
I0513 17:24:11.470837 29762 net.cpp:91] Creating Layer C2_1a
I0513 17:24:11.470844 29762 net.cpp:425] C2_1a <- pool1a
I0513 17:24:11.470859 29762 net.cpp:399] C2_1a -> C2_1a
I0513 17:24:11.475059 29762 net.cpp:141] Setting up C2_1a
I0513 17:24:11.475103 29762 net.cpp:148] Top shape: 1 128 112 112 (1605632)
I0513 17:24:11.475111 29762 net.cpp:156] Memory required for data: 87306244
I0513 17:24:11.475126 29762 layer_factory.hpp:77] Creating layer bn3a
I0513 17:24:11.475141 29762 net.cpp:91] Creating Layer bn3a
I0513 17:24:11.475149 29762 net.cpp:425] bn3a <- C2_1a
I0513 17:24:11.475162 29762 net.cpp:399] bn3a -> bn3a
I0513 17:24:11.475450 29762 net.cpp:141] Setting up bn3a
I0513 17:24:11.475466 29762 net.cpp:148] Top shape: 1 128 112 112 (1605632)
I0513 17:24:11.475472 29762 net.cpp:156] Memory required for data: 93728772
I0513 17:24:11.475484 29762 layer_factory.hpp:77] Creating layer relu2_1a
I0513 17:24:11.475497 29762 net.cpp:91] Creating Layer relu2_1a
I0513 17:24:11.475502 29762 net.cpp:425] relu2_1a <- bn3a
I0513 17:24:11.475512 29762 net.cpp:399] relu2_1a -> relu2_1a
I0513 17:24:11.475544 29762 net.cpp:141] Setting up relu2_1a
I0513 17:24:11.475555 29762 net.cpp:148] Top shape: 1 128 112 112 (1605632)
I0513 17:24:11.475561 29762 net.cpp:156] Memory required for data: 100151300
I0513 17:24:11.475567 29762 layer_factory.hpp:77] Creating layer C2_2a
I0513 17:24:11.475585 29762 net.cpp:91] Creating Layer C2_2a
I0513 17:24:11.475594 29762 net.cpp:425] C2_2a <- relu2_1a
I0513 17:24:11.475605 29762 net.cpp:399] C2_2a -> C2_2a
I0513 17:24:11.484292 29762 net.cpp:141] Setting up C2_2a
I0513 17:24:11.484343 29762 net.cpp:148] Top shape: 1 128 112 112 (1605632)
I0513 17:24:11.484349 29762 net.cpp:156] Memory required for data: 106573828
I0513 17:24:11.484369 29762 layer_factory.hpp:77] Creating layer bn4a
I0513 17:24:11.484396 29762 net.cpp:91] Creating Layer bn4a
I0513 17:24:11.484407 29762 net.cpp:425] bn4a <- C2_2a
I0513 17:24:11.484421 29762 net.cpp:399] bn4a -> bn4a
I0513 17:24:11.484709 29762 net.cpp:141] Setting up bn4a
I0513 17:24:11.484725 29762 net.cpp:148] Top shape: 1 128 112 112 (1605632)
I0513 17:24:11.484731 29762 net.cpp:156] Memory required for data: 112996356
I0513 17:24:11.484745 29762 layer_factory.hpp:77] Creating layer relu2_2a
I0513 17:24:11.484758 29762 net.cpp:91] Creating Layer relu2_2a
I0513 17:24:11.484767 29762 net.cpp:425] relu2_2a <- bn4a
I0513 17:24:11.484776 29762 net.cpp:399] relu2_2a -> relu2_2a
I0513 17:24:11.484807 29762 net.cpp:141] Setting up relu2_2a
I0513 17:24:11.484817 29762 net.cpp:148] Top shape: 1 128 112 112 (1605632)
I0513 17:24:11.484822 29762 net.cpp:156] Memory required for data: 119418884
I0513 17:24:11.484828 29762 layer_factory.hpp:77] Creating layer pool2a
I0513 17:24:11.484841 29762 net.cpp:91] Creating Layer pool2a
I0513 17:24:11.484848 29762 net.cpp:425] pool2a <- relu2_2a
I0513 17:24:11.484856 29762 net.cpp:399] pool2a -> pool2a
I0513 17:24:11.484908 29762 net.cpp:141] Setting up pool2a
I0513 17:24:11.484920 29762 net.cpp:148] Top shape: 1 128 56 56 (401408)
I0513 17:24:11.484946 29762 net.cpp:156] Memory required for data: 121024516
I0513 17:24:11.484953 29762 layer_factory.hpp:77] Creating layer C3_1a
I0513 17:24:11.484972 29762 net.cpp:91] Creating Layer C3_1a
I0513 17:24:11.484980 29762 net.cpp:425] C3_1a <- pool2a
I0513 17:24:11.484990 29762 net.cpp:399] C3_1a -> C3_1a
I0513 17:24:11.500973 29762 net.cpp:141] Setting up C3_1a
I0513 17:24:11.501021 29762 net.cpp:148] Top shape: 1 256 56 56 (802816)
I0513 17:24:11.501029 29762 net.cpp:156] Memory required for data: 124235780
I0513 17:24:11.501041 29762 layer_factory.hpp:77] Creating layer bn5a
I0513 17:24:11.501061 29762 net.cpp:91] Creating Layer bn5a
I0513 17:24:11.501070 29762 net.cpp:425] bn5a <- C3_1a
I0513 17:24:11.501083 29762 net.cpp:399] bn5a -> bn5a
I0513 17:24:11.501366 29762 net.cpp:141] Setting up bn5a
I0513 17:24:11.501379 29762 net.cpp:148] Top shape: 1 256 56 56 (802816)
I0513 17:24:11.501384 29762 net.cpp:156] Memory required for data: 127447044
I0513 17:24:11.501399 29762 layer_factory.hpp:77] Creating layer relu3_1a
I0513 17:24:11.501410 29762 net.cpp:91] Creating Layer relu3_1a
I0513 17:24:11.501415 29762 net.cpp:425] relu3_1a <- bn5a
I0513 17:24:11.501425 29762 net.cpp:399] relu3_1a -> relu3_1a
I0513 17:24:11.501454 29762 net.cpp:141] Setting up relu3_1a
I0513 17:24:11.501463 29762 net.cpp:148] Top shape: 1 256 56 56 (802816)
I0513 17:24:11.501468 29762 net.cpp:156] Memory required for data: 130658308
I0513 17:24:11.501474 29762 layer_factory.hpp:77] Creating layer C3_2a
I0513 17:24:11.501492 29762 net.cpp:91] Creating Layer C3_2a
I0513 17:24:11.501500 29762 net.cpp:425] C3_2a <- relu3_1a
I0513 17:24:11.501510 29762 net.cpp:399] C3_2a -> C3_2a
I0513 17:24:11.531270 29762 net.cpp:141] Setting up C3_2a
I0513 17:24:11.531323 29762 net.cpp:148] Top shape: 1 256 56 56 (802816)
I0513 17:24:11.531332 29762 net.cpp:156] Memory required for data: 133869572
I0513 17:24:11.531348 29762 layer_factory.hpp:77] Creating layer bn6a
I0513 17:24:11.531368 29762 net.cpp:91] Creating Layer bn6a
I0513 17:24:11.531376 29762 net.cpp:425] bn6a <- C3_2a
I0513 17:24:11.531389 29762 net.cpp:399] bn6a -> bn6a
I0513 17:24:11.531705 29762 net.cpp:141] Setting up bn6a
I0513 17:24:11.531720 29762 net.cpp:148] Top shape: 1 256 56 56 (802816)
I0513 17:24:11.531728 29762 net.cpp:156] Memory required for data: 137080836
I0513 17:24:11.531743 29762 layer_factory.hpp:77] Creating layer relu3_2a
I0513 17:24:11.531754 29762 net.cpp:91] Creating Layer relu3_2a
I0513 17:24:11.531761 29762 net.cpp:425] relu3_2a <- bn6a
I0513 17:24:11.531771 29762 net.cpp:399] relu3_2a -> relu3_2a
I0513 17:24:11.531807 29762 net.cpp:141] Setting up relu3_2a
I0513 17:24:11.531819 29762 net.cpp:148] Top shape: 1 256 56 56 (802816)
I0513 17:24:11.531826 29762 net.cpp:156] Memory required for data: 140292100
I0513 17:24:11.531832 29762 layer_factory.hpp:77] Creating layer C3_3a
I0513 17:24:11.531852 29762 net.cpp:91] Creating Layer C3_3a
I0513 17:24:11.531860 29762 net.cpp:425] C3_3a <- relu3_2a
I0513 17:24:11.531894 29762 net.cpp:399] C3_3a -> C3_3a
I0513 17:24:11.561843 29762 net.cpp:141] Setting up C3_3a
I0513 17:24:11.561899 29762 net.cpp:148] Top shape: 1 256 56 56 (802816)
I0513 17:24:11.561908 29762 net.cpp:156] Memory required for data: 143503364
I0513 17:24:11.561923 29762 layer_factory.hpp:77] Creating layer bn7a
I0513 17:24:11.561944 29762 net.cpp:91] Creating Layer bn7a
I0513 17:24:11.561952 29762 net.cpp:425] bn7a <- C3_3a
I0513 17:24:11.561966 29762 net.cpp:399] bn7a -> bn7a
I0513 17:24:11.562324 29762 net.cpp:141] Setting up bn7a
I0513 17:24:11.562341 29762 net.cpp:148] Top shape: 1 256 56 56 (802816)
I0513 17:24:11.562347 29762 net.cpp:156] Memory required for data: 146714628
I0513 17:24:11.562376 29762 layer_factory.hpp:77] Creating layer relu3_3a
I0513 17:24:11.562389 29762 net.cpp:91] Creating Layer relu3_3a
I0513 17:24:11.562397 29762 net.cpp:425] relu3_3a <- bn7a
I0513 17:24:11.562407 29762 net.cpp:399] relu3_3a -> relu3_3a
I0513 17:24:11.562446 29762 net.cpp:141] Setting up relu3_3a
I0513 17:24:11.562489 29762 net.cpp:148] Top shape: 1 256 56 56 (802816)
I0513 17:24:11.562497 29762 net.cpp:156] Memory required for data: 149925892
I0513 17:24:11.562505 29762 layer_factory.hpp:77] Creating layer pool3a
I0513 17:24:11.562516 29762 net.cpp:91] Creating Layer pool3a
I0513 17:24:11.562523 29762 net.cpp:425] pool3a <- relu3_3a
I0513 17:24:11.562536 29762 net.cpp:399] pool3a -> pool3a
I0513 17:24:11.562597 29762 net.cpp:141] Setting up pool3a
I0513 17:24:11.562611 29762 net.cpp:148] Top shape: 1 256 28 28 (200704)
I0513 17:24:11.562618 29762 net.cpp:156] Memory required for data: 150728708
I0513 17:24:11.562625 29762 layer_factory.hpp:77] Creating layer C4_1a
I0513 17:24:11.562646 29762 net.cpp:91] Creating Layer C4_1a
I0513 17:24:11.562654 29762 net.cpp:425] C4_1a <- pool3a
I0513 17:24:11.562665 29762 net.cpp:399] C4_1a -> C4_1a
I0513 17:24:11.621387 29762 net.cpp:141] Setting up C4_1a
I0513 17:24:11.621446 29762 net.cpp:148] Top shape: 1 512 28 28 (401408)
I0513 17:24:11.621456 29762 net.cpp:156] Memory required for data: 152334340
I0513 17:24:11.621471 29762 layer_factory.hpp:77] Creating layer bn8a
I0513 17:24:11.621491 29762 net.cpp:91] Creating Layer bn8a
I0513 17:24:11.621501 29762 net.cpp:425] bn8a <- C4_1a
I0513 17:24:11.621515 29762 net.cpp:399] bn8a -> bn8a
I0513 17:24:11.621821 29762 net.cpp:141] Setting up bn8a
I0513 17:24:11.621836 29762 net.cpp:148] Top shape: 1 512 28 28 (401408)
I0513 17:24:11.621842 29762 net.cpp:156] Memory required for data: 153939972
I0513 17:24:11.621857 29762 layer_factory.hpp:77] Creating layer relu4_1a
I0513 17:24:11.621870 29762 net.cpp:91] Creating Layer relu4_1a
I0513 17:24:11.621876 29762 net.cpp:425] relu4_1a <- bn8a
I0513 17:24:11.621886 29762 net.cpp:399] relu4_1a -> relu4_1a
I0513 17:24:11.621924 29762 net.cpp:141] Setting up relu4_1a
I0513 17:24:11.621937 29762 net.cpp:148] Top shape: 1 512 28 28 (401408)
I0513 17:24:11.621942 29762 net.cpp:156] Memory required for data: 155545604
I0513 17:24:11.621948 29762 layer_factory.hpp:77] Creating layer C4_2a
I0513 17:24:11.621969 29762 net.cpp:91] Creating Layer C4_2a
I0513 17:24:11.621978 29762 net.cpp:425] C4_2a <- relu4_1a
I0513 17:24:11.621989 29762 net.cpp:399] C4_2a -> C4_2a
I0513 17:24:11.723242 29762 net.cpp:141] Setting up C4_2a
I0513 17:24:11.723292 29762 net.cpp:148] Top shape: 1 512 28 28 (401408)
I0513 17:24:11.723301 29762 net.cpp:156] Memory required for data: 157151236
I0513 17:24:11.723315 29762 layer_factory.hpp:77] Creating layer bn9a
I0513 17:24:11.723335 29762 net.cpp:91] Creating Layer bn9a
I0513 17:24:11.723347 29762 net.cpp:425] bn9a <- C4_2a
I0513 17:24:11.723359 29762 net.cpp:399] bn9a -> bn9a
I0513 17:24:11.723657 29762 net.cpp:141] Setting up bn9a
I0513 17:24:11.723676 29762 net.cpp:148] Top shape: 1 512 28 28 (401408)
I0513 17:24:11.723685 29762 net.cpp:156] Memory required for data: 158756868
I0513 17:24:11.723729 29762 layer_factory.hpp:77] Creating layer relu4_2a
I0513 17:24:11.723767 29762 net.cpp:91] Creating Layer relu4_2a
I0513 17:24:11.723795 29762 net.cpp:425] relu4_2a <- bn9a
I0513 17:24:11.723825 29762 net.cpp:399] relu4_2a -> relu4_2a
I0513 17:24:11.723896 29762 net.cpp:141] Setting up relu4_2a
I0513 17:24:11.723913 29762 net.cpp:148] Top shape: 1 512 28 28 (401408)
I0513 17:24:11.723920 29762 net.cpp:156] Memory required for data: 160362500
I0513 17:24:11.723930 29762 layer_factory.hpp:77] Creating layer C4_3a
I0513 17:24:11.723973 29762 net.cpp:91] Creating Layer C4_3a
I0513 17:24:11.724002 29762 net.cpp:425] C4_3a <- relu4_2a
I0513 17:24:11.724041 29762 net.cpp:399] C4_3a -> C4_3a
I0513 17:24:11.806689 29762 net.cpp:141] Setting up C4_3a
I0513 17:24:11.806735 29762 net.cpp:148] Top shape: 1 512 28 28 (401408)
I0513 17:24:11.806743 29762 net.cpp:156] Memory required for data: 161968132
I0513 17:24:11.806757 29762 layer_factory.hpp:77] Creating layer bn10a
I0513 17:24:11.806784 29762 net.cpp:91] Creating Layer bn10a
I0513 17:24:11.806824 29762 net.cpp:425] bn10a <- C4_3a
I0513 17:24:11.806859 29762 net.cpp:399] bn10a -> bn10a
I0513 17:24:11.807135 29762 net.cpp:141] Setting up bn10a
I0513 17:24:11.807168 29762 net.cpp:148] Top shape: 1 512 28 28 (401408)
I0513 17:24:11.807178 29762 net.cpp:156] Memory required for data: 163573764
I0513 17:24:11.807216 29762 layer_factory.hpp:77] Creating layer relu4_3a
I0513 17:24:11.807250 29762 net.cpp:91] Creating Layer relu4_3a
I0513 17:24:11.807279 29762 net.cpp:425] relu4_3a <- bn10a
I0513 17:24:11.807313 29762 net.cpp:399] relu4_3a -> relu4_3a
I0513 17:24:11.807384 29762 net.cpp:141] Setting up relu4_3a
I0513 17:24:11.807404 29762 net.cpp:148] Top shape: 1 512 28 28 (401408)
I0513 17:24:11.807433 29762 net.cpp:156] Memory required for data: 165179396
I0513 17:24:11.807461 29762 layer_factory.hpp:77] Creating layer pool4a
I0513 17:24:11.807493 29762 net.cpp:91] Creating Layer pool4a
I0513 17:24:11.807521 29762 net.cpp:425] pool4a <- relu4_3a
I0513 17:24:11.807557 29762 net.cpp:399] pool4a -> pool4a
I0513 17:24:11.807648 29762 net.cpp:141] Setting up pool4a
I0513 17:24:11.807667 29762 net.cpp:148] Top shape: 1 512 14 14 (100352)
I0513 17:24:11.807696 29762 net.cpp:156] Memory required for data: 165580804
I0513 17:24:11.807723 29762 layer_factory.hpp:77] Creating layer GP
I0513 17:24:11.807754 29762 net.cpp:91] Creating Layer GP
I0513 17:24:11.807782 29762 net.cpp:425] GP <- pool4a
I0513 17:24:11.807814 29762 net.cpp:399] GP -> GP
I0513 17:24:11.807885 29762 net.cpp:141] Setting up GP
I0513 17:24:11.807903 29762 net.cpp:148] Top shape: 1 512 1 1 (512)
I0513 17:24:11.807910 29762 net.cpp:156] Memory required for data: 165582852
I0513 17:24:11.807937 29762 layer_factory.hpp:77] Creating layer fc
I0513 17:24:11.807973 29762 net.cpp:91] Creating Layer fc
I0513 17:24:11.808003 29762 net.cpp:425] fc <- GP
I0513 17:24:11.808037 29762 net.cpp:399] fc -> fc
I0513 17:24:11.809092 29762 net.cpp:141] Setting up fc
I0513 17:24:11.809114 29762 net.cpp:148] Top shape: 1 50 (50)
I0513 17:24:11.809121 29762 net.cpp:156] Memory required for data: 165583052
I0513 17:24:11.809134 29762 layer_factory.hpp:77] Creating layer accuracy
I0513 17:24:11.809173 29762 net.cpp:91] Creating Layer accuracy
I0513 17:24:11.809201 29762 net.cpp:425] accuracy <- fc
I0513 17:24:11.809227 29762 net.cpp:425] accuracy <- label
I0513 17:24:11.809264 29762 net.cpp:399] accuracy -> accuracy
…
