…
I0514 11:22:36.181129 12912 net.cpp:313] The NetState phase (0) differed from the phase (1) specified by a rule in layer accuracy
I0514 11:22:36.181496 12912 net.cpp:49] Initializing net from parameters: 
name: "VGG"
state {
  phase: TRAIN
}
layer {
  name: "data"
  type: "ImageData"
  top: "data"
  top: "label"
  include {
    phase: TRAIN
  }
  transform_param {
    mirror: true
    mean_value: 104
    mean_value: 117
    mean_value: 123
  }
  image_data_param {
    source: "/data1/shiv/img_folderAlexJitter1/train1.txt"
    batch_size: 15
    shuffle: true
  }
}
layer {
  name: "C1_1a"
  type: "Convolution"
  bottom: "data"
  top: "C1_1a"
  param {
    lr_mult: 1
    decay_mult: 1
  }
  param {
    lr_mult: 2
    decay_mult: 0
  }
  convolution_param {
    num_output: 64
    pad: 1
    kernel_size: 3
    weight_filler {
      type: "gaussian"
      std: 0.01
    }
    bias_filler {
      type: "constant"
      value: 0
    }
  }
}
layer {
  name: "bn1a"
  type: "BatchNorm"
  bottom: "C1_1a"
  top: "bn1a"
  param {
    lr_mult: 0
  }
  param {
    lr_mult: 0
  }
  param {
    lr_mult: 0
  }
}
layer {
  name: "relu1_1a"
  type: "ReLU"
  bottom: "bn1a"
  top: "relu1_1a"
}
layer {
  name: "C1_2a"
  type: "Convolution"
  bottom: "relu1_1a"
  top: "C1_2a"
  param {
    lr_mult: 1
    decay_mult: 1
  }
  param {
    lr_mult: 2
    decay_mult: 0
  }
  convolution_param {
    num_output: 64
    pad: 1
    kernel_size: 3
    weight_filler {
      type: "gaussian"
      std: 0.01
    }
    bias_filler {
      type: "constant"
      value: 0
    }
  }
}
layer {
  name: "bn2a"
  type: "BatchNorm"
  bottom: "C1_2a"
  top: "bn2a"
  param {
    lr_mult: 0
  }
  param {
    lr_mult: 0
  }
  param {
    lr_mult: 0
  }
}
layer {
  name: "relu1_2a"
  type: "ReLU"
  bottom: "bn2a"
  top: "relu1_2a"
}
layer {
  name: "pool1a"
  type: "Pooling"
  bottom: "relu1_2a"
  top: "pool1a"
  pooling_param {
    pool: MAX
    kernel_size: 2
    stride: 2
  }
}
layer {
  name: "C2_1a"
  type: "Convolution"
  bottom: "pool1a"
  top: "C2_1a"
  param {
    lr_mult: 1
    decay_mult: 1
  }
  param {
    lr_mult: 2
    decay_mult: 0
  }
  convolution_param {
    num_output: 128
    pad: 1
    kernel_size: 3
    weight_filler {
      type: "gaussian"
      std: 0.01
    }
    bias_filler {
      type: "constant"
      value: 0
    }
  }
}
layer {
  name: "bn3a"
  type: "BatchNorm"
  bottom: "C2_1a"
  top: "bn3a"
  param {
    lr_mult: 0
  }
  param {
    lr_mult: 0
  }
  param {
    lr_mult: 0
  }
}
layer {
  name: "relu2_1a"
  type: "ReLU"
  bottom: "bn3a"
  top: "relu2_1a"
}
layer {
  name: "C2_2a"
  type: "Convolution"
  bottom: "relu2_1a"
  top: "C2_2a"
  param {
    lr_mult: 1
    decay_mult: 1
  }
  param {
    lr_mult: 2
    decay_mult: 0
  }
  convolution_param {
    num_output: 128
    pad: 1
    kernel_size: 3
    weight_filler {
      type: "gaussian"
      std: 0.01
    }
    bias_filler {
      type: "constant"
      value: 0
    }
  }
}
layer {
  name: "bn4a"
  type: "BatchNorm"
  bottom: "C2_2a"
  top: "bn4a"
  param {
    lr_mult: 0
  }
  param {
    lr_mult: 0
  }
  param {
    lr_mult: 0
  }
}
layer {
  name: "relu2_2a"
  type: "ReLU"
  bottom: "bn4a"
  top: "relu2_2a"
}
layer {
  name: "pool2a"
  type: "Pooling"
  bottom: "relu2_2a"
  top: "pool2a"
  pooling_param {
    pool: MAX
    kernel_size: 2
    stride: 2
  }
}
layer {
  name: "C3_1a"
  type: "Convolution"
  bottom: "pool2a"
  top: "C3_1a"
  param {
    lr_mult: 1
    decay_mult: 1
  }
  param {
    lr_mult: 2
    decay_mult: 0
  }
  convolution_param {
    num_output: 256
    pad: 1
    kernel_size: 3
    weight_filler {
      type: "gaussian"
      std: 0.01
    }
    bias_filler {
      type: "constant"
      value: 0
    }
  }
}
layer {
  name: "bn5a"
  type: "BatchNorm"
  bottom: "C3_1a"
  top: "bn5a"
  param {
    lr_mult: 0
  }
  param {
    lr_mult: 0
  }
  param {
    lr_mult: 0
  }
}
layer {
  name: "relu3_1a"
  type: "ReLU"
  bottom: "bn5a"
  top: "relu3_1a"
}
layer {
  name: "C3_2a"
  type: "Convolution"
  bottom: "relu3_1a"
  top: "C3_2a"
  param {
    lr_mult: 1
    decay_mult: 1
  }
  param {
    lr_mult: 2
    decay_mult: 0
  }
  convolution_param {
    num_output: 256
    pad: 1
    kernel_size: 3
    weight_filler {
      type: "gaussian"
      std: 0.01
    }
    bias_filler {
      type: "constant"
      value: 0
    }
  }
}
layer {
  name: "bn6a"
  type: "BatchNorm"
  bottom: "C3_2a"
  top: "bn6a"
  param {
    lr_mult: 0
  }
  param {
    lr_mult: 0
  }
  param {
    lr_mult: 0
  }
}
layer {
  name: "relu3_2a"
  type: "ReLU"
  bottom: "bn6a"
  top: "relu3_2a"
}
layer {
  name: "C3_3a"
  type: "Convolution"
  bottom: "relu3_2a"
  top: "C3_3a"
  param {
    lr_mult: 1
    decay_mult: 1
  }
  param {
    lr_mult: 2
    decay_mult: 0
  }
  convolution_param {
    num_output: 256
    pad: 1
    kernel_size: 3
    weight_filler {
      type: "gaussian"
      std: 0.01
    }
    bias_filler {
      type: "constant"
      value: 0
    }
  }
}
layer {
  name: "bn7a"
  type: "BatchNorm"
  bottom: "C3_3a"
  top: "bn7a"
  param {
    lr_mult: 0
  }
  param {
    lr_mult: 0
  }
  param {
    lr_mult: 0
  }
}
layer {
  name: "relu3_3a"
  type: "ReLU"
  bottom: "bn7a"
  top: "relu3_3a"
}
layer {
  name: "pool3a"
  type: "Pooling"
  bottom: "relu3_3a"
  top: "pool3a"
  pooling_param {
    pool: MAX
    kernel_size: 2
    stride: 2
  }
}
layer {
  name: "C4_1a"
  type: "Convolution"
  bottom: "pool3a"
  top: "C4_1a"
  param {
    lr_mult: 1
    decay_mult: 1
  }
  param {
    lr_mult: 2
    decay_mult: 0
  }
  convolution_param {
    num_output: 512
    pad: 1
    kernel_size: 3
    weight_filler {
      type: "gaussian"
      std: 0.01
    }
    bias_filler {
      type: "constant"
      value: 0
    }
  }
}
layer {
  name: "bn8a"
  type: "BatchNorm"
  bottom: "C4_1a"
  top: "bn8a"
  param {
    lr_mult: 0
  }
  param {
    lr_mult: 0
  }
  param {
    lr_mult: 0
  }
}
layer {
  name: "relu4_1a"
  type: "ReLU"
  bottom: "bn8a"
  top: "relu4_1a"
}
layer {
  name: "C4_2a"
  type: "Convolution"
  bottom: "relu4_1a"
  top: "C4_2a"
  param {
    lr_mult: 1
    decay_mult: 1
  }
  param {
    lr_mult: 2
    decay_mult: 0
  }
  convolution_param {
    num_output: 512
    pad: 1
    kernel_size: 3
    weight_filler {
      type: "gaussian"
      std: 0.01
    }
    bias_filler {
      type: "constant"
      value: 0
    }
  }
}
layer {
  name: "bn9a"
  type: "BatchNorm"
  bottom: "C4_2a"
  top: "bn9a"
  param {
    lr_mult: 0
  }
  param {
    lr_mult: 0
  }
  param {
    lr_mult: 0
  }
}
layer {
  name: "relu4_2a"
  type: "ReLU"
  bottom: "bn9a"
  top: "relu4_2a"
}
layer {
  name: "C4_3a"
  type: "Convolution"
  bottom: "relu4_2a"
  top: "C4_3a"
  param {
    lr_mult: 1
    decay_mult: 1
  }
  param {
    lr_mult: 2
    decay_mult: 0
  }
  convolution_param {
    num_output: 512
    pad: 1
    kernel_size: 3
    weight_filler {
      type: "gaussian"
      std: 0.01
    }
    bias_filler {
      type: "constant"
      value: 0
    }
  }
}
layer {
  name: "bn10a"
  type: "BatchNorm"
  bottom: "C4_3a"
  top: "bn10a"
  param {
    lr_mult: 0
  }
  param {
    lr_mult: 0
  }
  param {
    lr_mult: 0
  }
}
layer {
  name: "relu4_3a"
  type: "ReLU"
  bottom: "bn10a"
  top: "relu4_3a"
}
layer {
  name: "pool4a"
  type: "Pooling"
  bottom: "relu4_3a"
  top: "pool4a"
  pooling_param {
    pool: MAX
    kernel_size: 2
    stride: 2
  }
}
layer {
  name: "C5_1a"
  type: "Convolution"
  bottom: "pool4a"
  top: "C5_1a"
  param {
    lr_mult: 1
    decay_mult: 1
  }
  param {
    lr_mult: 2
    decay_mult: 0
  }
  convolution_param {
    num_output: 512
    pad: 1
    kernel_size: 3
    weight_filler {
      type: "gaussian"
      std: 0.01
    }
    bias_filler {
      type: "constant"
      value: 0
    }
  }
}
layer {
  name: "bn11a"
  type: "BatchNorm"
  bottom: "C5_1a"
  top: "bn11a"
  param {
    lr_mult: 0
  }
  param {
    lr_mult: 0
  }
  param {
    lr_mult: 0
  }
}
layer {
  name: "relu5_1a"
  type: "ReLU"
  bottom: "bn11a"
  top: "relu5_1a"
}
layer {
  name: "C5_2a"
  type: "Convolution"
  bottom: "relu5_1a"
  top: "C5_2a"
  param {
    lr_mult: 1
    decay_mult: 1
  }
  param {
    lr_mult: 2
    decay_mult: 0
  }
  convolution_param {
    num_output: 512
    pad: 1
    kernel_size: 3
    weight_filler {
      type: "gaussian"
      std: 0.01
    }
    bias_filler {
      type: "constant"
      value: 0
    }
  }
}
layer {
  name: "bn12a"
  type: "BatchNorm"
  bottom: "C5_2a"
  top: "bn12a"
  param {
    lr_mult: 0
  }
  param {
    lr_mult: 0
  }
  param {
    lr_mult: 0
  }
}
layer {
  name: "relu5_2a"
  type: "ReLU"
  bottom: "bn12a"
  top: "relu5_2a"
}
layer {
  name: "C5_3a"
  type: "Convolution"
  bottom: "relu5_2a"
  top: "C5_3a"
  param {
    lr_mult: 1
    decay_mult: 1
  }
  param {
    lr_mult: 2
    decay_mult: 0
  }
  convolution_param {
    num_output: 512
    pad: 1
    kernel_size: 3
    weight_filler {
      type: "gaussian"
      std: 0.01
    }
    bias_filler {
      type: "constant"
      value: 0
    }
  }
}
layer {
  name: "bn13a"
  type: "BatchNorm"
  bottom: "C5_3a"
  top: "bn13a"
  param {
    lr_mult: 0
  }
  param {
    lr_mult: 0
  }
  param {
    lr_mult: 0
  }
}
layer {
  name: "relu5_3a"
  type: "ReLU"
  bottom: "bn13a"
  top: "relu5_3a"
}
layer {
  name: "GP"
  type: "Pooling"
  bottom: "relu5_3a"
  top: "GP"
  pooling_param {
    pool: AVE
    global_pooling: true
  }
}
layer {
  name: "fc"
  type: "InnerProduct"
  bottom: "GP"
  top: "fc"
  param {
    lr_mult: 1
    decay_mult: 1
  }
  param {
    lr_mult: 2
    decay_mult: 0
  }
  inner_product_param {
    num_output: 50
    weight_filler {
      type: "gaussian"
      std: 0.01
    }
    bias_filler {
      type: "constant"
      value: 0
    }
  }
}
layer {
  name: "loss"
  type: "SoftmaxWithLoss"
  bottom: "fc"
  bottom: "label"
  top: "loss"
  include {
    phase: TRAIN
  }
}
I0514 11:22:36.181843 12912 layer_factory.hpp:77] Creating layer data
I0514 11:22:36.181910 12912 net.cpp:91] Creating Layer data
I0514 11:22:36.181927 12912 net.cpp:399] data -> data
I0514 11:22:36.181965 12912 net.cpp:399] data -> label
I0514 11:22:36.182515 12912 image_data_layer.cpp:38] Opening file /data1/shiv/img_folderAlexJitter1/train1.txt
I0514 11:22:36.225739 12912 image_data_layer.cpp:48] Shuffling data
I0514 11:22:36.233212 12912 image_data_layer.cpp:53] A total of 70480 images.
I0514 11:22:36.248019 12912 image_data_layer.cpp:80] output data size: 15,3,224,224
I0514 11:22:36.261369 12912 net.cpp:141] Setting up data
I0514 11:22:36.261473 12912 net.cpp:148] Top shape: 15 3 224 224 (2257920)
I0514 11:22:36.261512 12912 net.cpp:148] Top shape: 15 (15)
I0514 11:22:36.261536 12912 net.cpp:156] Memory required for data: 9031740
I0514 11:22:36.261564 12912 layer_factory.hpp:77] Creating layer C1_1a
I0514 11:22:36.261610 12912 net.cpp:91] Creating Layer C1_1a
I0514 11:22:36.261638 12912 net.cpp:425] C1_1a <- data
I0514 11:22:36.261674 12912 net.cpp:399] C1_1a -> C1_1a
I0514 11:22:36.263195 12912 net.cpp:141] Setting up C1_1a
I0514 11:22:36.263252 12912 net.cpp:148] Top shape: 15 64 224 224 (48168960)
I0514 11:22:36.263285 12912 net.cpp:156] Memory required for data: 201707580
I0514 11:22:36.263329 12912 layer_factory.hpp:77] Creating layer bn1a
I0514 11:22:36.263376 12912 net.cpp:91] Creating Layer bn1a
I0514 11:22:36.263406 12912 net.cpp:425] bn1a <- C1_1a
I0514 11:22:36.263434 12912 net.cpp:399] bn1a -> bn1a
I0514 11:22:36.263770 12912 net.cpp:141] Setting up bn1a
I0514 11:22:36.263809 12912 net.cpp:148] Top shape: 15 64 224 224 (48168960)
I0514 11:22:36.263860 12912 net.cpp:156] Memory required for data: 394383420
I0514 11:22:36.263901 12912 layer_factory.hpp:77] Creating layer relu1_1a
I0514 11:22:36.263933 12912 net.cpp:91] Creating Layer relu1_1a
I0514 11:22:36.263958 12912 net.cpp:425] relu1_1a <- bn1a
I0514 11:22:36.263984 12912 net.cpp:399] relu1_1a -> relu1_1a
I0514 11:22:36.264041 12912 net.cpp:141] Setting up relu1_1a
I0514 11:22:36.264075 12912 net.cpp:148] Top shape: 15 64 224 224 (48168960)
I0514 11:22:36.264099 12912 net.cpp:156] Memory required for data: 587059260
I0514 11:22:36.264122 12912 layer_factory.hpp:77] Creating layer C1_2a
I0514 11:22:36.264161 12912 net.cpp:91] Creating Layer C1_2a
I0514 11:22:36.264194 12912 net.cpp:425] C1_2a <- relu1_1a
I0514 11:22:36.264227 12912 net.cpp:399] C1_2a -> C1_2a
I0514 11:22:36.267012 12912 net.cpp:141] Setting up C1_2a
I0514 11:22:36.267067 12912 net.cpp:148] Top shape: 15 64 224 224 (48168960)
I0514 11:22:36.267097 12912 net.cpp:156] Memory required for data: 779735100
I0514 11:22:36.267132 12912 layer_factory.hpp:77] Creating layer bn2a
I0514 11:22:36.267168 12912 net.cpp:91] Creating Layer bn2a
I0514 11:22:36.267197 12912 net.cpp:425] bn2a <- C1_2a
I0514 11:22:36.267230 12912 net.cpp:399] bn2a -> bn2a
I0514 11:22:36.267494 12912 net.cpp:141] Setting up bn2a
I0514 11:22:36.267511 12912 net.cpp:148] Top shape: 15 64 224 224 (48168960)
I0514 11:22:36.267519 12912 net.cpp:156] Memory required for data: 972410940
I0514 11:22:36.267539 12912 layer_factory.hpp:77] Creating layer relu1_2a
I0514 11:22:36.267551 12912 net.cpp:91] Creating Layer relu1_2a
I0514 11:22:36.267560 12912 net.cpp:425] relu1_2a <- bn2a
I0514 11:22:36.267572 12912 net.cpp:399] relu1_2a -> relu1_2a
I0514 11:22:36.267611 12912 net.cpp:141] Setting up relu1_2a
I0514 11:22:36.267628 12912 net.cpp:148] Top shape: 15 64 224 224 (48168960)
I0514 11:22:36.267635 12912 net.cpp:156] Memory required for data: 1165086780
I0514 11:22:36.267642 12912 layer_factory.hpp:77] Creating layer pool1a
I0514 11:22:36.267654 12912 net.cpp:91] Creating Layer pool1a
I0514 11:22:36.267663 12912 net.cpp:425] pool1a <- relu1_2a
I0514 11:22:36.267673 12912 net.cpp:399] pool1a -> pool1a
I0514 11:22:36.267976 12912 net.cpp:141] Setting up pool1a
I0514 11:22:36.267995 12912 net.cpp:148] Top shape: 15 64 112 112 (12042240)
I0514 11:22:36.268003 12912 net.cpp:156] Memory required for data: 1213255740
I0514 11:22:36.268010 12912 layer_factory.hpp:77] Creating layer C2_1a
I0514 11:22:36.268033 12912 net.cpp:91] Creating Layer C2_1a
I0514 11:22:36.268043 12912 net.cpp:425] C2_1a <- pool1a
I0514 11:22:36.268059 12912 net.cpp:399] C2_1a -> C2_1a
I0514 11:22:36.271981 12912 net.cpp:141] Setting up C2_1a
I0514 11:22:36.272058 12912 net.cpp:148] Top shape: 15 128 112 112 (24084480)
I0514 11:22:36.272089 12912 net.cpp:156] Memory required for data: 1309593660
I0514 11:22:36.272121 12912 layer_factory.hpp:77] Creating layer bn3a
I0514 11:22:36.272161 12912 net.cpp:91] Creating Layer bn3a
I0514 11:22:36.272189 12912 net.cpp:425] bn3a <- C2_1a
I0514 11:22:36.272223 12912 net.cpp:399] bn3a -> bn3a
I0514 11:22:36.272536 12912 net.cpp:141] Setting up bn3a
I0514 11:22:36.272578 12912 net.cpp:148] Top shape: 15 128 112 112 (24084480)
I0514 11:22:36.272605 12912 net.cpp:156] Memory required for data: 1405931580
I0514 11:22:36.272641 12912 layer_factory.hpp:77] Creating layer relu2_1a
I0514 11:22:36.272677 12912 net.cpp:91] Creating Layer relu2_1a
I0514 11:22:36.272708 12912 net.cpp:425] relu2_1a <- bn3a
I0514 11:22:36.272740 12912 net.cpp:399] relu2_1a -> relu2_1a
I0514 11:22:36.272804 12912 net.cpp:141] Setting up relu2_1a
I0514 11:22:36.272840 12912 net.cpp:148] Top shape: 15 128 112 112 (24084480)
I0514 11:22:36.272868 12912 net.cpp:156] Memory required for data: 1502269500
I0514 11:22:36.272894 12912 layer_factory.hpp:77] Creating layer C2_2a
I0514 11:22:36.272935 12912 net.cpp:91] Creating Layer C2_2a
I0514 11:22:36.272966 12912 net.cpp:425] C2_2a <- relu2_1a
I0514 11:22:36.273003 12912 net.cpp:399] C2_2a -> C2_2a
I0514 11:22:36.280228 12912 net.cpp:141] Setting up C2_2a
I0514 11:22:36.280308 12912 net.cpp:148] Top shape: 15 128 112 112 (24084480)
I0514 11:22:36.280355 12912 net.cpp:156] Memory required for data: 1598607420
I0514 11:22:36.280398 12912 layer_factory.hpp:77] Creating layer bn4a
I0514 11:22:36.280441 12912 net.cpp:91] Creating Layer bn4a
I0514 11:22:36.280473 12912 net.cpp:425] bn4a <- C2_2a
I0514 11:22:36.280508 12912 net.cpp:399] bn4a -> bn4a
I0514 11:22:36.280822 12912 net.cpp:141] Setting up bn4a
I0514 11:22:36.280975 12912 net.cpp:148] Top shape: 15 128 112 112 (24084480)
I0514 11:22:36.281007 12912 net.cpp:156] Memory required for data: 1694945340
I0514 11:22:36.281044 12912 layer_factory.hpp:77] Creating layer relu2_2a
I0514 11:22:36.281080 12912 net.cpp:91] Creating Layer relu2_2a
I0514 11:22:36.281113 12912 net.cpp:425] relu2_2a <- bn4a
I0514 11:22:36.281146 12912 net.cpp:399] relu2_2a -> relu2_2a
I0514 11:22:36.281209 12912 net.cpp:141] Setting up relu2_2a
I0514 11:22:36.281249 12912 net.cpp:148] Top shape: 15 128 112 112 (24084480)
I0514 11:22:36.281276 12912 net.cpp:156] Memory required for data: 1791283260
I0514 11:22:36.281302 12912 layer_factory.hpp:77] Creating layer pool2a
I0514 11:22:36.281334 12912 net.cpp:91] Creating Layer pool2a
I0514 11:22:36.281363 12912 net.cpp:425] pool2a <- relu2_2a
I0514 11:22:36.281397 12912 net.cpp:399] pool2a -> pool2a
I0514 11:22:36.281486 12912 net.cpp:141] Setting up pool2a
I0514 11:22:36.281524 12912 net.cpp:148] Top shape: 15 128 56 56 (6021120)
I0514 11:22:36.281553 12912 net.cpp:156] Memory required for data: 1815367740
I0514 11:22:36.281579 12912 layer_factory.hpp:77] Creating layer C3_1a
I0514 11:22:36.281621 12912 net.cpp:91] Creating Layer C3_1a
I0514 11:22:36.281653 12912 net.cpp:425] C3_1a <- pool2a
I0514 11:22:36.281687 12912 net.cpp:399] C3_1a -> C3_1a
I0514 11:22:36.293377 12912 net.cpp:141] Setting up C3_1a
I0514 11:22:36.293411 12912 net.cpp:148] Top shape: 15 256 56 56 (12042240)
I0514 11:22:36.293418 12912 net.cpp:156] Memory required for data: 1863536700
I0514 11:22:36.293431 12912 layer_factory.hpp:77] Creating layer bn5a
I0514 11:22:36.293453 12912 net.cpp:91] Creating Layer bn5a
I0514 11:22:36.293462 12912 net.cpp:425] bn5a <- C3_1a
I0514 11:22:36.293473 12912 net.cpp:399] bn5a -> bn5a
I0514 11:22:36.293762 12912 net.cpp:141] Setting up bn5a
I0514 11:22:36.293779 12912 net.cpp:148] Top shape: 15 256 56 56 (12042240)
I0514 11:22:36.293788 12912 net.cpp:156] Memory required for data: 1911705660
I0514 11:22:36.293804 12912 layer_factory.hpp:77] Creating layer relu3_1a
I0514 11:22:36.293819 12912 net.cpp:91] Creating Layer relu3_1a
I0514 11:22:36.293828 12912 net.cpp:425] relu3_1a <- bn5a
I0514 11:22:36.293840 12912 net.cpp:399] relu3_1a -> relu3_1a
I0514 11:22:36.293880 12912 net.cpp:141] Setting up relu3_1a
I0514 11:22:36.293894 12912 net.cpp:148] Top shape: 15 256 56 56 (12042240)
I0514 11:22:36.293900 12912 net.cpp:156] Memory required for data: 1959874620
I0514 11:22:36.293908 12912 layer_factory.hpp:77] Creating layer C3_2a
I0514 11:22:36.293928 12912 net.cpp:91] Creating Layer C3_2a
I0514 11:22:36.293937 12912 net.cpp:425] C3_2a <- relu3_1a
I0514 11:22:36.293951 12912 net.cpp:399] C3_2a -> C3_2a
I0514 11:22:36.315611 12912 net.cpp:141] Setting up C3_2a
I0514 11:22:36.315640 12912 net.cpp:148] Top shape: 15 256 56 56 (12042240)
I0514 11:22:36.315647 12912 net.cpp:156] Memory required for data: 2008043580
I0514 11:22:36.315662 12912 layer_factory.hpp:77] Creating layer bn6a
I0514 11:22:36.315680 12912 net.cpp:91] Creating Layer bn6a
I0514 11:22:36.315688 12912 net.cpp:425] bn6a <- C3_2a
I0514 11:22:36.315701 12912 net.cpp:399] bn6a -> bn6a
I0514 11:22:36.315991 12912 net.cpp:141] Setting up bn6a
I0514 11:22:36.316009 12912 net.cpp:148] Top shape: 15 256 56 56 (12042240)
I0514 11:22:36.316017 12912 net.cpp:156] Memory required for data: 2056212540
I0514 11:22:36.316032 12912 layer_factory.hpp:77] Creating layer relu3_2a
I0514 11:22:36.316045 12912 net.cpp:91] Creating Layer relu3_2a
I0514 11:22:36.316053 12912 net.cpp:425] relu3_2a <- bn6a
I0514 11:22:36.316064 12912 net.cpp:399] relu3_2a -> relu3_2a
I0514 11:22:36.316108 12912 net.cpp:141] Setting up relu3_2a
I0514 11:22:36.316144 12912 net.cpp:148] Top shape: 15 256 56 56 (12042240)
I0514 11:22:36.316154 12912 net.cpp:156] Memory required for data: 2104381500
I0514 11:22:36.316161 12912 layer_factory.hpp:77] Creating layer C3_3a
I0514 11:22:36.316182 12912 net.cpp:91] Creating Layer C3_3a
I0514 11:22:36.316191 12912 net.cpp:425] C3_3a <- relu3_2a
I0514 11:22:36.316207 12912 net.cpp:399] C3_3a -> C3_3a
I0514 11:22:36.338251 12912 net.cpp:141] Setting up C3_3a
I0514 11:22:36.338290 12912 net.cpp:148] Top shape: 15 256 56 56 (12042240)
I0514 11:22:36.338297 12912 net.cpp:156] Memory required for data: 2152550460
I0514 11:22:36.338311 12912 layer_factory.hpp:77] Creating layer bn7a
I0514 11:22:36.338326 12912 net.cpp:91] Creating Layer bn7a
I0514 11:22:36.338335 12912 net.cpp:425] bn7a <- C3_3a
I0514 11:22:36.338351 12912 net.cpp:399] bn7a -> bn7a
I0514 11:22:36.338644 12912 net.cpp:141] Setting up bn7a
I0514 11:22:36.338660 12912 net.cpp:148] Top shape: 15 256 56 56 (12042240)
I0514 11:22:36.338668 12912 net.cpp:156] Memory required for data: 2200719420
I0514 11:22:36.338697 12912 layer_factory.hpp:77] Creating layer relu3_3a
I0514 11:22:36.338712 12912 net.cpp:91] Creating Layer relu3_3a
I0514 11:22:36.338721 12912 net.cpp:425] relu3_3a <- bn7a
I0514 11:22:36.338732 12912 net.cpp:399] relu3_3a -> relu3_3a
I0514 11:22:36.338773 12912 net.cpp:141] Setting up relu3_3a
I0514 11:22:36.338786 12912 net.cpp:148] Top shape: 15 256 56 56 (12042240)
I0514 11:22:36.338793 12912 net.cpp:156] Memory required for data: 2248888380
I0514 11:22:36.338800 12912 layer_factory.hpp:77] Creating layer pool3a
I0514 11:22:36.338816 12912 net.cpp:91] Creating Layer pool3a
I0514 11:22:36.338824 12912 net.cpp:425] pool3a <- relu3_3a
I0514 11:22:36.338840 12912 net.cpp:399] pool3a -> pool3a
I0514 11:22:36.338901 12912 net.cpp:141] Setting up pool3a
I0514 11:22:36.338917 12912 net.cpp:148] Top shape: 15 256 28 28 (3010560)
I0514 11:22:36.338923 12912 net.cpp:156] Memory required for data: 2260930620
I0514 11:22:36.338930 12912 layer_factory.hpp:77] Creating layer C4_1a
I0514 11:22:36.338950 12912 net.cpp:91] Creating Layer C4_1a
I0514 11:22:36.338960 12912 net.cpp:425] C4_1a <- pool3a
I0514 11:22:36.338976 12912 net.cpp:399] C4_1a -> C4_1a
I0514 11:22:36.390954 12912 net.cpp:141] Setting up C4_1a
I0514 11:22:36.390985 12912 net.cpp:148] Top shape: 15 512 28 28 (6021120)
I0514 11:22:36.391005 12912 net.cpp:156] Memory required for data: 2285015100
I0514 11:22:36.391021 12912 layer_factory.hpp:77] Creating layer bn8a
I0514 11:22:36.391044 12912 net.cpp:91] Creating Layer bn8a
I0514 11:22:36.391054 12912 net.cpp:425] bn8a <- C4_1a
I0514 11:22:36.391067 12912 net.cpp:399] bn8a -> bn8a
I0514 11:22:36.391330 12912 net.cpp:141] Setting up bn8a
I0514 11:22:36.391346 12912 net.cpp:148] Top shape: 15 512 28 28 (6021120)
I0514 11:22:36.391355 12912 net.cpp:156] Memory required for data: 2309099580
I0514 11:22:36.391372 12912 layer_factory.hpp:77] Creating layer relu4_1a
I0514 11:22:36.391386 12912 net.cpp:91] Creating Layer relu4_1a
I0514 11:22:36.391392 12912 net.cpp:425] relu4_1a <- bn8a
I0514 11:22:36.391403 12912 net.cpp:399] relu4_1a -> relu4_1a
I0514 11:22:36.391443 12912 net.cpp:141] Setting up relu4_1a
I0514 11:22:36.391459 12912 net.cpp:148] Top shape: 15 512 28 28 (6021120)
I0514 11:22:36.391466 12912 net.cpp:156] Memory required for data: 2333184060
I0514 11:22:36.391474 12912 layer_factory.hpp:77] Creating layer C4_2a
I0514 11:22:36.391497 12912 net.cpp:91] Creating Layer C4_2a
I0514 11:22:36.391505 12912 net.cpp:425] C4_2a <- relu4_1a
I0514 11:22:36.391516 12912 net.cpp:399] C4_2a -> C4_2a
I0514 11:22:36.491691 12912 net.cpp:141] Setting up C4_2a
I0514 11:22:36.491730 12912 net.cpp:148] Top shape: 15 512 28 28 (6021120)
I0514 11:22:36.491737 12912 net.cpp:156] Memory required for data: 2357268540
I0514 11:22:36.491752 12912 layer_factory.hpp:77] Creating layer bn9a
I0514 11:22:36.491768 12912 net.cpp:91] Creating Layer bn9a
I0514 11:22:36.491806 12912 net.cpp:425] bn9a <- C4_2a
I0514 11:22:36.491852 12912 net.cpp:399] bn9a -> bn9a
I0514 11:22:36.492115 12912 net.cpp:141] Setting up bn9a
I0514 11:22:36.492132 12912 net.cpp:148] Top shape: 15 512 28 28 (6021120)
I0514 11:22:36.492139 12912 net.cpp:156] Memory required for data: 2381353020
I0514 11:22:36.492177 12912 layer_factory.hpp:77] Creating layer relu4_2a
I0514 11:22:36.492209 12912 net.cpp:91] Creating Layer relu4_2a
I0514 11:22:36.492247 12912 net.cpp:425] relu4_2a <- bn9a
I0514 11:22:36.492286 12912 net.cpp:399] relu4_2a -> relu4_2a
I0514 11:22:36.492353 12912 net.cpp:141] Setting up relu4_2a
I0514 11:22:36.492372 12912 net.cpp:148] Top shape: 15 512 28 28 (6021120)
I0514 11:22:36.492379 12912 net.cpp:156] Memory required for data: 2405437500
I0514 11:22:36.492406 12912 layer_factory.hpp:77] Creating layer C4_3a
I0514 11:22:36.492447 12912 net.cpp:91] Creating Layer C4_3a
I0514 11:22:36.492477 12912 net.cpp:425] C4_3a <- relu4_2a
I0514 11:22:36.492512 12912 net.cpp:399] C4_3a -> C4_3a
I0514 11:22:36.583406 12912 net.cpp:141] Setting up C4_3a
I0514 11:22:36.583467 12912 net.cpp:148] Top shape: 15 512 28 28 (6021120)
I0514 11:22:36.583473 12912 net.cpp:156] Memory required for data: 2429521980
I0514 11:22:36.583488 12912 layer_factory.hpp:77] Creating layer bn10a
I0514 11:22:36.583513 12912 net.cpp:91] Creating Layer bn10a
I0514 11:22:36.583524 12912 net.cpp:425] bn10a <- C4_3a
I0514 11:22:36.583539 12912 net.cpp:399] bn10a -> bn10a
I0514 11:22:36.583835 12912 net.cpp:141] Setting up bn10a
I0514 11:22:36.583850 12912 net.cpp:148] Top shape: 15 512 28 28 (6021120)
I0514 11:22:36.583859 12912 net.cpp:156] Memory required for data: 2453606460
I0514 11:22:36.583875 12912 layer_factory.hpp:77] Creating layer relu4_3a
I0514 11:22:36.583889 12912 net.cpp:91] Creating Layer relu4_3a
I0514 11:22:36.583897 12912 net.cpp:425] relu4_3a <- bn10a
I0514 11:22:36.583909 12912 net.cpp:399] relu4_3a -> relu4_3a
I0514 11:22:36.583950 12912 net.cpp:141] Setting up relu4_3a
I0514 11:22:36.583964 12912 net.cpp:148] Top shape: 15 512 28 28 (6021120)
I0514 11:22:36.583972 12912 net.cpp:156] Memory required for data: 2477690940
I0514 11:22:36.583979 12912 layer_factory.hpp:77] Creating layer pool4a
I0514 11:22:36.583989 12912 net.cpp:91] Creating Layer pool4a
I0514 11:22:36.583998 12912 net.cpp:425] pool4a <- relu4_3a
I0514 11:22:36.584008 12912 net.cpp:399] pool4a -> pool4a
I0514 11:22:36.584064 12912 net.cpp:141] Setting up pool4a
I0514 11:22:36.584077 12912 net.cpp:148] Top shape: 15 512 14 14 (1505280)
I0514 11:22:36.584084 12912 net.cpp:156] Memory required for data: 2483712060
I0514 11:22:36.584090 12912 layer_factory.hpp:77] Creating layer C5_1a
I0514 11:22:36.584111 12912 net.cpp:91] Creating Layer C5_1a
I0514 11:22:36.584120 12912 net.cpp:425] C5_1a <- pool4a
I0514 11:22:36.584133 12912 net.cpp:399] C5_1a -> C5_1a
I0514 11:22:36.696511 12912 net.cpp:141] Setting up C5_1a
I0514 11:22:36.696564 12912 net.cpp:148] Top shape: 15 512 14 14 (1505280)
I0514 11:22:36.696573 12912 net.cpp:156] Memory required for data: 2489733180
I0514 11:22:36.696586 12912 layer_factory.hpp:77] Creating layer bn11a
I0514 11:22:36.696604 12912 net.cpp:91] Creating Layer bn11a
I0514 11:22:36.696643 12912 net.cpp:425] bn11a <- C5_1a
I0514 11:22:36.696660 12912 net.cpp:399] bn11a -> bn11a
I0514 11:22:36.696966 12912 net.cpp:141] Setting up bn11a
I0514 11:22:36.696981 12912 net.cpp:148] Top shape: 15 512 14 14 (1505280)
I0514 11:22:36.696990 12912 net.cpp:156] Memory required for data: 2495754300
I0514 11:22:36.697005 12912 layer_factory.hpp:77] Creating layer relu5_1a
I0514 11:22:36.697019 12912 net.cpp:91] Creating Layer relu5_1a
I0514 11:22:36.697027 12912 net.cpp:425] relu5_1a <- bn11a
I0514 11:22:36.697039 12912 net.cpp:399] relu5_1a -> relu5_1a
I0514 11:22:36.697080 12912 net.cpp:141] Setting up relu5_1a
I0514 11:22:36.697093 12912 net.cpp:148] Top shape: 15 512 14 14 (1505280)
I0514 11:22:36.697101 12912 net.cpp:156] Memory required for data: 2501775420
I0514 11:22:36.697109 12912 layer_factory.hpp:77] Creating layer C5_2a
I0514 11:22:36.697129 12912 net.cpp:91] Creating Layer C5_2a
I0514 11:22:36.697137 12912 net.cpp:425] C5_2a <- relu5_1a
I0514 11:22:36.697170 12912 net.cpp:399] C5_2a -> C5_2a
I0514 11:22:36.809931 12912 net.cpp:141] Setting up C5_2a
I0514 11:22:36.809984 12912 net.cpp:148] Top shape: 15 512 14 14 (1505280)
I0514 11:22:36.809991 12912 net.cpp:156] Memory required for data: 2507796540
I0514 11:22:36.810006 12912 layer_factory.hpp:77] Creating layer bn12a
I0514 11:22:36.810060 12912 net.cpp:91] Creating Layer bn12a
I0514 11:22:36.810089 12912 net.cpp:425] bn12a <- C5_2a
I0514 11:22:36.810120 12912 net.cpp:399] bn12a -> bn12a
I0514 11:22:36.810436 12912 net.cpp:141] Setting up bn12a
I0514 11:22:36.810470 12912 net.cpp:148] Top shape: 15 512 14 14 (1505280)
I0514 11:22:36.810493 12912 net.cpp:156] Memory required for data: 2513817660
I0514 11:22:36.810511 12912 layer_factory.hpp:77] Creating layer relu5_2a
I0514 11:22:36.810542 12912 net.cpp:91] Creating Layer relu5_2a
I0514 11:22:36.810570 12912 net.cpp:425] relu5_2a <- bn12a
I0514 11:22:36.810598 12912 net.cpp:399] relu5_2a -> relu5_2a
I0514 11:22:36.810643 12912 net.cpp:141] Setting up relu5_2a
I0514 11:22:36.810655 12912 net.cpp:148] Top shape: 15 512 14 14 (1505280)
I0514 11:22:36.810664 12912 net.cpp:156] Memory required for data: 2519838780
I0514 11:22:36.810672 12912 layer_factory.hpp:77] Creating layer C5_3a
I0514 11:22:36.810693 12912 net.cpp:91] Creating Layer C5_3a
I0514 11:22:36.810701 12912 net.cpp:425] C5_3a <- relu5_2a
I0514 11:22:36.810735 12912 net.cpp:399] C5_3a -> C5_3a
I0514 11:22:36.922615 12912 net.cpp:141] Setting up C5_3a
I0514 11:22:36.922668 12912 net.cpp:148] Top shape: 15 512 14 14 (1505280)
I0514 11:22:36.922677 12912 net.cpp:156] Memory required for data: 2525859900
I0514 11:22:36.922691 12912 layer_factory.hpp:77] Creating layer bn13a
I0514 11:22:36.922706 12912 net.cpp:91] Creating Layer bn13a
I0514 11:22:36.922720 12912 net.cpp:425] bn13a <- C5_3a
I0514 11:22:36.922761 12912 net.cpp:399] bn13a -> bn13a
I0514 11:22:36.923089 12912 net.cpp:141] Setting up bn13a
I0514 11:22:36.923105 12912 net.cpp:148] Top shape: 15 512 14 14 (1505280)
I0514 11:22:36.923122 12912 net.cpp:156] Memory required for data: 2531881020
I0514 11:22:36.923152 12912 layer_factory.hpp:77] Creating layer relu5_3a
I0514 11:22:36.923168 12912 net.cpp:91] Creating Layer relu5_3a
I0514 11:22:36.923177 12912 net.cpp:425] relu5_3a <- bn13a
I0514 11:22:36.923209 12912 net.cpp:399] relu5_3a -> relu5_3a
I0514 11:22:36.923272 12912 net.cpp:141] Setting up relu5_3a
I0514 11:22:36.923287 12912 net.cpp:148] Top shape: 15 512 14 14 (1505280)
I0514 11:22:36.923296 12912 net.cpp:156] Memory required for data: 2537902140
I0514 11:22:36.923322 12912 layer_factory.hpp:77] Creating layer GP
I0514 11:22:36.923354 12912 net.cpp:91] Creating Layer GP
I0514 11:22:36.923379 12912 net.cpp:425] GP <- relu5_3a
I0514 11:22:36.923394 12912 net.cpp:399] GP -> GP
I0514 11:22:36.923435 12912 net.cpp:141] Setting up GP
I0514 11:22:36.923449 12912 net.cpp:148] Top shape: 15 512 1 1 (7680)
I0514 11:22:36.923456 12912 net.cpp:156] Memory required for data: 2537932860
I0514 11:22:36.923482 12912 layer_factory.hpp:77] Creating layer fc
I0514 11:22:36.923514 12912 net.cpp:91] Creating Layer fc
I0514 11:22:36.923524 12912 net.cpp:425] fc <- GP
I0514 11:22:36.923554 12912 net.cpp:399] fc -> fc
I0514 11:22:36.925644 12912 net.cpp:141] Setting up fc
I0514 11:22:36.925664 12912 net.cpp:148] Top shape: 15 50 (750)
I0514 11:22:36.925673 12912 net.cpp:156] Memory required for data: 2537935860
I0514 11:22:36.925709 12912 layer_factory.hpp:77] Creating layer loss
I0514 11:22:36.925725 12912 net.cpp:91] Creating Layer loss
I0514 11:22:36.925734 12912 net.cpp:425] loss <- fc
I0514 11:22:36.925745 12912 net.cpp:425] loss <- label
I0514 11:22:36.925760 12912 net.cpp:399] loss -> loss
I0514 11:22:36.925782 12912 layer_factory.hpp:77] Creating layer loss
…
I0514 11:22:36.929414 12912 net.cpp:313] The NetState phase (1) differed from the phase (0) specified by a rule in layer loss
I0514 11:22:36.929998 12912 net.cpp:49] Initializing net from parameters: 
name: "VGG"
state {
  phase: TEST
}
layer {
  name: "data"
  type: "ImageData"
  top: "data"
  top: "label"
  include {
    phase: TEST
  }
  transform_param {
    mirror: false
    mean_value: 104
    mean_value: 117
    mean_value: 123
  }
  image_data_param {
    source: "/data1/shiv/img_folderAlexJitter1/val1.txt"
    batch_size: 1
    shuffle: false
  }
}
layer {
  name: "C1_1a"
  type: "Convolution"
  bottom: "data"
  top: "C1_1a"
  param {
    lr_mult: 1
    decay_mult: 1
  }
  param {
    lr_mult: 2
    decay_mult: 0
  }
  convolution_param {
    num_output: 64
    pad: 1
    kernel_size: 3
    weight_filler {
      type: "gaussian"
      std: 0.01
    }
    bias_filler {
      type: "constant"
      value: 0
    }
  }
}
layer {
  name: "bn1a"
  type: "BatchNorm"
  bottom: "C1_1a"
  top: "bn1a"
  param {
    lr_mult: 0
  }
  param {
    lr_mult: 0
  }
  param {
    lr_mult: 0
  }
}
layer {
  name: "relu1_1a"
  type: "ReLU"
  bottom: "bn1a"
  top: "relu1_1a"
}
layer {
  name: "C1_2a"
  type: "Convolution"
  bottom: "relu1_1a"
  top: "C1_2a"
  param {
    lr_mult: 1
    decay_mult: 1
  }
  param {
    lr_mult: 2
    decay_mult: 0
  }
  convolution_param {
    num_output: 64
    pad: 1
    kernel_size: 3
    weight_filler {
      type: "gaussian"
      std: 0.01
    }
    bias_filler {
      type: "constant"
      value: 0
    }
  }
}
layer {
  name: "bn2a"
  type: "BatchNorm"
  bottom: "C1_2a"
  top: "bn2a"
  param {
    lr_mult: 0
  }
  param {
    lr_mult: 0
  }
  param {
    lr_mult: 0
  }
}
layer {
  name: "relu1_2a"
  type: "ReLU"
  bottom: "bn2a"
  top: "relu1_2a"
}
layer {
  name: "pool1a"
  type: "Pooling"
  bottom: "relu1_2a"
  top: "pool1a"
  pooling_param {
    pool: MAX
    kernel_size: 2
    stride: 2
  }
}
layer {
  name: "C2_1a"
  type: "Convolution"
  bottom: "pool1a"
  top: "C2_1a"
  param {
    lr_mult: 1
    decay_mult: 1
  }
  param {
    lr_mult: 2
    decay_mult: 0
  }
  convolution_param {
    num_output: 128
    pad: 1
    kernel_size: 3
    weight_filler {
      type: "gaussian"
      std: 0.01
    }
    bias_filler {
      type: "constant"
      value: 0
    }
  }
}
layer {
  name: "bn3a"
  type: "BatchNorm"
  bottom: "C2_1a"
  top: "bn3a"
  param {
    lr_mult: 0
  }
  param {
    lr_mult: 0
  }
  param {
    lr_mult: 0
  }
}
layer {
  name: "relu2_1a"
  type: "ReLU"
  bottom: "bn3a"
  top: "relu2_1a"
}
layer {
  name: "C2_2a"
  type: "Convolution"
  bottom: "relu2_1a"
  top: "C2_2a"
  param {
    lr_mult: 1
    decay_mult: 1
  }
  param {
    lr_mult: 2
    decay_mult: 0
  }
  convolution_param {
    num_output: 128
    pad: 1
    kernel_size: 3
    weight_filler {
      type: "gaussian"
      std: 0.01
    }
    bias_filler {
      type: "constant"
      value: 0
    }
  }
}
layer {
  name: "bn4a"
  type: "BatchNorm"
  bottom: "C2_2a"
  top: "bn4a"
  param {
    lr_mult: 0
  }
  param {
    lr_mult: 0
  }
  param {
    lr_mult: 0
  }
}
layer {
  name: "relu2_2a"
  type: "ReLU"
  bottom: "bn4a"
  top: "relu2_2a"
}
layer {
  name: "pool2a"
  type: "Pooling"
  bottom: "relu2_2a"
  top: "pool2a"
  pooling_param {
    pool: MAX
    kernel_size: 2
    stride: 2
  }
}
layer {
  name: "C3_1a"
  type: "Convolution"
  bottom: "pool2a"
  top: "C3_1a"
  param {
    lr_mult: 1
    decay_mult: 1
  }
  param {
    lr_mult: 2
    decay_mult: 0
  }
  convolution_param {
    num_output: 256
    pad: 1
    kernel_size: 3
    weight_filler {
      type: "gaussian"
      std: 0.01
    }
    bias_filler {
      type: "constant"
      value: 0
    }
  }
}
layer {
  name: "bn5a"
  type: "BatchNorm"
  bottom: "C3_1a"
  top: "bn5a"
  param {
    lr_mult: 0
  }
  param {
    lr_mult: 0
  }
  param {
    lr_mult: 0
  }
}
layer {
  name: "relu3_1a"
  type: "ReLU"
  bottom: "bn5a"
  top: "relu3_1a"
}
layer {
  name: "C3_2a"
  type: "Convolution"
  bottom: "relu3_1a"
  top: "C3_2a"
  param {
    lr_mult: 1
    decay_mult: 1
  }
  param {
    lr_mult: 2
    decay_mult: 0
  }
  convolution_param {
    num_output: 256
    pad: 1
    kernel_size: 3
    weight_filler {
      type: "gaussian"
      std: 0.01
    }
    bias_filler {
      type: "constant"
      value: 0
    }
  }
}
layer {
  name: "bn6a"
  type: "BatchNorm"
  bottom: "C3_2a"
  top: "bn6a"
  param {
    lr_mult: 0
  }
  param {
    lr_mult: 0
  }
  param {
    lr_mult: 0
  }
}
layer {
  name: "relu3_2a"
  type: "ReLU"
  bottom: "bn6a"
  top: "relu3_2a"
}
layer {
  name: "C3_3a"
  type: "Convolution"
  bottom: "relu3_2a"
  top: "C3_3a"
  param {
    lr_mult: 1
    decay_mult: 1
  }
  param {
    lr_mult: 2
    decay_mult: 0
  }
  convolution_param {
    num_output: 256
    pad: 1
    kernel_size: 3
    weight_filler {
      type: "gaussian"
      std: 0.01
    }
    bias_filler {
      type: "constant"
      value: 0
    }
  }
}
layer {
  name: "bn7a"
  type: "BatchNorm"
  bottom: "C3_3a"
  top: "bn7a"
  param {
    lr_mult: 0
  }
  param {
    lr_mult: 0
  }
  param {
    lr_mult: 0
  }
}
layer {
  name: "relu3_3a"
  type: "ReLU"
  bottom: "bn7a"
  top: "relu3_3a"
}
layer {
  name: "pool3a"
  type: "Pooling"
  bottom: "relu3_3a"
  top: "pool3a"
  pooling_param {
    pool: MAX
    kernel_size: 2
    stride: 2
  }
}
layer {
  name: "C4_1a"
  type: "Convolution"
  bottom: "pool3a"
  top: "C4_1a"
  param {
    lr_mult: 1
    decay_mult: 1
  }
  param {
    lr_mult: 2
    decay_mult: 0
  }
  convolution_param {
    num_output: 512
    pad: 1
    kernel_size: 3
    weight_filler {
      type: "gaussian"
      std: 0.01
    }
    bias_filler {
      type: "constant"
      value: 0
    }
  }
}
layer {
  name: "bn8a"
  type: "BatchNorm"
  bottom: "C4_1a"
  top: "bn8a"
  param {
    lr_mult: 0
  }
  param {
    lr_mult: 0
  }
  param {
    lr_mult: 0
  }
}
layer {
  name: "relu4_1a"
  type: "ReLU"
  bottom: "bn8a"
  top: "relu4_1a"
}
layer {
  name: "C4_2a"
  type: "Convolution"
  bottom: "relu4_1a"
  top: "C4_2a"
  param {
    lr_mult: 1
    decay_mult: 1
  }
  param {
    lr_mult: 2
    decay_mult: 0
  }
  convolution_param {
    num_output: 512
    pad: 1
    kernel_size: 3
    weight_filler {
      type: "gaussian"
      std: 0.01
    }
    bias_filler {
      type: "constant"
      value: 0
    }
  }
}
layer {
  name: "bn9a"
  type: "BatchNorm"
  bottom: "C4_2a"
  top: "bn9a"
  param {
    lr_mult: 0
  }
  param {
    lr_mult: 0
  }
  param {
    lr_mult: 0
  }
}
layer {
  name: "relu4_2a"
  type: "ReLU"
  bottom: "bn9a"
  top: "relu4_2a"
}
layer {
  name: "C4_3a"
  type: "Convolution"
  bottom: "relu4_2a"
  top: "C4_3a"
  param {
    lr_mult: 1
    decay_mult: 1
  }
  param {
    lr_mult: 2
    decay_mult: 0
  }
  convolution_param {
    num_output: 512
    pad: 1
    kernel_size: 3
    weight_filler {
      type: "gaussian"
      std: 0.01
    }
    bias_filler {
      type: "constant"
      value: 0
    }
  }
}
layer {
  name: "bn10a"
  type: "BatchNorm"
  bottom: "C4_3a"
  top: "bn10a"
  param {
    lr_mult: 0
  }
  param {
    lr_mult: 0
  }
  param {
    lr_mult: 0
  }
}
layer {
  name: "relu4_3a"
  type: "ReLU"
  bottom: "bn10a"
  top: "relu4_3a"
}
layer {
  name: "pool4a"
  type: "Pooling"
  bottom: "relu4_3a"
  top: "pool4a"
  pooling_param {
    pool: MAX
    kernel_size: 2
    stride: 2
  }
}
layer {
  name: "C5_1a"
  type: "Convolution"
  bottom: "pool4a"
  top: "C5_1a"
  param {
    lr_mult: 1
    decay_mult: 1
  }
  param {
    lr_mult: 2
    decay_mult: 0
  }
  convolution_param {
    num_output: 512
    pad: 1
    kernel_size: 3
    weight_filler {
      type: "gaussian"
      std: 0.01
    }
    bias_filler {
      type: "constant"
      value: 0
    }
  }
}
layer {
  name: "bn11a"
  type: "BatchNorm"
  bottom: "C5_1a"
  top: "bn11a"
  param {
    lr_mult: 0
  }
  param {
    lr_mult: 0
  }
  param {
    lr_mult: 0
  }
}
layer {
  name: "relu5_1a"
  type: "ReLU"
  bottom: "bn11a"
  top: "relu5_1a"
}
layer {
  name: "C5_2a"
  type: "Convolution"
  bottom: "relu5_1a"
  top: "C5_2a"
  param {
    lr_mult: 1
    decay_mult: 1
  }
  param {
    lr_mult: 2
    decay_mult: 0
  }
  convolution_param {
    num_output: 512
    pad: 1
    kernel_size: 3
    weight_filler {
      type: "gaussian"
      std: 0.01
    }
    bias_filler {
      type: "constant"
      value: 0
    }
  }
}
layer {
  name: "bn12a"
  type: "BatchNorm"
  bottom: "C5_2a"
  top: "bn12a"
  param {
    lr_mult: 0
  }
  param {
    lr_mult: 0
  }
  param {
    lr_mult: 0
  }
}
layer {
  name: "relu5_2a"
  type: "ReLU"
  bottom: "bn12a"
  top: "relu5_2a"
}
layer {
  name: "C5_3a"
  type: "Convolution"
  bottom: "relu5_2a"
  top: "C5_3a"
  param {
    lr_mult: 1
    decay_mult: 1
  }
  param {
    lr_mult: 2
    decay_mult: 0
  }
  convolution_param {
    num_output: 512
    pad: 1
    kernel_size: 3
    weight_filler {
      type: "gaussian"
      std: 0.01
    }
    bias_filler {
      type: "constant"
      value: 0
    }
  }
}
layer {
  name: "bn13a"
  type: "BatchNorm"
  bottom: "C5_3a"
  top: "bn13a"
  param {
    lr_mult: 0
  }
  param {
    lr_mult: 0
  }
  param {
    lr_mult: 0
  }
}
layer {
  name: "relu5_3a"
  type: "ReLU"
  bottom: "bn13a"
  top: "relu5_3a"
}
layer {
  name: "GP"
  type: "Pooling"
  bottom: "relu5_3a"
  top: "GP"
  pooling_param {
    pool: AVE
    global_pooling: true
  }
}
layer {
  name: "fc"
  type: "InnerProduct"
  bottom: "GP"
  top: "fc"
  param {
    lr_mult: 1
    decay_mult: 1
  }
  param {
    lr_mult: 2
    decay_mult: 0
  }
  inner_product_param {
    num_output: 50
    weight_filler {
      type: "gaussian"
      std: 0.01
    }
    bias_filler {
      type: "constant"
      value: 0
    }
  }
}
layer {
  name: "accuracy"
  type: "Accuracy"
  bottom: "fc"
  bottom: "label"
  top: "accuracy"
  include {
    phase: TEST
  }
}
I0514 11:22:36.930315 12912 layer_factory.hpp:77] Creating layer data
I0514 11:22:36.930344 12912 net.cpp:91] Creating Layer data
I0514 11:22:36.930356 12912 net.cpp:399] data -> data
I0514 11:22:36.930374 12912 net.cpp:399] data -> label
I0514 11:22:36.930392 12912 image_data_layer.cpp:38] Opening file /data1/shiv/img_folderAlexJitter1/val1.txt
I0514 11:22:36.938103 12912 image_data_layer.cpp:53] A total of 6875 images.
I0514 11:22:36.938856 12912 image_data_layer.cpp:80] output data size: 1,3,224,224
I0514 11:22:36.941256 12912 net.cpp:141] Setting up data
I0514 11:22:36.941318 12912 net.cpp:148] Top shape: 1 3 224 224 (150528)
I0514 11:22:36.941352 12912 net.cpp:148] Top shape: 1 (1)
I0514 11:22:36.941406 12912 net.cpp:156] Memory required for data: 602116
I0514 11:22:36.941439 12912 layer_factory.hpp:77] Creating layer C1_1a
I0514 11:22:36.941486 12912 net.cpp:91] Creating Layer C1_1a
I0514 11:22:36.941521 12912 net.cpp:425] C1_1a <- data
I0514 11:22:36.941557 12912 net.cpp:399] C1_1a -> C1_1a
I0514 11:22:36.942129 12912 net.cpp:141] Setting up C1_1a
I0514 11:22:36.942175 12912 net.cpp:148] Top shape: 1 64 224 224 (3211264)
I0514 11:22:36.942203 12912 net.cpp:156] Memory required for data: 13447172
I0514 11:22:36.942245 12912 layer_factory.hpp:77] Creating layer bn1a
I0514 11:22:36.942281 12912 net.cpp:91] Creating Layer bn1a
I0514 11:22:36.942308 12912 net.cpp:425] bn1a <- C1_1a
I0514 11:22:36.942337 12912 net.cpp:399] bn1a -> bn1a
I0514 11:22:36.942677 12912 net.cpp:141] Setting up bn1a
I0514 11:22:36.942719 12912 net.cpp:148] Top shape: 1 64 224 224 (3211264)
I0514 11:22:36.942749 12912 net.cpp:156] Memory required for data: 26292228
I0514 11:22:36.942791 12912 layer_factory.hpp:77] Creating layer relu1_1a
I0514 11:22:36.942824 12912 net.cpp:91] Creating Layer relu1_1a
I0514 11:22:36.942852 12912 net.cpp:425] relu1_1a <- bn1a
I0514 11:22:36.942883 12912 net.cpp:399] relu1_1a -> relu1_1a
I0514 11:22:36.942944 12912 net.cpp:141] Setting up relu1_1a
I0514 11:22:36.942980 12912 net.cpp:148] Top shape: 1 64 224 224 (3211264)
I0514 11:22:36.943006 12912 net.cpp:156] Memory required for data: 39137284
I0514 11:22:36.943033 12912 layer_factory.hpp:77] Creating layer C1_2a
I0514 11:22:36.943070 12912 net.cpp:91] Creating Layer C1_2a
I0514 11:22:36.943099 12912 net.cpp:425] C1_2a <- relu1_1a
I0514 11:22:36.943130 12912 net.cpp:399] C1_2a -> C1_2a
I0514 11:22:36.945268 12912 net.cpp:141] Setting up C1_2a
I0514 11:22:36.945317 12912 net.cpp:148] Top shape: 1 64 224 224 (3211264)
I0514 11:22:36.945359 12912 net.cpp:156] Memory required for data: 51982340
I0514 11:22:36.945410 12912 layer_factory.hpp:77] Creating layer bn2a
I0514 11:22:36.945446 12912 net.cpp:91] Creating Layer bn2a
I0514 11:22:36.945473 12912 net.cpp:425] bn2a <- C1_2a
I0514 11:22:36.945505 12912 net.cpp:399] bn2a -> bn2a
I0514 11:22:36.946604 12912 net.cpp:141] Setting up bn2a
I0514 11:22:36.946652 12912 net.cpp:148] Top shape: 1 64 224 224 (3211264)
I0514 11:22:36.946684 12912 net.cpp:156] Memory required for data: 64827396
I0514 11:22:36.946727 12912 layer_factory.hpp:77] Creating layer relu1_2a
I0514 11:22:36.946763 12912 net.cpp:91] Creating Layer relu1_2a
I0514 11:22:36.946791 12912 net.cpp:425] relu1_2a <- bn2a
I0514 11:22:36.946823 12912 net.cpp:399] relu1_2a -> relu1_2a
I0514 11:22:36.946887 12912 net.cpp:141] Setting up relu1_2a
I0514 11:22:36.946929 12912 net.cpp:148] Top shape: 1 64 224 224 (3211264)
I0514 11:22:36.946957 12912 net.cpp:156] Memory required for data: 77672452
I0514 11:22:36.946985 12912 layer_factory.hpp:77] Creating layer pool1a
I0514 11:22:36.947016 12912 net.cpp:91] Creating Layer pool1a
I0514 11:22:36.947042 12912 net.cpp:425] pool1a <- relu1_2a
I0514 11:22:36.947073 12912 net.cpp:399] pool1a -> pool1a
I0514 11:22:36.947159 12912 net.cpp:141] Setting up pool1a
I0514 11:22:36.947194 12912 net.cpp:148] Top shape: 1 64 112 112 (802816)
I0514 11:22:36.947221 12912 net.cpp:156] Memory required for data: 80883716
I0514 11:22:36.947248 12912 layer_factory.hpp:77] Creating layer C2_1a
I0514 11:22:36.947290 12912 net.cpp:91] Creating Layer C2_1a
I0514 11:22:36.947320 12912 net.cpp:425] C2_1a <- pool1a
I0514 11:22:36.947353 12912 net.cpp:399] C2_1a -> C2_1a
I0514 11:22:36.951143 12912 net.cpp:141] Setting up C2_1a
I0514 11:22:36.951196 12912 net.cpp:148] Top shape: 1 128 112 112 (1605632)
I0514 11:22:36.951228 12912 net.cpp:156] Memory required for data: 87306244
I0514 11:22:36.951263 12912 layer_factory.hpp:77] Creating layer bn3a
I0514 11:22:36.951297 12912 net.cpp:91] Creating Layer bn3a
I0514 11:22:36.951326 12912 net.cpp:425] bn3a <- C2_1a
I0514 11:22:36.951361 12912 net.cpp:399] bn3a -> bn3a
I0514 11:22:36.951689 12912 net.cpp:141] Setting up bn3a
I0514 11:22:36.951730 12912 net.cpp:148] Top shape: 1 128 112 112 (1605632)
I0514 11:22:36.951759 12912 net.cpp:156] Memory required for data: 93728772
I0514 11:22:36.951795 12912 layer_factory.hpp:77] Creating layer relu2_1a
I0514 11:22:36.951828 12912 net.cpp:91] Creating Layer relu2_1a
I0514 11:22:36.951855 12912 net.cpp:425] relu2_1a <- bn3a
I0514 11:22:36.951886 12912 net.cpp:399] relu2_1a -> relu2_1a
I0514 11:22:36.951951 12912 net.cpp:141] Setting up relu2_1a
I0514 11:22:36.951987 12912 net.cpp:148] Top shape: 1 128 112 112 (1605632)
I0514 11:22:36.952014 12912 net.cpp:156] Memory required for data: 100151300
I0514 11:22:36.952041 12912 layer_factory.hpp:77] Creating layer C2_2a
I0514 11:22:36.952077 12912 net.cpp:91] Creating Layer C2_2a
I0514 11:22:36.952106 12912 net.cpp:425] C2_2a <- relu2_1a
I0514 11:22:36.952143 12912 net.cpp:399] C2_2a -> C2_2a
I0514 11:22:36.958030 12912 net.cpp:141] Setting up C2_2a
I0514 11:22:36.958057 12912 net.cpp:148] Top shape: 1 128 112 112 (1605632)
I0514 11:22:36.958065 12912 net.cpp:156] Memory required for data: 106573828
I0514 11:22:36.958092 12912 layer_factory.hpp:77] Creating layer bn4a
I0514 11:22:36.958107 12912 net.cpp:91] Creating Layer bn4a
I0514 11:22:36.958117 12912 net.cpp:425] bn4a <- C2_2a
I0514 11:22:36.958130 12912 net.cpp:399] bn4a -> bn4a
I0514 11:22:36.958439 12912 net.cpp:141] Setting up bn4a
I0514 11:22:36.958456 12912 net.cpp:148] Top shape: 1 128 112 112 (1605632)
I0514 11:22:36.958462 12912 net.cpp:156] Memory required for data: 112996356
I0514 11:22:36.958482 12912 layer_factory.hpp:77] Creating layer relu2_2a
I0514 11:22:36.958494 12912 net.cpp:91] Creating Layer relu2_2a
I0514 11:22:36.958503 12912 net.cpp:425] relu2_2a <- bn4a
I0514 11:22:36.958513 12912 net.cpp:399] relu2_2a -> relu2_2a
I0514 11:22:36.958550 12912 net.cpp:141] Setting up relu2_2a
I0514 11:22:36.958564 12912 net.cpp:148] Top shape: 1 128 112 112 (1605632)
I0514 11:22:36.958590 12912 net.cpp:156] Memory required for data: 119418884
I0514 11:22:36.958600 12912 layer_factory.hpp:77] Creating layer pool2a
I0514 11:22:36.958614 12912 net.cpp:91] Creating Layer pool2a
I0514 11:22:36.958622 12912 net.cpp:425] pool2a <- relu2_2a
I0514 11:22:36.958633 12912 net.cpp:399] pool2a -> pool2a
I0514 11:22:36.958699 12912 net.cpp:141] Setting up pool2a
I0514 11:22:36.958714 12912 net.cpp:148] Top shape: 1 128 56 56 (401408)
I0514 11:22:36.958720 12912 net.cpp:156] Memory required for data: 121024516
I0514 11:22:36.958727 12912 layer_factory.hpp:77] Creating layer C3_1a
I0514 11:22:36.958746 12912 net.cpp:91] Creating Layer C3_1a
I0514 11:22:36.958755 12912 net.cpp:425] C3_1a <- pool2a
I0514 11:22:36.958770 12912 net.cpp:399] C3_1a -> C3_1a
I0514 11:22:36.970188 12912 net.cpp:141] Setting up C3_1a
I0514 11:22:36.970234 12912 net.cpp:148] Top shape: 1 256 56 56 (802816)
I0514 11:22:36.970245 12912 net.cpp:156] Memory required for data: 124235780
I0514 11:22:36.970268 12912 layer_factory.hpp:77] Creating layer bn5a
I0514 11:22:36.970294 12912 net.cpp:91] Creating Layer bn5a
I0514 11:22:36.970306 12912 net.cpp:425] bn5a <- C3_1a
I0514 11:22:36.970322 12912 net.cpp:399] bn5a -> bn5a
I0514 11:22:36.970649 12912 net.cpp:141] Setting up bn5a
I0514 11:22:36.970671 12912 net.cpp:148] Top shape: 1 256 56 56 (802816)
I0514 11:22:36.970681 12912 net.cpp:156] Memory required for data: 127447044
I0514 11:22:36.970700 12912 layer_factory.hpp:77] Creating layer relu3_1a
I0514 11:22:36.970715 12912 net.cpp:91] Creating Layer relu3_1a
I0514 11:22:36.970726 12912 net.cpp:425] relu3_1a <- bn5a
I0514 11:22:36.970738 12912 net.cpp:399] relu3_1a -> relu3_1a
I0514 11:22:36.970780 12912 net.cpp:141] Setting up relu3_1a
I0514 11:22:36.970795 12912 net.cpp:148] Top shape: 1 256 56 56 (802816)
I0514 11:22:36.970804 12912 net.cpp:156] Memory required for data: 130658308
I0514 11:22:36.970814 12912 layer_factory.hpp:77] Creating layer C3_2a
I0514 11:22:36.970839 12912 net.cpp:91] Creating Layer C3_2a
I0514 11:22:36.970850 12912 net.cpp:425] C3_2a <- relu3_1a
I0514 11:22:36.970863 12912 net.cpp:399] C3_2a -> C3_2a
I0514 11:22:36.998600 12912 net.cpp:141] Setting up C3_2a
I0514 11:22:36.998646 12912 net.cpp:148] Top shape: 1 256 56 56 (802816)
I0514 11:22:36.998654 12912 net.cpp:156] Memory required for data: 133869572
I0514 11:22:36.998670 12912 layer_factory.hpp:77] Creating layer bn6a
I0514 11:22:36.998692 12912 net.cpp:91] Creating Layer bn6a
I0514 11:22:36.998703 12912 net.cpp:425] bn6a <- C3_2a
I0514 11:22:36.998718 12912 net.cpp:399] bn6a -> bn6a
I0514 11:22:36.999063 12912 net.cpp:141] Setting up bn6a
I0514 11:22:36.999085 12912 net.cpp:148] Top shape: 1 256 56 56 (802816)
I0514 11:22:36.999096 12912 net.cpp:156] Memory required for data: 137080836
I0514 11:22:36.999125 12912 layer_factory.hpp:77] Creating layer relu3_2a
I0514 11:22:36.999140 12912 net.cpp:91] Creating Layer relu3_2a
I0514 11:22:36.999150 12912 net.cpp:425] relu3_2a <- bn6a
I0514 11:22:36.999162 12912 net.cpp:399] relu3_2a -> relu3_2a
I0514 11:22:36.999208 12912 net.cpp:141] Setting up relu3_2a
I0514 11:22:36.999225 12912 net.cpp:148] Top shape: 1 256 56 56 (802816)
I0514 11:22:36.999235 12912 net.cpp:156] Memory required for data: 140292100
I0514 11:22:36.999243 12912 layer_factory.hpp:77] Creating layer C3_3a
I0514 11:22:36.999263 12912 net.cpp:91] Creating Layer C3_3a
I0514 11:22:36.999274 12912 net.cpp:425] C3_3a <- relu3_2a
I0514 11:22:36.999292 12912 net.cpp:399] C3_3a -> C3_3a
I0514 11:22:37.028225 12912 net.cpp:141] Setting up C3_3a
I0514 11:22:37.028273 12912 net.cpp:148] Top shape: 1 256 56 56 (802816)
I0514 11:22:37.028282 12912 net.cpp:156] Memory required for data: 143503364
I0514 11:22:37.028298 12912 layer_factory.hpp:77] Creating layer bn7a
I0514 11:22:37.028323 12912 net.cpp:91] Creating Layer bn7a
I0514 11:22:37.028337 12912 net.cpp:425] bn7a <- C3_3a
I0514 11:22:37.028353 12912 net.cpp:399] bn7a -> bn7a
I0514 11:22:37.028687 12912 net.cpp:141] Setting up bn7a
I0514 11:22:37.028708 12912 net.cpp:148] Top shape: 1 256 56 56 (802816)
I0514 11:22:37.028736 12912 net.cpp:156] Memory required for data: 146714628
I0514 11:22:37.028766 12912 layer_factory.hpp:77] Creating layer relu3_3a
I0514 11:22:37.028784 12912 net.cpp:91] Creating Layer relu3_3a
I0514 11:22:37.028792 12912 net.cpp:425] relu3_3a <- bn7a
I0514 11:22:37.028803 12912 net.cpp:399] relu3_3a -> relu3_3a
I0514 11:22:37.028849 12912 net.cpp:141] Setting up relu3_3a
I0514 11:22:37.028867 12912 net.cpp:148] Top shape: 1 256 56 56 (802816)
I0514 11:22:37.028875 12912 net.cpp:156] Memory required for data: 149925892
I0514 11:22:37.028882 12912 layer_factory.hpp:77] Creating layer pool3a
I0514 11:22:37.028899 12912 net.cpp:91] Creating Layer pool3a
I0514 11:22:37.028908 12912 net.cpp:425] pool3a <- relu3_3a
I0514 11:22:37.028920 12912 net.cpp:399] pool3a -> pool3a
I0514 11:22:37.028993 12912 net.cpp:141] Setting up pool3a
I0514 11:22:37.029011 12912 net.cpp:148] Top shape: 1 256 28 28 (200704)
I0514 11:22:37.029021 12912 net.cpp:156] Memory required for data: 150728708
I0514 11:22:37.029031 12912 layer_factory.hpp:77] Creating layer C4_1a
I0514 11:22:37.029052 12912 net.cpp:91] Creating Layer C4_1a
I0514 11:22:37.029062 12912 net.cpp:425] C4_1a <- pool3a
I0514 11:22:37.029075 12912 net.cpp:399] C4_1a -> C4_1a
I0514 11:22:37.090097 12912 net.cpp:141] Setting up C4_1a
I0514 11:22:37.090137 12912 net.cpp:148] Top shape: 1 512 28 28 (401408)
I0514 11:22:37.090142 12912 net.cpp:156] Memory required for data: 152334340
I0514 11:22:37.090152 12912 layer_factory.hpp:77] Creating layer bn8a
I0514 11:22:37.090165 12912 net.cpp:91] Creating Layer bn8a
I0514 11:22:37.090172 12912 net.cpp:425] bn8a <- C4_1a
I0514 11:22:37.090186 12912 net.cpp:399] bn8a -> bn8a
I0514 11:22:37.090394 12912 net.cpp:141] Setting up bn8a
I0514 11:22:37.090404 12912 net.cpp:148] Top shape: 1 512 28 28 (401408)
I0514 11:22:37.090409 12912 net.cpp:156] Memory required for data: 153939972
I0514 11:22:37.090416 12912 layer_factory.hpp:77] Creating layer relu4_1a
I0514 11:22:37.090425 12912 net.cpp:91] Creating Layer relu4_1a
I0514 11:22:37.090430 12912 net.cpp:425] relu4_1a <- bn8a
I0514 11:22:37.090435 12912 net.cpp:399] relu4_1a -> relu4_1a
I0514 11:22:37.090457 12912 net.cpp:141] Setting up relu4_1a
I0514 11:22:37.090466 12912 net.cpp:148] Top shape: 1 512 28 28 (401408)
I0514 11:22:37.090469 12912 net.cpp:156] Memory required for data: 155545604
I0514 11:22:37.090472 12912 layer_factory.hpp:77] Creating layer C4_2a
I0514 11:22:37.090487 12912 net.cpp:91] Creating Layer C4_2a
I0514 11:22:37.090490 12912 net.cpp:425] C4_2a <- relu4_1a
I0514 11:22:37.090497 12912 net.cpp:399] C4_2a -> C4_2a
I0514 11:22:37.207087 12912 net.cpp:141] Setting up C4_2a
I0514 11:22:37.207129 12912 net.cpp:148] Top shape: 1 512 28 28 (401408)
I0514 11:22:37.207136 12912 net.cpp:156] Memory required for data: 157151236
I0514 11:22:37.207150 12912 layer_factory.hpp:77] Creating layer bn9a
I0514 11:22:37.207167 12912 net.cpp:91] Creating Layer bn9a
I0514 11:22:37.207203 12912 net.cpp:425] bn9a <- C4_2a
I0514 11:22:37.207234 12912 net.cpp:399] bn9a -> bn9a
I0514 11:22:37.207516 12912 net.cpp:141] Setting up bn9a
I0514 11:22:37.207535 12912 net.cpp:148] Top shape: 1 512 28 28 (401408)
I0514 11:22:37.207542 12912 net.cpp:156] Memory required for data: 158756868
I0514 11:22:37.207579 12912 layer_factory.hpp:77] Creating layer relu4_2a
I0514 11:22:37.207612 12912 net.cpp:91] Creating Layer relu4_2a
I0514 11:22:37.207643 12912 net.cpp:425] relu4_2a <- bn9a
I0514 11:22:37.207676 12912 net.cpp:399] relu4_2a -> relu4_2a
I0514 11:22:37.207743 12912 net.cpp:141] Setting up relu4_2a
I0514 11:22:37.207761 12912 net.cpp:148] Top shape: 1 512 28 28 (401408)
I0514 11:22:37.207788 12912 net.cpp:156] Memory required for data: 160362500
I0514 11:22:37.207814 12912 layer_factory.hpp:77] Creating layer C4_3a
I0514 11:22:37.207850 12912 net.cpp:91] Creating Layer C4_3a
I0514 11:22:37.207880 12912 net.cpp:425] C4_3a <- relu4_2a
I0514 11:22:37.207917 12912 net.cpp:399] C4_3a -> C4_3a
I0514 11:22:37.287868 12912 net.cpp:141] Setting up C4_3a
I0514 11:22:37.287909 12912 net.cpp:148] Top shape: 1 512 28 28 (401408)
I0514 11:22:37.287966 12912 net.cpp:156] Memory required for data: 161968132
I0514 11:22:37.288000 12912 layer_factory.hpp:77] Creating layer bn10a
I0514 11:22:37.288043 12912 net.cpp:91] Creating Layer bn10a
I0514 11:22:37.288072 12912 net.cpp:425] bn10a <- C4_3a
I0514 11:22:37.288103 12912 net.cpp:399] bn10a -> bn10a
I0514 11:22:37.288365 12912 net.cpp:141] Setting up bn10a
I0514 11:22:37.288383 12912 net.cpp:148] Top shape: 1 512 28 28 (401408)
I0514 11:22:37.288389 12912 net.cpp:156] Memory required for data: 163573764
I0514 11:22:37.288426 12912 layer_factory.hpp:77] Creating layer relu4_3a
I0514 11:22:37.288458 12912 net.cpp:91] Creating Layer relu4_3a
I0514 11:22:37.288485 12912 net.cpp:425] relu4_3a <- bn10a
I0514 11:22:37.288516 12912 net.cpp:399] relu4_3a -> relu4_3a
I0514 11:22:37.288583 12912 net.cpp:141] Setting up relu4_3a
I0514 11:22:37.288597 12912 net.cpp:148] Top shape: 1 512 28 28 (401408)
I0514 11:22:37.288605 12912 net.cpp:156] Memory required for data: 165179396
I0514 11:22:37.288632 12912 layer_factory.hpp:77] Creating layer pool4a
I0514 11:22:37.288666 12912 net.cpp:91] Creating Layer pool4a
I0514 11:22:37.288691 12912 net.cpp:425] pool4a <- relu4_3a
I0514 11:22:37.288723 12912 net.cpp:399] pool4a -> pool4a
I0514 11:22:37.288810 12912 net.cpp:141] Setting up pool4a
I0514 11:22:37.288825 12912 net.cpp:148] Top shape: 1 512 14 14 (100352)
I0514 11:22:37.288832 12912 net.cpp:156] Memory required for data: 165580804
I0514 11:22:37.288859 12912 layer_factory.hpp:77] Creating layer C5_1a
I0514 11:22:37.288898 12912 net.cpp:91] Creating Layer C5_1a
I0514 11:22:37.288928 12912 net.cpp:425] C5_1a <- pool4a
I0514 11:22:37.288962 12912 net.cpp:399] C5_1a -> C5_1a
I0514 11:22:37.372864 12912 net.cpp:141] Setting up C5_1a
I0514 11:22:37.372948 12912 net.cpp:148] Top shape: 1 512 14 14 (100352)
I0514 11:22:37.372977 12912 net.cpp:156] Memory required for data: 165982212
I0514 11:22:37.373013 12912 layer_factory.hpp:77] Creating layer bn11a
I0514 11:22:37.373046 12912 net.cpp:91] Creating Layer bn11a
I0514 11:22:37.373080 12912 net.cpp:425] bn11a <- C5_1a
I0514 11:22:37.373111 12912 net.cpp:399] bn11a -> bn11a
I0514 11:22:37.373455 12912 net.cpp:141] Setting up bn11a
I0514 11:22:37.373497 12912 net.cpp:148] Top shape: 1 512 14 14 (100352)
I0514 11:22:37.373525 12912 net.cpp:156] Memory required for data: 166383620
I0514 11:22:37.373560 12912 layer_factory.hpp:77] Creating layer relu5_1a
I0514 11:22:37.373594 12912 net.cpp:91] Creating Layer relu5_1a
I0514 11:22:37.373620 12912 net.cpp:425] relu5_1a <- bn11a
I0514 11:22:37.373652 12912 net.cpp:399] relu5_1a -> relu5_1a
I0514 11:22:37.373723 12912 net.cpp:141] Setting up relu5_1a
I0514 11:22:37.373760 12912 net.cpp:148] Top shape: 1 512 14 14 (100352)
I0514 11:22:37.373787 12912 net.cpp:156] Memory required for data: 166785028
I0514 11:22:37.373813 12912 layer_factory.hpp:77] Creating layer C5_2a
I0514 11:22:37.373853 12912 net.cpp:91] Creating Layer C5_2a
I0514 11:22:37.373885 12912 net.cpp:425] C5_2a <- relu5_1a
I0514 11:22:37.373917 12912 net.cpp:399] C5_2a -> C5_2a
I0514 11:22:37.453919 12912 net.cpp:141] Setting up C5_2a
I0514 11:22:37.453956 12912 net.cpp:148] Top shape: 1 512 14 14 (100352)
I0514 11:22:37.453964 12912 net.cpp:156] Memory required for data: 167186436
I0514 11:22:37.453979 12912 layer_factory.hpp:77] Creating layer bn12a
I0514 11:22:37.454020 12912 net.cpp:91] Creating Layer bn12a
I0514 11:22:37.454056 12912 net.cpp:425] bn12a <- C5_2a
I0514 11:22:37.454090 12912 net.cpp:399] bn12a -> bn12a
I0514 11:22:37.454365 12912 net.cpp:141] Setting up bn12a
I0514 11:22:37.454383 12912 net.cpp:148] Top shape: 1 512 14 14 (100352)
I0514 11:22:37.454391 12912 net.cpp:156] Memory required for data: 167587844
I0514 11:22:37.454427 12912 layer_factory.hpp:77] Creating layer relu5_2a
I0514 11:22:37.454479 12912 net.cpp:91] Creating Layer relu5_2a
I0514 11:22:37.454514 12912 net.cpp:425] relu5_2a <- bn12a
I0514 11:22:37.454550 12912 net.cpp:399] relu5_2a -> relu5_2a
I0514 11:22:37.454627 12912 net.cpp:141] Setting up relu5_2a
I0514 11:22:37.454656 12912 net.cpp:148] Top shape: 1 512 14 14 (100352)
I0514 11:22:37.454685 12912 net.cpp:156] Memory required for data: 167989252
I0514 11:22:37.454711 12912 layer_factory.hpp:77] Creating layer C5_3a
I0514 11:22:37.454753 12912 net.cpp:91] Creating Layer C5_3a
I0514 11:22:37.454784 12912 net.cpp:425] C5_3a <- relu5_2a
I0514 11:22:37.454819 12912 net.cpp:399] C5_3a -> C5_3a
I0514 11:22:37.541016 12912 net.cpp:141] Setting up C5_3a
I0514 11:22:37.541064 12912 net.cpp:148] Top shape: 1 512 14 14 (100352)
I0514 11:22:37.541072 12912 net.cpp:156] Memory required for data: 168390660
I0514 11:22:37.541086 12912 layer_factory.hpp:77] Creating layer bn13a
I0514 11:22:37.541105 12912 net.cpp:91] Creating Layer bn13a
I0514 11:22:37.541144 12912 net.cpp:425] bn13a <- C5_3a
I0514 11:22:37.541179 12912 net.cpp:399] bn13a -> bn13a
I0514 11:22:37.541462 12912 net.cpp:141] Setting up bn13a
I0514 11:22:37.541481 12912 net.cpp:148] Top shape: 1 512 14 14 (100352)
I0514 11:22:37.541488 12912 net.cpp:156] Memory required for data: 168792068
I0514 11:22:37.541544 12912 layer_factory.hpp:77] Creating layer relu5_3a
I0514 11:22:37.541582 12912 net.cpp:91] Creating Layer relu5_3a
I0514 11:22:37.541611 12912 net.cpp:425] relu5_3a <- bn13a
I0514 11:22:37.541647 12912 net.cpp:399] relu5_3a -> relu5_3a
I0514 11:22:37.541714 12912 net.cpp:141] Setting up relu5_3a
I0514 11:22:37.541730 12912 net.cpp:148] Top shape: 1 512 14 14 (100352)
I0514 11:22:37.541738 12912 net.cpp:156] Memory required for data: 169193476
I0514 11:22:37.541764 12912 layer_factory.hpp:77] Creating layer GP
I0514 11:22:37.541798 12912 net.cpp:91] Creating Layer GP
I0514 11:22:37.541826 12912 net.cpp:425] GP <- relu5_3a
I0514 11:22:37.541857 12912 net.cpp:399] GP -> GP
I0514 11:22:37.541929 12912 net.cpp:141] Setting up GP
I0514 11:22:37.541946 12912 net.cpp:148] Top shape: 1 512 1 1 (512)
I0514 11:22:37.541954 12912 net.cpp:156] Memory required for data: 169195524
I0514 11:22:37.541965 12912 layer_factory.hpp:77] Creating layer fc
I0514 11:22:37.541978 12912 net.cpp:91] Creating Layer fc
I0514 11:22:37.541985 12912 net.cpp:425] fc <- GP
I0514 11:22:37.542001 12912 net.cpp:399] fc -> fc
I0514 11:22:37.543025 12912 net.cpp:141] Setting up fc
I0514 11:22:37.543042 12912 net.cpp:148] Top shape: 1 50 (50)
I0514 11:22:37.543050 12912 net.cpp:156] Memory required for data: 169195724
I0514 11:22:37.543062 12912 layer_factory.hpp:77] Creating layer accuracy
I0514 11:22:37.543099 12912 net.cpp:91] Creating Layer accuracy
I0514 11:22:37.543126 12912 net.cpp:425] accuracy <- fc
I0514 11:22:37.543154 12912 net.cpp:425] accuracy <- label
I0514 11:22:37.543186 12912 net.cpp:399] accuracy -> accuracy
…
