…
I0602 17:04:25.422956  8321 net.cpp:313] The NetState phase (0) differed from the phase (1) specified by a rule in layer loss3/top-5
I0602 17:04:25.424351  8321 net.cpp:49] Initializing net from parameters: 
name: "GoogleNetCAMMITindoorFinetuned"
state {
  phase: TRAIN
}
layer {
  name: "data"
  type: "ImageData"
  top: "data"
  top: "label"
  include {
    phase: TRAIN
  }
  transform_param {
    mirror: true
    crop_size: 224
    mean_value: 104
    mean_value: 117
    mean_value: 123
  }
  image_data_param {
    source: "trainaugment.txt"
    batch_size: 128
    shuffle: true
  }
}
layer {
  name: "conv1/7x7_s2"
  type: "Convolution"
  bottom: "data"
  top: "conv1/7x7_s2"
  param {
    lr_mult: 1
    decay_mult: 1
  }
  param {
    lr_mult: 2
    decay_mult: 0
  }
  convolution_param {
    num_output: 64
    pad: 3
    kernel_size: 7
    stride: 2
    weight_filler {
      type: "xavier"
      std: 0.1
    }
    bias_filler {
      type: "constant"
      value: 0.2
    }
  }
}
layer {
  name: "conv1/relu_7x7"
  type: "ReLU"
  bottom: "conv1/7x7_s2"
  top: "conv1/7x7_s2"
}
layer {
  name: "pool1/3x3_s2"
  type: "Pooling"
  bottom: "conv1/7x7_s2"
  top: "pool1/3x3_s2"
  pooling_param {
    pool: MAX
    kernel_size: 3
    stride: 2
  }
}
layer {
  name: "pool1/norm1"
  type: "LRN"
  bottom: "pool1/3x3_s2"
  top: "pool1/norm1"
  lrn_param {
    local_size: 5
    alpha: 0.0001
    beta: 0.75
  }
}
layer {
  name: "conv2/3x3_reduce"
  type: "Convolution"
  bottom: "pool1/norm1"
  top: "conv2/3x3_reduce"
  param {
    lr_mult: 1
    decay_mult: 1
  }
  param {
    lr_mult: 2
    decay_mult: 0
  }
  convolution_param {
    num_output: 64
    kernel_size: 1
    weight_filler {
      type: "xavier"
      std: 0.1
    }
    bias_filler {
      type: "constant"
      value: 0.2
    }
  }
}
layer {
  name: "conv2/relu_3x3_reduce"
  type: "ReLU"
  bottom: "conv2/3x3_reduce"
  top: "conv2/3x3_reduce"
}
layer {
  name: "conv2/3x3"
  type: "Convolution"
  bottom: "conv2/3x3_reduce"
  top: "conv2/3x3"
  param {
    lr_mult: 1
    decay_mult: 1
  }
  param {
    lr_mult: 2
    decay_mult: 0
  }
  convolution_param {
    num_output: 192
    pad: 1
    kernel_size: 3
    weight_filler {
      type: "xavier"
      std: 0.03
    }
    bias_filler {
      type: "constant"
      value: 0.2
    }
  }
}
layer {
  name: "conv2/relu_3x3"
  type: "ReLU"
  bottom: "conv2/3x3"
  top: "conv2/3x3"
}
layer {
  name: "conv2/norm2"
  type: "LRN"
  bottom: "conv2/3x3"
  top: "conv2/norm2"
  lrn_param {
    local_size: 5
    alpha: 0.0001
    beta: 0.75
  }
}
layer {
  name: "pool2/3x3_s2"
  type: "Pooling"
  bottom: "conv2/norm2"
  top: "pool2/3x3_s2"
  pooling_param {
    pool: MAX
    kernel_size: 3
    stride: 2
  }
}
layer {
  name: "inception_3a/1x1"
  type: "Convolution"
  bottom: "pool2/3x3_s2"
  top: "inception_3a/1x1"
  param {
    lr_mult: 1
    decay_mult: 1
  }
  param {
    lr_mult: 2
    decay_mult: 0
  }
  convolution_param {
    num_output: 64
    kernel_size: 1
    weight_filler {
      type: "xavier"
      std: 0.03
    }
    bias_filler {
      type: "constant"
      value: 0.2
    }
  }
}
layer {
  name: "inception_3a/relu_1x1"
  type: "ReLU"
  bottom: "inception_3a/1x1"
  top: "inception_3a/1x1"
}
layer {
  name: "inception_3a/3x3_reduce"
  type: "Convolution"
  bottom: "pool2/3x3_s2"
  top: "inception_3a/3x3_reduce"
  param {
    lr_mult: 1
    decay_mult: 1
  }
  param {
    lr_mult: 2
    decay_mult: 0
  }
  convolution_param {
    num_output: 96
    kernel_size: 1
    weight_filler {
      type: "xavier"
      std: 0.09
    }
    bias_filler {
      type: "constant"
      value: 0.2
    }
  }
}
layer {
  name: "inception_3a/relu_3x3_reduce"
  type: "ReLU"
  bottom: "inception_3a/3x3_reduce"
  top: "inception_3a/3x3_reduce"
}
layer {
  name: "inception_3a/3x3"
  type: "Convolution"
  bottom: "inception_3a/3x3_reduce"
  top: "inception_3a/3x3"
  param {
    lr_mult: 1
    decay_mult: 1
  }
  param {
    lr_mult: 2
    decay_mult: 0
  }
  convolution_param {
    num_output: 128
    pad: 1
    kernel_size: 3
    weight_filler {
      type: "xavier"
      std: 0.03
    }
    bias_filler {
      type: "constant"
      value: 0.2
    }
  }
}
layer {
  name: "inception_3a/relu_3x3"
  type: "ReLU"
  bottom: "inception_3a/3x3"
  top: "inception_3a/3x3"
}
layer {
  name: "inception_3a/5x5_reduce"
  type: "Convolution"
  bottom: "pool2/3x3_s2"
  top: "inception_3a/5x5_reduce"
  param {
    lr_mult: 1
    decay_mult: 1
  }
  param {
    lr_mult: 2
    decay_mult: 0
  }
  convolution_param {
    num_output: 16
    kernel_size: 1
    weight_filler {
      type: "xavier"
      std: 0.2
    }
    bias_filler {
      type: "constant"
      value: 0.2
    }
  }
}
layer {
  name: "inception_3a/relu_5x5_reduce"
  type: "ReLU"
  bottom: "inception_3a/5x5_reduce"
  top: "inception_3a/5x5_reduce"
}
layer {
  name: "inception_3a/5x5"
  type: "Convolution"
  bottom: "inception_3a/5x5_reduce"
  top: "inception_3a/5x5"
  param {
    lr_mult: 1
    decay_mult: 1
  }
  param {
    lr_mult: 2
    decay_mult: 0
  }
  convolution_param {
    num_output: 32
    pad: 2
    kernel_size: 5
    weight_filler {
      type: "xavier"
      std: 0.03
    }
    bias_filler {
      type: "constant"
      value: 0.2
    }
  }
}
layer {
  name: "inception_3a/relu_5x5"
  type: "ReLU"
  bottom: "inception_3a/5x5"
  top: "inception_3a/5x5"
}
layer {
  name: "inception_3a/pool"
  type: "Pooling"
  bottom: "pool2/3x3_s2"
  top: "inception_3a/pool"
  pooling_param {
    pool: MAX
    kernel_size: 3
    stride: 1
    pad: 1
  }
}
layer {
  name: "inception_3a/pool_proj"
  type: "Convolution"
  bottom: "inception_3a/pool"
  top: "inception_3a/pool_proj"
  param {
    lr_mult: 1
    decay_mult: 1
  }
  param {
    lr_mult: 2
    decay_mult: 0
  }
  convolution_param {
    num_output: 32
    kernel_size: 1
    weight_filler {
      type: "xavier"
      std: 0.1
    }
    bias_filler {
      type: "constant"
      value: 0.2
    }
  }
}
layer {
  name: "inception_3a/relu_pool_proj"
  type: "ReLU"
  bottom: "inception_3a/pool_proj"
  top: "inception_3a/pool_proj"
}
layer {
  name: "inception_3a/output"
  type: "Concat"
  bottom: "inception_3a/1x1"
  bottom: "inception_3a/3x3"
  bottom: "inception_3a/5x5"
  bottom: "inception_3a/pool_proj"
  top: "inception_3a/output"
}
layer {
  name: "inception_3b/1x1"
  type: "Convolution"
  bottom: "inception_3a/output"
  top: "inception_3b/1x1"
  param {
    lr_mult: 1
    decay_mult: 1
  }
  param {
    lr_mult: 2
    decay_mult: 0
  }
  convolution_param {
    num_output: 128
    kernel_size: 1
    weight_filler {
      type: "xavier"
      std: 0.03
    }
    bias_filler {
      type: "constant"
      value: 0.2
    }
  }
}
layer {
  name: "inception_3b/relu_1x1"
  type: "ReLU"
  bottom: "inception_3b/1x1"
  top: "inception_3b/1x1"
}
layer {
  name: "inception_3b/3x3_reduce"
  type: "Convolution"
  bottom: "inception_3a/output"
  top: "inception_3b/3x3_reduce"
  param {
    lr_mult: 1
    decay_mult: 1
  }
  param {
    lr_mult: 2
    decay_mult: 0
  }
  convolution_param {
    num_output: 128
    kernel_size: 1
    weight_filler {
      type: "xavier"
      std: 0.09
    }
    bias_filler {
      type: "constant"
      value: 0.2
    }
  }
}
layer {
  name: "inception_3b/relu_3x3_reduce"
  type: "ReLU"
  bottom: "inception_3b/3x3_reduce"
  top: "inception_3b/3x3_reduce"
}
layer {
  name: "inception_3b/3x3"
  type: "Convolution"
  bottom: "inception_3b/3x3_reduce"
  top: "inception_3b/3x3"
  param {
    lr_mult: 1
    decay_mult: 1
  }
  param {
    lr_mult: 2
    decay_mult: 0
  }
  convolution_param {
    num_output: 192
    pad: 1
    kernel_size: 3
    weight_filler {
      type: "xavier"
      std: 0.03
    }
    bias_filler {
      type: "constant"
      value: 0.2
    }
  }
}
layer {
  name: "inception_3b/relu_3x3"
  type: "ReLU"
  bottom: "inception_3b/3x3"
  top: "inception_3b/3x3"
}
layer {
  name: "inception_3b/5x5_reduce"
  type: "Convolution"
  bottom: "inception_3a/output"
  top: "inception_3b/5x5_reduce"
  param {
    lr_mult: 1
    decay_mult: 1
  }
  param {
    lr_mult: 2
    decay_mult: 0
  }
  convolution_param {
    num_output: 32
    kernel_size: 1
    weight_filler {
      type: "xavier"
      std: 0.2
    }
    bias_filler {
      type: "constant"
      value: 0.2
    }
  }
}
layer {
  name: "inception_3b/relu_5x5_reduce"
  type: "ReLU"
  bottom: "inception_3b/5x5_reduce"
  top: "inception_3b/5x5_reduce"
}
layer {
  name: "inception_3b/5x5"
  type: "Convolution"
  bottom: "inception_3b/5x5_reduce"
  top: "inception_3b/5x5"
  param {
    lr_mult: 1
    decay_mult: 1
  }
  param {
    lr_mult: 2
    decay_mult: 0
  }
  convolution_param {
    num_output: 96
    pad: 2
    kernel_size: 5
    weight_filler {
      type: "xavier"
      std: 0.03
    }
    bias_filler {
      type: "constant"
      value: 0.2
    }
  }
}
layer {
  name: "inception_3b/relu_5x5"
  type: "ReLU"
  bottom: "inception_3b/5x5"
  top: "inception_3b/5x5"
}
layer {
  name: "inception_3b/pool"
  type: "Pooling"
  bottom: "inception_3a/output"
  top: "inception_3b/pool"
  pooling_param {
    pool: MAX
    kernel_size: 3
    stride: 1
    pad: 1
  }
}
layer {
  name: "inception_3b/pool_proj"
  type: "Convolution"
  bottom: "inception_3b/pool"
  top: "inception_3b/pool_proj"
  param {
    lr_mult: 1
    decay_mult: 1
  }
  param {
    lr_mult: 2
    decay_mult: 0
  }
  convolution_param {
    num_output: 64
    kernel_size: 1
    weight_filler {
      type: "xavier"
      std: 0.1
    }
    bias_filler {
      type: "constant"
      value: 0.2
    }
  }
}
layer {
  name: "inception_3b/relu_pool_proj"
  type: "ReLU"
  bottom: "inception_3b/pool_proj"
  top: "inception_3b/pool_proj"
}
layer {
  name: "inception_3b/output"
  type: "Concat"
  bottom: "inception_3b/1x1"
  bottom: "inception_3b/3x3"
  bottom: "inception_3b/5x5"
  bottom: "inception_3b/pool_proj"
  top: "inception_3b/output"
}
layer {
  name: "pool3/3x3_s2"
  type: "Pooling"
  bottom: "inception_3b/output"
  top: "pool3/3x3_s2"
  pooling_param {
    pool: MAX
    kernel_size: 3
    stride: 2
  }
}
layer {
  name: "inception_4a/1x1"
  type: "Convolution"
  bottom: "pool3/3x3_s2"
  top: "inception_4a/1x1"
  param {
    lr_mult: 1
    decay_mult: 1
  }
  param {
    lr_mult: 2
    decay_mult: 0
  }
  convolution_param {
    num_output: 192
    kernel_size: 1
    weight_filler {
      type: "xavier"
      std: 0.03
    }
    bias_filler {
      type: "constant"
      value: 0.2
    }
  }
}
layer {
  name: "inception_4a/relu_1x1"
  type: "ReLU"
  bottom: "inception_4a/1x1"
  top: "inception_4a/1x1"
}
layer {
  name: "inception_4a/3x3_reduce"
  type: "Convolution"
  bottom: "pool3/3x3_s2"
  top: "inception_4a/3x3_reduce"
  param {
    lr_mult: 1
    decay_mult: 1
  }
  param {
    lr_mult: 2
    decay_mult: 0
  }
  convolution_param {
    num_output: 96
    kernel_size: 1
    weight_filler {
      type: "xavier"
      std: 0.09
    }
    bias_filler {
      type: "constant"
      value: 0.2
    }
  }
}
layer {
  name: "inception_4a/relu_3x3_reduce"
  type: "ReLU"
  bottom: "inception_4a/3x3_reduce"
  top: "inception_4a/3x3_reduce"
}
layer {
  name: "inception_4a/3x3"
  type: "Convolution"
  bottom: "inception_4a/3x3_reduce"
  top: "inception_4a/3x3"
  param {
    lr_mult: 1
    decay_mult: 1
  }
  param {
    lr_mult: 2
    decay_mult: 0
  }
  convolution_param {
    num_output: 208
    pad: 1
    kernel_size: 3
    weight_filler {
      type: "xavier"
      std: 0.03
    }
    bias_filler {
      type: "constant"
      value: 0.2
    }
  }
}
layer {
  name: "inception_4a/relu_3x3"
  type: "ReLU"
  bottom: "inception_4a/3x3"
  top: "inception_4a/3x3"
}
layer {
  name: "inception_4a/5x5_reduce"
  type: "Convolution"
  bottom: "pool3/3x3_s2"
  top: "inception_4a/5x5_reduce"
  param {
    lr_mult: 1
    decay_mult: 1
  }
  param {
    lr_mult: 2
    decay_mult: 0
  }
  convolution_param {
    num_output: 16
    kernel_size: 1
    weight_filler {
      type: "xavier"
      std: 0.2
    }
    bias_filler {
      type: "constant"
      value: 0.2
    }
  }
}
layer {
  name: "inception_4a/relu_5x5_reduce"
  type: "ReLU"
  bottom: "inception_4a/5x5_reduce"
  top: "inception_4a/5x5_reduce"
}
layer {
  name: "inception_4a/5x5"
  type: "Convolution"
  bottom: "inception_4a/5x5_reduce"
  top: "inception_4a/5x5"
  param {
    lr_mult: 1
    decay_mult: 1
  }
  param {
    lr_mult: 2
    decay_mult: 0
  }
  convolution_param {
    num_output: 48
    pad: 2
    kernel_size: 5
    weight_filler {
      type: "xavier"
      std: 0.03
    }
    bias_filler {
      type: "constant"
      value: 0.2
    }
  }
}
layer {
  name: "inception_4a/relu_5x5"
  type: "ReLU"
  bottom: "inception_4a/5x5"
  top: "inception_4a/5x5"
}
layer {
  name: "inception_4a/pool"
  type: "Pooling"
  bottom: "pool3/3x3_s2"
  top: "inception_4a/pool"
  pooling_param {
    pool: MAX
    kernel_size: 3
    stride: 1
    pad: 1
  }
}
layer {
  name: "inception_4a/pool_proj"
  type: "Convolution"
  bottom: "inception_4a/pool"
  top: "inception_4a/pool_proj"
  param {
    lr_mult: 1
    decay_mult: 1
  }
  param {
    lr_mult: 2
    decay_mult: 0
  }
  convolution_param {
    num_output: 64
    kernel_size: 1
    weight_filler {
      type: "xavier"
      std: 0.1
    }
    bias_filler {
      type: "constant"
      value: 0.2
    }
  }
}
layer {
  name: "inception_4a/relu_pool_proj"
  type: "ReLU"
  bottom: "inception_4a/pool_proj"
  top: "inception_4a/pool_proj"
}
layer {
  name: "inception_4a/output"
  type: "Concat"
  bottom: "inception_4a/1x1"
  bottom: "inception_4a/3x3"
  bottom: "inception_4a/5x5"
  bottom: "inception_4a/pool_proj"
  top: "inception_4a/output"
}
layer {
  name: "inception_4b/1x1"
  type: "Convolution"
  bottom: "inception_4a/output"
  top: "inception_4b/1x1"
  param {
    lr_mult: 1
    decay_mult: 1
  }
  param {
    lr_mult: 2
    decay_mult: 0
  }
  convolution_param {
    num_output: 160
    kernel_size: 1
    weight_filler {
      type: "xavier"
      std: 0.03
    }
    bias_filler {
      type: "constant"
      value: 0.2
    }
  }
}
layer {
  name: "inception_4b/relu_1x1"
  type: "ReLU"
  bottom: "inception_4b/1x1"
  top: "inception_4b/1x1"
}
layer {
  name: "inception_4b/3x3_reduce"
  type: "Convolution"
  bottom: "inception_4a/output"
  top: "inception_4b/3x3_reduce"
  param {
    lr_mult: 1
    decay_mult: 1
  }
  param {
    lr_mult: 2
    decay_mult: 0
  }
  convolution_param {
    num_output: 112
    kernel_size: 1
    weight_filler {
      type: "xavier"
      std: 0.09
    }
    bias_filler {
      type: "constant"
      value: 0.2
    }
  }
}
layer {
  name: "inception_4b/relu_3x3_reduce"
  type: "ReLU"
  bottom: "inception_4b/3x3_reduce"
  top: "inception_4b/3x3_reduce"
}
layer {
  name: "inception_4b/3x3"
  type: "Convolution"
  bottom: "inception_4b/3x3_reduce"
  top: "inception_4b/3x3"
  param {
    lr_mult: 1
    decay_mult: 1
  }
  param {
    lr_mult: 2
    decay_mult: 0
  }
  convolution_param {
    num_output: 224
    pad: 1
    kernel_size: 3
    weight_filler {
      type: "xavier"
      std: 0.03
    }
    bias_filler {
      type: "constant"
      value: 0.2
    }
  }
}
layer {
  name: "inception_4b/relu_3x3"
  type: "ReLU"
  bottom: "inception_4b/3x3"
  top: "inception_4b/3x3"
}
layer {
  name: "inception_4b/5x5_reduce"
  type: "Convolution"
  bottom: "inception_4a/output"
  top: "inception_4b/5x5_reduce"
  param {
    lr_mult: 1
    decay_mult: 1
  }
  param {
    lr_mult: 2
    decay_mult: 0
  }
  convolution_param {
    num_output: 24
    kernel_size: 1
    weight_filler {
      type: "xavier"
      std: 0.2
    }
    bias_filler {
      type: "constant"
      value: 0.2
    }
  }
}
layer {
  name: "inception_4b/relu_5x5_reduce"
  type: "ReLU"
  bottom: "inception_4b/5x5_reduce"
  top: "inception_4b/5x5_reduce"
}
layer {
  name: "inception_4b/5x5"
  type: "Convolution"
  bottom: "inception_4b/5x5_reduce"
  top: "inception_4b/5x5"
  param {
    lr_mult: 1
    decay_mult: 1
  }
  param {
    lr_mult: 2
    decay_mult: 0
  }
  convolution_param {
    num_output: 64
    pad: 2
    kernel_size: 5
    weight_filler {
      type: "xavier"
      std: 0.03
    }
    bias_filler {
      type: "constant"
      value: 0.2
    }
  }
}
layer {
  name: "inception_4b/relu_5x5"
  type: "ReLU"
  bottom: "inception_4b/5x5"
  top: "inception_4b/5x5"
}
layer {
  name: "inception_4b/pool"
  type: "Pooling"
  bottom: "inception_4a/output"
  top: "inception_4b/pool"
  pooling_param {
    pool: MAX
    kernel_size: 3
    stride: 1
    pad: 1
  }
}
layer {
  name: "inception_4b/pool_proj"
  type: "Convolution"
  bottom: "inception_4b/pool"
  top: "inception_4b/pool_proj"
  param {
    lr_mult: 1
    decay_mult: 1
  }
  param {
    lr_mult: 2
    decay_mult: 0
  }
  convolution_param {
    num_output: 64
    kernel_size: 1
    weight_filler {
      type: "xavier"
      std: 0.1
    }
    bias_filler {
      type: "constant"
      value: 0.2
    }
  }
}
layer {
  name: "inception_4b/relu_pool_proj"
  type: "ReLU"
  bottom: "inception_4b/pool_proj"
  top: "inception_4b/pool_proj"
}
layer {
  name: "inception_4b/output"
  type: "Concat"
  bottom: "inception_4b/1x1"
  bottom: "inception_4b/3x3"
  bottom: "inception_4b/5x5"
  bottom: "inception_4b/pool_proj"
  top: "inception_4b/output"
}
layer {
  name: "inception_4c/1x1"
  type: "Convolution"
  bottom: "inception_4b/output"
  top: "inception_4c/1x1"
  param {
    lr_mult: 1
    decay_mult: 1
  }
  param {
    lr_mult: 2
    decay_mult: 0
  }
  convolution_param {
    num_output: 128
    kernel_size: 1
    weight_filler {
      type: "xavier"
      std: 0.03
    }
    bias_filler {
      type: "constant"
      value: 0.2
    }
  }
}
layer {
  name: "inception_4c/relu_1x1"
  type: "ReLU"
  bottom: "inception_4c/1x1"
  top: "inception_4c/1x1"
}
layer {
  name: "inception_4c/3x3_reduce"
  type: "Convolution"
  bottom: "inception_4b/output"
  top: "inception_4c/3x3_reduce"
  param {
    lr_mult: 1
    decay_mult: 1
  }
  param {
    lr_mult: 2
    decay_mult: 0
  }
  convolution_param {
    num_output: 128
    kernel_size: 1
    weight_filler {
      type: "xavier"
      std: 0.09
    }
    bias_filler {
      type: "constant"
      value: 0.2
    }
  }
}
layer {
  name: "inception_4c/relu_3x3_reduce"
  type: "ReLU"
  bottom: "inception_4c/3x3_reduce"
  top: "inception_4c/3x3_reduce"
}
layer {
  name: "inception_4c/3x3"
  type: "Convolution"
  bottom: "inception_4c/3x3_reduce"
  top: "inception_4c/3x3"
  param {
    lr_mult: 1
    decay_mult: 1
  }
  param {
    lr_mult: 2
    decay_mult: 0
  }
  convolution_param {
    num_output: 256
    pad: 1
    kernel_size: 3
    weight_filler {
      type: "xavier"
      std: 0.03
    }
    bias_filler {
      type: "constant"
      value: 0.2
    }
  }
}
layer {
  name: "inception_4c/relu_3x3"
  type: "ReLU"
  bottom: "inception_4c/3x3"
  top: "inception_4c/3x3"
}
layer {
  name: "inception_4c/5x5_reduce"
  type: "Convolution"
  bottom: "inception_4b/output"
  top: "inception_4c/5x5_reduce"
  param {
    lr_mult: 1
    decay_mult: 1
  }
  param {
    lr_mult: 2
    decay_mult: 0
  }
  convolution_param {
    num_output: 24
    kernel_size: 1
    weight_filler {
      type: "xavier"
      std: 0.2
    }
    bias_filler {
      type: "constant"
      value: 0.2
    }
  }
}
layer {
  name: "inception_4c/relu_5x5_reduce"
  type: "ReLU"
  bottom: "inception_4c/5x5_reduce"
  top: "inception_4c/5x5_reduce"
}
layer {
  name: "inception_4c/5x5"
  type: "Convolution"
  bottom: "inception_4c/5x5_reduce"
  top: "inception_4c/5x5"
  param {
    lr_mult: 1
    decay_mult: 1
  }
  param {
    lr_mult: 2
    decay_mult: 0
  }
  convolution_param {
    num_output: 64
    pad: 2
    kernel_size: 5
    weight_filler {
      type: "xavier"
      std: 0.03
    }
    bias_filler {
      type: "constant"
      value: 0.2
    }
  }
}
layer {
  name: "inception_4c/relu_5x5"
  type: "ReLU"
  bottom: "inception_4c/5x5"
  top: "inception_4c/5x5"
}
layer {
  name: "inception_4c/pool"
  type: "Pooling"
  bottom: "inception_4b/output"
  top: "inception_4c/pool"
  pooling_param {
    pool: MAX
    kernel_size: 3
    stride: 1
    pad: 1
  }
}
layer {
  name: "inception_4c/pool_proj"
  type: "Convolution"
  bottom: "inception_4c/pool"
  top: "inception_4c/pool_proj"
  param {
    lr_mult: 1
    decay_mult: 1
  }
  param {
    lr_mult: 2
    decay_mult: 0
  }
  convolution_param {
    num_output: 64
    kernel_size: 1
    weight_filler {
      type: "xavier"
      std: 0.1
    }
    bias_filler {
      type: "constant"
      value: 0.2
    }
  }
}
layer {
  name: "inception_4c/relu_pool_proj"
  type: "ReLU"
  bottom: "inception_4c/pool_proj"
  top: "inception_4c/pool_proj"
}
layer {
  name: "inception_4c/output"
  type: "Concat"
  bottom: "inception_4c/1x1"
  bottom: "inception_4c/3x3"
  bottom: "inception_4c/5x5"
  bottom: "inception_4c/pool_proj"
  top: "inception_4c/output"
}
layer {
  name: "inception_4d/1x1"
  type: "Convolution"
  bottom: "inception_4c/output"
  top: "inception_4d/1x1"
  param {
    lr_mult: 1
    decay_mult: 1
  }
  param {
    lr_mult: 2
    decay_mult: 0
  }
  convolution_param {
    num_output: 112
    kernel_size: 1
    weight_filler {
      type: "xavier"
      std: 0.03
    }
    bias_filler {
      type: "constant"
      value: 0.2
    }
  }
}
layer {
  name: "inception_4d/relu_1x1"
  type: "ReLU"
  bottom: "inception_4d/1x1"
  top: "inception_4d/1x1"
}
layer {
  name: "inception_4d/3x3_reduce"
  type: "Convolution"
  bottom: "inception_4c/output"
  top: "inception_4d/3x3_reduce"
  param {
    lr_mult: 1
    decay_mult: 1
  }
  param {
    lr_mult: 2
    decay_mult: 0
  }
  convolution_param {
    num_output: 144
    kernel_size: 1
    weight_filler {
      type: "xavier"
      std: 0.09
    }
    bias_filler {
      type: "constant"
      value: 0.2
    }
  }
}
layer {
  name: "inception_4d/relu_3x3_reduce"
  type: "ReLU"
  bottom: "inception_4d/3x3_reduce"
  top: "inception_4d/3x3_reduce"
}
layer {
  name: "inception_4d/3x3"
  type: "Convolution"
  bottom: "inception_4d/3x3_reduce"
  top: "inception_4d/3x3"
  param {
    lr_mult: 1
    decay_mult: 1
  }
  param {
    lr_mult: 2
    decay_mult: 0
  }
  convolution_param {
    num_output: 288
    pad: 1
    kernel_size: 3
    weight_filler {
      type: "xavier"
      std: 0.03
    }
    bias_filler {
      type: "constant"
      value: 0.2
    }
  }
}
layer {
  name: "inception_4d/relu_3x3"
  type: "ReLU"
  bottom: "inception_4d/3x3"
  top: "inception_4d/3x3"
}
layer {
  name: "inception_4d/5x5_reduce"
  type: "Convolution"
  bottom: "inception_4c/output"
  top: "inception_4d/5x5_reduce"
  param {
    lr_mult: 1
    decay_mult: 1
  }
  param {
    lr_mult: 2
    decay_mult: 0
  }
  convolution_param {
    num_output: 32
    kernel_size: 1
    weight_filler {
      type: "xavier"
      std: 0.2
    }
    bias_filler {
      type: "constant"
      value: 0.2
    }
  }
}
layer {
  name: "inception_4d/relu_5x5_reduce"
  type: "ReLU"
  bottom: "inception_4d/5x5_reduce"
  top: "inception_4d/5x5_reduce"
}
layer {
  name: "inception_4d/5x5"
  type: "Convolution"
  bottom: "inception_4d/5x5_reduce"
  top: "inception_4d/5x5"
  param {
    lr_mult: 1
    decay_mult: 1
  }
  param {
    lr_mult: 2
    decay_mult: 0
  }
  convolution_param {
    num_output: 64
    pad: 2
    kernel_size: 5
    weight_filler {
      type: "xavier"
      std: 0.03
    }
    bias_filler {
      type: "constant"
      value: 0.2
    }
  }
}
layer {
  name: "inception_4d/relu_5x5"
  type: "ReLU"
  bottom: "inception_4d/5x5"
  top: "inception_4d/5x5"
}
layer {
  name: "inception_4d/pool"
  type: "Pooling"
  bottom: "inception_4c/output"
  top: "inception_4d/pool"
  pooling_param {
    pool: MAX
    kernel_size: 3
    stride: 1
    pad: 1
  }
}
layer {
  name: "inception_4d/pool_proj"
  type: "Convolution"
  bottom: "inception_4d/pool"
  top: "inception_4d/pool_proj"
  param {
    lr_mult: 1
    decay_mult: 1
  }
  param {
    lr_mult: 2
    decay_mult: 0
  }
  convolution_param {
    num_output: 64
    kernel_size: 1
    weight_filler {
      type: "xavier"
      std: 0.1
    }
    bias_filler {
      type: "constant"
      value: 0.2
    }
  }
}
layer {
  name: "inception_4d/relu_pool_proj"
  type: "ReLU"
  bottom: "inception_4d/pool_proj"
  top: "inception_4d/pool_proj"
}
layer {
  name: "inception_4d/output"
  type: "Concat"
  bottom: "inception_4d/1x1"
  bottom: "inception_4d/3x3"
  bottom: "inception_4d/5x5"
  bottom: "inception_4d/pool_proj"
  top: "inception_4d/output"
}
layer {
  name: "inception_4e/1x1"
  type: "Convolution"
  bottom: "inception_4d/output"
  top: "inception_4e/1x1"
  param {
    lr_mult: 1
    decay_mult: 1
  }
  param {
    lr_mult: 2
    decay_mult: 0
  }
  convolution_param {
    num_output: 256
    kernel_size: 1
    weight_filler {
      type: "xavier"
      std: 0.03
    }
    bias_filler {
      type: "constant"
      value: 0.2
    }
  }
}
layer {
  name: "inception_4e/relu_1x1"
  type: "ReLU"
  bottom: "inception_4e/1x1"
  top: "inception_4e/1x1"
}
layer {
  name: "inception_4e/3x3_reduce"
  type: "Convolution"
  bottom: "inception_4d/output"
  top: "inception_4e/3x3_reduce"
  param {
    lr_mult: 1
    decay_mult: 1
  }
  param {
    lr_mult: 2
    decay_mult: 0
  }
  convolution_param {
    num_output: 160
    kernel_size: 1
    weight_filler {
      type: "xavier"
      std: 0.09
    }
    bias_filler {
      type: "constant"
      value: 0.2
    }
  }
}
layer {
  name: "inception_4e/relu_3x3_reduce"
  type: "ReLU"
  bottom: "inception_4e/3x3_reduce"
  top: "inception_4e/3x3_reduce"
}
layer {
  name: "inception_4e/3x3"
  type: "Convolution"
  bottom: "inception_4e/3x3_reduce"
  top: "inception_4e/3x3"
  param {
    lr_mult: 1
    decay_mult: 1
  }
  param {
    lr_mult: 2
    decay_mult: 0
  }
  convolution_param {
    num_output: 320
    pad: 1
    kernel_size: 3
    weight_filler {
      type: "xavier"
      std: 0.03
    }
    bias_filler {
      type: "constant"
      value: 0.2
    }
  }
}
layer {
  name: "inception_4e/relu_3x3"
  type: "ReLU"
  bottom: "inception_4e/3x3"
  top: "inception_4e/3x3"
}
layer {
  name: "inception_4e/5x5_reduce"
  type: "Convolution"
  bottom: "inception_4d/output"
  top: "inception_4e/5x5_reduce"
  param {
    lr_mult: 1
    decay_mult: 1
  }
  param {
    lr_mult: 2
    decay_mult: 0
  }
  convolution_param {
    num_output: 32
    kernel_size: 1
    weight_filler {
      type: "xavier"
      std: 0.2
    }
    bias_filler {
      type: "constant"
      value: 0.2
    }
  }
}
layer {
  name: "inception_4e/relu_5x5_reduce"
  type: "ReLU"
  bottom: "inception_4e/5x5_reduce"
  top: "inception_4e/5x5_reduce"
}
layer {
  name: "inception_4e/5x5"
  type: "Convolution"
  bottom: "inception_4e/5x5_reduce"
  top: "inception_4e/5x5"
  param {
    lr_mult: 1
    decay_mult: 1
  }
  param {
    lr_mult: 2
    decay_mult: 0
  }
  convolution_param {
    num_output: 128
    pad: 2
    kernel_size: 5
    weight_filler {
      type: "xavier"
      std: 0.03
    }
    bias_filler {
      type: "constant"
      value: 0.2
    }
  }
}
layer {
  name: "inception_4e/relu_5x5"
  type: "ReLU"
  bottom: "inception_4e/5x5"
  top: "inception_4e/5x5"
}
layer {
  name: "inception_4e/pool"
  type: "Pooling"
  bottom: "inception_4d/output"
  top: "inception_4e/pool"
  pooling_param {
    pool: MAX
    kernel_size: 3
    stride: 1
    pad: 1
  }
}
layer {
  name: "inception_4e/pool_proj"
  type: "Convolution"
  bottom: "inception_4e/pool"
  top: "inception_4e/pool_proj"
  param {
    lr_mult: 1
    decay_mult: 1
  }
  param {
    lr_mult: 2
    decay_mult: 0
  }
  convolution_param {
    num_output: 128
    kernel_size: 1
    weight_filler {
      type: "xavier"
      std: 0.1
    }
    bias_filler {
      type: "constant"
      value: 0.2
    }
  }
}
layer {
  name: "inception_4e/relu_pool_proj"
  type: "ReLU"
  bottom: "inception_4e/pool_proj"
  top: "inception_4e/pool_proj"
}
layer {
  name: "inception_4e/output"
  type: "Concat"
  bottom: "inception_4e/1x1"
  bottom: "inception_4e/3x3"
  bottom: "inception_4e/5x5"
  bottom: "inception_4e/pool_proj"
  top: "inception_4e/output"
}
layer {
  name: "CAM_conv"
  type: "Convolution"
  bottom: "inception_4e/output"
  top: "CAM_conv"
  param {
    lr_mult: 1
    decay_mult: 1
  }
  param {
    lr_mult: 2
    decay_mult: 0
  }
  convolution_param {
    num_output: 1024
    pad: 1
    kernel_size: 3
    group: 2
    weight_filler {
      type: "gaussian"
      std: 0.01
    }
    bias_filler {
      type: "constant"
      value: 1
    }
  }
}
layer {
  name: "CAM_relu"
  type: "ReLU"
  bottom: "CAM_conv"
  top: "CAM_conv"
}
layer {
  name: "CAM_pool"
  type: "Pooling"
  bottom: "CAM_conv"
  top: "CAM_pool"
  pooling_param {
    pool: AVE
    kernel_size: 14
    stride: 14
  }
}
layer {
  name: "CAM_fc_MIT"
  type: "InnerProduct"
  bottom: "CAM_pool"
  top: "CAM_fc_MIT"
  param {
    lr_mult: 10
    decay_mult: 1
  }
  param {
    lr_mult: 20
    decay_mult: 0
  }
  inner_product_param {
    num_output: 67
    weight_filler {
      type: "xavier"
    }
    bias_filler {
      type: "constant"
      value: 0
    }
  }
}
layer {
  name: "loss3/loss3"
  type: "SoftmaxWithLoss"
  bottom: "CAM_fc_MIT"
  bottom: "label"
  top: "loss3/loss3"
  loss_weight: 1
}
I0602 17:04:25.425348  8321 layer_factory.hpp:77] Creating layer data
I0602 17:04:25.425413  8321 net.cpp:91] Creating Layer data
I0602 17:04:25.425427  8321 net.cpp:399] data -> data
I0602 17:04:25.425463  8321 net.cpp:399] data -> label
I0602 17:04:25.426012  8321 image_data_layer.cpp:38] Opening file trainaugment.txt
I0602 17:04:25.426375  8321 image_data_layer.cpp:48] Shuffling data
I0602 17:04:25.426431  8321 image_data_layer.cpp:53] A total of 338 images.
I0602 17:04:25.444336  8321 image_data_layer.cpp:80] output data size: 128,3,224,224
I0602 17:04:25.575768  8321 net.cpp:141] Setting up data
I0602 17:04:25.575812  8321 net.cpp:148] Top shape: 128 3 224 224 (19267584)
I0602 17:04:25.575820  8321 net.cpp:148] Top shape: 128 (128)
I0602 17:04:25.575824  8321 net.cpp:156] Memory required for data: 77070848
I0602 17:04:25.575834  8321 layer_factory.hpp:77] Creating layer conv1/7x7_s2
I0602 17:04:25.575858  8321 net.cpp:91] Creating Layer conv1/7x7_s2
I0602 17:04:25.575866  8321 net.cpp:425] conv1/7x7_s2 <- data
I0602 17:04:25.575880  8321 net.cpp:399] conv1/7x7_s2 -> conv1/7x7_s2
I0602 17:04:25.576861  8321 net.cpp:141] Setting up conv1/7x7_s2
I0602 17:04:25.576879  8321 net.cpp:148] Top shape: 128 64 112 112 (102760448)
I0602 17:04:25.576884  8321 net.cpp:156] Memory required for data: 488112640
I0602 17:04:25.576899  8321 layer_factory.hpp:77] Creating layer conv1/relu_7x7
I0602 17:04:25.576912  8321 net.cpp:91] Creating Layer conv1/relu_7x7
I0602 17:04:25.576920  8321 net.cpp:425] conv1/relu_7x7 <- conv1/7x7_s2
I0602 17:04:25.576931  8321 net.cpp:386] conv1/relu_7x7 -> conv1/7x7_s2 (in-place)
I0602 17:04:25.576947  8321 net.cpp:141] Setting up conv1/relu_7x7
I0602 17:04:25.576958  8321 net.cpp:148] Top shape: 128 64 112 112 (102760448)
I0602 17:04:25.576967  8321 net.cpp:156] Memory required for data: 899154432
I0602 17:04:25.576974  8321 layer_factory.hpp:77] Creating layer pool1/3x3_s2
I0602 17:04:25.576987  8321 net.cpp:91] Creating Layer pool1/3x3_s2
I0602 17:04:25.576999  8321 net.cpp:425] pool1/3x3_s2 <- conv1/7x7_s2
I0602 17:04:25.577010  8321 net.cpp:399] pool1/3x3_s2 -> pool1/3x3_s2
I0602 17:04:25.577080  8321 net.cpp:141] Setting up pool1/3x3_s2
I0602 17:04:25.577092  8321 net.cpp:148] Top shape: 128 64 56 56 (25690112)
I0602 17:04:25.577100  8321 net.cpp:156] Memory required for data: 1001914880
I0602 17:04:25.577108  8321 layer_factory.hpp:77] Creating layer pool1/norm1
I0602 17:04:25.577123  8321 net.cpp:91] Creating Layer pool1/norm1
I0602 17:04:25.577133  8321 net.cpp:425] pool1/norm1 <- pool1/3x3_s2
I0602 17:04:25.577145  8321 net.cpp:399] pool1/norm1 -> pool1/norm1
I0602 17:04:25.577258  8321 net.cpp:141] Setting up pool1/norm1
I0602 17:04:25.577273  8321 net.cpp:148] Top shape: 128 64 56 56 (25690112)
I0602 17:04:25.577281  8321 net.cpp:156] Memory required for data: 1104675328
I0602 17:04:25.577291  8321 layer_factory.hpp:77] Creating layer conv2/3x3_reduce
I0602 17:04:25.577308  8321 net.cpp:91] Creating Layer conv2/3x3_reduce
I0602 17:04:25.577318  8321 net.cpp:425] conv2/3x3_reduce <- pool1/norm1
I0602 17:04:25.577333  8321 net.cpp:399] conv2/3x3_reduce -> conv2/3x3_reduce
I0602 17:04:25.578150  8321 net.cpp:141] Setting up conv2/3x3_reduce
I0602 17:04:25.578171  8321 net.cpp:148] Top shape: 128 64 56 56 (25690112)
I0602 17:04:25.578181  8321 net.cpp:156] Memory required for data: 1207435776
I0602 17:04:25.578198  8321 layer_factory.hpp:77] Creating layer conv2/relu_3x3_reduce
I0602 17:04:25.578212  8321 net.cpp:91] Creating Layer conv2/relu_3x3_reduce
I0602 17:04:25.578220  8321 net.cpp:425] conv2/relu_3x3_reduce <- conv2/3x3_reduce
I0602 17:04:25.578233  8321 net.cpp:386] conv2/relu_3x3_reduce -> conv2/3x3_reduce (in-place)
I0602 17:04:25.578249  8321 net.cpp:141] Setting up conv2/relu_3x3_reduce
I0602 17:04:25.578263  8321 net.cpp:148] Top shape: 128 64 56 56 (25690112)
I0602 17:04:25.578272  8321 net.cpp:156] Memory required for data: 1310196224
I0602 17:04:25.578280  8321 layer_factory.hpp:77] Creating layer conv2/3x3
I0602 17:04:25.578297  8321 net.cpp:91] Creating Layer conv2/3x3
I0602 17:04:25.578305  8321 net.cpp:425] conv2/3x3 <- conv2/3x3_reduce
I0602 17:04:25.578318  8321 net.cpp:399] conv2/3x3 -> conv2/3x3
I0602 17:04:25.579783  8321 net.cpp:141] Setting up conv2/3x3
I0602 17:04:25.579805  8321 net.cpp:148] Top shape: 128 192 56 56 (77070336)
I0602 17:04:25.579813  8321 net.cpp:156] Memory required for data: 1618477568
I0602 17:04:25.579833  8321 layer_factory.hpp:77] Creating layer conv2/relu_3x3
I0602 17:04:25.579850  8321 net.cpp:91] Creating Layer conv2/relu_3x3
I0602 17:04:25.579860  8321 net.cpp:425] conv2/relu_3x3 <- conv2/3x3
I0602 17:04:25.579871  8321 net.cpp:386] conv2/relu_3x3 -> conv2/3x3 (in-place)
I0602 17:04:25.579886  8321 net.cpp:141] Setting up conv2/relu_3x3
I0602 17:04:25.579898  8321 net.cpp:148] Top shape: 128 192 56 56 (77070336)
I0602 17:04:25.579907  8321 net.cpp:156] Memory required for data: 1926758912
I0602 17:04:25.579916  8321 layer_factory.hpp:77] Creating layer conv2/norm2
I0602 17:04:25.579928  8321 net.cpp:91] Creating Layer conv2/norm2
I0602 17:04:25.579937  8321 net.cpp:425] conv2/norm2 <- conv2/3x3
I0602 17:04:25.579948  8321 net.cpp:399] conv2/norm2 -> conv2/norm2
I0602 17:04:25.579993  8321 net.cpp:141] Setting up conv2/norm2
I0602 17:04:25.580005  8321 net.cpp:148] Top shape: 128 192 56 56 (77070336)
I0602 17:04:25.580013  8321 net.cpp:156] Memory required for data: 2235040256
I0602 17:04:25.580021  8321 layer_factory.hpp:77] Creating layer pool2/3x3_s2
I0602 17:04:25.580034  8321 net.cpp:91] Creating Layer pool2/3x3_s2
I0602 17:04:25.580044  8321 net.cpp:425] pool2/3x3_s2 <- conv2/norm2
I0602 17:04:25.580054  8321 net.cpp:399] pool2/3x3_s2 -> pool2/3x3_s2
I0602 17:04:25.580097  8321 net.cpp:141] Setting up pool2/3x3_s2
I0602 17:04:25.580111  8321 net.cpp:148] Top shape: 128 192 28 28 (19267584)
I0602 17:04:25.580118  8321 net.cpp:156] Memory required for data: 2312110592
I0602 17:04:25.580126  8321 layer_factory.hpp:77] Creating layer pool2/3x3_s2_pool2/3x3_s2_0_split
I0602 17:04:25.580145  8321 net.cpp:91] Creating Layer pool2/3x3_s2_pool2/3x3_s2_0_split
I0602 17:04:25.580153  8321 net.cpp:425] pool2/3x3_s2_pool2/3x3_s2_0_split <- pool2/3x3_s2
I0602 17:04:25.580164  8321 net.cpp:399] pool2/3x3_s2_pool2/3x3_s2_0_split -> pool2/3x3_s2_pool2/3x3_s2_0_split_0
I0602 17:04:25.580180  8321 net.cpp:399] pool2/3x3_s2_pool2/3x3_s2_0_split -> pool2/3x3_s2_pool2/3x3_s2_0_split_1
I0602 17:04:25.580194  8321 net.cpp:399] pool2/3x3_s2_pool2/3x3_s2_0_split -> pool2/3x3_s2_pool2/3x3_s2_0_split_2
I0602 17:04:25.580209  8321 net.cpp:399] pool2/3x3_s2_pool2/3x3_s2_0_split -> pool2/3x3_s2_pool2/3x3_s2_0_split_3
I0602 17:04:25.580270  8321 net.cpp:141] Setting up pool2/3x3_s2_pool2/3x3_s2_0_split
I0602 17:04:25.580294  8321 net.cpp:148] Top shape: 128 192 28 28 (19267584)
I0602 17:04:25.580305  8321 net.cpp:148] Top shape: 128 192 28 28 (19267584)
I0602 17:04:25.580315  8321 net.cpp:148] Top shape: 128 192 28 28 (19267584)
I0602 17:04:25.580325  8321 net.cpp:148] Top shape: 128 192 28 28 (19267584)
I0602 17:04:25.580335  8321 net.cpp:156] Memory required for data: 2620391936
I0602 17:04:25.580343  8321 layer_factory.hpp:77] Creating layer inception_3a/1x1
I0602 17:04:25.580361  8321 net.cpp:91] Creating Layer inception_3a/1x1
I0602 17:04:25.580369  8321 net.cpp:425] inception_3a/1x1 <- pool2/3x3_s2_pool2/3x3_s2_0_split_0
I0602 17:04:25.580382  8321 net.cpp:399] inception_3a/1x1 -> inception_3a/1x1
I0602 17:04:25.581159  8321 net.cpp:141] Setting up inception_3a/1x1
I0602 17:04:25.581177  8321 net.cpp:148] Top shape: 128 64 28 28 (6422528)
I0602 17:04:25.581185  8321 net.cpp:156] Memory required for data: 2646082048
I0602 17:04:25.581200  8321 layer_factory.hpp:77] Creating layer inception_3a/relu_1x1
I0602 17:04:25.581213  8321 net.cpp:91] Creating Layer inception_3a/relu_1x1
I0602 17:04:25.581225  8321 net.cpp:425] inception_3a/relu_1x1 <- inception_3a/1x1
I0602 17:04:25.581238  8321 net.cpp:386] inception_3a/relu_1x1 -> inception_3a/1x1 (in-place)
I0602 17:04:25.581255  8321 net.cpp:141] Setting up inception_3a/relu_1x1
I0602 17:04:25.581267  8321 net.cpp:148] Top shape: 128 64 28 28 (6422528)
I0602 17:04:25.581276  8321 net.cpp:156] Memory required for data: 2671772160
I0602 17:04:25.581284  8321 layer_factory.hpp:77] Creating layer inception_3a/3x3_reduce
I0602 17:04:25.581301  8321 net.cpp:91] Creating Layer inception_3a/3x3_reduce
I0602 17:04:25.581310  8321 net.cpp:425] inception_3a/3x3_reduce <- pool2/3x3_s2_pool2/3x3_s2_0_split_1
I0602 17:04:25.581324  8321 net.cpp:399] inception_3a/3x3_reduce -> inception_3a/3x3_reduce
I0602 17:04:25.588837  8321 net.cpp:141] Setting up inception_3a/3x3_reduce
I0602 17:04:25.588889  8321 net.cpp:148] Top shape: 128 96 28 28 (9633792)
I0602 17:04:25.588907  8321 net.cpp:156] Memory required for data: 2710307328
I0602 17:04:25.588948  8321 layer_factory.hpp:77] Creating layer inception_3a/relu_3x3_reduce
I0602 17:04:25.588976  8321 net.cpp:91] Creating Layer inception_3a/relu_3x3_reduce
I0602 17:04:25.589004  8321 net.cpp:425] inception_3a/relu_3x3_reduce <- inception_3a/3x3_reduce
I0602 17:04:25.589030  8321 net.cpp:386] inception_3a/relu_3x3_reduce -> inception_3a/3x3_reduce (in-place)
I0602 17:04:25.589064  8321 net.cpp:141] Setting up inception_3a/relu_3x3_reduce
I0602 17:04:25.589087  8321 net.cpp:148] Top shape: 128 96 28 28 (9633792)
I0602 17:04:25.589102  8321 net.cpp:156] Memory required for data: 2748842496
I0602 17:04:25.589118  8321 layer_factory.hpp:77] Creating layer inception_3a/3x3
I0602 17:04:25.589165  8321 net.cpp:91] Creating Layer inception_3a/3x3
I0602 17:04:25.589174  8321 net.cpp:425] inception_3a/3x3 <- inception_3a/3x3_reduce
I0602 17:04:25.589189  8321 net.cpp:399] inception_3a/3x3 -> inception_3a/3x3
I0602 17:04:25.590247  8321 net.cpp:141] Setting up inception_3a/3x3
I0602 17:04:25.590265  8321 net.cpp:148] Top shape: 128 128 28 28 (12845056)
I0602 17:04:25.590273  8321 net.cpp:156] Memory required for data: 2800222720
I0602 17:04:25.590287  8321 layer_factory.hpp:77] Creating layer inception_3a/relu_3x3
I0602 17:04:25.590302  8321 net.cpp:91] Creating Layer inception_3a/relu_3x3
I0602 17:04:25.590312  8321 net.cpp:425] inception_3a/relu_3x3 <- inception_3a/3x3
I0602 17:04:25.590323  8321 net.cpp:386] inception_3a/relu_3x3 -> inception_3a/3x3 (in-place)
I0602 17:04:25.590338  8321 net.cpp:141] Setting up inception_3a/relu_3x3
I0602 17:04:25.590349  8321 net.cpp:148] Top shape: 128 128 28 28 (12845056)
I0602 17:04:25.590358  8321 net.cpp:156] Memory required for data: 2851602944
I0602 17:04:25.590366  8321 layer_factory.hpp:77] Creating layer inception_3a/5x5_reduce
I0602 17:04:25.590384  8321 net.cpp:91] Creating Layer inception_3a/5x5_reduce
I0602 17:04:25.590391  8321 net.cpp:425] inception_3a/5x5_reduce <- pool2/3x3_s2_pool2/3x3_s2_0_split_2
I0602 17:04:25.590426  8321 net.cpp:399] inception_3a/5x5_reduce -> inception_3a/5x5_reduce
I0602 17:04:25.590673  8321 net.cpp:141] Setting up inception_3a/5x5_reduce
I0602 17:04:25.590688  8321 net.cpp:148] Top shape: 128 16 28 28 (1605632)
I0602 17:04:25.590698  8321 net.cpp:156] Memory required for data: 2858025472
I0602 17:04:25.590710  8321 layer_factory.hpp:77] Creating layer inception_3a/relu_5x5_reduce
I0602 17:04:25.590723  8321 net.cpp:91] Creating Layer inception_3a/relu_5x5_reduce
I0602 17:04:25.590734  8321 net.cpp:425] inception_3a/relu_5x5_reduce <- inception_3a/5x5_reduce
I0602 17:04:25.590744  8321 net.cpp:386] inception_3a/relu_5x5_reduce -> inception_3a/5x5_reduce (in-place)
I0602 17:04:25.590759  8321 net.cpp:141] Setting up inception_3a/relu_5x5_reduce
I0602 17:04:25.590770  8321 net.cpp:148] Top shape: 128 16 28 28 (1605632)
I0602 17:04:25.590778  8321 net.cpp:156] Memory required for data: 2864448000
I0602 17:04:25.590786  8321 layer_factory.hpp:77] Creating layer inception_3a/5x5
I0602 17:04:25.590801  8321 net.cpp:91] Creating Layer inception_3a/5x5
I0602 17:04:25.590809  8321 net.cpp:425] inception_3a/5x5 <- inception_3a/5x5_reduce
I0602 17:04:25.590822  8321 net.cpp:399] inception_3a/5x5 -> inception_3a/5x5
I0602 17:04:25.591123  8321 net.cpp:141] Setting up inception_3a/5x5
I0602 17:04:25.591136  8321 net.cpp:148] Top shape: 128 32 28 28 (3211264)
I0602 17:04:25.591145  8321 net.cpp:156] Memory required for data: 2877293056
I0602 17:04:25.591157  8321 layer_factory.hpp:77] Creating layer inception_3a/relu_5x5
I0602 17:04:25.591168  8321 net.cpp:91] Creating Layer inception_3a/relu_5x5
I0602 17:04:25.591178  8321 net.cpp:425] inception_3a/relu_5x5 <- inception_3a/5x5
I0602 17:04:25.591189  8321 net.cpp:386] inception_3a/relu_5x5 -> inception_3a/5x5 (in-place)
I0602 17:04:25.591203  8321 net.cpp:141] Setting up inception_3a/relu_5x5
I0602 17:04:25.591214  8321 net.cpp:148] Top shape: 128 32 28 28 (3211264)
I0602 17:04:25.591223  8321 net.cpp:156] Memory required for data: 2890138112
I0602 17:04:25.591231  8321 layer_factory.hpp:77] Creating layer inception_3a/pool
I0602 17:04:25.591243  8321 net.cpp:91] Creating Layer inception_3a/pool
I0602 17:04:25.591253  8321 net.cpp:425] inception_3a/pool <- pool2/3x3_s2_pool2/3x3_s2_0_split_3
I0602 17:04:25.591264  8321 net.cpp:399] inception_3a/pool -> inception_3a/pool
I0602 17:04:25.591307  8321 net.cpp:141] Setting up inception_3a/pool
I0602 17:04:25.591320  8321 net.cpp:148] Top shape: 128 192 28 28 (19267584)
I0602 17:04:25.591326  8321 net.cpp:156] Memory required for data: 2967208448
I0602 17:04:25.591334  8321 layer_factory.hpp:77] Creating layer inception_3a/pool_proj
I0602 17:04:25.591351  8321 net.cpp:91] Creating Layer inception_3a/pool_proj
I0602 17:04:25.591358  8321 net.cpp:425] inception_3a/pool_proj <- inception_3a/pool
I0602 17:04:25.591370  8321 net.cpp:399] inception_3a/pool_proj -> inception_3a/pool_proj
I0602 17:04:25.591617  8321 net.cpp:141] Setting up inception_3a/pool_proj
I0602 17:04:25.591630  8321 net.cpp:148] Top shape: 128 32 28 28 (3211264)
I0602 17:04:25.591639  8321 net.cpp:156] Memory required for data: 2980053504
I0602 17:04:25.591657  8321 layer_factory.hpp:77] Creating layer inception_3a/relu_pool_proj
I0602 17:04:25.591670  8321 net.cpp:91] Creating Layer inception_3a/relu_pool_proj
I0602 17:04:25.591680  8321 net.cpp:425] inception_3a/relu_pool_proj <- inception_3a/pool_proj
I0602 17:04:25.591691  8321 net.cpp:386] inception_3a/relu_pool_proj -> inception_3a/pool_proj (in-place)
I0602 17:04:25.591704  8321 net.cpp:141] Setting up inception_3a/relu_pool_proj
I0602 17:04:25.591716  8321 net.cpp:148] Top shape: 128 32 28 28 (3211264)
I0602 17:04:25.591724  8321 net.cpp:156] Memory required for data: 2992898560
I0602 17:04:25.591732  8321 layer_factory.hpp:77] Creating layer inception_3a/output
I0602 17:04:25.591742  8321 net.cpp:91] Creating Layer inception_3a/output
I0602 17:04:25.591752  8321 net.cpp:425] inception_3a/output <- inception_3a/1x1
I0602 17:04:25.591761  8321 net.cpp:425] inception_3a/output <- inception_3a/3x3
I0602 17:04:25.591783  8321 net.cpp:425] inception_3a/output <- inception_3a/5x5
I0602 17:04:25.591794  8321 net.cpp:425] inception_3a/output <- inception_3a/pool_proj
I0602 17:04:25.591807  8321 net.cpp:399] inception_3a/output -> inception_3a/output
I0602 17:04:25.591841  8321 net.cpp:141] Setting up inception_3a/output
I0602 17:04:25.591853  8321 net.cpp:148] Top shape: 128 256 28 28 (25690112)
I0602 17:04:25.591861  8321 net.cpp:156] Memory required for data: 3095659008
I0602 17:04:25.591869  8321 layer_factory.hpp:77] Creating layer inception_3a/output_inception_3a/output_0_split
I0602 17:04:25.591883  8321 net.cpp:91] Creating Layer inception_3a/output_inception_3a/output_0_split
I0602 17:04:25.591892  8321 net.cpp:425] inception_3a/output_inception_3a/output_0_split <- inception_3a/output
I0602 17:04:25.591903  8321 net.cpp:399] inception_3a/output_inception_3a/output_0_split -> inception_3a/output_inception_3a/output_0_split_0
I0602 17:04:25.591918  8321 net.cpp:399] inception_3a/output_inception_3a/output_0_split -> inception_3a/output_inception_3a/output_0_split_1
I0602 17:04:25.591933  8321 net.cpp:399] inception_3a/output_inception_3a/output_0_split -> inception_3a/output_inception_3a/output_0_split_2
I0602 17:04:25.591948  8321 net.cpp:399] inception_3a/output_inception_3a/output_0_split -> inception_3a/output_inception_3a/output_0_split_3
I0602 17:04:25.592005  8321 net.cpp:141] Setting up inception_3a/output_inception_3a/output_0_split
I0602 17:04:25.592017  8321 net.cpp:148] Top shape: 128 256 28 28 (25690112)
I0602 17:04:25.592027  8321 net.cpp:148] Top shape: 128 256 28 28 (25690112)
I0602 17:04:25.592037  8321 net.cpp:148] Top shape: 128 256 28 28 (25690112)
I0602 17:04:25.592047  8321 net.cpp:148] Top shape: 128 256 28 28 (25690112)
I0602 17:04:25.592056  8321 net.cpp:156] Memory required for data: 3506700800
I0602 17:04:25.592063  8321 layer_factory.hpp:77] Creating layer inception_3b/1x1
I0602 17:04:25.592079  8321 net.cpp:91] Creating Layer inception_3b/1x1
I0602 17:04:25.592087  8321 net.cpp:425] inception_3b/1x1 <- inception_3a/output_inception_3a/output_0_split_0
I0602 17:04:25.592100  8321 net.cpp:399] inception_3b/1x1 -> inception_3b/1x1
I0602 17:04:25.592555  8321 net.cpp:141] Setting up inception_3b/1x1
I0602 17:04:25.592569  8321 net.cpp:148] Top shape: 128 128 28 28 (12845056)
I0602 17:04:25.592577  8321 net.cpp:156] Memory required for data: 3558081024
I0602 17:04:25.592591  8321 layer_factory.hpp:77] Creating layer inception_3b/relu_1x1
I0602 17:04:25.592602  8321 net.cpp:91] Creating Layer inception_3b/relu_1x1
I0602 17:04:25.592612  8321 net.cpp:425] inception_3b/relu_1x1 <- inception_3b/1x1
I0602 17:04:25.592622  8321 net.cpp:386] inception_3b/relu_1x1 -> inception_3b/1x1 (in-place)
I0602 17:04:25.592635  8321 net.cpp:141] Setting up inception_3b/relu_1x1
I0602 17:04:25.592648  8321 net.cpp:148] Top shape: 128 128 28 28 (12845056)
I0602 17:04:25.592655  8321 net.cpp:156] Memory required for data: 3609461248
I0602 17:04:25.592664  8321 layer_factory.hpp:77] Creating layer inception_3b/3x3_reduce
I0602 17:04:25.592679  8321 net.cpp:91] Creating Layer inception_3b/3x3_reduce
I0602 17:04:25.592686  8321 net.cpp:425] inception_3b/3x3_reduce <- inception_3a/output_inception_3a/output_0_split_1
I0602 17:04:25.592700  8321 net.cpp:399] inception_3b/3x3_reduce -> inception_3b/3x3_reduce
I0602 17:04:25.593154  8321 net.cpp:141] Setting up inception_3b/3x3_reduce
I0602 17:04:25.593168  8321 net.cpp:148] Top shape: 128 128 28 28 (12845056)
I0602 17:04:25.593176  8321 net.cpp:156] Memory required for data: 3660841472
I0602 17:04:25.593189  8321 layer_factory.hpp:77] Creating layer inception_3b/relu_3x3_reduce
I0602 17:04:25.593200  8321 net.cpp:91] Creating Layer inception_3b/relu_3x3_reduce
I0602 17:04:25.593210  8321 net.cpp:425] inception_3b/relu_3x3_reduce <- inception_3b/3x3_reduce
I0602 17:04:25.593221  8321 net.cpp:386] inception_3b/relu_3x3_reduce -> inception_3b/3x3_reduce (in-place)
I0602 17:04:25.593235  8321 net.cpp:141] Setting up inception_3b/relu_3x3_reduce
I0602 17:04:25.593257  8321 net.cpp:148] Top shape: 128 128 28 28 (12845056)
I0602 17:04:25.593266  8321 net.cpp:156] Memory required for data: 3712221696
I0602 17:04:25.593276  8321 layer_factory.hpp:77] Creating layer inception_3b/3x3
I0602 17:04:25.593292  8321 net.cpp:91] Creating Layer inception_3b/3x3
I0602 17:04:25.593300  8321 net.cpp:425] inception_3b/3x3 <- inception_3b/3x3_reduce
I0602 17:04:25.593313  8321 net.cpp:399] inception_3b/3x3 -> inception_3b/3x3
I0602 17:04:25.595665  8321 net.cpp:141] Setting up inception_3b/3x3
I0602 17:04:25.595690  8321 net.cpp:148] Top shape: 128 192 28 28 (19267584)
I0602 17:04:25.595697  8321 net.cpp:156] Memory required for data: 3789292032
I0602 17:04:25.595710  8321 layer_factory.hpp:77] Creating layer inception_3b/relu_3x3
I0602 17:04:25.595729  8321 net.cpp:91] Creating Layer inception_3b/relu_3x3
I0602 17:04:25.595739  8321 net.cpp:425] inception_3b/relu_3x3 <- inception_3b/3x3
I0602 17:04:25.595753  8321 net.cpp:386] inception_3b/relu_3x3 -> inception_3b/3x3 (in-place)
I0602 17:04:25.595769  8321 net.cpp:141] Setting up inception_3b/relu_3x3
I0602 17:04:25.595779  8321 net.cpp:148] Top shape: 128 192 28 28 (19267584)
I0602 17:04:25.595788  8321 net.cpp:156] Memory required for data: 3866362368
I0602 17:04:25.595795  8321 layer_factory.hpp:77] Creating layer inception_3b/5x5_reduce
I0602 17:04:25.595811  8321 net.cpp:91] Creating Layer inception_3b/5x5_reduce
I0602 17:04:25.595819  8321 net.cpp:425] inception_3b/5x5_reduce <- inception_3a/output_inception_3a/output_0_split_2
I0602 17:04:25.595832  8321 net.cpp:399] inception_3b/5x5_reduce -> inception_3b/5x5_reduce
I0602 17:04:25.596102  8321 net.cpp:141] Setting up inception_3b/5x5_reduce
I0602 17:04:25.596117  8321 net.cpp:148] Top shape: 128 32 28 28 (3211264)
I0602 17:04:25.596124  8321 net.cpp:156] Memory required for data: 3879207424
I0602 17:04:25.596138  8321 layer_factory.hpp:77] Creating layer inception_3b/relu_5x5_reduce
I0602 17:04:25.596148  8321 net.cpp:91] Creating Layer inception_3b/relu_5x5_reduce
I0602 17:04:25.596158  8321 net.cpp:425] inception_3b/relu_5x5_reduce <- inception_3b/5x5_reduce
I0602 17:04:25.596169  8321 net.cpp:386] inception_3b/relu_5x5_reduce -> inception_3b/5x5_reduce (in-place)
I0602 17:04:25.596184  8321 net.cpp:141] Setting up inception_3b/relu_5x5_reduce
I0602 17:04:25.596195  8321 net.cpp:148] Top shape: 128 32 28 28 (3211264)
I0602 17:04:25.596204  8321 net.cpp:156] Memory required for data: 3892052480
I0602 17:04:25.596212  8321 layer_factory.hpp:77] Creating layer inception_3b/5x5
I0602 17:04:25.596228  8321 net.cpp:91] Creating Layer inception_3b/5x5
I0602 17:04:25.596236  8321 net.cpp:425] inception_3b/5x5 <- inception_3b/5x5_reduce
I0602 17:04:25.596248  8321 net.cpp:399] inception_3b/5x5 -> inception_3b/5x5
I0602 17:04:25.597683  8321 net.cpp:141] Setting up inception_3b/5x5
I0602 17:04:25.597703  8321 net.cpp:148] Top shape: 128 96 28 28 (9633792)
I0602 17:04:25.597712  8321 net.cpp:156] Memory required for data: 3930587648
I0602 17:04:25.597724  8321 layer_factory.hpp:77] Creating layer inception_3b/relu_5x5
I0602 17:04:25.597738  8321 net.cpp:91] Creating Layer inception_3b/relu_5x5
I0602 17:04:25.597746  8321 net.cpp:425] inception_3b/relu_5x5 <- inception_3b/5x5
I0602 17:04:25.597757  8321 net.cpp:386] inception_3b/relu_5x5 -> inception_3b/5x5 (in-place)
I0602 17:04:25.597774  8321 net.cpp:141] Setting up inception_3b/relu_5x5
I0602 17:04:25.597786  8321 net.cpp:148] Top shape: 128 96 28 28 (9633792)
I0602 17:04:25.597795  8321 net.cpp:156] Memory required for data: 3969122816
I0602 17:04:25.597802  8321 layer_factory.hpp:77] Creating layer inception_3b/pool
I0602 17:04:25.597815  8321 net.cpp:91] Creating Layer inception_3b/pool
I0602 17:04:25.597825  8321 net.cpp:425] inception_3b/pool <- inception_3a/output_inception_3a/output_0_split_3
I0602 17:04:25.597836  8321 net.cpp:399] inception_3b/pool -> inception_3b/pool
I0602 17:04:25.597882  8321 net.cpp:141] Setting up inception_3b/pool
I0602 17:04:25.597894  8321 net.cpp:148] Top shape: 128 256 28 28 (25690112)
I0602 17:04:25.597920  8321 net.cpp:156] Memory required for data: 4071883264
I0602 17:04:25.597931  8321 layer_factory.hpp:77] Creating layer inception_3b/pool_proj
I0602 17:04:25.597949  8321 net.cpp:91] Creating Layer inception_3b/pool_proj
I0602 17:04:25.597956  8321 net.cpp:425] inception_3b/pool_proj <- inception_3b/pool
I0602 17:04:25.597970  8321 net.cpp:399] inception_3b/pool_proj -> inception_3b/pool_proj
I0602 17:04:25.598315  8321 net.cpp:141] Setting up inception_3b/pool_proj
I0602 17:04:25.598330  8321 net.cpp:148] Top shape: 128 64 28 28 (6422528)
I0602 17:04:25.598338  8321 net.cpp:156] Memory required for data: 4097573376
I0602 17:04:25.598351  8321 layer_factory.hpp:77] Creating layer inception_3b/relu_pool_proj
I0602 17:04:25.598362  8321 net.cpp:91] Creating Layer inception_3b/relu_pool_proj
I0602 17:04:25.598373  8321 net.cpp:425] inception_3b/relu_pool_proj <- inception_3b/pool_proj
I0602 17:04:25.598384  8321 net.cpp:386] inception_3b/relu_pool_proj -> inception_3b/pool_proj (in-place)
I0602 17:04:25.598398  8321 net.cpp:141] Setting up inception_3b/relu_pool_proj
I0602 17:04:25.598410  8321 net.cpp:148] Top shape: 128 64 28 28 (6422528)
I0602 17:04:25.598418  8321 net.cpp:156] Memory required for data: 4123263488
I0602 17:04:25.598426  8321 layer_factory.hpp:77] Creating layer inception_3b/output
I0602 17:04:25.598438  8321 net.cpp:91] Creating Layer inception_3b/output
I0602 17:04:25.598446  8321 net.cpp:425] inception_3b/output <- inception_3b/1x1
I0602 17:04:25.598456  8321 net.cpp:425] inception_3b/output <- inception_3b/3x3
I0602 17:04:25.598467  8321 net.cpp:425] inception_3b/output <- inception_3b/5x5
I0602 17:04:25.598477  8321 net.cpp:425] inception_3b/output <- inception_3b/pool_proj
I0602 17:04:25.598495  8321 net.cpp:399] inception_3b/output -> inception_3b/output
I0602 17:04:25.598536  8321 net.cpp:141] Setting up inception_3b/output
I0602 17:04:25.598549  8321 net.cpp:148] Top shape: 128 480 28 28 (48168960)
I0602 17:04:25.598557  8321 net.cpp:156] Memory required for data: 4315939328
I0602 17:04:25.598565  8321 layer_factory.hpp:77] Creating layer pool3/3x3_s2
I0602 17:04:25.598577  8321 net.cpp:91] Creating Layer pool3/3x3_s2
I0602 17:04:25.598587  8321 net.cpp:425] pool3/3x3_s2 <- inception_3b/output
I0602 17:04:25.598598  8321 net.cpp:399] pool3/3x3_s2 -> pool3/3x3_s2
I0602 17:04:25.598639  8321 net.cpp:141] Setting up pool3/3x3_s2
I0602 17:04:25.598651  8321 net.cpp:148] Top shape: 128 480 14 14 (12042240)
I0602 17:04:25.598659  8321 net.cpp:156] Memory required for data: 4364108288
I0602 17:04:25.598666  8321 layer_factory.hpp:77] Creating layer pool3/3x3_s2_pool3/3x3_s2_0_split
I0602 17:04:25.598677  8321 net.cpp:91] Creating Layer pool3/3x3_s2_pool3/3x3_s2_0_split
I0602 17:04:25.598687  8321 net.cpp:425] pool3/3x3_s2_pool3/3x3_s2_0_split <- pool3/3x3_s2
I0602 17:04:25.598698  8321 net.cpp:399] pool3/3x3_s2_pool3/3x3_s2_0_split -> pool3/3x3_s2_pool3/3x3_s2_0_split_0
I0602 17:04:25.598713  8321 net.cpp:399] pool3/3x3_s2_pool3/3x3_s2_0_split -> pool3/3x3_s2_pool3/3x3_s2_0_split_1
I0602 17:04:25.598727  8321 net.cpp:399] pool3/3x3_s2_pool3/3x3_s2_0_split -> pool3/3x3_s2_pool3/3x3_s2_0_split_2
I0602 17:04:25.598742  8321 net.cpp:399] pool3/3x3_s2_pool3/3x3_s2_0_split -> pool3/3x3_s2_pool3/3x3_s2_0_split_3
I0602 17:04:25.598798  8321 net.cpp:141] Setting up pool3/3x3_s2_pool3/3x3_s2_0_split
I0602 17:04:25.598809  8321 net.cpp:148] Top shape: 128 480 14 14 (12042240)
I0602 17:04:25.598819  8321 net.cpp:148] Top shape: 128 480 14 14 (12042240)
I0602 17:04:25.598829  8321 net.cpp:148] Top shape: 128 480 14 14 (12042240)
I0602 17:04:25.598839  8321 net.cpp:148] Top shape: 128 480 14 14 (12042240)
I0602 17:04:25.598848  8321 net.cpp:156] Memory required for data: 4556784128
I0602 17:04:25.598857  8321 layer_factory.hpp:77] Creating layer inception_4a/1x1
I0602 17:04:25.598875  8321 net.cpp:91] Creating Layer inception_4a/1x1
I0602 17:04:25.598882  8321 net.cpp:425] inception_4a/1x1 <- pool3/3x3_s2_pool3/3x3_s2_0_split_0
I0602 17:04:25.598896  8321 net.cpp:399] inception_4a/1x1 -> inception_4a/1x1
I0602 17:04:25.599792  8321 net.cpp:141] Setting up inception_4a/1x1
I0602 17:04:25.599807  8321 net.cpp:148] Top shape: 128 192 14 14 (4816896)
I0602 17:04:25.599814  8321 net.cpp:156] Memory required for data: 4576051712
I0602 17:04:25.599828  8321 layer_factory.hpp:77] Creating layer inception_4a/relu_1x1
I0602 17:04:25.599839  8321 net.cpp:91] Creating Layer inception_4a/relu_1x1
I0602 17:04:25.599849  8321 net.cpp:425] inception_4a/relu_1x1 <- inception_4a/1x1
I0602 17:04:25.599860  8321 net.cpp:386] inception_4a/relu_1x1 -> inception_4a/1x1 (in-place)
I0602 17:04:25.599874  8321 net.cpp:141] Setting up inception_4a/relu_1x1
I0602 17:04:25.599885  8321 net.cpp:148] Top shape: 128 192 14 14 (4816896)
I0602 17:04:25.599894  8321 net.cpp:156] Memory required for data: 4595319296
I0602 17:04:25.599901  8321 layer_factory.hpp:77] Creating layer inception_4a/3x3_reduce
I0602 17:04:25.599916  8321 net.cpp:91] Creating Layer inception_4a/3x3_reduce
I0602 17:04:25.599925  8321 net.cpp:425] inception_4a/3x3_reduce <- pool3/3x3_s2_pool3/3x3_s2_0_split_1
I0602 17:04:25.599937  8321 net.cpp:399] inception_4a/3x3_reduce -> inception_4a/3x3_reduce
I0602 17:04:25.600495  8321 net.cpp:141] Setting up inception_4a/3x3_reduce
I0602 17:04:25.600509  8321 net.cpp:148] Top shape: 128 96 14 14 (2408448)
I0602 17:04:25.600517  8321 net.cpp:156] Memory required for data: 4604953088
I0602 17:04:25.600538  8321 layer_factory.hpp:77] Creating layer inception_4a/relu_3x3_reduce
I0602 17:04:25.600549  8321 net.cpp:91] Creating Layer inception_4a/relu_3x3_reduce
I0602 17:04:25.600559  8321 net.cpp:425] inception_4a/relu_3x3_reduce <- inception_4a/3x3_reduce
I0602 17:04:25.600570  8321 net.cpp:386] inception_4a/relu_3x3_reduce -> inception_4a/3x3_reduce (in-place)
I0602 17:04:25.600584  8321 net.cpp:141] Setting up inception_4a/relu_3x3_reduce
I0602 17:04:25.600595  8321 net.cpp:148] Top shape: 128 96 14 14 (2408448)
I0602 17:04:25.600605  8321 net.cpp:156] Memory required for data: 4614586880
I0602 17:04:25.600611  8321 layer_factory.hpp:77] Creating layer inception_4a/3x3
I0602 17:04:25.600627  8321 net.cpp:91] Creating Layer inception_4a/3x3
I0602 17:04:25.600636  8321 net.cpp:425] inception_4a/3x3 <- inception_4a/3x3_reduce
I0602 17:04:25.600648  8321 net.cpp:399] inception_4a/3x3 -> inception_4a/3x3
I0602 17:04:25.602725  8321 net.cpp:141] Setting up inception_4a/3x3
I0602 17:04:25.602751  8321 net.cpp:148] Top shape: 128 208 14 14 (5218304)
I0602 17:04:25.602761  8321 net.cpp:156] Memory required for data: 4635460096
I0602 17:04:25.602776  8321 layer_factory.hpp:77] Creating layer inception_4a/relu_3x3
I0602 17:04:25.602789  8321 net.cpp:91] Creating Layer inception_4a/relu_3x3
I0602 17:04:25.602800  8321 net.cpp:425] inception_4a/relu_3x3 <- inception_4a/3x3
I0602 17:04:25.602813  8321 net.cpp:386] inception_4a/relu_3x3 -> inception_4a/3x3 (in-place)
I0602 17:04:25.602829  8321 net.cpp:141] Setting up inception_4a/relu_3x3
I0602 17:04:25.602839  8321 net.cpp:148] Top shape: 128 208 14 14 (5218304)
I0602 17:04:25.602849  8321 net.cpp:156] Memory required for data: 4656333312
I0602 17:04:25.602855  8321 layer_factory.hpp:77] Creating layer inception_4a/5x5_reduce
I0602 17:04:25.602872  8321 net.cpp:91] Creating Layer inception_4a/5x5_reduce
I0602 17:04:25.602881  8321 net.cpp:425] inception_4a/5x5_reduce <- pool3/3x3_s2_pool3/3x3_s2_0_split_2
I0602 17:04:25.602895  8321 net.cpp:399] inception_4a/5x5_reduce -> inception_4a/5x5_reduce
I0602 17:04:25.603174  8321 net.cpp:141] Setting up inception_4a/5x5_reduce
I0602 17:04:25.603188  8321 net.cpp:148] Top shape: 128 16 14 14 (401408)
I0602 17:04:25.603196  8321 net.cpp:156] Memory required for data: 4657938944
I0602 17:04:25.603209  8321 layer_factory.hpp:77] Creating layer inception_4a/relu_5x5_reduce
I0602 17:04:25.603220  8321 net.cpp:91] Creating Layer inception_4a/relu_5x5_reduce
I0602 17:04:25.603230  8321 net.cpp:425] inception_4a/relu_5x5_reduce <- inception_4a/5x5_reduce
I0602 17:04:25.603241  8321 net.cpp:386] inception_4a/relu_5x5_reduce -> inception_4a/5x5_reduce (in-place)
I0602 17:04:25.603272  8321 net.cpp:141] Setting up inception_4a/relu_5x5_reduce
I0602 17:04:25.603283  8321 net.cpp:148] Top shape: 128 16 14 14 (401408)
I0602 17:04:25.603292  8321 net.cpp:156] Memory required for data: 4659544576
I0602 17:04:25.603301  8321 layer_factory.hpp:77] Creating layer inception_4a/5x5
I0602 17:04:25.603317  8321 net.cpp:91] Creating Layer inception_4a/5x5
I0602 17:04:25.603324  8321 net.cpp:425] inception_4a/5x5 <- inception_4a/5x5_reduce
I0602 17:04:25.603338  8321 net.cpp:399] inception_4a/5x5 -> inception_4a/5x5
I0602 17:04:25.603693  8321 net.cpp:141] Setting up inception_4a/5x5
I0602 17:04:25.603706  8321 net.cpp:148] Top shape: 128 48 14 14 (1204224)
I0602 17:04:25.603714  8321 net.cpp:156] Memory required for data: 4664361472
I0602 17:04:25.603727  8321 layer_factory.hpp:77] Creating layer inception_4a/relu_5x5
I0602 17:04:25.603739  8321 net.cpp:91] Creating Layer inception_4a/relu_5x5
I0602 17:04:25.603749  8321 net.cpp:425] inception_4a/relu_5x5 <- inception_4a/5x5
I0602 17:04:25.603760  8321 net.cpp:386] inception_4a/relu_5x5 -> inception_4a/5x5 (in-place)
I0602 17:04:25.603772  8321 net.cpp:141] Setting up inception_4a/relu_5x5
I0602 17:04:25.603783  8321 net.cpp:148] Top shape: 128 48 14 14 (1204224)
I0602 17:04:25.603792  8321 net.cpp:156] Memory required for data: 4669178368
I0602 17:04:25.603799  8321 layer_factory.hpp:77] Creating layer inception_4a/pool
I0602 17:04:25.603811  8321 net.cpp:91] Creating Layer inception_4a/pool
I0602 17:04:25.603821  8321 net.cpp:425] inception_4a/pool <- pool3/3x3_s2_pool3/3x3_s2_0_split_3
I0602 17:04:25.603832  8321 net.cpp:399] inception_4a/pool -> inception_4a/pool
I0602 17:04:25.603876  8321 net.cpp:141] Setting up inception_4a/pool
I0602 17:04:25.603888  8321 net.cpp:148] Top shape: 128 480 14 14 (12042240)
I0602 17:04:25.603895  8321 net.cpp:156] Memory required for data: 4717347328
I0602 17:04:25.603904  8321 layer_factory.hpp:77] Creating layer inception_4a/pool_proj
I0602 17:04:25.603919  8321 net.cpp:91] Creating Layer inception_4a/pool_proj
I0602 17:04:25.603927  8321 net.cpp:425] inception_4a/pool_proj <- inception_4a/pool
I0602 17:04:25.603940  8321 net.cpp:399] inception_4a/pool_proj -> inception_4a/pool_proj
I0602 17:04:25.604374  8321 net.cpp:141] Setting up inception_4a/pool_proj
I0602 17:04:25.604388  8321 net.cpp:148] Top shape: 128 64 14 14 (1605632)
I0602 17:04:25.604395  8321 net.cpp:156] Memory required for data: 4723769856
I0602 17:04:25.604408  8321 layer_factory.hpp:77] Creating layer inception_4a/relu_pool_proj
I0602 17:04:25.604419  8321 net.cpp:91] Creating Layer inception_4a/relu_pool_proj
I0602 17:04:25.604429  8321 net.cpp:425] inception_4a/relu_pool_proj <- inception_4a/pool_proj
I0602 17:04:25.604440  8321 net.cpp:386] inception_4a/relu_pool_proj -> inception_4a/pool_proj (in-place)
I0602 17:04:25.604454  8321 net.cpp:141] Setting up inception_4a/relu_pool_proj
I0602 17:04:25.604465  8321 net.cpp:148] Top shape: 128 64 14 14 (1605632)
I0602 17:04:25.604473  8321 net.cpp:156] Memory required for data: 4730192384
I0602 17:04:25.604481  8321 layer_factory.hpp:77] Creating layer inception_4a/output
I0602 17:04:25.604493  8321 net.cpp:91] Creating Layer inception_4a/output
I0602 17:04:25.604501  8321 net.cpp:425] inception_4a/output <- inception_4a/1x1
I0602 17:04:25.604511  8321 net.cpp:425] inception_4a/output <- inception_4a/3x3
I0602 17:04:25.604522  8321 net.cpp:425] inception_4a/output <- inception_4a/5x5
I0602 17:04:25.604532  8321 net.cpp:425] inception_4a/output <- inception_4a/pool_proj
I0602 17:04:25.604543  8321 net.cpp:399] inception_4a/output -> inception_4a/output
I0602 17:04:25.604576  8321 net.cpp:141] Setting up inception_4a/output
I0602 17:04:25.604588  8321 net.cpp:148] Top shape: 128 512 14 14 (12845056)
I0602 17:04:25.604595  8321 net.cpp:156] Memory required for data: 4781572608
I0602 17:04:25.604604  8321 layer_factory.hpp:77] Creating layer inception_4a/output_inception_4a/output_0_split
I0602 17:04:25.604614  8321 net.cpp:91] Creating Layer inception_4a/output_inception_4a/output_0_split
I0602 17:04:25.604635  8321 net.cpp:425] inception_4a/output_inception_4a/output_0_split <- inception_4a/output
I0602 17:04:25.604648  8321 net.cpp:399] inception_4a/output_inception_4a/output_0_split -> inception_4a/output_inception_4a/output_0_split_0
I0602 17:04:25.604663  8321 net.cpp:399] inception_4a/output_inception_4a/output_0_split -> inception_4a/output_inception_4a/output_0_split_1
I0602 17:04:25.604677  8321 net.cpp:399] inception_4a/output_inception_4a/output_0_split -> inception_4a/output_inception_4a/output_0_split_2
I0602 17:04:25.604691  8321 net.cpp:399] inception_4a/output_inception_4a/output_0_split -> inception_4a/output_inception_4a/output_0_split_3
I0602 17:04:25.604753  8321 net.cpp:141] Setting up inception_4a/output_inception_4a/output_0_split
I0602 17:04:25.604765  8321 net.cpp:148] Top shape: 128 512 14 14 (12845056)
I0602 17:04:25.604775  8321 net.cpp:148] Top shape: 128 512 14 14 (12845056)
I0602 17:04:25.604785  8321 net.cpp:148] Top shape: 128 512 14 14 (12845056)
I0602 17:04:25.604796  8321 net.cpp:148] Top shape: 128 512 14 14 (12845056)
I0602 17:04:25.604805  8321 net.cpp:156] Memory required for data: 4987093504
I0602 17:04:25.604814  8321 layer_factory.hpp:77] Creating layer inception_4b/1x1
I0602 17:04:25.604830  8321 net.cpp:91] Creating Layer inception_4b/1x1
I0602 17:04:25.604837  8321 net.cpp:425] inception_4b/1x1 <- inception_4a/output_inception_4a/output_0_split_0
I0602 17:04:25.604851  8321 net.cpp:399] inception_4b/1x1 -> inception_4b/1x1
I0602 17:04:25.605665  8321 net.cpp:141] Setting up inception_4b/1x1
I0602 17:04:25.605679  8321 net.cpp:148] Top shape: 128 160 14 14 (4014080)
I0602 17:04:25.605687  8321 net.cpp:156] Memory required for data: 5003149824
I0602 17:04:25.605700  8321 layer_factory.hpp:77] Creating layer inception_4b/relu_1x1
I0602 17:04:25.605711  8321 net.cpp:91] Creating Layer inception_4b/relu_1x1
I0602 17:04:25.605721  8321 net.cpp:425] inception_4b/relu_1x1 <- inception_4b/1x1
I0602 17:04:25.605732  8321 net.cpp:386] inception_4b/relu_1x1 -> inception_4b/1x1 (in-place)
I0602 17:04:25.605746  8321 net.cpp:141] Setting up inception_4b/relu_1x1
I0602 17:04:25.605757  8321 net.cpp:148] Top shape: 128 160 14 14 (4014080)
I0602 17:04:25.605765  8321 net.cpp:156] Memory required for data: 5019206144
I0602 17:04:25.605773  8321 layer_factory.hpp:77] Creating layer inception_4b/3x3_reduce
I0602 17:04:25.605798  8321 net.cpp:91] Creating Layer inception_4b/3x3_reduce
I0602 17:04:25.605806  8321 net.cpp:425] inception_4b/3x3_reduce <- inception_4a/output_inception_4a/output_0_split_1
I0602 17:04:25.605819  8321 net.cpp:399] inception_4b/3x3_reduce -> inception_4b/3x3_reduce
I0602 17:04:25.606474  8321 net.cpp:141] Setting up inception_4b/3x3_reduce
I0602 17:04:25.606490  8321 net.cpp:148] Top shape: 128 112 14 14 (2809856)
I0602 17:04:25.606498  8321 net.cpp:156] Memory required for data: 5030445568
I0602 17:04:25.606510  8321 layer_factory.hpp:77] Creating layer inception_4b/relu_3x3_reduce
I0602 17:04:25.606521  8321 net.cpp:91] Creating Layer inception_4b/relu_3x3_reduce
I0602 17:04:25.606531  8321 net.cpp:425] inception_4b/relu_3x3_reduce <- inception_4b/3x3_reduce
I0602 17:04:25.606545  8321 net.cpp:386] inception_4b/relu_3x3_reduce -> inception_4b/3x3_reduce (in-place)
I0602 17:04:25.606559  8321 net.cpp:141] Setting up inception_4b/relu_3x3_reduce
I0602 17:04:25.606571  8321 net.cpp:148] Top shape: 128 112 14 14 (2809856)
I0602 17:04:25.606580  8321 net.cpp:156] Memory required for data: 5041684992
I0602 17:04:25.606587  8321 layer_factory.hpp:77] Creating layer inception_4b/3x3
I0602 17:04:25.606606  8321 net.cpp:91] Creating Layer inception_4b/3x3
I0602 17:04:25.606612  8321 net.cpp:425] inception_4b/3x3 <- inception_4b/3x3_reduce
I0602 17:04:25.606626  8321 net.cpp:399] inception_4b/3x3 -> inception_4b/3x3
I0602 17:04:25.609036  8321 net.cpp:141] Setting up inception_4b/3x3
I0602 17:04:25.609061  8321 net.cpp:148] Top shape: 128 224 14 14 (5619712)
I0602 17:04:25.609068  8321 net.cpp:156] Memory required for data: 5064163840
I0602 17:04:25.609102  8321 layer_factory.hpp:77] Creating layer inception_4b/relu_3x3
I0602 17:04:25.609119  8321 net.cpp:91] Creating Layer inception_4b/relu_3x3
I0602 17:04:25.609130  8321 net.cpp:425] inception_4b/relu_3x3 <- inception_4b/3x3
I0602 17:04:25.609148  8321 net.cpp:386] inception_4b/relu_3x3 -> inception_4b/3x3 (in-place)
I0602 17:04:25.609163  8321 net.cpp:141] Setting up inception_4b/relu_3x3
I0602 17:04:25.609174  8321 net.cpp:148] Top shape: 128 224 14 14 (5619712)
I0602 17:04:25.609182  8321 net.cpp:156] Memory required for data: 5086642688
I0602 17:04:25.609190  8321 layer_factory.hpp:77] Creating layer inception_4b/5x5_reduce
I0602 17:04:25.609215  8321 net.cpp:91] Creating Layer inception_4b/5x5_reduce
I0602 17:04:25.609225  8321 net.cpp:425] inception_4b/5x5_reduce <- inception_4a/output_inception_4a/output_0_split_2
I0602 17:04:25.609241  8321 net.cpp:399] inception_4b/5x5_reduce -> inception_4b/5x5_reduce
I0602 17:04:25.609568  8321 net.cpp:141] Setting up inception_4b/5x5_reduce
I0602 17:04:25.609582  8321 net.cpp:148] Top shape: 128 24 14 14 (602112)
I0602 17:04:25.609591  8321 net.cpp:156] Memory required for data: 5089051136
I0602 17:04:25.609604  8321 layer_factory.hpp:77] Creating layer inception_4b/relu_5x5_reduce
I0602 17:04:25.609617  8321 net.cpp:91] Creating Layer inception_4b/relu_5x5_reduce
I0602 17:04:25.609627  8321 net.cpp:425] inception_4b/relu_5x5_reduce <- inception_4b/5x5_reduce
I0602 17:04:25.609638  8321 net.cpp:386] inception_4b/relu_5x5_reduce -> inception_4b/5x5_reduce (in-place)
I0602 17:04:25.609652  8321 net.cpp:141] Setting up inception_4b/relu_5x5_reduce
I0602 17:04:25.609663  8321 net.cpp:148] Top shape: 128 24 14 14 (602112)
I0602 17:04:25.609673  8321 net.cpp:156] Memory required for data: 5091459584
I0602 17:04:25.609679  8321 layer_factory.hpp:77] Creating layer inception_4b/5x5
I0602 17:04:25.609699  8321 net.cpp:91] Creating Layer inception_4b/5x5
I0602 17:04:25.609706  8321 net.cpp:425] inception_4b/5x5 <- inception_4b/5x5_reduce
I0602 17:04:25.609721  8321 net.cpp:399] inception_4b/5x5 -> inception_4b/5x5
I0602 17:04:25.610754  8321 net.cpp:141] Setting up inception_4b/5x5
I0602 17:04:25.610772  8321 net.cpp:148] Top shape: 128 64 14 14 (1605632)
I0602 17:04:25.610780  8321 net.cpp:156] Memory required for data: 5097882112
I0602 17:04:25.610792  8321 layer_factory.hpp:77] Creating layer inception_4b/relu_5x5
I0602 17:04:25.610805  8321 net.cpp:91] Creating Layer inception_4b/relu_5x5
I0602 17:04:25.610813  8321 net.cpp:425] inception_4b/relu_5x5 <- inception_4b/5x5
I0602 17:04:25.610824  8321 net.cpp:386] inception_4b/relu_5x5 -> inception_4b/5x5 (in-place)
I0602 17:04:25.610841  8321 net.cpp:141] Setting up inception_4b/relu_5x5
I0602 17:04:25.610852  8321 net.cpp:148] Top shape: 128 64 14 14 (1605632)
I0602 17:04:25.610860  8321 net.cpp:156] Memory required for data: 5104304640
I0602 17:04:25.610868  8321 layer_factory.hpp:77] Creating layer inception_4b/pool
I0602 17:04:25.610883  8321 net.cpp:91] Creating Layer inception_4b/pool
I0602 17:04:25.610893  8321 net.cpp:425] inception_4b/pool <- inception_4a/output_inception_4a/output_0_split_3
I0602 17:04:25.610904  8321 net.cpp:399] inception_4b/pool -> inception_4b/pool
I0602 17:04:25.610955  8321 net.cpp:141] Setting up inception_4b/pool
I0602 17:04:25.610968  8321 net.cpp:148] Top shape: 128 512 14 14 (12845056)
I0602 17:04:25.610975  8321 net.cpp:156] Memory required for data: 5155684864
I0602 17:04:25.610983  8321 layer_factory.hpp:77] Creating layer inception_4b/pool_proj
I0602 17:04:25.611001  8321 net.cpp:91] Creating Layer inception_4b/pool_proj
I0602 17:04:25.611009  8321 net.cpp:425] inception_4b/pool_proj <- inception_4b/pool
I0602 17:04:25.611022  8321 net.cpp:399] inception_4b/pool_proj -> inception_4b/pool_proj
I0602 17:04:25.611488  8321 net.cpp:141] Setting up inception_4b/pool_proj
I0602 17:04:25.611505  8321 net.cpp:148] Top shape: 128 64 14 14 (1605632)
I0602 17:04:25.611512  8321 net.cpp:156] Memory required for data: 5162107392
I0602 17:04:25.611526  8321 layer_factory.hpp:77] Creating layer inception_4b/relu_pool_proj
I0602 17:04:25.611552  8321 net.cpp:91] Creating Layer inception_4b/relu_pool_proj
I0602 17:04:25.611563  8321 net.cpp:425] inception_4b/relu_pool_proj <- inception_4b/pool_proj
I0602 17:04:25.611574  8321 net.cpp:386] inception_4b/relu_pool_proj -> inception_4b/pool_proj (in-place)
I0602 17:04:25.611588  8321 net.cpp:141] Setting up inception_4b/relu_pool_proj
I0602 17:04:25.611599  8321 net.cpp:148] Top shape: 128 64 14 14 (1605632)
I0602 17:04:25.611608  8321 net.cpp:156] Memory required for data: 5168529920
I0602 17:04:25.611616  8321 layer_factory.hpp:77] Creating layer inception_4b/output
I0602 17:04:25.611629  8321 net.cpp:91] Creating Layer inception_4b/output
I0602 17:04:25.611637  8321 net.cpp:425] inception_4b/output <- inception_4b/1x1
I0602 17:04:25.611647  8321 net.cpp:425] inception_4b/output <- inception_4b/3x3
I0602 17:04:25.611657  8321 net.cpp:425] inception_4b/output <- inception_4b/5x5
I0602 17:04:25.611665  8321 net.cpp:425] inception_4b/output <- inception_4b/pool_proj
I0602 17:04:25.611681  8321 net.cpp:399] inception_4b/output -> inception_4b/output
I0602 17:04:25.611716  8321 net.cpp:141] Setting up inception_4b/output
I0602 17:04:25.611729  8321 net.cpp:148] Top shape: 128 512 14 14 (12845056)
I0602 17:04:25.611738  8321 net.cpp:156] Memory required for data: 5219910144
I0602 17:04:25.611747  8321 layer_factory.hpp:77] Creating layer inception_4b/output_inception_4b/output_0_split
I0602 17:04:25.611757  8321 net.cpp:91] Creating Layer inception_4b/output_inception_4b/output_0_split
I0602 17:04:25.611766  8321 net.cpp:425] inception_4b/output_inception_4b/output_0_split <- inception_4b/output
I0602 17:04:25.611778  8321 net.cpp:399] inception_4b/output_inception_4b/output_0_split -> inception_4b/output_inception_4b/output_0_split_0
I0602 17:04:25.611793  8321 net.cpp:399] inception_4b/output_inception_4b/output_0_split -> inception_4b/output_inception_4b/output_0_split_1
I0602 17:04:25.611807  8321 net.cpp:399] inception_4b/output_inception_4b/output_0_split -> inception_4b/output_inception_4b/output_0_split_2
I0602 17:04:25.611824  8321 net.cpp:399] inception_4b/output_inception_4b/output_0_split -> inception_4b/output_inception_4b/output_0_split_3
I0602 17:04:25.611887  8321 net.cpp:141] Setting up inception_4b/output_inception_4b/output_0_split
I0602 17:04:25.611899  8321 net.cpp:148] Top shape: 128 512 14 14 (12845056)
I0602 17:04:25.611909  8321 net.cpp:148] Top shape: 128 512 14 14 (12845056)
I0602 17:04:25.611920  8321 net.cpp:148] Top shape: 128 512 14 14 (12845056)
I0602 17:04:25.611932  8321 net.cpp:148] Top shape: 128 512 14 14 (12845056)
I0602 17:04:25.611939  8321 net.cpp:156] Memory required for data: 5425431040
I0602 17:04:25.611948  8321 layer_factory.hpp:77] Creating layer inception_4c/1x1
I0602 17:04:25.611966  8321 net.cpp:91] Creating Layer inception_4c/1x1
I0602 17:04:25.611974  8321 net.cpp:425] inception_4c/1x1 <- inception_4b/output_inception_4b/output_0_split_0
I0602 17:04:25.611989  8321 net.cpp:399] inception_4c/1x1 -> inception_4c/1x1
I0602 17:04:25.612680  8321 net.cpp:141] Setting up inception_4c/1x1
I0602 17:04:25.612694  8321 net.cpp:148] Top shape: 128 128 14 14 (3211264)
I0602 17:04:25.612701  8321 net.cpp:156] Memory required for data: 5438276096
I0602 17:04:25.612714  8321 layer_factory.hpp:77] Creating layer inception_4c/relu_1x1
I0602 17:04:25.612727  8321 net.cpp:91] Creating Layer inception_4c/relu_1x1
I0602 17:04:25.612736  8321 net.cpp:425] inception_4c/relu_1x1 <- inception_4c/1x1
I0602 17:04:25.612748  8321 net.cpp:386] inception_4c/relu_1x1 -> inception_4c/1x1 (in-place)
I0602 17:04:25.612762  8321 net.cpp:141] Setting up inception_4c/relu_1x1
I0602 17:04:25.612773  8321 net.cpp:148] Top shape: 128 128 14 14 (3211264)
I0602 17:04:25.612782  8321 net.cpp:156] Memory required for data: 5451121152
I0602 17:04:25.612790  8321 layer_factory.hpp:77] Creating layer inception_4c/3x3_reduce
I0602 17:04:25.612807  8321 net.cpp:91] Creating Layer inception_4c/3x3_reduce
I0602 17:04:25.612815  8321 net.cpp:425] inception_4c/3x3_reduce <- inception_4b/output_inception_4b/output_0_split_1
I0602 17:04:25.612840  8321 net.cpp:399] inception_4c/3x3_reduce -> inception_4c/3x3_reduce
I0602 17:04:25.613541  8321 net.cpp:141] Setting up inception_4c/3x3_reduce
I0602 17:04:25.613555  8321 net.cpp:148] Top shape: 128 128 14 14 (3211264)
I0602 17:04:25.613564  8321 net.cpp:156] Memory required for data: 5463966208
I0602 17:04:25.613575  8321 layer_factory.hpp:77] Creating layer inception_4c/relu_3x3_reduce
I0602 17:04:25.613586  8321 net.cpp:91] Creating Layer inception_4c/relu_3x3_reduce
I0602 17:04:25.613596  8321 net.cpp:425] inception_4c/relu_3x3_reduce <- inception_4c/3x3_reduce
I0602 17:04:25.613610  8321 net.cpp:386] inception_4c/relu_3x3_reduce -> inception_4c/3x3_reduce (in-place)
I0602 17:04:25.613623  8321 net.cpp:141] Setting up inception_4c/relu_3x3_reduce
I0602 17:04:25.613636  8321 net.cpp:148] Top shape: 128 128 14 14 (3211264)
I0602 17:04:25.613643  8321 net.cpp:156] Memory required for data: 5476811264
I0602 17:04:25.613651  8321 layer_factory.hpp:77] Creating layer inception_4c/3x3
I0602 17:04:25.613667  8321 net.cpp:91] Creating Layer inception_4c/3x3
I0602 17:04:25.613674  8321 net.cpp:425] inception_4c/3x3 <- inception_4c/3x3_reduce
I0602 17:04:25.613689  8321 net.cpp:399] inception_4c/3x3 -> inception_4c/3x3
I0602 17:04:25.616633  8321 net.cpp:141] Setting up inception_4c/3x3
I0602 17:04:25.616662  8321 net.cpp:148] Top shape: 128 256 14 14 (6422528)
I0602 17:04:25.616669  8321 net.cpp:156] Memory required for data: 5502501376
I0602 17:04:25.616683  8321 layer_factory.hpp:77] Creating layer inception_4c/relu_3x3
I0602 17:04:25.616696  8321 net.cpp:91] Creating Layer inception_4c/relu_3x3
I0602 17:04:25.616706  8321 net.cpp:425] inception_4c/relu_3x3 <- inception_4c/3x3
I0602 17:04:25.616721  8321 net.cpp:386] inception_4c/relu_3x3 -> inception_4c/3x3 (in-place)
I0602 17:04:25.616739  8321 net.cpp:141] Setting up inception_4c/relu_3x3
I0602 17:04:25.616749  8321 net.cpp:148] Top shape: 128 256 14 14 (6422528)
I0602 17:04:25.616757  8321 net.cpp:156] Memory required for data: 5528191488
I0602 17:04:25.616765  8321 layer_factory.hpp:77] Creating layer inception_4c/5x5_reduce
I0602 17:04:25.616785  8321 net.cpp:91] Creating Layer inception_4c/5x5_reduce
I0602 17:04:25.616793  8321 net.cpp:425] inception_4c/5x5_reduce <- inception_4b/output_inception_4b/output_0_split_2
I0602 17:04:25.616808  8321 net.cpp:399] inception_4c/5x5_reduce -> inception_4c/5x5_reduce
I0602 17:04:25.617139  8321 net.cpp:141] Setting up inception_4c/5x5_reduce
I0602 17:04:25.617153  8321 net.cpp:148] Top shape: 128 24 14 14 (602112)
I0602 17:04:25.617161  8321 net.cpp:156] Memory required for data: 5530599936
I0602 17:04:25.617173  8321 layer_factory.hpp:77] Creating layer inception_4c/relu_5x5_reduce
I0602 17:04:25.617194  8321 net.cpp:91] Creating Layer inception_4c/relu_5x5_reduce
I0602 17:04:25.617203  8321 net.cpp:425] inception_4c/relu_5x5_reduce <- inception_4c/5x5_reduce
I0602 17:04:25.617213  8321 net.cpp:386] inception_4c/relu_5x5_reduce -> inception_4c/5x5_reduce (in-place)
I0602 17:04:25.617229  8321 net.cpp:141] Setting up inception_4c/relu_5x5_reduce
I0602 17:04:25.617240  8321 net.cpp:148] Top shape: 128 24 14 14 (602112)
I0602 17:04:25.617247  8321 net.cpp:156] Memory required for data: 5533008384
I0602 17:04:25.617255  8321 layer_factory.hpp:77] Creating layer inception_4c/5x5
I0602 17:04:25.617274  8321 net.cpp:91] Creating Layer inception_4c/5x5
I0602 17:04:25.617281  8321 net.cpp:425] inception_4c/5x5 <- inception_4c/5x5_reduce
I0602 17:04:25.617296  8321 net.cpp:399] inception_4c/5x5 -> inception_4c/5x5
I0602 17:04:25.617813  8321 net.cpp:141] Setting up inception_4c/5x5
I0602 17:04:25.617827  8321 net.cpp:148] Top shape: 128 64 14 14 (1605632)
I0602 17:04:25.617835  8321 net.cpp:156] Memory required for data: 5539430912
I0602 17:04:25.617847  8321 layer_factory.hpp:77] Creating layer inception_4c/relu_5x5
I0602 17:04:25.617859  8321 net.cpp:91] Creating Layer inception_4c/relu_5x5
I0602 17:04:25.617869  8321 net.cpp:425] inception_4c/relu_5x5 <- inception_4c/5x5
I0602 17:04:25.617897  8321 net.cpp:386] inception_4c/relu_5x5 -> inception_4c/5x5 (in-place)
I0602 17:04:25.617913  8321 net.cpp:141] Setting up inception_4c/relu_5x5
I0602 17:04:25.617924  8321 net.cpp:148] Top shape: 128 64 14 14 (1605632)
I0602 17:04:25.617933  8321 net.cpp:156] Memory required for data: 5545853440
I0602 17:04:25.617941  8321 layer_factory.hpp:77] Creating layer inception_4c/pool
I0602 17:04:25.617954  8321 net.cpp:91] Creating Layer inception_4c/pool
I0602 17:04:25.617962  8321 net.cpp:425] inception_4c/pool <- inception_4b/output_inception_4b/output_0_split_3
I0602 17:04:25.617977  8321 net.cpp:399] inception_4c/pool -> inception_4c/pool
I0602 17:04:25.618034  8321 net.cpp:141] Setting up inception_4c/pool
I0602 17:04:25.618070  8321 net.cpp:148] Top shape: 128 512 14 14 (12845056)
I0602 17:04:25.618079  8321 net.cpp:156] Memory required for data: 5597233664
I0602 17:04:25.618086  8321 layer_factory.hpp:77] Creating layer inception_4c/pool_proj
I0602 17:04:25.618108  8321 net.cpp:91] Creating Layer inception_4c/pool_proj
I0602 17:04:25.618118  8321 net.cpp:425] inception_4c/pool_proj <- inception_4c/pool
I0602 17:04:25.618131  8321 net.cpp:399] inception_4c/pool_proj -> inception_4c/pool_proj
I0602 17:04:25.619112  8321 net.cpp:141] Setting up inception_4c/pool_proj
I0602 17:04:25.619132  8321 net.cpp:148] Top shape: 128 64 14 14 (1605632)
I0602 17:04:25.619138  8321 net.cpp:156] Memory required for data: 5603656192
I0602 17:04:25.619169  8321 layer_factory.hpp:77] Creating layer inception_4c/relu_pool_proj
I0602 17:04:25.619182  8321 net.cpp:91] Creating Layer inception_4c/relu_pool_proj
I0602 17:04:25.619194  8321 net.cpp:425] inception_4c/relu_pool_proj <- inception_4c/pool_proj
I0602 17:04:25.619206  8321 net.cpp:386] inception_4c/relu_pool_proj -> inception_4c/pool_proj (in-place)
I0602 17:04:25.619221  8321 net.cpp:141] Setting up inception_4c/relu_pool_proj
I0602 17:04:25.619232  8321 net.cpp:148] Top shape: 128 64 14 14 (1605632)
I0602 17:04:25.619241  8321 net.cpp:156] Memory required for data: 5610078720
I0602 17:04:25.619248  8321 layer_factory.hpp:77] Creating layer inception_4c/output
I0602 17:04:25.619261  8321 net.cpp:91] Creating Layer inception_4c/output
I0602 17:04:25.619271  8321 net.cpp:425] inception_4c/output <- inception_4c/1x1
I0602 17:04:25.619280  8321 net.cpp:425] inception_4c/output <- inception_4c/3x3
I0602 17:04:25.619290  8321 net.cpp:425] inception_4c/output <- inception_4c/5x5
I0602 17:04:25.619302  8321 net.cpp:425] inception_4c/output <- inception_4c/pool_proj
I0602 17:04:25.619316  8321 net.cpp:399] inception_4c/output -> inception_4c/output
I0602 17:04:25.619354  8321 net.cpp:141] Setting up inception_4c/output
I0602 17:04:25.619366  8321 net.cpp:148] Top shape: 128 512 14 14 (12845056)
I0602 17:04:25.619374  8321 net.cpp:156] Memory required for data: 5661458944
I0602 17:04:25.619381  8321 layer_factory.hpp:77] Creating layer inception_4c/output_inception_4c/output_0_split
I0602 17:04:25.619393  8321 net.cpp:91] Creating Layer inception_4c/output_inception_4c/output_0_split
I0602 17:04:25.619402  8321 net.cpp:425] inception_4c/output_inception_4c/output_0_split <- inception_4c/output
I0602 17:04:25.619415  8321 net.cpp:399] inception_4c/output_inception_4c/output_0_split -> inception_4c/output_inception_4c/output_0_split_0
I0602 17:04:25.619429  8321 net.cpp:399] inception_4c/output_inception_4c/output_0_split -> inception_4c/output_inception_4c/output_0_split_1
I0602 17:04:25.619446  8321 net.cpp:399] inception_4c/output_inception_4c/output_0_split -> inception_4c/output_inception_4c/output_0_split_2
I0602 17:04:25.619460  8321 net.cpp:399] inception_4c/output_inception_4c/output_0_split -> inception_4c/output_inception_4c/output_0_split_3
I0602 17:04:25.619529  8321 net.cpp:141] Setting up inception_4c/output_inception_4c/output_0_split
I0602 17:04:25.619540  8321 net.cpp:148] Top shape: 128 512 14 14 (12845056)
I0602 17:04:25.619550  8321 net.cpp:148] Top shape: 128 512 14 14 (12845056)
I0602 17:04:25.619561  8321 net.cpp:148] Top shape: 128 512 14 14 (12845056)
I0602 17:04:25.619586  8321 net.cpp:148] Top shape: 128 512 14 14 (12845056)
I0602 17:04:25.619596  8321 net.cpp:156] Memory required for data: 5866979840
I0602 17:04:25.619604  8321 layer_factory.hpp:77] Creating layer inception_4d/1x1
I0602 17:04:25.619623  8321 net.cpp:91] Creating Layer inception_4d/1x1
I0602 17:04:25.619632  8321 net.cpp:425] inception_4d/1x1 <- inception_4c/output_inception_4c/output_0_split_0
I0602 17:04:25.619647  8321 net.cpp:399] inception_4d/1x1 -> inception_4d/1x1
I0602 17:04:25.620292  8321 net.cpp:141] Setting up inception_4d/1x1
I0602 17:04:25.620306  8321 net.cpp:148] Top shape: 128 112 14 14 (2809856)
I0602 17:04:25.620314  8321 net.cpp:156] Memory required for data: 5878219264
I0602 17:04:25.620327  8321 layer_factory.hpp:77] Creating layer inception_4d/relu_1x1
I0602 17:04:25.620338  8321 net.cpp:91] Creating Layer inception_4d/relu_1x1
I0602 17:04:25.620348  8321 net.cpp:425] inception_4d/relu_1x1 <- inception_4d/1x1
I0602 17:04:25.620359  8321 net.cpp:386] inception_4d/relu_1x1 -> inception_4d/1x1 (in-place)
I0602 17:04:25.620375  8321 net.cpp:141] Setting up inception_4d/relu_1x1
I0602 17:04:25.620388  8321 net.cpp:148] Top shape: 128 112 14 14 (2809856)
I0602 17:04:25.620395  8321 net.cpp:156] Memory required for data: 5889458688
I0602 17:04:25.620404  8321 layer_factory.hpp:77] Creating layer inception_4d/3x3_reduce
I0602 17:04:25.620419  8321 net.cpp:91] Creating Layer inception_4d/3x3_reduce
I0602 17:04:25.620427  8321 net.cpp:425] inception_4d/3x3_reduce <- inception_4c/output_inception_4c/output_0_split_1
I0602 17:04:25.620442  8321 net.cpp:399] inception_4d/3x3_reduce -> inception_4d/3x3_reduce
I0602 17:04:25.621220  8321 net.cpp:141] Setting up inception_4d/3x3_reduce
I0602 17:04:25.621234  8321 net.cpp:148] Top shape: 128 144 14 14 (3612672)
I0602 17:04:25.621242  8321 net.cpp:156] Memory required for data: 5903909376
I0602 17:04:25.621253  8321 layer_factory.hpp:77] Creating layer inception_4d/relu_3x3_reduce
I0602 17:04:25.621264  8321 net.cpp:91] Creating Layer inception_4d/relu_3x3_reduce
I0602 17:04:25.621274  8321 net.cpp:425] inception_4d/relu_3x3_reduce <- inception_4d/3x3_reduce
I0602 17:04:25.621285  8321 net.cpp:386] inception_4d/relu_3x3_reduce -> inception_4d/3x3_reduce (in-place)
I0602 17:04:25.621299  8321 net.cpp:141] Setting up inception_4d/relu_3x3_reduce
I0602 17:04:25.621310  8321 net.cpp:148] Top shape: 128 144 14 14 (3612672)
I0602 17:04:25.621318  8321 net.cpp:156] Memory required for data: 5918360064
I0602 17:04:25.621326  8321 layer_factory.hpp:77] Creating layer inception_4d/3x3
I0602 17:04:25.621345  8321 net.cpp:91] Creating Layer inception_4d/3x3
I0602 17:04:25.621354  8321 net.cpp:425] inception_4d/3x3 <- inception_4d/3x3_reduce
I0602 17:04:25.621371  8321 net.cpp:399] inception_4d/3x3 -> inception_4d/3x3
I0602 17:04:25.624969  8321 net.cpp:141] Setting up inception_4d/3x3
I0602 17:04:25.625000  8321 net.cpp:148] Top shape: 128 288 14 14 (7225344)
I0602 17:04:25.625008  8321 net.cpp:156] Memory required for data: 5947261440
I0602 17:04:25.625023  8321 layer_factory.hpp:77] Creating layer inception_4d/relu_3x3
I0602 17:04:25.625037  8321 net.cpp:91] Creating Layer inception_4d/relu_3x3
I0602 17:04:25.625047  8321 net.cpp:425] inception_4d/relu_3x3 <- inception_4d/3x3
I0602 17:04:25.625059  8321 net.cpp:386] inception_4d/relu_3x3 -> inception_4d/3x3 (in-place)
I0602 17:04:25.625077  8321 net.cpp:141] Setting up inception_4d/relu_3x3
I0602 17:04:25.625088  8321 net.cpp:148] Top shape: 128 288 14 14 (7225344)
I0602 17:04:25.625097  8321 net.cpp:156] Memory required for data: 5976162816
I0602 17:04:25.625105  8321 layer_factory.hpp:77] Creating layer inception_4d/5x5_reduce
I0602 17:04:25.625124  8321 net.cpp:91] Creating Layer inception_4d/5x5_reduce
I0602 17:04:25.625133  8321 net.cpp:425] inception_4d/5x5_reduce <- inception_4c/output_inception_4c/output_0_split_2
I0602 17:04:25.625149  8321 net.cpp:399] inception_4d/5x5_reduce -> inception_4d/5x5_reduce
I0602 17:04:25.625530  8321 net.cpp:141] Setting up inception_4d/5x5_reduce
I0602 17:04:25.625560  8321 net.cpp:148] Top shape: 128 32 14 14 (802816)
I0602 17:04:25.625567  8321 net.cpp:156] Memory required for data: 5979374080
I0602 17:04:25.625581  8321 layer_factory.hpp:77] Creating layer inception_4d/relu_5x5_reduce
I0602 17:04:25.625591  8321 net.cpp:91] Creating Layer inception_4d/relu_5x5_reduce
I0602 17:04:25.625602  8321 net.cpp:425] inception_4d/relu_5x5_reduce <- inception_4d/5x5_reduce
I0602 17:04:25.625612  8321 net.cpp:386] inception_4d/relu_5x5_reduce -> inception_4d/5x5_reduce (in-place)
I0602 17:04:25.625627  8321 net.cpp:141] Setting up inception_4d/relu_5x5_reduce
I0602 17:04:25.625638  8321 net.cpp:148] Top shape: 128 32 14 14 (802816)
I0602 17:04:25.625646  8321 net.cpp:156] Memory required for data: 5982585344
I0602 17:04:25.625654  8321 layer_factory.hpp:77] Creating layer inception_4d/5x5
I0602 17:04:25.625674  8321 net.cpp:91] Creating Layer inception_4d/5x5
I0602 17:04:25.625681  8321 net.cpp:425] inception_4d/5x5 <- inception_4d/5x5_reduce
I0602 17:04:25.625696  8321 net.cpp:399] inception_4d/5x5 -> inception_4d/5x5
I0602 17:04:25.626335  8321 net.cpp:141] Setting up inception_4d/5x5
I0602 17:04:25.626350  8321 net.cpp:148] Top shape: 128 64 14 14 (1605632)
I0602 17:04:25.626358  8321 net.cpp:156] Memory required for data: 5989007872
I0602 17:04:25.626370  8321 layer_factory.hpp:77] Creating layer inception_4d/relu_5x5
I0602 17:04:25.626381  8321 net.cpp:91] Creating Layer inception_4d/relu_5x5
I0602 17:04:25.626391  8321 net.cpp:425] inception_4d/relu_5x5 <- inception_4d/5x5
I0602 17:04:25.626402  8321 net.cpp:386] inception_4d/relu_5x5 -> inception_4d/5x5 (in-place)
I0602 17:04:25.626417  8321 net.cpp:141] Setting up inception_4d/relu_5x5
I0602 17:04:25.626428  8321 net.cpp:148] Top shape: 128 64 14 14 (1605632)
I0602 17:04:25.626436  8321 net.cpp:156] Memory required for data: 5995430400
I0602 17:04:25.626444  8321 layer_factory.hpp:77] Creating layer inception_4d/pool
I0602 17:04:25.626459  8321 net.cpp:91] Creating Layer inception_4d/pool
I0602 17:04:25.626468  8321 net.cpp:425] inception_4d/pool <- inception_4c/output_inception_4c/output_0_split_3
I0602 17:04:25.626480  8321 net.cpp:399] inception_4d/pool -> inception_4d/pool
I0602 17:04:25.626530  8321 net.cpp:141] Setting up inception_4d/pool
I0602 17:04:25.626543  8321 net.cpp:148] Top shape: 128 512 14 14 (12845056)
I0602 17:04:25.626562  8321 net.cpp:156] Memory required for data: 6046810624
I0602 17:04:25.626570  8321 layer_factory.hpp:77] Creating layer inception_4d/pool_proj
I0602 17:04:25.626591  8321 net.cpp:91] Creating Layer inception_4d/pool_proj
I0602 17:04:25.626600  8321 net.cpp:425] inception_4d/pool_proj <- inception_4d/pool
I0602 17:04:25.626612  8321 net.cpp:399] inception_4d/pool_proj -> inception_4d/pool_proj
I0602 17:04:25.627090  8321 net.cpp:141] Setting up inception_4d/pool_proj
I0602 17:04:25.627107  8321 net.cpp:148] Top shape: 128 64 14 14 (1605632)
I0602 17:04:25.627115  8321 net.cpp:156] Memory required for data: 6053233152
I0602 17:04:25.627127  8321 layer_factory.hpp:77] Creating layer inception_4d/relu_pool_proj
I0602 17:04:25.627140  8321 net.cpp:91] Creating Layer inception_4d/relu_pool_proj
I0602 17:04:25.627151  8321 net.cpp:425] inception_4d/relu_pool_proj <- inception_4d/pool_proj
I0602 17:04:25.627161  8321 net.cpp:386] inception_4d/relu_pool_proj -> inception_4d/pool_proj (in-place)
I0602 17:04:25.627174  8321 net.cpp:141] Setting up inception_4d/relu_pool_proj
I0602 17:04:25.627187  8321 net.cpp:148] Top shape: 128 64 14 14 (1605632)
I0602 17:04:25.627194  8321 net.cpp:156] Memory required for data: 6059655680
I0602 17:04:25.627202  8321 layer_factory.hpp:77] Creating layer inception_4d/output
I0602 17:04:25.627213  8321 net.cpp:91] Creating Layer inception_4d/output
I0602 17:04:25.627223  8321 net.cpp:425] inception_4d/output <- inception_4d/1x1
I0602 17:04:25.627233  8321 net.cpp:425] inception_4d/output <- inception_4d/3x3
I0602 17:04:25.627243  8321 net.cpp:425] inception_4d/output <- inception_4d/5x5
I0602 17:04:25.627254  8321 net.cpp:425] inception_4d/output <- inception_4d/pool_proj
I0602 17:04:25.627279  8321 net.cpp:399] inception_4d/output -> inception_4d/output
I0602 17:04:25.627316  8321 net.cpp:141] Setting up inception_4d/output
I0602 17:04:25.627332  8321 net.cpp:148] Top shape: 128 528 14 14 (13246464)
I0602 17:04:25.627341  8321 net.cpp:156] Memory required for data: 6112641536
I0602 17:04:25.627349  8321 layer_factory.hpp:77] Creating layer inception_4d/output_inception_4d/output_0_split
I0602 17:04:25.627360  8321 net.cpp:91] Creating Layer inception_4d/output_inception_4d/output_0_split
I0602 17:04:25.627369  8321 net.cpp:425] inception_4d/output_inception_4d/output_0_split <- inception_4d/output
I0602 17:04:25.627382  8321 net.cpp:399] inception_4d/output_inception_4d/output_0_split -> inception_4d/output_inception_4d/output_0_split_0
I0602 17:04:25.627395  8321 net.cpp:399] inception_4d/output_inception_4d/output_0_split -> inception_4d/output_inception_4d/output_0_split_1
I0602 17:04:25.627409  8321 net.cpp:399] inception_4d/output_inception_4d/output_0_split -> inception_4d/output_inception_4d/output_0_split_2
I0602 17:04:25.627426  8321 net.cpp:399] inception_4d/output_inception_4d/output_0_split -> inception_4d/output_inception_4d/output_0_split_3
I0602 17:04:25.627495  8321 net.cpp:141] Setting up inception_4d/output_inception_4d/output_0_split
I0602 17:04:25.627506  8321 net.cpp:148] Top shape: 128 528 14 14 (13246464)
I0602 17:04:25.627516  8321 net.cpp:148] Top shape: 128 528 14 14 (13246464)
I0602 17:04:25.627526  8321 net.cpp:148] Top shape: 128 528 14 14 (13246464)
I0602 17:04:25.627537  8321 net.cpp:148] Top shape: 128 528 14 14 (13246464)
I0602 17:04:25.627547  8321 net.cpp:156] Memory required for data: 6324584960
I0602 17:04:25.627554  8321 layer_factory.hpp:77] Creating layer inception_4e/1x1
I0602 17:04:25.627571  8321 net.cpp:91] Creating Layer inception_4e/1x1
I0602 17:04:25.627579  8321 net.cpp:425] inception_4e/1x1 <- inception_4d/output_inception_4d/output_0_split_0
I0602 17:04:25.627595  8321 net.cpp:399] inception_4e/1x1 -> inception_4e/1x1
I0602 17:04:25.629289  8321 net.cpp:141] Setting up inception_4e/1x1
I0602 17:04:25.629308  8321 net.cpp:148] Top shape: 128 256 14 14 (6422528)
I0602 17:04:25.629317  8321 net.cpp:156] Memory required for data: 6350275072
I0602 17:04:25.629329  8321 layer_factory.hpp:77] Creating layer inception_4e/relu_1x1
I0602 17:04:25.629344  8321 net.cpp:91] Creating Layer inception_4e/relu_1x1
I0602 17:04:25.629355  8321 net.cpp:425] inception_4e/relu_1x1 <- inception_4e/1x1
I0602 17:04:25.629366  8321 net.cpp:386] inception_4e/relu_1x1 -> inception_4e/1x1 (in-place)
I0602 17:04:25.629380  8321 net.cpp:141] Setting up inception_4e/relu_1x1
I0602 17:04:25.629392  8321 net.cpp:148] Top shape: 128 256 14 14 (6422528)
I0602 17:04:25.629401  8321 net.cpp:156] Memory required for data: 6375965184
I0602 17:04:25.629408  8321 layer_factory.hpp:77] Creating layer inception_4e/3x3_reduce
I0602 17:04:25.629426  8321 net.cpp:91] Creating Layer inception_4e/3x3_reduce
I0602 17:04:25.629436  8321 net.cpp:425] inception_4e/3x3_reduce <- inception_4d/output_inception_4d/output_0_split_1
I0602 17:04:25.629447  8321 net.cpp:399] inception_4e/3x3_reduce -> inception_4e/3x3_reduce
I0602 17:04:25.630305  8321 net.cpp:141] Setting up inception_4e/3x3_reduce
I0602 17:04:25.630321  8321 net.cpp:148] Top shape: 128 160 14 14 (4014080)
I0602 17:04:25.630328  8321 net.cpp:156] Memory required for data: 6392021504
I0602 17:04:25.630342  8321 layer_factory.hpp:77] Creating layer inception_4e/relu_3x3_reduce
I0602 17:04:25.630352  8321 net.cpp:91] Creating Layer inception_4e/relu_3x3_reduce
I0602 17:04:25.630362  8321 net.cpp:425] inception_4e/relu_3x3_reduce <- inception_4e/3x3_reduce
I0602 17:04:25.630378  8321 net.cpp:386] inception_4e/relu_3x3_reduce -> inception_4e/3x3_reduce (in-place)
I0602 17:04:25.630391  8321 net.cpp:141] Setting up inception_4e/relu_3x3_reduce
I0602 17:04:25.630403  8321 net.cpp:148] Top shape: 128 160 14 14 (4014080)
I0602 17:04:25.630411  8321 net.cpp:156] Memory required for data: 6408077824
I0602 17:04:25.630434  8321 layer_factory.hpp:77] Creating layer inception_4e/3x3
I0602 17:04:25.630453  8321 net.cpp:91] Creating Layer inception_4e/3x3
I0602 17:04:25.630463  8321 net.cpp:425] inception_4e/3x3 <- inception_4e/3x3_reduce
I0602 17:04:25.630476  8321 net.cpp:399] inception_4e/3x3 -> inception_4e/3x3
I0602 17:04:25.634774  8321 net.cpp:141] Setting up inception_4e/3x3
I0602 17:04:25.634802  8321 net.cpp:148] Top shape: 128 320 14 14 (8028160)
I0602 17:04:25.634809  8321 net.cpp:156] Memory required for data: 6440190464
I0602 17:04:25.634824  8321 layer_factory.hpp:77] Creating layer inception_4e/relu_3x3
I0602 17:04:25.634837  8321 net.cpp:91] Creating Layer inception_4e/relu_3x3
I0602 17:04:25.634848  8321 net.cpp:425] inception_4e/relu_3x3 <- inception_4e/3x3
I0602 17:04:25.634863  8321 net.cpp:386] inception_4e/relu_3x3 -> inception_4e/3x3 (in-place)
I0602 17:04:25.634887  8321 net.cpp:141] Setting up inception_4e/relu_3x3
I0602 17:04:25.634898  8321 net.cpp:148] Top shape: 128 320 14 14 (8028160)
I0602 17:04:25.634907  8321 net.cpp:156] Memory required for data: 6472303104
I0602 17:04:25.634913  8321 layer_factory.hpp:77] Creating layer inception_4e/5x5_reduce
I0602 17:04:25.634932  8321 net.cpp:91] Creating Layer inception_4e/5x5_reduce
I0602 17:04:25.634940  8321 net.cpp:425] inception_4e/5x5_reduce <- inception_4d/output_inception_4d/output_0_split_2
I0602 17:04:25.634954  8321 net.cpp:399] inception_4e/5x5_reduce -> inception_4e/5x5_reduce
I0602 17:04:25.635496  8321 net.cpp:141] Setting up inception_4e/5x5_reduce
I0602 17:04:25.635514  8321 net.cpp:148] Top shape: 128 32 14 14 (802816)
I0602 17:04:25.635521  8321 net.cpp:156] Memory required for data: 6475514368
I0602 17:04:25.635535  8321 layer_factory.hpp:77] Creating layer inception_4e/relu_5x5_reduce
I0602 17:04:25.635546  8321 net.cpp:91] Creating Layer inception_4e/relu_5x5_reduce
I0602 17:04:25.635556  8321 net.cpp:425] inception_4e/relu_5x5_reduce <- inception_4e/5x5_reduce
I0602 17:04:25.635576  8321 net.cpp:386] inception_4e/relu_5x5_reduce -> inception_4e/5x5_reduce (in-place)
I0602 17:04:25.635591  8321 net.cpp:141] Setting up inception_4e/relu_5x5_reduce
I0602 17:04:25.635602  8321 net.cpp:148] Top shape: 128 32 14 14 (802816)
I0602 17:04:25.635612  8321 net.cpp:156] Memory required for data: 6478725632
I0602 17:04:25.635618  8321 layer_factory.hpp:77] Creating layer inception_4e/5x5
I0602 17:04:25.635640  8321 net.cpp:91] Creating Layer inception_4e/5x5
I0602 17:04:25.635648  8321 net.cpp:425] inception_4e/5x5 <- inception_4e/5x5_reduce
I0602 17:04:25.635661  8321 net.cpp:399] inception_4e/5x5 -> inception_4e/5x5
I0602 17:04:25.637141  8321 net.cpp:141] Setting up inception_4e/5x5
I0602 17:04:25.637161  8321 net.cpp:148] Top shape: 128 128 14 14 (3211264)
I0602 17:04:25.637168  8321 net.cpp:156] Memory required for data: 6491570688
I0602 17:04:25.637181  8321 layer_factory.hpp:77] Creating layer inception_4e/relu_5x5
I0602 17:04:25.637192  8321 net.cpp:91] Creating Layer inception_4e/relu_5x5
I0602 17:04:25.637202  8321 net.cpp:425] inception_4e/relu_5x5 <- inception_4e/5x5
I0602 17:04:25.637215  8321 net.cpp:386] inception_4e/relu_5x5 -> inception_4e/5x5 (in-place)
I0602 17:04:25.637233  8321 net.cpp:141] Setting up inception_4e/relu_5x5
I0602 17:04:25.637244  8321 net.cpp:148] Top shape: 128 128 14 14 (3211264)
I0602 17:04:25.637253  8321 net.cpp:156] Memory required for data: 6504415744
I0602 17:04:25.637261  8321 layer_factory.hpp:77] Creating layer inception_4e/pool
I0602 17:04:25.637272  8321 net.cpp:91] Creating Layer inception_4e/pool
I0602 17:04:25.637282  8321 net.cpp:425] inception_4e/pool <- inception_4d/output_inception_4d/output_0_split_3
I0602 17:04:25.637295  8321 net.cpp:399] inception_4e/pool -> inception_4e/pool
I0602 17:04:25.637347  8321 net.cpp:141] Setting up inception_4e/pool
I0602 17:04:25.637359  8321 net.cpp:148] Top shape: 128 528 14 14 (13246464)
I0602 17:04:25.637367  8321 net.cpp:156] Memory required for data: 6557401600
I0602 17:04:25.637374  8321 layer_factory.hpp:77] Creating layer inception_4e/pool_proj
I0602 17:04:25.637413  8321 net.cpp:91] Creating Layer inception_4e/pool_proj
I0602 17:04:25.637423  8321 net.cpp:425] inception_4e/pool_proj <- inception_4e/pool
I0602 17:04:25.637439  8321 net.cpp:399] inception_4e/pool_proj -> inception_4e/pool_proj
I0602 17:04:25.638175  8321 net.cpp:141] Setting up inception_4e/pool_proj
I0602 17:04:25.638191  8321 net.cpp:148] Top shape: 128 128 14 14 (3211264)
I0602 17:04:25.638200  8321 net.cpp:156] Memory required for data: 6570246656
I0602 17:04:25.638212  8321 layer_factory.hpp:77] Creating layer inception_4e/relu_pool_proj
I0602 17:04:25.638224  8321 net.cpp:91] Creating Layer inception_4e/relu_pool_proj
I0602 17:04:25.638234  8321 net.cpp:425] inception_4e/relu_pool_proj <- inception_4e/pool_proj
I0602 17:04:25.638248  8321 net.cpp:386] inception_4e/relu_pool_proj -> inception_4e/pool_proj (in-place)
I0602 17:04:25.638262  8321 net.cpp:141] Setting up inception_4e/relu_pool_proj
I0602 17:04:25.638273  8321 net.cpp:148] Top shape: 128 128 14 14 (3211264)
I0602 17:04:25.638283  8321 net.cpp:156] Memory required for data: 6583091712
I0602 17:04:25.638290  8321 layer_factory.hpp:77] Creating layer inception_4e/output
I0602 17:04:25.638303  8321 net.cpp:91] Creating Layer inception_4e/output
I0602 17:04:25.638311  8321 net.cpp:425] inception_4e/output <- inception_4e/1x1
I0602 17:04:25.638320  8321 net.cpp:425] inception_4e/output <- inception_4e/3x3
I0602 17:04:25.638331  8321 net.cpp:425] inception_4e/output <- inception_4e/5x5
I0602 17:04:25.638342  8321 net.cpp:425] inception_4e/output <- inception_4e/pool_proj
I0602 17:04:25.638356  8321 net.cpp:399] inception_4e/output -> inception_4e/output
I0602 17:04:25.638392  8321 net.cpp:141] Setting up inception_4e/output
I0602 17:04:25.638404  8321 net.cpp:148] Top shape: 128 832 14 14 (20873216)
I0602 17:04:25.638411  8321 net.cpp:156] Memory required for data: 6666584576
I0602 17:04:25.638419  8321 layer_factory.hpp:77] Creating layer CAM_conv
I0602 17:04:25.638437  8321 net.cpp:91] Creating Layer CAM_conv
I0602 17:04:25.638445  8321 net.cpp:425] CAM_conv <- inception_4e/output
I0602 17:04:25.638463  8321 net.cpp:399] CAM_conv -> CAM_conv
I0602 17:04:25.802403  8321 net.cpp:141] Setting up CAM_conv
I0602 17:04:25.802496  8321 net.cpp:148] Top shape: 128 1024 14 14 (25690112)
I0602 17:04:25.802521  8321 net.cpp:156] Memory required for data: 6769345024
I0602 17:04:25.802553  8321 layer_factory.hpp:77] Creating layer CAM_relu
I0602 17:04:25.802587  8321 net.cpp:91] Creating Layer CAM_relu
I0602 17:04:25.802613  8321 net.cpp:425] CAM_relu <- CAM_conv
I0602 17:04:25.802640  8321 net.cpp:386] CAM_relu -> CAM_conv (in-place)
I0602 17:04:25.802670  8321 net.cpp:141] Setting up CAM_relu
I0602 17:04:25.802700  8321 net.cpp:148] Top shape: 128 1024 14 14 (25690112)
I0602 17:04:25.802721  8321 net.cpp:156] Memory required for data: 6872105472
I0602 17:04:25.802742  8321 layer_factory.hpp:77] Creating layer CAM_pool
I0602 17:04:25.802772  8321 net.cpp:91] Creating Layer CAM_pool
I0602 17:04:25.802795  8321 net.cpp:425] CAM_pool <- CAM_conv
I0602 17:04:25.802821  8321 net.cpp:399] CAM_pool -> CAM_pool
I0602 17:04:25.802888  8321 net.cpp:141] Setting up CAM_pool
I0602 17:04:25.802920  8321 net.cpp:148] Top shape: 128 1024 1 1 (131072)
I0602 17:04:25.802944  8321 net.cpp:156] Memory required for data: 6872629760
I0602 17:04:25.802965  8321 layer_factory.hpp:77] Creating layer CAM_fc_MIT
I0602 17:04:25.802996  8321 net.cpp:91] Creating Layer CAM_fc_MIT
I0602 17:04:25.803020  8321 net.cpp:425] CAM_fc_MIT <- CAM_pool
I0602 17:04:25.803051  8321 net.cpp:399] CAM_fc_MIT -> CAM_fc_MIT
I0602 17:04:25.803944  8321 net.cpp:141] Setting up CAM_fc_MIT
I0602 17:04:25.803982  8321 net.cpp:148] Top shape: 128 67 (8576)
I0602 17:04:25.804008  8321 net.cpp:156] Memory required for data: 6872664064
I0602 17:04:25.804034  8321 layer_factory.hpp:77] Creating layer loss3/loss3
I0602 17:04:25.804064  8321 net.cpp:91] Creating Layer loss3/loss3
I0602 17:04:25.804090  8321 net.cpp:425] loss3/loss3 <- CAM_fc_MIT
I0602 17:04:25.804124  8321 net.cpp:425] loss3/loss3 <- label
I0602 17:04:25.804169  8321 net.cpp:399] loss3/loss3 -> loss3/loss3
…
I0602 17:04:25.814090  8321 net.cpp:313] The NetState phase (1) differed from the phase (0) specified by a rule in layer data
I0602 17:04:25.815690  8321 net.cpp:49] Initializing net from parameters: 
name: "GoogleNetCAMMITindoorFinetuned"
state {
  phase: TEST
}
layer {
  name: "data"
  type: "ImageData"
  top: "data"
  top: "label"
  include {
    phase: TEST
  }
  transform_param {
    mirror: false
    crop_size: 224
    mean_value: 104
    mean_value: 117
    mean_value: 123
  }
  image_data_param {
    source: "val.txt"
    batch_size: 50
  }
}
layer {
  name: "conv1/7x7_s2"
  type: "Convolution"
  bottom: "data"
  top: "conv1/7x7_s2"
  param {
    lr_mult: 1
    decay_mult: 1
  }
  param {
    lr_mult: 2
    decay_mult: 0
  }
  convolution_param {
    num_output: 64
    pad: 3
    kernel_size: 7
    stride: 2
    weight_filler {
      type: "xavier"
      std: 0.1
    }
    bias_filler {
      type: "constant"
      value: 0.2
    }
  }
}
layer {
  name: "conv1/relu_7x7"
  type: "ReLU"
  bottom: "conv1/7x7_s2"
  top: "conv1/7x7_s2"
}
layer {
  name: "pool1/3x3_s2"
  type: "Pooling"
  bottom: "conv1/7x7_s2"
  top: "pool1/3x3_s2"
  pooling_param {
    pool: MAX
    kernel_size: 3
    stride: 2
  }
}
layer {
  name: "pool1/norm1"
  type: "LRN"
  bottom: "pool1/3x3_s2"
  top: "pool1/norm1"
  lrn_param {
    local_size: 5
    alpha: 0.0001
    beta: 0.75
  }
}
layer {
  name: "conv2/3x3_reduce"
  type: "Convolution"
  bottom: "pool1/norm1"
  top: "conv2/3x3_reduce"
  param {
    lr_mult: 1
    decay_mult: 1
  }
  param {
    lr_mult: 2
    decay_mult: 0
  }
  convolution_param {
    num_output: 64
    kernel_size: 1
    weight_filler {
      type: "xavier"
      std: 0.1
    }
    bias_filler {
      type: "constant"
      value: 0.2
    }
  }
}
layer {
  name: "conv2/relu_3x3_reduce"
  type: "ReLU"
  bottom: "conv2/3x3_reduce"
  top: "conv2/3x3_reduce"
}
layer {
  name: "conv2/3x3"
  type: "Convolution"
  bottom: "conv2/3x3_reduce"
  top: "conv2/3x3"
  param {
    lr_mult: 1
    decay_mult: 1
  }
  param {
    lr_mult: 2
    decay_mult: 0
  }
  convolution_param {
    num_output: 192
    pad: 1
    kernel_size: 3
    weight_filler {
      type: "xavier"
      std: 0.03
    }
    bias_filler {
      type: "constant"
      value: 0.2
    }
  }
}
layer {
  name: "conv2/relu_3x3"
  type: "ReLU"
  bottom: "conv2/3x3"
  top: "conv2/3x3"
}
layer {
  name: "conv2/norm2"
  type: "LRN"
  bottom: "conv2/3x3"
  top: "conv2/norm2"
  lrn_param {
    local_size: 5
    alpha: 0.0001
    beta: 0.75
  }
}
layer {
  name: "pool2/3x3_s2"
  type: "Pooling"
  bottom: "conv2/norm2"
  top: "pool2/3x3_s2"
  pooling_param {
    pool: MAX
    kernel_size: 3
    stride: 2
  }
}
layer {
  name: "inception_3a/1x1"
  type: "Convolution"
  bottom: "pool2/3x3_s2"
  top: "inception_3a/1x1"
  param {
    lr_mult: 1
    decay_mult: 1
  }
  param {
    lr_mult: 2
    decay_mult: 0
  }
  convolution_param {
    num_output: 64
    kernel_size: 1
    weight_filler {
      type: "xavier"
      std: 0.03
    }
    bias_filler {
      type: "constant"
      value: 0.2
    }
  }
}
layer {
  name: "inception_3a/relu_1x1"
  type: "ReLU"
  bottom: "inception_3a/1x1"
  top: "inception_3a/1x1"
}
layer {
  name: "inception_3a/3x3_reduce"
  type: "Convolution"
  bottom: "pool2/3x3_s2"
  top: "inception_3a/3x3_reduce"
  param {
    lr_mult: 1
    decay_mult: 1
  }
  param {
    lr_mult: 2
    decay_mult: 0
  }
  convolution_param {
    num_output: 96
    kernel_size: 1
    weight_filler {
      type: "xavier"
      std: 0.09
    }
    bias_filler {
      type: "constant"
      value: 0.2
    }
  }
}
layer {
  name: "inception_3a/relu_3x3_reduce"
  type: "ReLU"
  bottom: "inception_3a/3x3_reduce"
  top: "inception_3a/3x3_reduce"
}
layer {
  name: "inception_3a/3x3"
  type: "Convolution"
  bottom: "inception_3a/3x3_reduce"
  top: "inception_3a/3x3"
  param {
    lr_mult: 1
    decay_mult: 1
  }
  param {
    lr_mult: 2
    decay_mult: 0
  }
  convolution_param {
    num_output: 128
    pad: 1
    kernel_size: 3
    weight_filler {
      type: "xavier"
      std: 0.03
    }
    bias_filler {
      type: "constant"
      value: 0.2
    }
  }
}
layer {
  name: "inception_3a/relu_3x3"
  type: "ReLU"
  bottom: "inception_3a/3x3"
  top: "inception_3a/3x3"
}
layer {
  name: "inception_3a/5x5_reduce"
  type: "Convolution"
  bottom: "pool2/3x3_s2"
  top: "inception_3a/5x5_reduce"
  param {
    lr_mult: 1
    decay_mult: 1
  }
  param {
    lr_mult: 2
    decay_mult: 0
  }
  convolution_param {
    num_output: 16
    kernel_size: 1
    weight_filler {
      type: "xavier"
      std: 0.2
    }
    bias_filler {
      type: "constant"
      value: 0.2
    }
  }
}
layer {
  name: "inception_3a/relu_5x5_reduce"
  type: "ReLU"
  bottom: "inception_3a/5x5_reduce"
  top: "inception_3a/5x5_reduce"
}
layer {
  name: "inception_3a/5x5"
  type: "Convolution"
  bottom: "inception_3a/5x5_reduce"
  top: "inception_3a/5x5"
  param {
    lr_mult: 1
    decay_mult: 1
  }
  param {
    lr_mult: 2
    decay_mult: 0
  }
  convolution_param {
    num_output: 32
    pad: 2
    kernel_size: 5
    weight_filler {
      type: "xavier"
      std: 0.03
    }
    bias_filler {
      type: "constant"
      value: 0.2
    }
  }
}
layer {
  name: "inception_3a/relu_5x5"
  type: "ReLU"
  bottom: "inception_3a/5x5"
  top: "inception_3a/5x5"
}
layer {
  name: "inception_3a/pool"
  type: "Pooling"
  bottom: "pool2/3x3_s2"
  top: "inception_3a/pool"
  pooling_param {
    pool: MAX
    kernel_size: 3
    stride: 1
    pad: 1
  }
}
layer {
  name: "inception_3a/pool_proj"
  type: "Convolution"
  bottom: "inception_3a/pool"
  top: "inception_3a/pool_proj"
  param {
    lr_mult: 1
    decay_mult: 1
  }
  param {
    lr_mult: 2
    decay_mult: 0
  }
  convolution_param {
    num_output: 32
    kernel_size: 1
    weight_filler {
      type: "xavier"
      std: 0.1
    }
    bias_filler {
      type: "constant"
      value: 0.2
    }
  }
}
layer {
  name: "inception_3a/relu_pool_proj"
  type: "ReLU"
  bottom: "inception_3a/pool_proj"
  top: "inception_3a/pool_proj"
}
layer {
  name: "inception_3a/output"
  type: "Concat"
  bottom: "inception_3a/1x1"
  bottom: "inception_3a/3x3"
  bottom: "inception_3a/5x5"
  bottom: "inception_3a/pool_proj"
  top: "inception_3a/output"
}
layer {
  name: "inception_3b/1x1"
  type: "Convolution"
  bottom: "inception_3a/output"
  top: "inception_3b/1x1"
  param {
    lr_mult: 1
    decay_mult: 1
  }
  param {
    lr_mult: 2
    decay_mult: 0
  }
  convolution_param {
    num_output: 128
    kernel_size: 1
    weight_filler {
      type: "xavier"
      std: 0.03
    }
    bias_filler {
      type: "constant"
      value: 0.2
    }
  }
}
layer {
  name: "inception_3b/relu_1x1"
  type: "ReLU"
  bottom: "inception_3b/1x1"
  top: "inception_3b/1x1"
}
layer {
  name: "inception_3b/3x3_reduce"
  type: "Convolution"
  bottom: "inception_3a/output"
  top: "inception_3b/3x3_reduce"
  param {
    lr_mult: 1
    decay_mult: 1
  }
  param {
    lr_mult: 2
    decay_mult: 0
  }
  convolution_param {
    num_output: 128
    kernel_size: 1
    weight_filler {
      type: "xavier"
      std: 0.09
    }
    bias_filler {
      type: "constant"
      value: 0.2
    }
  }
}
layer {
  name: "inception_3b/relu_3x3_reduce"
  type: "ReLU"
  bottom: "inception_3b/3x3_reduce"
  top: "inception_3b/3x3_reduce"
}
layer {
  name: "inception_3b/3x3"
  type: "Convolution"
  bottom: "inception_3b/3x3_reduce"
  top: "inception_3b/3x3"
  param {
    lr_mult: 1
    decay_mult: 1
  }
  param {
    lr_mult: 2
    decay_mult: 0
  }
  convolution_param {
    num_output: 192
    pad: 1
    kernel_size: 3
    weight_filler {
      type: "xavier"
      std: 0.03
    }
    bias_filler {
      type: "constant"
      value: 0.2
    }
  }
}
layer {
  name: "inception_3b/relu_3x3"
  type: "ReLU"
  bottom: "inception_3b/3x3"
  top: "inception_3b/3x3"
}
layer {
  name: "inception_3b/5x5_reduce"
  type: "Convolution"
  bottom: "inception_3a/output"
  top: "inception_3b/5x5_reduce"
  param {
    lr_mult: 1
    decay_mult: 1
  }
  param {
    lr_mult: 2
    decay_mult: 0
  }
  convolution_param {
    num_output: 32
    kernel_size: 1
    weight_filler {
      type: "xavier"
      std: 0.2
    }
    bias_filler {
      type: "constant"
      value: 0.2
    }
  }
}
layer {
  name: "inception_3b/relu_5x5_reduce"
  type: "ReLU"
  bottom: "inception_3b/5x5_reduce"
  top: "inception_3b/5x5_reduce"
}
layer {
  name: "inception_3b/5x5"
  type: "Convolution"
  bottom: "inception_3b/5x5_reduce"
  top: "inception_3b/5x5"
  param {
    lr_mult: 1
    decay_mult: 1
  }
  param {
    lr_mult: 2
    decay_mult: 0
  }
  convolution_param {
    num_output: 96
    pad: 2
    kernel_size: 5
    weight_filler {
      type: "xavier"
      std: 0.03
    }
    bias_filler {
      type: "constant"
      value: 0.2
    }
  }
}
layer {
  name: "inception_3b/relu_5x5"
  type: "ReLU"
  bottom: "inception_3b/5x5"
  top: "inception_3b/5x5"
}
layer {
  name: "inception_3b/pool"
  type: "Pooling"
  bottom: "inception_3a/output"
  top: "inception_3b/pool"
  pooling_param {
    pool: MAX
    kernel_size: 3
    stride: 1
    pad: 1
  }
}
layer {
  name: "inception_3b/pool_proj"
  type: "Convolution"
  bottom: "inception_3b/pool"
  top: "inception_3b/pool_proj"
  param {
    lr_mult: 1
    decay_mult: 1
  }
  param {
    lr_mult: 2
    decay_mult: 0
  }
  convolution_param {
    num_output: 64
    kernel_size: 1
    weight_filler {
      type: "xavier"
      std: 0.1
    }
    bias_filler {
      type: "constant"
      value: 0.2
    }
  }
}
layer {
  name: "inception_3b/relu_pool_proj"
  type: "ReLU"
  bottom: "inception_3b/pool_proj"
  top: "inception_3b/pool_proj"
}
layer {
  name: "inception_3b/output"
  type: "Concat"
  bottom: "inception_3b/1x1"
  bottom: "inception_3b/3x3"
  bottom: "inception_3b/5x5"
  bottom: "inception_3b/pool_proj"
  top: "inception_3b/output"
}
layer {
  name: "pool3/3x3_s2"
  type: "Pooling"
  bottom: "inception_3b/output"
  top: "pool3/3x3_s2"
  pooling_param {
    pool: MAX
    kernel_size: 3
    stride: 2
  }
}
layer {
  name: "inception_4a/1x1"
  type: "Convolution"
  bottom: "pool3/3x3_s2"
  top: "inception_4a/1x1"
  param {
    lr_mult: 1
    decay_mult: 1
  }
  param {
    lr_mult: 2
    decay_mult: 0
  }
  convolution_param {
    num_output: 192
    kernel_size: 1
    weight_filler {
      type: "xavier"
      std: 0.03
    }
    bias_filler {
      type: "constant"
      value: 0.2
    }
  }
}
layer {
  name: "inception_4a/relu_1x1"
  type: "ReLU"
  bottom: "inception_4a/1x1"
  top: "inception_4a/1x1"
}
layer {
  name: "inception_4a/3x3_reduce"
  type: "Convolution"
  bottom: "pool3/3x3_s2"
  top: "inception_4a/3x3_reduce"
  param {
    lr_mult: 1
    decay_mult: 1
  }
  param {
    lr_mult: 2
    decay_mult: 0
  }
  convolution_param {
    num_output: 96
    kernel_size: 1
    weight_filler {
      type: "xavier"
      std: 0.09
    }
    bias_filler {
      type: "constant"
      value: 0.2
    }
  }
}
layer {
  name: "inception_4a/relu_3x3_reduce"
  type: "ReLU"
  bottom: "inception_4a/3x3_reduce"
  top: "inception_4a/3x3_reduce"
}
layer {
  name: "inception_4a/3x3"
  type: "Convolution"
  bottom: "inception_4a/3x3_reduce"
  top: "inception_4a/3x3"
  param {
    lr_mult: 1
    decay_mult: 1
  }
  param {
    lr_mult: 2
    decay_mult: 0
  }
  convolution_param {
    num_output: 208
    pad: 1
    kernel_size: 3
    weight_filler {
      type: "xavier"
      std: 0.03
    }
    bias_filler {
      type: "constant"
      value: 0.2
    }
  }
}
layer {
  name: "inception_4a/relu_3x3"
  type: "ReLU"
  bottom: "inception_4a/3x3"
  top: "inception_4a/3x3"
}
layer {
  name: "inception_4a/5x5_reduce"
  type: "Convolution"
  bottom: "pool3/3x3_s2"
  top: "inception_4a/5x5_reduce"
  param {
    lr_mult: 1
    decay_mult: 1
  }
  param {
    lr_mult: 2
    decay_mult: 0
  }
  convolution_param {
    num_output: 16
    kernel_size: 1
    weight_filler {
      type: "xavier"
      std: 0.2
    }
    bias_filler {
      type: "constant"
      value: 0.2
    }
  }
}
layer {
  name: "inception_4a/relu_5x5_reduce"
  type: "ReLU"
  bottom: "inception_4a/5x5_reduce"
  top: "inception_4a/5x5_reduce"
}
layer {
  name: "inception_4a/5x5"
  type: "Convolution"
  bottom: "inception_4a/5x5_reduce"
  top: "inception_4a/5x5"
  param {
    lr_mult: 1
    decay_mult: 1
  }
  param {
    lr_mult: 2
    decay_mult: 0
  }
  convolution_param {
    num_output: 48
    pad: 2
    kernel_size: 5
    weight_filler {
      type: "xavier"
      std: 0.03
    }
    bias_filler {
      type: "constant"
      value: 0.2
    }
  }
}
layer {
  name: "inception_4a/relu_5x5"
  type: "ReLU"
  bottom: "inception_4a/5x5"
  top: "inception_4a/5x5"
}
layer {
  name: "inception_4a/pool"
  type: "Pooling"
  bottom: "pool3/3x3_s2"
  top: "inception_4a/pool"
  pooling_param {
    pool: MAX
    kernel_size: 3
    stride: 1
    pad: 1
  }
}
layer {
  name: "inception_4a/pool_proj"
  type: "Convolution"
  bottom: "inception_4a/pool"
  top: "inception_4a/pool_proj"
  param {
    lr_mult: 1
    decay_mult: 1
  }
  param {
    lr_mult: 2
    decay_mult: 0
  }
  convolution_param {
    num_output: 64
    kernel_size: 1
    weight_filler {
      type: "xavier"
      std: 0.1
    }
    bias_filler {
      type: "constant"
      value: 0.2
    }
  }
}
layer {
  name: "inception_4a/relu_pool_proj"
  type: "ReLU"
  bottom: "inception_4a/pool_proj"
  top: "inception_4a/pool_proj"
}
layer {
  name: "inception_4a/output"
  type: "Concat"
  bottom: "inception_4a/1x1"
  bottom: "inception_4a/3x3"
  bottom: "inception_4a/5x5"
  bottom: "inception_4a/pool_proj"
  top: "inception_4a/output"
}
layer {
  name: "inception_4b/1x1"
  type: "Convolution"
  bottom: "inception_4a/output"
  top: "inception_4b/1x1"
  param {
    lr_mult: 1
    decay_mult: 1
  }
  param {
    lr_mult: 2
    decay_mult: 0
  }
  convolution_param {
    num_output: 160
    kernel_size: 1
    weight_filler {
      type: "xavier"
      std: 0.03
    }
    bias_filler {
      type: "constant"
      value: 0.2
    }
  }
}
layer {
  name: "inception_4b/relu_1x1"
  type: "ReLU"
  bottom: "inception_4b/1x1"
  top: "inception_4b/1x1"
}
layer {
  name: "inception_4b/3x3_reduce"
  type: "Convolution"
  bottom: "inception_4a/output"
  top: "inception_4b/3x3_reduce"
  param {
    lr_mult: 1
    decay_mult: 1
  }
  param {
    lr_mult: 2
    decay_mult: 0
  }
  convolution_param {
    num_output: 112
    kernel_size: 1
    weight_filler {
      type: "xavier"
      std: 0.09
    }
    bias_filler {
      type: "constant"
      value: 0.2
    }
  }
}
layer {
  name: "inception_4b/relu_3x3_reduce"
  type: "ReLU"
  bottom: "inception_4b/3x3_reduce"
  top: "inception_4b/3x3_reduce"
}
layer {
  name: "inception_4b/3x3"
  type: "Convolution"
  bottom: "inception_4b/3x3_reduce"
  top: "inception_4b/3x3"
  param {
    lr_mult: 1
    decay_mult: 1
  }
  param {
    lr_mult: 2
    decay_mult: 0
  }
  convolution_param {
    num_output: 224
    pad: 1
    kernel_size: 3
    weight_filler {
      type: "xavier"
      std: 0.03
    }
    bias_filler {
      type: "constant"
      value: 0.2
    }
  }
}
layer {
  name: "inception_4b/relu_3x3"
  type: "ReLU"
  bottom: "inception_4b/3x3"
  top: "inception_4b/3x3"
}
layer {
  name: "inception_4b/5x5_reduce"
  type: "Convolution"
  bottom: "inception_4a/output"
  top: "inception_4b/5x5_reduce"
  param {
    lr_mult: 1
    decay_mult: 1
  }
  param {
    lr_mult: 2
    decay_mult: 0
  }
  convolution_param {
    num_output: 24
    kernel_size: 1
    weight_filler {
      type: "xavier"
      std: 0.2
    }
    bias_filler {
      type: "constant"
      value: 0.2
    }
  }
}
layer {
  name: "inception_4b/relu_5x5_reduce"
  type: "ReLU"
  bottom: "inception_4b/5x5_reduce"
  top: "inception_4b/5x5_reduce"
}
layer {
  name: "inception_4b/5x5"
  type: "Convolution"
  bottom: "inception_4b/5x5_reduce"
  top: "inception_4b/5x5"
  param {
    lr_mult: 1
    decay_mult: 1
  }
  param {
    lr_mult: 2
    decay_mult: 0
  }
  convolution_param {
    num_output: 64
    pad: 2
    kernel_size: 5
    weight_filler {
      type: "xavier"
      std: 0.03
    }
    bias_filler {
      type: "constant"
      value: 0.2
    }
  }
}
layer {
  name: "inception_4b/relu_5x5"
  type: "ReLU"
  bottom: "inception_4b/5x5"
  top: "inception_4b/5x5"
}
layer {
  name: "inception_4b/pool"
  type: "Pooling"
  bottom: "inception_4a/output"
  top: "inception_4b/pool"
  pooling_param {
    pool: MAX
    kernel_size: 3
    stride: 1
    pad: 1
  }
}
layer {
  name: "inception_4b/pool_proj"
  type: "Convolution"
  bottom: "inception_4b/pool"
  top: "inception_4b/pool_proj"
  param {
    lr_mult: 1
    decay_mult: 1
  }
  param {
    lr_mult: 2
    decay_mult: 0
  }
  convolution_param {
    num_output: 64
    kernel_size: 1
    weight_filler {
      type: "xavier"
      std: 0.1
    }
    bias_filler {
      type: "constant"
      value: 0.2
    }
  }
}
layer {
  name: "inception_4b/relu_pool_proj"
  type: "ReLU"
  bottom: "inception_4b/pool_proj"
  top: "inception_4b/pool_proj"
}
layer {
  name: "inception_4b/output"
  type: "Concat"
  bottom: "inception_4b/1x1"
  bottom: "inception_4b/3x3"
  bottom: "inception_4b/5x5"
  bottom: "inception_4b/pool_proj"
  top: "inception_4b/output"
}
layer {
  name: "inception_4c/1x1"
  type: "Convolution"
  bottom: "inception_4b/output"
  top: "inception_4c/1x1"
  param {
    lr_mult: 1
    decay_mult: 1
  }
  param {
    lr_mult: 2
    decay_mult: 0
  }
  convolution_param {
    num_output: 128
    kernel_size: 1
    weight_filler {
      type: "xavier"
      std: 0.03
    }
    bias_filler {
      type: "constant"
      value: 0.2
    }
  }
}
layer {
  name: "inception_4c/relu_1x1"
  type: "ReLU"
  bottom: "inception_4c/1x1"
  top: "inception_4c/1x1"
}
layer {
  name: "inception_4c/3x3_reduce"
  type: "Convolution"
  bottom: "inception_4b/output"
  top: "inception_4c/3x3_reduce"
  param {
    lr_mult: 1
    decay_mult: 1
  }
  param {
    lr_mult: 2
    decay_mult: 0
  }
  convolution_param {
    num_output: 128
    kernel_size: 1
    weight_filler {
      type: "xavier"
      std: 0.09
    }
    bias_filler {
      type: "constant"
      value: 0.2
    }
  }
}
layer {
  name: "inception_4c/relu_3x3_reduce"
  type: "ReLU"
  bottom: "inception_4c/3x3_reduce"
  top: "inception_4c/3x3_reduce"
}
layer {
  name: "inception_4c/3x3"
  type: "Convolution"
  bottom: "inception_4c/3x3_reduce"
  top: "inception_4c/3x3"
  param {
    lr_mult: 1
    decay_mult: 1
  }
  param {
    lr_mult: 2
    decay_mult: 0
  }
  convolution_param {
    num_output: 256
    pad: 1
    kernel_size: 3
    weight_filler {
      type: "xavier"
      std: 0.03
    }
    bias_filler {
      type: "constant"
      value: 0.2
    }
  }
}
layer {
  name: "inception_4c/relu_3x3"
  type: "ReLU"
  bottom: "inception_4c/3x3"
  top: "inception_4c/3x3"
}
layer {
  name: "inception_4c/5x5_reduce"
  type: "Convolution"
  bottom: "inception_4b/output"
  top: "inception_4c/5x5_reduce"
  param {
    lr_mult: 1
    decay_mult: 1
  }
  param {
    lr_mult: 2
    decay_mult: 0
  }
  convolution_param {
    num_output: 24
    kernel_size: 1
    weight_filler {
      type: "xavier"
      std: 0.2
    }
    bias_filler {
      type: "constant"
      value: 0.2
    }
  }
}
layer {
  name: "inception_4c/relu_5x5_reduce"
  type: "ReLU"
  bottom: "inception_4c/5x5_reduce"
  top: "inception_4c/5x5_reduce"
}
layer {
  name: "inception_4c/5x5"
  type: "Convolution"
  bottom: "inception_4c/5x5_reduce"
  top: "inception_4c/5x5"
  param {
    lr_mult: 1
    decay_mult: 1
  }
  param {
    lr_mult: 2
    decay_mult: 0
  }
  convolution_param {
    num_output: 64
    pad: 2
    kernel_size: 5
    weight_filler {
      type: "xavier"
      std: 0.03
    }
    bias_filler {
      type: "constant"
      value: 0.2
    }
  }
}
layer {
  name: "inception_4c/relu_5x5"
  type: "ReLU"
  bottom: "inception_4c/5x5"
  top: "inception_4c/5x5"
}
layer {
  name: "inception_4c/pool"
  type: "Pooling"
  bottom: "inception_4b/output"
  top: "inception_4c/pool"
  pooling_param {
    pool: MAX
    kernel_size: 3
    stride: 1
    pad: 1
  }
}
layer {
  name: "inception_4c/pool_proj"
  type: "Convolution"
  bottom: "inception_4c/pool"
  top: "inception_4c/pool_proj"
  param {
    lr_mult: 1
    decay_mult: 1
  }
  param {
    lr_mult: 2
    decay_mult: 0
  }
  convolution_param {
    num_output: 64
    kernel_size: 1
    weight_filler {
      type: "xavier"
      std: 0.1
    }
    bias_filler {
      type: "constant"
      value: 0.2
    }
  }
}
layer {
  name: "inception_4c/relu_pool_proj"
  type: "ReLU"
  bottom: "inception_4c/pool_proj"
  top: "inception_4c/pool_proj"
}
layer {
  name: "inception_4c/output"
  type: "Concat"
  bottom: "inception_4c/1x1"
  bottom: "inception_4c/3x3"
  bottom: "inception_4c/5x5"
  bottom: "inception_4c/pool_proj"
  top: "inception_4c/output"
}
layer {
  name: "inception_4d/1x1"
  type: "Convolution"
  bottom: "inception_4c/output"
  top: "inception_4d/1x1"
  param {
    lr_mult: 1
    decay_mult: 1
  }
  param {
    lr_mult: 2
    decay_mult: 0
  }
  convolution_param {
    num_output: 112
    kernel_size: 1
    weight_filler {
      type: "xavier"
      std: 0.03
    }
    bias_filler {
      type: "constant"
      value: 0.2
    }
  }
}
layer {
  name: "inception_4d/relu_1x1"
  type: "ReLU"
  bottom: "inception_4d/1x1"
  top: "inception_4d/1x1"
}
layer {
  name: "inception_4d/3x3_reduce"
  type: "Convolution"
  bottom: "inception_4c/output"
  top: "inception_4d/3x3_reduce"
  param {
    lr_mult: 1
    decay_mult: 1
  }
  param {
    lr_mult: 2
    decay_mult: 0
  }
  convolution_param {
    num_output: 144
    kernel_size: 1
    weight_filler {
      type: "xavier"
      std: 0.09
    }
    bias_filler {
      type: "constant"
      value: 0.2
    }
  }
}
layer {
  name: "inception_4d/relu_3x3_reduce"
  type: "ReLU"
  bottom: "inception_4d/3x3_reduce"
  top: "inception_4d/3x3_reduce"
}
layer {
  name: "inception_4d/3x3"
  type: "Convolution"
  bottom: "inception_4d/3x3_reduce"
  top: "inception_4d/3x3"
  param {
    lr_mult: 1
    decay_mult: 1
  }
  param {
    lr_mult: 2
    decay_mult: 0
  }
  convolution_param {
    num_output: 288
    pad: 1
    kernel_size: 3
    weight_filler {
      type: "xavier"
      std: 0.03
    }
    bias_filler {
      type: "constant"
      value: 0.2
    }
  }
}
layer {
  name: "inception_4d/relu_3x3"
  type: "ReLU"
  bottom: "inception_4d/3x3"
  top: "inception_4d/3x3"
}
layer {
  name: "inception_4d/5x5_reduce"
  type: "Convolution"
  bottom: "inception_4c/output"
  top: "inception_4d/5x5_reduce"
  param {
    lr_mult: 1
    decay_mult: 1
  }
  param {
    lr_mult: 2
    decay_mult: 0
  }
  convolution_param {
    num_output: 32
    kernel_size: 1
    weight_filler {
      type: "xavier"
      std: 0.2
    }
    bias_filler {
      type: "constant"
      value: 0.2
    }
  }
}
layer {
  name: "inception_4d/relu_5x5_reduce"
  type: "ReLU"
  bottom: "inception_4d/5x5_reduce"
  top: "inception_4d/5x5_reduce"
}
layer {
  name: "inception_4d/5x5"
  type: "Convolution"
  bottom: "inception_4d/5x5_reduce"
  top: "inception_4d/5x5"
  param {
    lr_mult: 1
    decay_mult: 1
  }
  param {
    lr_mult: 2
    decay_mult: 0
  }
  convolution_param {
    num_output: 64
    pad: 2
    kernel_size: 5
    weight_filler {
      type: "xavier"
      std: 0.03
    }
    bias_filler {
      type: "constant"
      value: 0.2
    }
  }
}
layer {
  name: "inception_4d/relu_5x5"
  type: "ReLU"
  bottom: "inception_4d/5x5"
  top: "inception_4d/5x5"
}
layer {
  name: "inception_4d/pool"
  type: "Pooling"
  bottom: "inception_4c/output"
  top: "inception_4d/pool"
  pooling_param {
    pool: MAX
    kernel_size: 3
    stride: 1
    pad: 1
  }
}
layer {
  name: "inception_4d/pool_proj"
  type: "Convolution"
  bottom: "inception_4d/pool"
  top: "inception_4d/pool_proj"
  param {
    lr_mult: 1
    decay_mult: 1
  }
  param {
    lr_mult: 2
    decay_mult: 0
  }
  convolution_param {
    num_output: 64
    kernel_size: 1
    weight_filler {
      type: "xavier"
      std: 0.1
    }
    bias_filler {
      type: "constant"
      value: 0.2
    }
  }
}
layer {
  name: "inception_4d/relu_pool_proj"
  type: "ReLU"
  bottom: "inception_4d/pool_proj"
  top: "inception_4d/pool_proj"
}
layer {
  name: "inception_4d/output"
  type: "Concat"
  bottom: "inception_4d/1x1"
  bottom: "inception_4d/3x3"
  bottom: "inception_4d/5x5"
  bottom: "inception_4d/pool_proj"
  top: "inception_4d/output"
}
layer {
  name: "inception_4e/1x1"
  type: "Convolution"
  bottom: "inception_4d/output"
  top: "inception_4e/1x1"
  param {
    lr_mult: 1
    decay_mult: 1
  }
  param {
    lr_mult: 2
    decay_mult: 0
  }
  convolution_param {
    num_output: 256
    kernel_size: 1
    weight_filler {
      type: "xavier"
      std: 0.03
    }
    bias_filler {
      type: "constant"
      value: 0.2
    }
  }
}
layer {
  name: "inception_4e/relu_1x1"
  type: "ReLU"
  bottom: "inception_4e/1x1"
  top: "inception_4e/1x1"
}
layer {
  name: "inception_4e/3x3_reduce"
  type: "Convolution"
  bottom: "inception_4d/output"
  top: "inception_4e/3x3_reduce"
  param {
    lr_mult: 1
    decay_mult: 1
  }
  param {
    lr_mult: 2
    decay_mult: 0
  }
  convolution_param {
    num_output: 160
    kernel_size: 1
    weight_filler {
      type: "xavier"
      std: 0.09
    }
    bias_filler {
      type: "constant"
      value: 0.2
    }
  }
}
layer {
  name: "inception_4e/relu_3x3_reduce"
  type: "ReLU"
  bottom: "inception_4e/3x3_reduce"
  top: "inception_4e/3x3_reduce"
}
layer {
  name: "inception_4e/3x3"
  type: "Convolution"
  bottom: "inception_4e/3x3_reduce"
  top: "inception_4e/3x3"
  param {
    lr_mult: 1
    decay_mult: 1
  }
  param {
    lr_mult: 2
    decay_mult: 0
  }
  convolution_param {
    num_output: 320
    pad: 1
    kernel_size: 3
    weight_filler {
      type: "xavier"
      std: 0.03
    }
    bias_filler {
      type: "constant"
      value: 0.2
    }
  }
}
layer {
  name: "inception_4e/relu_3x3"
  type: "ReLU"
  bottom: "inception_4e/3x3"
  top: "inception_4e/3x3"
}
layer {
  name: "inception_4e/5x5_reduce"
  type: "Convolution"
  bottom: "inception_4d/output"
  top: "inception_4e/5x5_reduce"
  param {
    lr_mult: 1
    decay_mult: 1
  }
  param {
    lr_mult: 2
    decay_mult: 0
  }
  convolution_param {
    num_output: 32
    kernel_size: 1
    weight_filler {
      type: "xavier"
      std: 0.2
    }
    bias_filler {
      type: "constant"
      value: 0.2
    }
  }
}
layer {
  name: "inception_4e/relu_5x5_reduce"
  type: "ReLU"
  bottom: "inception_4e/5x5_reduce"
  top: "inception_4e/5x5_reduce"
}
layer {
  name: "inception_4e/5x5"
  type: "Convolution"
  bottom: "inception_4e/5x5_reduce"
  top: "inception_4e/5x5"
  param {
    lr_mult: 1
    decay_mult: 1
  }
  param {
    lr_mult: 2
    decay_mult: 0
  }
  convolution_param {
    num_output: 128
    pad: 2
    kernel_size: 5
    weight_filler {
      type: "xavier"
      std: 0.03
    }
    bias_filler {
      type: "constant"
      value: 0.2
    }
  }
}
layer {
  name: "inception_4e/relu_5x5"
  type: "ReLU"
  bottom: "inception_4e/5x5"
  top: "inception_4e/5x5"
}
layer {
  name: "inception_4e/pool"
  type: "Pooling"
  bottom: "inception_4d/output"
  top: "inception_4e/pool"
  pooling_param {
    pool: MAX
    kernel_size: 3
    stride: 1
    pad: 1
  }
}
layer {
  name: "inception_4e/pool_proj"
  type: "Convolution"
  bottom: "inception_4e/pool"
  top: "inception_4e/pool_proj"
  param {
    lr_mult: 1
    decay_mult: 1
  }
  param {
    lr_mult: 2
    decay_mult: 0
  }
  convolution_param {
    num_output: 128
    kernel_size: 1
    weight_filler {
      type: "xavier"
      std: 0.1
    }
    bias_filler {
      type: "constant"
      value: 0.2
    }
  }
}
layer {
  name: "inception_4e/relu_pool_proj"
  type: "ReLU"
  bottom: "inception_4e/pool_proj"
  top: "inception_4e/pool_proj"
}
layer {
  name: "inception_4e/output"
  type: "Concat"
  bottom: "inception_4e/1x1"
  bottom: "inception_4e/3x3"
  bottom: "inception_4e/5x5"
  bottom: "inception_4e/pool_proj"
  top: "inception_4e/output"
}
layer {
  name: "CAM_conv"
  type: "Convolution"
  bottom: "inception_4e/output"
  top: "CAM_conv"
  param {
    lr_mult: 1
    decay_mult: 1
  }
  param {
    lr_mult: 2
    decay_mult: 0
  }
  convolution_param {
    num_output: 1024
    pad: 1
    kernel_size: 3
    group: 2
    weight_filler {
      type: "gaussian"
      std: 0.01
    }
    bias_filler {
      type: "constant"
      value: 1
    }
  }
}
layer {
  name: "CAM_relu"
  type: "ReLU"
  bottom: "CAM_conv"
  top: "CAM_conv"
}
layer {
  name: "CAM_pool"
  type: "Pooling"
  bottom: "CAM_conv"
  top: "CAM_pool"
  pooling_param {
    pool: AVE
    kernel_size: 14
    stride: 14
  }
}
layer {
  name: "CAM_fc_MIT"
  type: "InnerProduct"
  bottom: "CAM_pool"
  top: "CAM_fc_MIT"
  param {
    lr_mult: 10
    decay_mult: 1
  }
  param {
    lr_mult: 20
    decay_mult: 0
  }
  inner_product_param {
    num_output: 67
    weight_filler {
      type: "xavier"
    }
    bias_filler {
      type: "constant"
      value: 0
    }
  }
}
layer {
  name: "loss3/loss3"
  type: "SoftmaxWithLoss"
  bottom: "CAM_fc_MIT"
  bottom: "label"
  top: "loss3/loss3"
  loss_weight: 1
}
layer {
  name: "loss3/top-1"
  type: "Accuracy"
  bottom: "CAM_fc_MIT"
  bottom: "label"
  top: "loss3/top-1"
  include {
    phase: TEST
  }
}
layer {
  name: "loss3/top-5"
  type: "Accuracy"
  bottom: "CAM_fc_MIT"
  bottom: "label"
  top: "loss3/top-5"
  include {
    phase: TEST
  }
  accuracy_param {
    top_k: 5
  }
}
I0602 17:04:25.823537  8321 layer_factory.hpp:77] Creating layer data
I0602 17:04:25.823627  8321 net.cpp:91] Creating Layer data
I0602 17:04:25.823657  8321 net.cpp:399] data -> data
I0602 17:04:25.823695  8321 net.cpp:399] data -> label
I0602 17:04:25.823732  8321 image_data_layer.cpp:38] Opening file val.txt
I0602 17:04:25.824306  8321 image_data_layer.cpp:53] A total of 533 images.
I0602 17:04:25.828049  8321 image_data_layer.cpp:80] output data size: 50,3,224,224
I0602 17:04:25.884537  8321 net.cpp:141] Setting up data
I0602 17:04:25.884629  8321 net.cpp:148] Top shape: 50 3 224 224 (7526400)
I0602 17:04:25.884661  8321 net.cpp:148] Top shape: 50 (50)
I0602 17:04:25.884686  8321 net.cpp:156] Memory required for data: 30105800
I0602 17:04:25.884716  8321 layer_factory.hpp:77] Creating layer label_data_1_split
I0602 17:04:25.884749  8321 net.cpp:91] Creating Layer label_data_1_split
I0602 17:04:25.884774  8321 net.cpp:425] label_data_1_split <- label
I0602 17:04:25.884801  8321 net.cpp:399] label_data_1_split -> label_data_1_split_0
I0602 17:04:25.884835  8321 net.cpp:399] label_data_1_split -> label_data_1_split_1
I0602 17:04:25.884865  8321 net.cpp:399] label_data_1_split -> label_data_1_split_2
I0602 17:04:25.884975  8321 net.cpp:141] Setting up label_data_1_split
I0602 17:04:25.885009  8321 net.cpp:148] Top shape: 50 (50)
I0602 17:04:25.885032  8321 net.cpp:148] Top shape: 50 (50)
I0602 17:04:25.885058  8321 net.cpp:148] Top shape: 50 (50)
I0602 17:04:25.885079  8321 net.cpp:156] Memory required for data: 30106400
I0602 17:04:25.885102  8321 layer_factory.hpp:77] Creating layer conv1/7x7_s2
I0602 17:04:25.885139  8321 net.cpp:91] Creating Layer conv1/7x7_s2
I0602 17:04:25.885164  8321 net.cpp:425] conv1/7x7_s2 <- data
I0602 17:04:25.885192  8321 net.cpp:399] conv1/7x7_s2 -> conv1/7x7_s2
I0602 17:04:25.885680  8321 net.cpp:141] Setting up conv1/7x7_s2
I0602 17:04:25.885718  8321 net.cpp:148] Top shape: 50 64 112 112 (40140800)
I0602 17:04:25.885745  8321 net.cpp:156] Memory required for data: 190669600
I0602 17:04:25.885778  8321 layer_factory.hpp:77] Creating layer conv1/relu_7x7
I0602 17:04:25.885808  8321 net.cpp:91] Creating Layer conv1/relu_7x7
I0602 17:04:25.885830  8321 net.cpp:425] conv1/relu_7x7 <- conv1/7x7_s2
I0602 17:04:25.885855  8321 net.cpp:386] conv1/relu_7x7 -> conv1/7x7_s2 (in-place)
I0602 17:04:25.885885  8321 net.cpp:141] Setting up conv1/relu_7x7
I0602 17:04:25.885910  8321 net.cpp:148] Top shape: 50 64 112 112 (40140800)
I0602 17:04:25.885934  8321 net.cpp:156] Memory required for data: 351232800
I0602 17:04:25.885956  8321 layer_factory.hpp:77] Creating layer pool1/3x3_s2
I0602 17:04:25.885983  8321 net.cpp:91] Creating Layer pool1/3x3_s2
I0602 17:04:25.886006  8321 net.cpp:425] pool1/3x3_s2 <- conv1/7x7_s2
I0602 17:04:25.886040  8321 net.cpp:399] pool1/3x3_s2 -> pool1/3x3_s2
I0602 17:04:25.886118  8321 net.cpp:141] Setting up pool1/3x3_s2
I0602 17:04:25.886150  8321 net.cpp:148] Top shape: 50 64 56 56 (10035200)
I0602 17:04:25.886174  8321 net.cpp:156] Memory required for data: 391373600
I0602 17:04:25.886200  8321 layer_factory.hpp:77] Creating layer pool1/norm1
I0602 17:04:25.886229  8321 net.cpp:91] Creating Layer pool1/norm1
I0602 17:04:25.886250  8321 net.cpp:425] pool1/norm1 <- pool1/3x3_s2
I0602 17:04:25.886276  8321 net.cpp:399] pool1/norm1 -> pool1/norm1
I0602 17:04:25.886348  8321 net.cpp:141] Setting up pool1/norm1
I0602 17:04:25.886376  8321 net.cpp:148] Top shape: 50 64 56 56 (10035200)
I0602 17:04:25.886397  8321 net.cpp:156] Memory required for data: 431514400
I0602 17:04:25.886420  8321 layer_factory.hpp:77] Creating layer conv2/3x3_reduce
I0602 17:04:25.886474  8321 net.cpp:91] Creating Layer conv2/3x3_reduce
I0602 17:04:25.886502  8321 net.cpp:425] conv2/3x3_reduce <- pool1/norm1
I0602 17:04:25.886528  8321 net.cpp:399] conv2/3x3_reduce -> conv2/3x3_reduce
I0602 17:04:25.886909  8321 net.cpp:141] Setting up conv2/3x3_reduce
I0602 17:04:25.886945  8321 net.cpp:148] Top shape: 50 64 56 56 (10035200)
I0602 17:04:25.886968  8321 net.cpp:156] Memory required for data: 471655200
I0602 17:04:25.886999  8321 layer_factory.hpp:77] Creating layer conv2/relu_3x3_reduce
I0602 17:04:25.887028  8321 net.cpp:91] Creating Layer conv2/relu_3x3_reduce
I0602 17:04:25.887051  8321 net.cpp:425] conv2/relu_3x3_reduce <- conv2/3x3_reduce
I0602 17:04:25.887076  8321 net.cpp:386] conv2/relu_3x3_reduce -> conv2/3x3_reduce (in-place)
I0602 17:04:25.887104  8321 net.cpp:141] Setting up conv2/relu_3x3_reduce
I0602 17:04:25.887130  8321 net.cpp:148] Top shape: 50 64 56 56 (10035200)
I0602 17:04:25.887153  8321 net.cpp:156] Memory required for data: 511796000
I0602 17:04:25.887176  8321 layer_factory.hpp:77] Creating layer conv2/3x3
I0602 17:04:25.887207  8321 net.cpp:91] Creating Layer conv2/3x3
I0602 17:04:25.887230  8321 net.cpp:425] conv2/3x3 <- conv2/3x3_reduce
I0602 17:04:25.887259  8321 net.cpp:399] conv2/3x3 -> conv2/3x3
I0602 17:04:25.892881  8321 net.cpp:141] Setting up conv2/3x3
I0602 17:04:25.892961  8321 net.cpp:148] Top shape: 50 192 56 56 (30105600)
I0602 17:04:25.892987  8321 net.cpp:156] Memory required for data: 632218400
I0602 17:04:25.893023  8321 layer_factory.hpp:77] Creating layer conv2/relu_3x3
I0602 17:04:25.893057  8321 net.cpp:91] Creating Layer conv2/relu_3x3
I0602 17:04:25.893084  8321 net.cpp:425] conv2/relu_3x3 <- conv2/3x3
I0602 17:04:25.893110  8321 net.cpp:386] conv2/relu_3x3 -> conv2/3x3 (in-place)
I0602 17:04:25.893139  8321 net.cpp:141] Setting up conv2/relu_3x3
I0602 17:04:25.893164  8321 net.cpp:148] Top shape: 50 192 56 56 (30105600)
I0602 17:04:25.893187  8321 net.cpp:156] Memory required for data: 752640800
I0602 17:04:25.893208  8321 layer_factory.hpp:77] Creating layer conv2/norm2
I0602 17:04:25.893235  8321 net.cpp:91] Creating Layer conv2/norm2
I0602 17:04:25.893257  8321 net.cpp:425] conv2/norm2 <- conv2/3x3
I0602 17:04:25.893285  8321 net.cpp:399] conv2/norm2 -> conv2/norm2
I0602 17:04:25.893360  8321 net.cpp:141] Setting up conv2/norm2
I0602 17:04:25.893393  8321 net.cpp:148] Top shape: 50 192 56 56 (30105600)
I0602 17:04:25.893414  8321 net.cpp:156] Memory required for data: 873063200
I0602 17:04:25.893436  8321 layer_factory.hpp:77] Creating layer pool2/3x3_s2
I0602 17:04:25.893462  8321 net.cpp:91] Creating Layer pool2/3x3_s2
I0602 17:04:25.893488  8321 net.cpp:425] pool2/3x3_s2 <- conv2/norm2
I0602 17:04:25.893515  8321 net.cpp:399] pool2/3x3_s2 -> pool2/3x3_s2
I0602 17:04:25.893592  8321 net.cpp:141] Setting up pool2/3x3_s2
I0602 17:04:25.893625  8321 net.cpp:148] Top shape: 50 192 28 28 (7526400)
I0602 17:04:25.893648  8321 net.cpp:156] Memory required for data: 903168800
I0602 17:04:25.893669  8321 layer_factory.hpp:77] Creating layer pool2/3x3_s2_pool2/3x3_s2_0_split
I0602 17:04:25.893695  8321 net.cpp:91] Creating Layer pool2/3x3_s2_pool2/3x3_s2_0_split
I0602 17:04:25.893718  8321 net.cpp:425] pool2/3x3_s2_pool2/3x3_s2_0_split <- pool2/3x3_s2
I0602 17:04:25.893743  8321 net.cpp:399] pool2/3x3_s2_pool2/3x3_s2_0_split -> pool2/3x3_s2_pool2/3x3_s2_0_split_0
I0602 17:04:25.893770  8321 net.cpp:399] pool2/3x3_s2_pool2/3x3_s2_0_split -> pool2/3x3_s2_pool2/3x3_s2_0_split_1
I0602 17:04:25.893798  8321 net.cpp:399] pool2/3x3_s2_pool2/3x3_s2_0_split -> pool2/3x3_s2_pool2/3x3_s2_0_split_2
I0602 17:04:25.893824  8321 net.cpp:399] pool2/3x3_s2_pool2/3x3_s2_0_split -> pool2/3x3_s2_pool2/3x3_s2_0_split_3
I0602 17:04:25.893918  8321 net.cpp:141] Setting up pool2/3x3_s2_pool2/3x3_s2_0_split
I0602 17:04:25.893949  8321 net.cpp:148] Top shape: 50 192 28 28 (7526400)
I0602 17:04:25.893973  8321 net.cpp:148] Top shape: 50 192 28 28 (7526400)
I0602 17:04:25.893997  8321 net.cpp:148] Top shape: 50 192 28 28 (7526400)
I0602 17:04:25.894042  8321 net.cpp:148] Top shape: 50 192 28 28 (7526400)
I0602 17:04:25.894085  8321 net.cpp:156] Memory required for data: 1023591200
I0602 17:04:25.894109  8321 layer_factory.hpp:77] Creating layer inception_3a/1x1
I0602 17:04:25.894142  8321 net.cpp:91] Creating Layer inception_3a/1x1
I0602 17:04:25.894168  8321 net.cpp:425] inception_3a/1x1 <- pool2/3x3_s2_pool2/3x3_s2_0_split_0
I0602 17:04:25.894196  8321 net.cpp:399] inception_3a/1x1 -> inception_3a/1x1
I0602 17:04:25.894690  8321 net.cpp:141] Setting up inception_3a/1x1
I0602 17:04:25.894727  8321 net.cpp:148] Top shape: 50 64 28 28 (2508800)
I0602 17:04:25.894752  8321 net.cpp:156] Memory required for data: 1033626400
I0602 17:04:25.894779  8321 layer_factory.hpp:77] Creating layer inception_3a/relu_1x1
I0602 17:04:25.894806  8321 net.cpp:91] Creating Layer inception_3a/relu_1x1
I0602 17:04:25.894829  8321 net.cpp:425] inception_3a/relu_1x1 <- inception_3a/1x1
I0602 17:04:25.894855  8321 net.cpp:386] inception_3a/relu_1x1 -> inception_3a/1x1 (in-place)
I0602 17:04:25.894882  8321 net.cpp:141] Setting up inception_3a/relu_1x1
I0602 17:04:25.894909  8321 net.cpp:148] Top shape: 50 64 28 28 (2508800)
I0602 17:04:25.894930  8321 net.cpp:156] Memory required for data: 1043661600
I0602 17:04:25.894951  8321 layer_factory.hpp:77] Creating layer inception_3a/3x3_reduce
I0602 17:04:25.894981  8321 net.cpp:91] Creating Layer inception_3a/3x3_reduce
I0602 17:04:25.895007  8321 net.cpp:425] inception_3a/3x3_reduce <- pool2/3x3_s2_pool2/3x3_s2_0_split_1
I0602 17:04:25.895035  8321 net.cpp:399] inception_3a/3x3_reduce -> inception_3a/3x3_reduce
I0602 17:04:25.895581  8321 net.cpp:141] Setting up inception_3a/3x3_reduce
I0602 17:04:25.895614  8321 net.cpp:148] Top shape: 50 96 28 28 (3763200)
I0602 17:04:25.895634  8321 net.cpp:156] Memory required for data: 1058714400
I0602 17:04:25.895665  8321 layer_factory.hpp:77] Creating layer inception_3a/relu_3x3_reduce
I0602 17:04:25.895694  8321 net.cpp:91] Creating Layer inception_3a/relu_3x3_reduce
I0602 17:04:25.895717  8321 net.cpp:425] inception_3a/relu_3x3_reduce <- inception_3a/3x3_reduce
I0602 17:04:25.895745  8321 net.cpp:386] inception_3a/relu_3x3_reduce -> inception_3a/3x3_reduce (in-place)
I0602 17:04:25.895776  8321 net.cpp:141] Setting up inception_3a/relu_3x3_reduce
I0602 17:04:25.895803  8321 net.cpp:148] Top shape: 50 96 28 28 (3763200)
I0602 17:04:25.895828  8321 net.cpp:156] Memory required for data: 1073767200
I0602 17:04:25.895851  8321 layer_factory.hpp:77] Creating layer inception_3a/3x3
I0602 17:04:25.895882  8321 net.cpp:91] Creating Layer inception_3a/3x3
I0602 17:04:25.895906  8321 net.cpp:425] inception_3a/3x3 <- inception_3a/3x3_reduce
I0602 17:04:25.895936  8321 net.cpp:399] inception_3a/3x3 -> inception_3a/3x3
I0602 17:04:25.899478  8321 net.cpp:141] Setting up inception_3a/3x3
I0602 17:04:25.899544  8321 net.cpp:148] Top shape: 50 128 28 28 (5017600)
I0602 17:04:25.899571  8321 net.cpp:156] Memory required for data: 1093837600
I0602 17:04:25.899600  8321 layer_factory.hpp:77] Creating layer inception_3a/relu_3x3
I0602 17:04:25.899629  8321 net.cpp:91] Creating Layer inception_3a/relu_3x3
I0602 17:04:25.899653  8321 net.cpp:425] inception_3a/relu_3x3 <- inception_3a/3x3
I0602 17:04:25.899680  8321 net.cpp:386] inception_3a/relu_3x3 -> inception_3a/3x3 (in-place)
I0602 17:04:25.899710  8321 net.cpp:141] Setting up inception_3a/relu_3x3
I0602 17:04:25.899736  8321 net.cpp:148] Top shape: 50 128 28 28 (5017600)
I0602 17:04:25.899758  8321 net.cpp:156] Memory required for data: 1113908000
I0602 17:04:25.899781  8321 layer_factory.hpp:77] Creating layer inception_3a/5x5_reduce
I0602 17:04:25.899811  8321 net.cpp:91] Creating Layer inception_3a/5x5_reduce
I0602 17:04:25.899835  8321 net.cpp:425] inception_3a/5x5_reduce <- pool2/3x3_s2_pool2/3x3_s2_0_split_2
I0602 17:04:25.899864  8321 net.cpp:399] inception_3a/5x5_reduce -> inception_3a/5x5_reduce
I0602 17:04:25.900257  8321 net.cpp:141] Setting up inception_3a/5x5_reduce
I0602 17:04:25.900293  8321 net.cpp:148] Top shape: 50 16 28 28 (627200)
I0602 17:04:25.900326  8321 net.cpp:156] Memory required for data: 1116416800
I0602 17:04:25.900374  8321 layer_factory.hpp:77] Creating layer inception_3a/relu_5x5_reduce
I0602 17:04:25.900401  8321 net.cpp:91] Creating Layer inception_3a/relu_5x5_reduce
I0602 17:04:25.900425  8321 net.cpp:425] inception_3a/relu_5x5_reduce <- inception_3a/5x5_reduce
I0602 17:04:25.900449  8321 net.cpp:386] inception_3a/relu_5x5_reduce -> inception_3a/5x5_reduce (in-place)
I0602 17:04:25.900477  8321 net.cpp:141] Setting up inception_3a/relu_5x5_reduce
I0602 17:04:25.900502  8321 net.cpp:148] Top shape: 50 16 28 28 (627200)
I0602 17:04:25.900524  8321 net.cpp:156] Memory required for data: 1118925600
I0602 17:04:25.900545  8321 layer_factory.hpp:77] Creating layer inception_3a/5x5
I0602 17:04:25.900576  8321 net.cpp:91] Creating Layer inception_3a/5x5
I0602 17:04:25.900604  8321 net.cpp:425] inception_3a/5x5 <- inception_3a/5x5_reduce
I0602 17:04:25.900632  8321 net.cpp:399] inception_3a/5x5 -> inception_3a/5x5
I0602 17:04:25.901124  8321 net.cpp:141] Setting up inception_3a/5x5
I0602 17:04:25.901159  8321 net.cpp:148] Top shape: 50 32 28 28 (1254400)
I0602 17:04:25.901180  8321 net.cpp:156] Memory required for data: 1123943200
I0602 17:04:25.901206  8321 layer_factory.hpp:77] Creating layer inception_3a/relu_5x5
I0602 17:04:25.901232  8321 net.cpp:91] Creating Layer inception_3a/relu_5x5
I0602 17:04:25.901254  8321 net.cpp:425] inception_3a/relu_5x5 <- inception_3a/5x5
I0602 17:04:25.901278  8321 net.cpp:386] inception_3a/relu_5x5 -> inception_3a/5x5 (in-place)
I0602 17:04:25.901305  8321 net.cpp:141] Setting up inception_3a/relu_5x5
I0602 17:04:25.901332  8321 net.cpp:148] Top shape: 50 32 28 28 (1254400)
I0602 17:04:25.901355  8321 net.cpp:156] Memory required for data: 1128960800
I0602 17:04:25.901376  8321 layer_factory.hpp:77] Creating layer inception_3a/pool
I0602 17:04:25.901403  8321 net.cpp:91] Creating Layer inception_3a/pool
I0602 17:04:25.901427  8321 net.cpp:425] inception_3a/pool <- pool2/3x3_s2_pool2/3x3_s2_0_split_3
I0602 17:04:25.901453  8321 net.cpp:399] inception_3a/pool -> inception_3a/pool
I0602 17:04:25.901526  8321 net.cpp:141] Setting up inception_3a/pool
I0602 17:04:25.901557  8321 net.cpp:148] Top shape: 50 192 28 28 (7526400)
I0602 17:04:25.901578  8321 net.cpp:156] Memory required for data: 1159066400
I0602 17:04:25.901600  8321 layer_factory.hpp:77] Creating layer inception_3a/pool_proj
I0602 17:04:25.901629  8321 net.cpp:91] Creating Layer inception_3a/pool_proj
I0602 17:04:25.901653  8321 net.cpp:425] inception_3a/pool_proj <- inception_3a/pool
I0602 17:04:25.901679  8321 net.cpp:399] inception_3a/pool_proj -> inception_3a/pool_proj
I0602 17:04:25.902125  8321 net.cpp:141] Setting up inception_3a/pool_proj
I0602 17:04:25.902165  8321 net.cpp:148] Top shape: 50 32 28 28 (1254400)
…
I0602 17:04:25.916043  8321 net.cpp:141] Setting up inception_4a/1x1
I0602 17:04:25.916084  8321 net.cpp:148] Top shape: 50 192 14 14 (1881600)
I0602 17:04:25.916107  8321 net.cpp:156] Memory required for data: 1787520800
I0602 17:04:25.916136  8321 layer_factory.hpp:77] Creating layer inception_4a/relu_1x1
I0602 17:04:25.916170  8321 net.cpp:91] Creating Layer inception_4a/relu_1x1
I0602 17:04:25.916209  8321 net.cpp:425] inception_4a/relu_1x1 <- inception_4a/1x1
I0602 17:04:25.916236  8321 net.cpp:386] inception_4a/relu_1x1 -> inception_4a/1x1 (in-place)
I0602 17:04:25.916265  8321 net.cpp:141] Setting up inception_4a/relu_1x1
I0602 17:04:25.916290  8321 net.cpp:148] Top shape: 50 192 14 14 (1881600)
I0602 17:04:25.916311  8321 net.cpp:156] Memory required for data: 1795047200
I0602 17:04:25.916333  8321 layer_factory.hpp:77] Creating layer inception_4a/3x3_reduce
I0602 17:04:25.916366  8321 net.cpp:91] Creating Layer inception_4a/3x3_reduce
I0602 17:04:25.916391  8321 net.cpp:425] inception_4a/3x3_reduce <- pool3/3x3_s2_pool3/3x3_s2_0_split_1
I0602 17:04:25.916422  8321 net.cpp:399] inception_4a/3x3_reduce -> inception_4a/3x3_reduce
I0602 17:04:25.917294  8321 net.cpp:141] Setting up inception_4a/3x3_reduce
I0602 17:04:25.917332  8321 net.cpp:148] Top shape: 50 96 14 14 (940800)
I0602 17:04:25.917356  8321 net.cpp:156] Memory required for data: 1798810400
I0602 17:04:25.917397  8321 layer_factory.hpp:77] Creating layer inception_4a/relu_3x3_reduce
I0602 17:04:25.917424  8321 net.cpp:91] Creating Layer inception_4a/relu_3x3_reduce
I0602 17:04:25.917448  8321 net.cpp:425] inception_4a/relu_3x3_reduce <- inception_4a/3x3_reduce
I0602 17:04:25.917471  8321 net.cpp:386] inception_4a/relu_3x3_reduce -> inception_4a/3x3_reduce (in-place)
I0602 17:04:25.917500  8321 net.cpp:141] Setting up inception_4a/relu_3x3_reduce
I0602 17:04:25.917526  8321 net.cpp:148] Top shape: 50 96 14 14 (940800)
I0602 17:04:25.917546  8321 net.cpp:156] Memory required for data: 1802573600
I0602 17:04:25.917567  8321 layer_factory.hpp:77] Creating layer inception_4a/3x3
I0602 17:04:25.917600  8321 net.cpp:91] Creating Layer inception_4a/3x3
I0602 17:04:25.917624  8321 net.cpp:425] inception_4a/3x3 <- inception_4a/3x3_reduce
I0602 17:04:25.917654  8321 net.cpp:399] inception_4a/3x3 -> inception_4a/3x3
I0602 17:04:25.920574  8321 net.cpp:141] Setting up inception_4a/3x3
I0602 17:04:25.920642  8321 net.cpp:148] Top shape: 50 208 14 14 (2038400)
I0602 17:04:25.920668  8321 net.cpp:156] Memory required for data: 1810727200
I0602 17:04:25.920697  8321 layer_factory.hpp:77] Creating layer inception_4a/relu_3x3
I0602 17:04:25.920725  8321 net.cpp:91] Creating Layer inception_4a/relu_3x3
I0602 17:04:25.920750  8321 net.cpp:425] inception_4a/relu_3x3 <- inception_4a/3x3
I0602 17:04:25.920776  8321 net.cpp:386] inception_4a/relu_3x3 -> inception_4a/3x3 (in-place)
I0602 17:04:25.920806  8321 net.cpp:141] Setting up inception_4a/relu_3x3
I0602 17:04:25.920832  8321 net.cpp:148] Top shape: 50 208 14 14 (2038400)
I0602 17:04:25.920855  8321 net.cpp:156] Memory required for data: 1818880800
I0602 17:04:25.920876  8321 layer_factory.hpp:77] Creating layer inception_4a/5x5_reduce
I0602 17:04:25.920909  8321 net.cpp:91] Creating Layer inception_4a/5x5_reduce
I0602 17:04:25.920933  8321 net.cpp:425] inception_4a/5x5_reduce <- pool3/3x3_s2_pool3/3x3_s2_0_split_2
I0602 17:04:25.920961  8321 net.cpp:399] inception_4a/5x5_reduce -> inception_4a/5x5_reduce
I0602 17:04:25.921428  8321 net.cpp:141] Setting up inception_4a/5x5_reduce
I0602 17:04:25.921465  8321 net.cpp:148] Top shape: 50 16 14 14 (156800)
I0602 17:04:25.921489  8321 net.cpp:156] Memory required for data: 1819508000
I0602 17:04:25.921515  8321 layer_factory.hpp:77] Creating layer inception_4a/relu_5x5_reduce
I0602 17:04:25.921545  8321 net.cpp:91] Creating Layer inception_4a/relu_5x5_reduce
I0602 17:04:25.921568  8321 net.cpp:425] inception_4a/relu_5x5_reduce <- inception_4a/5x5_reduce
I0602 17:04:25.921594  8321 net.cpp:386] inception_4a/relu_5x5_reduce -> inception_4a/5x5_reduce (in-place)
I0602 17:04:25.921622  8321 net.cpp:141] Setting up inception_4a/relu_5x5_reduce
I0602 17:04:25.921648  8321 net.cpp:148] Top shape: 50 16 14 14 (156800)
I0602 17:04:25.921670  8321 net.cpp:156] Memory required for data: 1820135200
I0602 17:04:25.921691  8321 layer_factory.hpp:77] Creating layer inception_4a/5x5
I0602 17:04:25.921733  8321 net.cpp:91] Creating Layer inception_4a/5x5
I0602 17:04:25.921773  8321 net.cpp:425] inception_4a/5x5 <- inception_4a/5x5_reduce
I0602 17:04:25.921802  8321 net.cpp:399] inception_4a/5x5 -> inception_4a/5x5
I0602 17:04:25.922389  8321 net.cpp:141] Setting up inception_4a/5x5
I0602 17:04:25.922431  8321 net.cpp:148] Top shape: 50 48 14 14 (470400)
I0602 17:04:25.922454  8321 net.cpp:156] Memory required for data: 1822016800
I0602 17:04:25.922482  8321 layer_factory.hpp:77] Creating layer inception_4a/relu_5x5
I0602 17:04:25.922508  8321 net.cpp:91] Creating Layer inception_4a/relu_5x5
I0602 17:04:25.922530  8321 net.cpp:425] inception_4a/relu_5x5 <- inception_4a/5x5
I0602 17:04:25.922554  8321 net.cpp:386] inception_4a/relu_5x5 -> inception_4a/5x5 (in-place)
I0602 17:04:25.922582  8321 net.cpp:141] Setting up inception_4a/relu_5x5
I0602 17:04:25.922607  8321 net.cpp:148] Top shape: 50 48 14 14 (470400)
I0602 17:04:25.922628  8321 net.cpp:156] Memory required for data: 1823898400
I0602 17:04:25.922649  8321 layer_factory.hpp:77] Creating layer inception_4a/pool
I0602 17:04:25.922677  8321 net.cpp:91] Creating Layer inception_4a/pool
I0602 17:04:25.922700  8321 net.cpp:425] inception_4a/pool <- pool3/3x3_s2_pool3/3x3_s2_0_split_3
I0602 17:04:25.922729  8321 net.cpp:399] inception_4a/pool -> inception_4a/pool
I0602 17:04:25.922814  8321 net.cpp:141] Setting up inception_4a/pool
I0602 17:04:25.922849  8321 net.cpp:148] Top shape: 50 480 14 14 (4704000)
I0602 17:04:25.922871  8321 net.cpp:156] Memory required for data: 1842714400
I0602 17:04:25.922893  8321 layer_factory.hpp:77] Creating layer inception_4a/pool_proj
I0602 17:04:25.922925  8321 net.cpp:91] Creating Layer inception_4a/pool_proj
I0602 17:04:25.922950  8321 net.cpp:425] inception_4a/pool_proj <- inception_4a/pool
I0602 17:04:25.922976  8321 net.cpp:399] inception_4a/pool_proj -> inception_4a/pool_proj
I0602 17:04:25.923666  8321 net.cpp:141] Setting up inception_4a/pool_proj
I0602 17:04:25.923703  8321 net.cpp:148] Top shape: 50 64 14 14 (627200)
I0602 17:04:25.923727  8321 net.cpp:156] Memory required for data: 1845223200
I0602 17:04:25.923753  8321 layer_factory.hpp:77] Creating layer inception_4a/relu_pool_proj
I0602 17:04:25.923779  8321 net.cpp:91] Creating Layer inception_4a/relu_pool_proj
I0602 17:04:25.923802  8321 net.cpp:425] inception_4a/relu_pool_proj <- inception_4a/pool_proj
I0602 17:04:25.923830  8321 net.cpp:386] inception_4a/relu_pool_proj -> inception_4a/pool_proj (in-place)
I0602 17:04:25.923859  8321 net.cpp:141] Setting up inception_4a/relu_pool_proj
I0602 17:04:25.923884  8321 net.cpp:148] Top shape: 50 64 14 14 (627200)
I0602 17:04:25.923907  8321 net.cpp:156] Memory required for data: 1847732000
I0602 17:04:25.923928  8321 layer_factory.hpp:77] Creating layer inception_4a/output
I0602 17:04:25.923954  8321 net.cpp:91] Creating Layer inception_4a/output
I0602 17:04:25.923975  8321 net.cpp:425] inception_4a/output <- inception_4a/1x1
I0602 17:04:25.924000  8321 net.cpp:425] inception_4a/output <- inception_4a/3x3
I0602 17:04:25.924022  8321 net.cpp:425] inception_4a/output <- inception_4a/5x5
I0602 17:04:25.924049  8321 net.cpp:425] inception_4a/output <- inception_4a/pool_proj
I0602 17:04:25.924077  8321 net.cpp:399] inception_4a/output -> inception_4a/output
I0602 17:04:25.924144  8321 net.cpp:141] Setting up inception_4a/output
I0602 17:04:25.924176  8321 net.cpp:148] Top shape: 50 512 14 14 (5017600)
I0602 17:04:25.924198  8321 net.cpp:156] Memory required for data: 1867802400
I0602 17:04:25.924219  8321 layer_factory.hpp:77] Creating layer inception_4a/output_inception_4a/output_0_split
I0602 17:04:25.924245  8321 net.cpp:91] Creating Layer inception_4a/output_inception_4a/output_0_split
I0602 17:04:25.924270  8321 net.cpp:425] inception_4a/output_inception_4a/output_0_split <- inception_4a/output
I0602 17:04:25.924298  8321 net.cpp:399] inception_4a/output_inception_4a/output_0_split -> inception_4a/output_inception_4a/output_0_split_0
I0602 17:04:25.924326  8321 net.cpp:399] inception_4a/output_inception_4a/output_0_split -> inception_4a/output_inception_4a/output_0_split_1
I0602 17:04:25.924376  8321 net.cpp:399] inception_4a/output_inception_4a/output_0_split -> inception_4a/output_inception_4a/output_0_split_2
I0602 17:04:25.924407  8321 net.cpp:399] inception_4a/output_inception_4a/output_0_split -> inception_4a/output_inception_4a/output_0_split_3
I0602 17:04:25.924520  8321 net.cpp:141] Setting up inception_4a/output_inception_4a/output_0_split
I0602 17:04:25.924553  8321 net.cpp:148] Top shape: 50 512 14 14 (5017600)
I0602 17:04:25.924577  8321 net.cpp:148] Top shape: 50 512 14 14 (5017600)
I0602 17:04:25.924603  8321 net.cpp:148] Top shape: 50 512 14 14 (5017600)
I0602 17:04:25.924628  8321 net.cpp:148] Top shape: 50 512 14 14 (5017600)
I0602 17:04:25.924649  8321 net.cpp:156] Memory required for data: 1948084000
I0602 17:04:25.924671  8321 layer_factory.hpp:77] Creating layer inception_4b/1x1
I0602 17:04:25.924703  8321 net.cpp:91] Creating Layer inception_4b/1x1
I0602 17:04:25.924727  8321 net.cpp:425] inception_4b/1x1 <- inception_4a/output_inception_4a/output_0_split_0
I0602 17:04:25.924754  8321 net.cpp:399] inception_4b/1x1 -> inception_4b/1x1
I0602 17:04:25.925973  8321 net.cpp:141] Setting up inception_4b/1x1
I0602 17:04:25.926012  8321 net.cpp:148] Top shape: 50 160 14 14 (1568000)
I0602 17:04:25.926041  8321 net.cpp:156] Memory required for data: 1954356000
I0602 17:04:25.926072  8321 layer_factory.hpp:77] Creating layer inception_4b/relu_1x1
I0602 17:04:25.926100  8321 net.cpp:91] Creating Layer inception_4b/relu_1x1
I0602 17:04:25.926122  8321 net.cpp:425] inception_4b/relu_1x1 <- inception_4b/1x1
I0602 17:04:25.926151  8321 net.cpp:386] inception_4b/relu_1x1 -> inception_4b/1x1 (in-place)
I0602 17:04:25.926178  8321 net.cpp:141] Setting up inception_4b/relu_1x1
I0602 17:04:25.926203  8321 net.cpp:148] Top shape: 50 160 14 14 (1568000)
I0602 17:04:25.926225  8321 net.cpp:156] Memory required for data: 1960628000
I0602 17:04:25.926246  8321 layer_factory.hpp:77] Creating layer inception_4b/3x3_reduce
I0602 17:04:25.926280  8321 net.cpp:91] Creating Layer inception_4b/3x3_reduce
I0602 17:04:25.926302  8321 net.cpp:425] inception_4b/3x3_reduce <- inception_4a/output_inception_4a/output_0_split_1
I0602 17:04:25.926331  8321 net.cpp:399] inception_4b/3x3_reduce -> inception_4b/3x3_reduce
I0602 17:04:25.927299  8321 net.cpp:141] Setting up inception_4b/3x3_reduce
I0602 17:04:25.927338  8321 net.cpp:148] Top shape: 50 112 14 14 (1097600)
I0602 17:04:25.927361  8321 net.cpp:156] Memory required for data: 1965018400
I0602 17:04:25.927389  8321 layer_factory.hpp:77] Creating layer inception_4b/relu_3x3_reduce
I0602 17:04:25.927417  8321 net.cpp:91] Creating Layer inception_4b/relu_3x3_reduce
I0602 17:04:25.927439  8321 net.cpp:425] inception_4b/relu_3x3_reduce <- inception_4b/3x3_reduce
I0602 17:04:25.927465  8321 net.cpp:386] inception_4b/relu_3x3_reduce -> inception_4b/3x3_reduce (in-place)
I0602 17:04:25.927492  8321 net.cpp:141] Setting up inception_4b/relu_3x3_reduce
I0602 17:04:25.927517  8321 net.cpp:148] Top shape: 50 112 14 14 (1097600)
I0602 17:04:25.927538  8321 net.cpp:156] Memory required for data: 1969408800
I0602 17:04:25.927559  8321 layer_factory.hpp:77] Creating layer inception_4b/3x3
I0602 17:04:25.927593  8321 net.cpp:91] Creating Layer inception_4b/3x3
I0602 17:04:25.927616  8321 net.cpp:425] inception_4b/3x3 <- inception_4b/3x3_reduce
I0602 17:04:25.927644  8321 net.cpp:399] inception_4b/3x3 -> inception_4b/3x3
I0602 17:04:25.931047  8321 net.cpp:141] Setting up inception_4b/3x3
I0602 17:04:25.931113  8321 net.cpp:148] Top shape: 50 224 14 14 (2195200)
I0602 17:04:25.931138  8321 net.cpp:156] Memory required for data: 1978189600
I0602 17:04:25.931166  8321 layer_factory.hpp:77] Creating layer inception_4b/relu_3x3
I0602 17:04:25.931207  8321 net.cpp:91] Creating Layer inception_4b/relu_3x3
I0602 17:04:25.931232  8321 net.cpp:425] inception_4b/relu_3x3 <- inception_4b/3x3
I0602 17:04:25.931262  8321 net.cpp:386] inception_4b/relu_3x3 -> inception_4b/3x3 (in-place)
I0602 17:04:25.931300  8321 net.cpp:141] Setting up inception_4b/relu_3x3
I0602 17:04:25.931342  8321 net.cpp:148] Top shape: 50 224 14 14 (2195200)
I0602 17:04:25.931366  8321 net.cpp:156] Memory required for data: 1986970400
I0602 17:04:25.931388  8321 layer_factory.hpp:77] Creating layer inception_4b/5x5_reduce
I0602 17:04:25.931421  8321 net.cpp:91] Creating Layer inception_4b/5x5_reduce
I0602 17:04:25.931445  8321 net.cpp:425] inception_4b/5x5_reduce <- inception_4a/output_inception_4a/output_0_split_2
I0602 17:04:25.931473  8321 net.cpp:399] inception_4b/5x5_reduce -> inception_4b/5x5_reduce
I0602 17:04:25.931988  8321 net.cpp:141] Setting up inception_4b/5x5_reduce
I0602 17:04:25.932024  8321 net.cpp:148] Top shape: 50 24 14 14 (235200)
I0602 17:04:25.932044  8321 net.cpp:156] Memory required for data: 1987911200
I0602 17:04:25.932070  8321 layer_factory.hpp:77] Creating layer inception_4b/relu_5x5_reduce
I0602 17:04:25.932095  8321 net.cpp:91] Creating Layer inception_4b/relu_5x5_reduce
I0602 17:04:25.932117  8321 net.cpp:425] inception_4b/relu_5x5_reduce <- inception_4b/5x5_reduce
I0602 17:04:25.932145  8321 net.cpp:386] inception_4b/relu_5x5_reduce -> inception_4b/5x5_reduce (in-place)
I0602 17:04:25.932174  8321 net.cpp:141] Setting up inception_4b/relu_5x5_reduce
I0602 17:04:25.932200  8321 net.cpp:148] Top shape: 50 24 14 14 (235200)
I0602 17:04:25.932221  8321 net.cpp:156] Memory required for data: 1988852000
I0602 17:04:25.932245  8321 layer_factory.hpp:77] Creating layer inception_4b/5x5
I0602 17:04:25.932274  8321 net.cpp:91] Creating Layer inception_4b/5x5
I0602 17:04:25.932297  8321 net.cpp:425] inception_4b/5x5 <- inception_4b/5x5_reduce
I0602 17:04:25.932328  8321 net.cpp:399] inception_4b/5x5 -> inception_4b/5x5
I0602 17:04:25.933101  8321 net.cpp:141] Setting up inception_4b/5x5
I0602 17:04:25.933141  8321 net.cpp:148] Top shape: 50 64 14 14 (627200)
I0602 17:04:25.933167  8321 net.cpp:156] Memory required for data: 1991360800
I0602 17:04:25.933198  8321 layer_factory.hpp:77] Creating layer inception_4b/relu_5x5
I0602 17:04:25.933225  8321 net.cpp:91] Creating Layer inception_4b/relu_5x5
I0602 17:04:25.933249  8321 net.cpp:425] inception_4b/relu_5x5 <- inception_4b/5x5
I0602 17:04:25.933275  8321 net.cpp:386] inception_4b/relu_5x5 -> inception_4b/5x5 (in-place)
I0602 17:04:25.933302  8321 net.cpp:141] Setting up inception_4b/relu_5x5
I0602 17:04:25.933327  8321 net.cpp:148] Top shape: 50 64 14 14 (627200)
I0602 17:04:25.933348  8321 net.cpp:156] Memory required for data: 1993869600
I0602 17:04:25.933369  8321 layer_factory.hpp:77] Creating layer inception_4b/pool
I0602 17:04:25.933398  8321 net.cpp:91] Creating Layer inception_4b/pool
I0602 17:04:25.933423  8321 net.cpp:425] inception_4b/pool <- inception_4a/output_inception_4a/output_0_split_3
I0602 17:04:25.933450  8321 net.cpp:399] inception_4b/pool -> inception_4b/pool
I0602 17:04:25.933534  8321 net.cpp:141] Setting up inception_4b/pool
I0602 17:04:25.933568  8321 net.cpp:148] Top shape: 50 512 14 14 (5017600)
I0602 17:04:25.933589  8321 net.cpp:156] Memory required for data: 2013940000
I0602 17:04:25.933611  8321 layer_factory.hpp:77] Creating layer inception_4b/pool_proj
I0602 17:04:25.933645  8321 net.cpp:91] Creating Layer inception_4b/pool_proj
I0602 17:04:25.933670  8321 net.cpp:425] inception_4b/pool_proj <- inception_4b/pool
I0602 17:04:25.933699  8321 net.cpp:399] inception_4b/pool_proj -> inception_4b/pool_proj
I0602 17:04:25.934396  8321 net.cpp:141] Setting up inception_4b/pool_proj
I0602 17:04:25.934437  8321 net.cpp:148] Top shape: 50 64 14 14 (627200)
I0602 17:04:25.934460  8321 net.cpp:156] Memory required for data: 2016448800
I0602 17:04:25.934489  8321 layer_factory.hpp:77] Creating layer inception_4b/relu_pool_proj
I0602 17:04:25.934515  8321 net.cpp:91] Creating Layer inception_4b/relu_pool_proj
I0602 17:04:25.934538  8321 net.cpp:425] inception_4b/relu_pool_proj <- inception_4b/pool_proj
I0602 17:04:25.934564  8321 net.cpp:386] inception_4b/relu_pool_proj -> inception_4b/pool_proj (in-place)
I0602 17:04:25.934592  8321 net.cpp:141] Setting up inception_4b/relu_pool_proj
I0602 17:04:25.934638  8321 net.cpp:148] Top shape: 50 64 14 14 (627200)
I0602 17:04:25.934661  8321 net.cpp:156] Memory required for data: 2018957600
I0602 17:04:25.934684  8321 layer_factory.hpp:77] Creating layer inception_4b/output
I0602 17:04:25.934710  8321 net.cpp:91] Creating Layer inception_4b/output
I0602 17:04:25.934732  8321 net.cpp:425] inception_4b/output <- inception_4b/1x1
I0602 17:04:25.934756  8321 net.cpp:425] inception_4b/output <- inception_4b/3x3
I0602 17:04:25.934779  8321 net.cpp:425] inception_4b/output <- inception_4b/5x5
I0602 17:04:25.934803  8321 net.cpp:425] inception_4b/output <- inception_4b/pool_proj
I0602 17:04:25.934831  8321 net.cpp:399] inception_4b/output -> inception_4b/output
I0602 17:04:25.934892  8321 net.cpp:141] Setting up inception_4b/output
I0602 17:04:25.934926  8321 net.cpp:148] Top shape: 50 512 14 14 (5017600)
I0602 17:04:25.934947  8321 net.cpp:156] Memory required for data: 2039028000
I0602 17:04:25.934968  8321 layer_factory.hpp:77] Creating layer inception_4b/output_inception_4b/output_0_split
I0602 17:04:25.934998  8321 net.cpp:91] Creating Layer inception_4b/output_inception_4b/output_0_split
I0602 17:04:25.935022  8321 net.cpp:425] inception_4b/output_inception_4b/output_0_split <- inception_4b/output
I0602 17:04:25.935047  8321 net.cpp:399] inception_4b/output_inception_4b/output_0_split -> inception_4b/output_inception_4b/output_0_split_0
I0602 17:04:25.935080  8321 net.cpp:399] inception_4b/output_inception_4b/output_0_split -> inception_4b/output_inception_4b/output_0_split_1
I0602 17:04:25.935111  8321 net.cpp:399] inception_4b/output_inception_4b/output_0_split -> inception_4b/output_inception_4b/output_0_split_2
I0602 17:04:25.935142  8321 net.cpp:399] inception_4b/output_inception_4b/output_0_split -> inception_4b/output_inception_4b/output_0_split_3
I0602 17:04:25.935261  8321 net.cpp:141] Setting up inception_4b/output_inception_4b/output_0_split
I0602 17:04:25.935297  8321 net.cpp:148] Top shape: 50 512 14 14 (5017600)
I0602 17:04:25.935320  8321 net.cpp:148] Top shape: 50 512 14 14 (5017600)
I0602 17:04:25.935344  8321 net.cpp:148] Top shape: 50 512 14 14 (5017600)
I0602 17:04:25.935369  8321 net.cpp:148] Top shape: 50 512 14 14 (5017600)
I0602 17:04:25.935389  8321 net.cpp:156] Memory required for data: 2119309600
I0602 17:04:25.935410  8321 layer_factory.hpp:77] Creating layer inception_4c/1x1
I0602 17:04:25.935443  8321 net.cpp:91] Creating Layer inception_4c/1x1
I0602 17:04:25.935467  8321 net.cpp:425] inception_4c/1x1 <- inception_4b/output_inception_4b/output_0_split_0
I0602 17:04:25.935497  8321 net.cpp:399] inception_4c/1x1 -> inception_4c/1x1
I0602 17:04:25.937206  8321 net.cpp:141] Setting up inception_4c/1x1
I0602 17:04:25.937257  8321 net.cpp:148] Top shape: 50 128 14 14 (1254400)
I0602 17:04:25.937281  8321 net.cpp:156] Memory required for data: 2124327200
I0602 17:04:25.937310  8321 layer_factory.hpp:77] Creating layer inception_4c/relu_1x1
I0602 17:04:25.937341  8321 net.cpp:91] Creating Layer inception_4c/relu_1x1
I0602 17:04:25.937366  8321 net.cpp:425] inception_4c/relu_1x1 <- inception_4c/1x1
I0602 17:04:25.937391  8321 net.cpp:386] inception_4c/relu_1x1 -> inception_4c/1x1 (in-place)
I0602 17:04:25.937420  8321 net.cpp:141] Setting up inception_4c/relu_1x1
I0602 17:04:25.937446  8321 net.cpp:148] Top shape: 50 128 14 14 (1254400)
I0602 17:04:25.937468  8321 net.cpp:156] Memory required for data: 2129344800
I0602 17:04:25.937489  8321 layer_factory.hpp:77] Creating layer inception_4c/3x3_reduce
I0602 17:04:25.937523  8321 net.cpp:91] Creating Layer inception_4c/3x3_reduce
I0602 17:04:25.937547  8321 net.cpp:425] inception_4c/3x3_reduce <- inception_4b/output_inception_4b/output_0_split_1
I0602 17:04:25.937575  8321 net.cpp:399] inception_4c/3x3_reduce -> inception_4c/3x3_reduce
I0602 17:04:25.938602  8321 net.cpp:141] Setting up inception_4c/3x3_reduce
I0602 17:04:25.938644  8321 net.cpp:148] Top shape: 50 128 14 14 (1254400)
I0602 17:04:25.938669  8321 net.cpp:156] Memory required for data: 2134362400
I0602 17:04:25.938710  8321 layer_factory.hpp:77] Creating layer inception_4c/relu_3x3_reduce
I0602 17:04:25.938760  8321 net.cpp:91] Creating Layer inception_4c/relu_3x3_reduce
I0602 17:04:25.938784  8321 net.cpp:425] inception_4c/relu_3x3_reduce <- inception_4c/3x3_reduce
I0602 17:04:25.938812  8321 net.cpp:386] inception_4c/relu_3x3_reduce -> inception_4c/3x3_reduce (in-place)
I0602 17:04:25.938843  8321 net.cpp:141] Setting up inception_4c/relu_3x3_reduce
I0602 17:04:25.938868  8321 net.cpp:148] Top shape: 50 128 14 14 (1254400)
I0602 17:04:25.938890  8321 net.cpp:156] Memory required for data: 2139380000
I0602 17:04:25.938912  8321 layer_factory.hpp:77] Creating layer inception_4c/3x3
I0602 17:04:25.938946  8321 net.cpp:91] Creating Layer inception_4c/3x3
I0602 17:04:25.938971  8321 net.cpp:425] inception_4c/3x3 <- inception_4c/3x3_reduce
I0602 17:04:25.938998  8321 net.cpp:399] inception_4c/3x3 -> inception_4c/3x3
I0602 17:04:25.942751  8321 net.cpp:141] Setting up inception_4c/3x3
I0602 17:04:25.942821  8321 net.cpp:148] Top shape: 50 256 14 14 (2508800)
I0602 17:04:25.942847  8321 net.cpp:156] Memory required for data: 2149415200
I0602 17:04:25.942879  8321 layer_factory.hpp:77] Creating layer inception_4c/relu_3x3
I0602 17:04:25.942912  8321 net.cpp:91] Creating Layer inception_4c/relu_3x3
I0602 17:04:25.942939  8321 net.cpp:425] inception_4c/relu_3x3 <- inception_4c/3x3
I0602 17:04:25.942965  8321 net.cpp:386] inception_4c/relu_3x3 -> inception_4c/3x3 (in-place)
I0602 17:04:25.942996  8321 net.cpp:141] Setting up inception_4c/relu_3x3
I0602 17:04:25.943022  8321 net.cpp:148] Top shape: 50 256 14 14 (2508800)
I0602 17:04:25.943043  8321 net.cpp:156] Memory required for data: 2159450400
I0602 17:04:25.943065  8321 layer_factory.hpp:77] Creating layer inception_4c/5x5_reduce
I0602 17:04:25.943097  8321 net.cpp:91] Creating Layer inception_4c/5x5_reduce
I0602 17:04:25.943120  8321 net.cpp:425] inception_4c/5x5_reduce <- inception_4b/output_inception_4b/output_0_split_2
I0602 17:04:25.943150  8321 net.cpp:399] inception_4c/5x5_reduce -> inception_4c/5x5_reduce
I0602 17:04:25.943689  8321 net.cpp:141] Setting up inception_4c/5x5_reduce
I0602 17:04:25.943727  8321 net.cpp:148] Top shape: 50 24 14 14 (235200)
I0602 17:04:25.943749  8321 net.cpp:156] Memory required for data: 2160391200
I0602 17:04:25.943778  8321 layer_factory.hpp:77] Creating layer inception_4c/relu_5x5_reduce
I0602 17:04:25.943804  8321 net.cpp:91] Creating Layer inception_4c/relu_5x5_reduce
I0602 17:04:25.943828  8321 net.cpp:425] inception_4c/relu_5x5_reduce <- inception_4c/5x5_reduce
I0602 17:04:25.943855  8321 net.cpp:386] inception_4c/relu_5x5_reduce -> inception_4c/5x5_reduce (in-place)
I0602 17:04:25.943882  8321 net.cpp:141] Setting up inception_4c/relu_5x5_reduce
I0602 17:04:25.943907  8321 net.cpp:148] Top shape: 50 24 14 14 (235200)
I0602 17:04:25.943928  8321 net.cpp:156] Memory required for data: 2161332000
I0602 17:04:25.943950  8321 layer_factory.hpp:77] Creating layer inception_4c/5x5
I0602 17:04:25.943982  8321 net.cpp:91] Creating Layer inception_4c/5x5
I0602 17:04:25.944006  8321 net.cpp:425] inception_4c/5x5 <- inception_4c/5x5_reduce
I0602 17:04:25.944036  8321 net.cpp:399] inception_4c/5x5 -> inception_4c/5x5
I0602 17:04:25.944792  8321 net.cpp:141] Setting up inception_4c/5x5
I0602 17:04:25.944829  8321 net.cpp:148] Top shape: 50 64 14 14 (627200)
I0602 17:04:25.944852  8321 net.cpp:156] Memory required for data: 2163840800
I0602 17:04:25.944880  8321 layer_factory.hpp:77] Creating layer inception_4c/relu_5x5
I0602 17:04:25.944911  8321 net.cpp:91] Creating Layer inception_4c/relu_5x5
I0602 17:04:25.944933  8321 net.cpp:425] inception_4c/relu_5x5 <- inception_4c/5x5
I0602 17:04:25.944957  8321 net.cpp:386] inception_4c/relu_5x5 -> inception_4c/5x5 (in-place)
I0602 17:04:25.944983  8321 net.cpp:141] Setting up inception_4c/relu_5x5
I0602 17:04:25.945005  8321 net.cpp:148] Top shape: 50 64 14 14 (627200)
I0602 17:04:25.945024  8321 net.cpp:156] Memory required for data: 2166349600
I0602 17:04:25.945046  8321 layer_factory.hpp:77] Creating layer inception_4c/pool
I0602 17:04:25.945099  8321 net.cpp:91] Creating Layer inception_4c/pool
I0602 17:04:25.945125  8321 net.cpp:425] inception_4c/pool <- inception_4b/output_inception_4b/output_0_split_3
I0602 17:04:25.945153  8321 net.cpp:399] inception_4c/pool -> inception_4c/pool
I0602 17:04:25.945238  8321 net.cpp:141] Setting up inception_4c/pool
I0602 17:04:25.945271  8321 net.cpp:148] Top shape: 50 512 14 14 (5017600)
I0602 17:04:25.945294  8321 net.cpp:156] Memory required for data: 2186420000
I0602 17:04:25.945315  8321 layer_factory.hpp:77] Creating layer inception_4c/pool_proj
I0602 17:04:25.945348  8321 net.cpp:91] Creating Layer inception_4c/pool_proj
I0602 17:04:25.945372  8321 net.cpp:425] inception_4c/pool_proj <- inception_4c/pool
I0602 17:04:25.945399  8321 net.cpp:399] inception_4c/pool_proj -> inception_4c/pool_proj
I0602 17:04:25.946137  8321 net.cpp:141] Setting up inception_4c/pool_proj
I0602 17:04:25.946178  8321 net.cpp:148] Top shape: 50 64 14 14 (627200)
I0602 17:04:25.946202  8321 net.cpp:156] Memory required for data: 2188928800
I0602 17:04:25.946249  8321 layer_factory.hpp:77] Creating layer inception_4c/relu_pool_proj
I0602 17:04:25.946280  8321 net.cpp:91] Creating Layer inception_4c/relu_pool_proj
I0602 17:04:25.946302  8321 net.cpp:425] inception_4c/relu_pool_proj <- inception_4c/pool_proj
I0602 17:04:25.946328  8321 net.cpp:386] inception_4c/relu_pool_proj -> inception_4c/pool_proj (in-place)
I0602 17:04:25.946357  8321 net.cpp:141] Setting up inception_4c/relu_pool_proj
I0602 17:04:25.946380  8321 net.cpp:148] Top shape: 50 64 14 14 (627200)
I0602 17:04:25.946401  8321 net.cpp:156] Memory required for data: 2191437600
I0602 17:04:25.946422  8321 layer_factory.hpp:77] Creating layer inception_4c/output
I0602 17:04:25.946447  8321 net.cpp:91] Creating Layer inception_4c/output
I0602 17:04:25.946470  8321 net.cpp:425] inception_4c/output <- inception_4c/1x1
I0602 17:04:25.946493  8321 net.cpp:425] inception_4c/output <- inception_4c/3x3
I0602 17:04:25.946516  8321 net.cpp:425] inception_4c/output <- inception_4c/5x5
I0602 17:04:25.946538  8321 net.cpp:425] inception_4c/output <- inception_4c/pool_proj
I0602 17:04:25.946565  8321 net.cpp:399] inception_4c/output -> inception_4c/output
I0602 17:04:25.946624  8321 net.cpp:141] Setting up inception_4c/output
I0602 17:04:25.946653  8321 net.cpp:148] Top shape: 50 512 14 14 (5017600)
I0602 17:04:25.946674  8321 net.cpp:156] Memory required for data: 2211508000
I0602 17:04:25.946696  8321 layer_factory.hpp:77] Creating layer inception_4c/output_inception_4c/output_0_split
I0602 17:04:25.946722  8321 net.cpp:91] Creating Layer inception_4c/output_inception_4c/output_0_split
I0602 17:04:25.946743  8321 net.cpp:425] inception_4c/output_inception_4c/output_0_split <- inception_4c/output
I0602 17:04:25.946773  8321 net.cpp:399] inception_4c/output_inception_4c/output_0_split -> inception_4c/output_inception_4c/output_0_split_0
I0602 17:04:25.946802  8321 net.cpp:399] inception_4c/output_inception_4c/output_0_split -> inception_4c/output_inception_4c/output_0_split_1
I0602 17:04:25.946831  8321 net.cpp:399] inception_4c/output_inception_4c/output_0_split -> inception_4c/output_inception_4c/output_0_split_2
I0602 17:04:25.946866  8321 net.cpp:399] inception_4c/output_inception_4c/output_0_split -> inception_4c/output_inception_4c/output_0_split_3
I0602 17:04:25.946991  8321 net.cpp:141] Setting up inception_4c/output_inception_4c/output_0_split
I0602 17:04:25.947026  8321 net.cpp:148] Top shape: 50 512 14 14 (5017600)
I0602 17:04:25.947052  8321 net.cpp:148] Top shape: 50 512 14 14 (5017600)
I0602 17:04:25.947077  8321 net.cpp:148] Top shape: 50 512 14 14 (5017600)
I0602 17:04:25.947100  8321 net.cpp:148] Top shape: 50 512 14 14 (5017600)
I0602 17:04:25.947121  8321 net.cpp:156] Memory required for data: 2291789600
I0602 17:04:25.947144  8321 layer_factory.hpp:77] Creating layer inception_4d/1x1
I0602 17:04:25.947176  8321 net.cpp:91] Creating Layer inception_4d/1x1
I0602 17:04:25.947201  8321 net.cpp:425] inception_4d/1x1 <- inception_4c/output_inception_4c/output_0_split_0
I0602 17:04:25.947249  8321 net.cpp:399] inception_4d/1x1 -> inception_4d/1x1
I0602 17:04:25.948212  8321 net.cpp:141] Setting up inception_4d/1x1
I0602 17:04:25.948249  8321 net.cpp:148] Top shape: 50 112 14 14 (1097600)
I0602 17:04:25.948272  8321 net.cpp:156] Memory required for data: 2296180000
I0602 17:04:25.948299  8321 layer_factory.hpp:77] Creating layer inception_4d/relu_1x1
I0602 17:04:25.948328  8321 net.cpp:91] Creating Layer inception_4d/relu_1x1
I0602 17:04:25.948351  8321 net.cpp:425] inception_4d/relu_1x1 <- inception_4d/1x1
I0602 17:04:25.948376  8321 net.cpp:386] inception_4d/relu_1x1 -> inception_4d/1x1 (in-place)
I0602 17:04:25.948405  8321 net.cpp:141] Setting up inception_4d/relu_1x1
I0602 17:04:25.948429  8321 net.cpp:148] Top shape: 50 112 14 14 (1097600)
I0602 17:04:25.948451  8321 net.cpp:156] Memory required for data: 2300570400
I0602 17:04:25.948472  8321 layer_factory.hpp:77] Creating layer inception_4d/3x3_reduce
I0602 17:04:25.948506  8321 net.cpp:91] Creating Layer inception_4d/3x3_reduce
I0602 17:04:25.948530  8321 net.cpp:425] inception_4d/3x3_reduce <- inception_4c/output_inception_4c/output_0_split_1
I0602 17:04:25.948559  8321 net.cpp:399] inception_4d/3x3_reduce -> inception_4d/3x3_reduce
I0602 17:04:25.949682  8321 net.cpp:141] Setting up inception_4d/3x3_reduce
I0602 17:04:25.949722  8321 net.cpp:148] Top shape: 50 144 14 14 (1411200)
I0602 17:04:25.949744  8321 net.cpp:156] Memory required for data: 2306215200
I0602 17:04:25.949772  8321 layer_factory.hpp:77] Creating layer inception_4d/relu_3x3_reduce
I0602 17:04:25.949798  8321 net.cpp:91] Creating Layer inception_4d/relu_3x3_reduce
I0602 17:04:25.949822  8321 net.cpp:425] inception_4d/relu_3x3_reduce <- inception_4d/3x3_reduce
I0602 17:04:25.949849  8321 net.cpp:386] inception_4d/relu_3x3_reduce -> inception_4d/3x3_reduce (in-place)
I0602 17:04:25.949878  8321 net.cpp:141] Setting up inception_4d/relu_3x3_reduce
I0602 17:04:25.949904  8321 net.cpp:148] Top shape: 50 144 14 14 (1411200)
I0602 17:04:25.949926  8321 net.cpp:156] Memory required for data: 2311860000
I0602 17:04:25.949947  8321 layer_factory.hpp:77] Creating layer inception_4d/3x3
I0602 17:04:25.949980  8321 net.cpp:91] Creating Layer inception_4d/3x3
I0602 17:04:25.950004  8321 net.cpp:425] inception_4d/3x3 <- inception_4d/3x3_reduce
I0602 17:04:25.950040  8321 net.cpp:399] inception_4d/3x3 -> inception_4d/3x3
I0602 17:04:25.955126  8321 net.cpp:141] Setting up inception_4d/3x3
I0602 17:04:25.955204  8321 net.cpp:148] Top shape: 50 288 14 14 (2822400)
I0602 17:04:25.955229  8321 net.cpp:156] Memory required for data: 2323149600
I0602 17:04:25.955260  8321 layer_factory.hpp:77] Creating layer inception_4d/relu_3x3
I0602 17:04:25.955288  8321 net.cpp:91] Creating Layer inception_4d/relu_3x3
I0602 17:04:25.955313  8321 net.cpp:425] inception_4d/relu_3x3 <- inception_4d/3x3
I0602 17:04:25.955340  8321 net.cpp:386] inception_4d/relu_3x3 -> inception_4d/3x3 (in-place)
I0602 17:04:25.955371  8321 net.cpp:141] Setting up inception_4d/relu_3x3
I0602 17:04:25.955396  8321 net.cpp:148] Top shape: 50 288 14 14 (2822400)
I0602 17:04:25.955417  8321 net.cpp:156] Memory required for data: 2334439200
I0602 17:04:25.955438  8321 layer_factory.hpp:77] Creating layer inception_4d/5x5_reduce
I0602 17:04:25.955473  8321 net.cpp:91] Creating Layer inception_4d/5x5_reduce
I0602 17:04:25.955498  8321 net.cpp:425] inception_4d/5x5_reduce <- inception_4c/output_inception_4c/output_0_split_2
I0602 17:04:25.955528  8321 net.cpp:399] inception_4d/5x5_reduce -> inception_4d/5x5_reduce
I0602 17:04:25.956095  8321 net.cpp:141] Setting up inception_4d/5x5_reduce
I0602 17:04:25.956135  8321 net.cpp:148] Top shape: 50 32 14 14 (313600)
I0602 17:04:25.956156  8321 net.cpp:156] Memory required for data: 2335693600
I0602 17:04:25.956183  8321 layer_factory.hpp:77] Creating layer inception_4d/relu_5x5_reduce
I0602 17:04:25.956209  8321 net.cpp:91] Creating Layer inception_4d/relu_5x5_reduce
I0602 17:04:25.956233  8321 net.cpp:425] inception_4d/relu_5x5_reduce <- inception_4d/5x5_reduce
I0602 17:04:25.956271  8321 net.cpp:386] inception_4d/relu_5x5_reduce -> inception_4d/5x5_reduce (in-place)
I0602 17:04:25.956316  8321 net.cpp:141] Setting up inception_4d/relu_5x5_reduce
I0602 17:04:25.956341  8321 net.cpp:148] Top shape: 50 32 14 14 (313600)
I0602 17:04:25.956362  8321 net.cpp:156] Memory required for data: 2336948000
I0602 17:04:25.956382  8321 layer_factory.hpp:77] Creating layer inception_4d/5x5
I0602 17:04:25.956409  8321 net.cpp:91] Creating Layer inception_4d/5x5
I0602 17:04:25.956431  8321 net.cpp:425] inception_4d/5x5 <- inception_4d/5x5_reduce
I0602 17:04:25.956462  8321 net.cpp:399] inception_4d/5x5 -> inception_4d/5x5
I0602 17:04:25.958073  8321 net.cpp:141] Setting up inception_4d/5x5
I0602 17:04:25.958125  8321 net.cpp:148] Top shape: 50 64 14 14 (627200)
I0602 17:04:25.958149  8321 net.cpp:156] Memory required for data: 2339456800
I0602 17:04:25.958178  8321 layer_factory.hpp:77] Creating layer inception_4d/relu_5x5
I0602 17:04:25.958206  8321 net.cpp:91] Creating Layer inception_4d/relu_5x5
I0602 17:04:25.958230  8321 net.cpp:425] inception_4d/relu_5x5 <- inception_4d/5x5
I0602 17:04:25.958259  8321 net.cpp:386] inception_4d/relu_5x5 -> inception_4d/5x5 (in-place)
I0602 17:04:25.958289  8321 net.cpp:141] Setting up inception_4d/relu_5x5
I0602 17:04:25.958317  8321 net.cpp:148] Top shape: 50 64 14 14 (627200)
I0602 17:04:25.958339  8321 net.cpp:156] Memory required for data: 2341965600
I0602 17:04:25.958361  8321 layer_factory.hpp:77] Creating layer inception_4d/pool
I0602 17:04:25.958389  8321 net.cpp:91] Creating Layer inception_4d/pool
I0602 17:04:25.958412  8321 net.cpp:425] inception_4d/pool <- inception_4c/output_inception_4c/output_0_split_3
I0602 17:04:25.958441  8321 net.cpp:399] inception_4d/pool -> inception_4d/pool
I0602 17:04:25.958528  8321 net.cpp:141] Setting up inception_4d/pool
I0602 17:04:25.958560  8321 net.cpp:148] Top shape: 50 512 14 14 (5017600)
I0602 17:04:25.958582  8321 net.cpp:156] Memory required for data: 2362036000
I0602 17:04:25.958605  8321 layer_factory.hpp:77] Creating layer inception_4d/pool_proj
I0602 17:04:25.958637  8321 net.cpp:91] Creating Layer inception_4d/pool_proj
I0602 17:04:25.958662  8321 net.cpp:425] inception_4d/pool_proj <- inception_4d/pool
I0602 17:04:25.958694  8321 net.cpp:399] inception_4d/pool_proj -> inception_4d/pool_proj
I0602 17:04:25.959403  8321 net.cpp:141] Setting up inception_4d/pool_proj
I0602 17:04:25.959440  8321 net.cpp:148] Top shape: 50 64 14 14 (627200)
I0602 17:04:25.959462  8321 net.cpp:156] Memory required for data: 2364544800
I0602 17:04:25.959489  8321 layer_factory.hpp:77] Creating layer inception_4d/relu_pool_proj
I0602 17:04:25.959517  8321 net.cpp:91] Creating Layer inception_4d/relu_pool_proj
I0602 17:04:25.959540  8321 net.cpp:425] inception_4d/relu_pool_proj <- inception_4d/pool_proj
I0602 17:04:25.959566  8321 net.cpp:386] inception_4d/relu_pool_proj -> inception_4d/pool_proj (in-place)
I0602 17:04:25.959594  8321 net.cpp:141] Setting up inception_4d/relu_pool_proj
I0602 17:04:25.959619  8321 net.cpp:148] Top shape: 50 64 14 14 (627200)
I0602 17:04:25.959640  8321 net.cpp:156] Memory required for data: 2367053600
I0602 17:04:25.959661  8321 layer_factory.hpp:77] Creating layer inception_4d/output
I0602 17:04:25.959688  8321 net.cpp:91] Creating Layer inception_4d/output
I0602 17:04:25.959712  8321 net.cpp:425] inception_4d/output <- inception_4d/1x1
I0602 17:04:25.959735  8321 net.cpp:425] inception_4d/output <- inception_4d/3x3
I0602 17:04:25.959758  8321 net.cpp:425] inception_4d/output <- inception_4d/5x5
I0602 17:04:25.959780  8321 net.cpp:425] inception_4d/output <- inception_4d/pool_proj
I0602 17:04:25.959805  8321 net.cpp:399] inception_4d/output -> inception_4d/output
I0602 17:04:25.959863  8321 net.cpp:141] Setting up inception_4d/output
I0602 17:04:25.959892  8321 net.cpp:148] Top shape: 50 528 14 14 (5174400)
I0602 17:04:25.959913  8321 net.cpp:156] Memory required for data: 2387751200
I0602 17:04:25.959934  8321 layer_factory.hpp:77] Creating layer inception_4d/output_inception_4d/output_0_split
I0602 17:04:25.959971  8321 net.cpp:91] Creating Layer inception_4d/output_inception_4d/output_0_split
I0602 17:04:25.960013  8321 net.cpp:425] inception_4d/output_inception_4d/output_0_split <- inception_4d/output
I0602 17:04:25.960041  8321 net.cpp:399] inception_4d/output_inception_4d/output_0_split -> inception_4d/output_inception_4d/output_0_split_0
I0602 17:04:25.960072  8321 net.cpp:399] inception_4d/output_inception_4d/output_0_split -> inception_4d/output_inception_4d/output_0_split_1
I0602 17:04:25.960100  8321 net.cpp:399] inception_4d/output_inception_4d/output_0_split -> inception_4d/output_inception_4d/output_0_split_2
I0602 17:04:25.960129  8321 net.cpp:399] inception_4d/output_inception_4d/output_0_split -> inception_4d/output_inception_4d/output_0_split_3
I0602 17:04:25.960237  8321 net.cpp:141] Setting up inception_4d/output_inception_4d/output_0_split
I0602 17:04:25.960269  8321 net.cpp:148] Top shape: 50 528 14 14 (5174400)
I0602 17:04:25.960294  8321 net.cpp:148] Top shape: 50 528 14 14 (5174400)
I0602 17:04:25.960317  8321 net.cpp:148] Top shape: 50 528 14 14 (5174400)
I0602 17:04:25.960341  8321 net.cpp:148] Top shape: 50 528 14 14 (5174400)
I0602 17:04:25.960362  8321 net.cpp:156] Memory required for data: 2470541600
I0602 17:04:25.960383  8321 layer_factory.hpp:77] Creating layer inception_4e/1x1
I0602 17:04:25.960417  8321 net.cpp:91] Creating Layer inception_4e/1x1
I0602 17:04:25.960440  8321 net.cpp:425] inception_4e/1x1 <- inception_4d/output_inception_4d/output_0_split_0
I0602 17:04:25.960470  8321 net.cpp:399] inception_4e/1x1 -> inception_4e/1x1
I0602 17:04:25.962911  8321 net.cpp:141] Setting up inception_4e/1x1
I0602 17:04:25.962966  8321 net.cpp:148] Top shape: 50 256 14 14 (2508800)
I0602 17:04:25.962990  8321 net.cpp:156] Memory required for data: 2480576800
I0602 17:04:25.963019  8321 layer_factory.hpp:77] Creating layer inception_4e/relu_1x1
I0602 17:04:25.963049  8321 net.cpp:91] Creating Layer inception_4e/relu_1x1
I0602 17:04:25.963074  8321 net.cpp:425] inception_4e/relu_1x1 <- inception_4e/1x1
I0602 17:04:25.963101  8321 net.cpp:386] inception_4e/relu_1x1 -> inception_4e/1x1 (in-place)
I0602 17:04:25.963130  8321 net.cpp:141] Setting up inception_4e/relu_1x1
I0602 17:04:25.963155  8321 net.cpp:148] Top shape: 50 256 14 14 (2508800)
I0602 17:04:25.963177  8321 net.cpp:156] Memory required for data: 2490612000
I0602 17:04:25.963198  8321 layer_factory.hpp:77] Creating layer inception_4e/3x3_reduce
I0602 17:04:25.963232  8321 net.cpp:91] Creating Layer inception_4e/3x3_reduce
I0602 17:04:25.963256  8321 net.cpp:425] inception_4e/3x3_reduce <- inception_4d/output_inception_4d/output_0_split_1
I0602 17:04:25.963284  8321 net.cpp:399] inception_4e/3x3_reduce -> inception_4e/3x3_reduce
I0602 17:04:25.964561  8321 net.cpp:141] Setting up inception_4e/3x3_reduce
I0602 17:04:25.964606  8321 net.cpp:148] Top shape: 50 160 14 14 (1568000)
I0602 17:04:25.964628  8321 net.cpp:156] Memory required for data: 2496884000
I0602 17:04:25.964656  8321 layer_factory.hpp:77] Creating layer inception_4e/relu_3x3_reduce
I0602 17:04:25.964682  8321 net.cpp:91] Creating Layer inception_4e/relu_3x3_reduce
I0602 17:04:25.964705  8321 net.cpp:425] inception_4e/relu_3x3_reduce <- inception_4e/3x3_reduce
I0602 17:04:25.964732  8321 net.cpp:386] inception_4e/relu_3x3_reduce -> inception_4e/3x3_reduce (in-place)
I0602 17:04:25.964761  8321 net.cpp:141] Setting up inception_4e/relu_3x3_reduce
I0602 17:04:25.964786  8321 net.cpp:148] Top shape: 50 160 14 14 (1568000)
I0602 17:04:25.964807  8321 net.cpp:156] Memory required for data: 2503156000
I0602 17:04:25.964828  8321 layer_factory.hpp:77] Creating layer inception_4e/3x3
I0602 17:04:25.964861  8321 net.cpp:91] Creating Layer inception_4e/3x3
I0602 17:04:25.964885  8321 net.cpp:425] inception_4e/3x3 <- inception_4e/3x3_reduce
I0602 17:04:25.964913  8321 net.cpp:399] inception_4e/3x3 -> inception_4e/3x3
I0602 17:04:25.971086  8321 net.cpp:141] Setting up inception_4e/3x3
I0602 17:04:25.971169  8321 net.cpp:148] Top shape: 50 320 14 14 (3136000)
I0602 17:04:25.971204  8321 net.cpp:156] Memory required for data: 2515700000
I0602 17:04:25.971252  8321 layer_factory.hpp:77] Creating layer inception_4e/relu_3x3
I0602 17:04:25.971287  8321 net.cpp:91] Creating Layer inception_4e/relu_3x3
I0602 17:04:25.971315  8321 net.cpp:425] inception_4e/relu_3x3 <- inception_4e/3x3
I0602 17:04:25.971343  8321 net.cpp:386] inception_4e/relu_3x3 -> inception_4e/3x3 (in-place)
I0602 17:04:25.971376  8321 net.cpp:141] Setting up inception_4e/relu_3x3
I0602 17:04:25.971403  8321 net.cpp:148] Top shape: 50 320 14 14 (3136000)
I0602 17:04:25.971426  8321 net.cpp:156] Memory required for data: 2528244000
I0602 17:04:25.971448  8321 layer_factory.hpp:77] Creating layer inception_4e/5x5_reduce
I0602 17:04:25.971484  8321 net.cpp:91] Creating Layer inception_4e/5x5_reduce
I0602 17:04:25.971509  8321 net.cpp:425] inception_4e/5x5_reduce <- inception_4d/output_inception_4d/output_0_split_2
I0602 17:04:25.971539  8321 net.cpp:399] inception_4e/5x5_reduce -> inception_4e/5x5_reduce
I0602 17:04:25.972123  8321 net.cpp:141] Setting up inception_4e/5x5_reduce
I0602 17:04:25.972162  8321 net.cpp:148] Top shape: 50 32 14 14 (313600)
I0602 17:04:25.972183  8321 net.cpp:156] Memory required for data: 2529498400
I0602 17:04:25.972213  8321 layer_factory.hpp:77] Creating layer inception_4e/relu_5x5_reduce
I0602 17:04:25.972242  8321 net.cpp:91] Creating Layer inception_4e/relu_5x5_reduce
I0602 17:04:25.972265  8321 net.cpp:425] inception_4e/relu_5x5_reduce <- inception_4e/5x5_reduce
I0602 17:04:25.972293  8321 net.cpp:386] inception_4e/relu_5x5_reduce -> inception_4e/5x5_reduce (in-place)
I0602 17:04:25.972322  8321 net.cpp:141] Setting up inception_4e/relu_5x5_reduce
I0602 17:04:25.972347  8321 net.cpp:148] Top shape: 50 32 14 14 (313600)
I0602 17:04:25.972368  8321 net.cpp:156] Memory required for data: 2530752800
I0602 17:04:25.972389  8321 layer_factory.hpp:77] Creating layer inception_4e/5x5
I0602 17:04:25.972422  8321 net.cpp:91] Creating Layer inception_4e/5x5
I0602 17:04:25.972446  8321 net.cpp:425] inception_4e/5x5 <- inception_4e/5x5_reduce
I0602 17:04:25.972473  8321 net.cpp:399] inception_4e/5x5 -> inception_4e/5x5
I0602 17:04:25.974614  8321 net.cpp:141] Setting up inception_4e/5x5
I0602 17:04:25.974668  8321 net.cpp:148] Top shape: 50 128 14 14 (1254400)
I0602 17:04:25.974694  8321 net.cpp:156] Memory required for data: 2535770400
I0602 17:04:25.974721  8321 layer_factory.hpp:77] Creating layer inception_4e/relu_5x5
I0602 17:04:25.974750  8321 net.cpp:91] Creating Layer inception_4e/relu_5x5
I0602 17:04:25.974776  8321 net.cpp:425] inception_4e/relu_5x5 <- inception_4e/5x5
I0602 17:04:25.974803  8321 net.cpp:386] inception_4e/relu_5x5 -> inception_4e/5x5 (in-place)
I0602 17:04:25.974834  8321 net.cpp:141] Setting up inception_4e/relu_5x5
I0602 17:04:25.974861  8321 net.cpp:148] Top shape: 50 128 14 14 (1254400)
I0602 17:04:25.974884  8321 net.cpp:156] Memory required for data: 2540788000
I0602 17:04:25.974905  8321 layer_factory.hpp:77] Creating layer inception_4e/pool
I0602 17:04:25.974934  8321 net.cpp:91] Creating Layer inception_4e/pool
I0602 17:04:25.974957  8321 net.cpp:425] inception_4e/pool <- inception_4d/output_inception_4d/output_0_split_3
I0602 17:04:25.974984  8321 net.cpp:399] inception_4e/pool -> inception_4e/pool
I0602 17:04:25.975074  8321 net.cpp:141] Setting up inception_4e/pool
I0602 17:04:25.975106  8321 net.cpp:148] Top shape: 50 528 14 14 (5174400)
I0602 17:04:25.975128  8321 net.cpp:156] Memory required for data: 2561485600
I0602 17:04:25.975150  8321 layer_factory.hpp:77] Creating layer inception_4e/pool_proj
I0602 17:04:25.975184  8321 net.cpp:91] Creating Layer inception_4e/pool_proj
I0602 17:04:25.975209  8321 net.cpp:425] inception_4e/pool_proj <- inception_4e/pool
I0602 17:04:25.975240  8321 net.cpp:399] inception_4e/pool_proj -> inception_4e/pool_proj
I0602 17:04:25.976307  8321 net.cpp:141] Setting up inception_4e/pool_proj
I0602 17:04:25.976346  8321 net.cpp:148] Top shape: 50 128 14 14 (1254400)
I0602 17:04:25.976367  8321 net.cpp:156] Memory required for data: 2566503200
I0602 17:04:25.976404  8321 layer_factory.hpp:77] Creating layer inception_4e/relu_pool_proj
I0602 17:04:25.976446  8321 net.cpp:91] Creating Layer inception_4e/relu_pool_proj
I0602 17:04:25.976470  8321 net.cpp:425] inception_4e/relu_pool_proj <- inception_4e/pool_proj
I0602 17:04:25.976497  8321 net.cpp:386] inception_4e/relu_pool_proj -> inception_4e/pool_proj (in-place)
I0602 17:04:25.976526  8321 net.cpp:141] Setting up inception_4e/relu_pool_proj
I0602 17:04:25.976552  8321 net.cpp:148] Top shape: 50 128 14 14 (1254400)
I0602 17:04:25.976573  8321 net.cpp:156] Memory required for data: 2571520800
I0602 17:04:25.976596  8321 layer_factory.hpp:77] Creating layer inception_4e/output
I0602 17:04:25.976626  8321 net.cpp:91] Creating Layer inception_4e/output
I0602 17:04:25.976649  8321 net.cpp:425] inception_4e/output <- inception_4e/1x1
I0602 17:04:25.976672  8321 net.cpp:425] inception_4e/output <- inception_4e/3x3
I0602 17:04:25.976696  8321 net.cpp:425] inception_4e/output <- inception_4e/5x5
I0602 17:04:25.976718  8321 net.cpp:425] inception_4e/output <- inception_4e/pool_proj
I0602 17:04:25.976742  8321 net.cpp:399] inception_4e/output -> inception_4e/output
I0602 17:04:25.976806  8321 net.cpp:141] Setting up inception_4e/output
I0602 17:04:25.976838  8321 net.cpp:148] Top shape: 50 832 14 14 (8153600)
I0602 17:04:25.976860  8321 net.cpp:156] Memory required for data: 2604135200
I0602 17:04:25.976881  8321 layer_factory.hpp:77] Creating layer CAM_conv
I0602 17:04:25.976913  8321 net.cpp:91] Creating Layer CAM_conv
I0602 17:04:25.976936  8321 net.cpp:425] CAM_conv <- inception_4e/output
I0602 17:04:25.976966  8321 net.cpp:399] CAM_conv -> CAM_conv
I0602 17:04:26.174129  8321 net.cpp:141] Setting up CAM_conv
I0602 17:04:26.174221  8321 net.cpp:148] Top shape: 50 1024 14 14 (10035200)
I0602 17:04:26.174247  8321 net.cpp:156] Memory required for data: 2644276000
I0602 17:04:26.174279  8321 layer_factory.hpp:77] Creating layer CAM_relu
I0602 17:04:26.174311  8321 net.cpp:91] Creating Layer CAM_relu
I0602 17:04:26.174337  8321 net.cpp:425] CAM_relu <- CAM_conv
I0602 17:04:26.174365  8321 net.cpp:386] CAM_relu -> CAM_conv (in-place)
I0602 17:04:26.174396  8321 net.cpp:141] Setting up CAM_relu
I0602 17:04:26.174422  8321 net.cpp:148] Top shape: 50 1024 14 14 (10035200)
I0602 17:04:26.174443  8321 net.cpp:156] Memory required for data: 2684416800
I0602 17:04:26.174464  8321 layer_factory.hpp:77] Creating layer CAM_pool
I0602 17:04:26.174492  8321 net.cpp:91] Creating Layer CAM_pool
I0602 17:04:26.174515  8321 net.cpp:425] CAM_pool <- CAM_conv
I0602 17:04:26.174540  8321 net.cpp:399] CAM_pool -> CAM_pool
I0602 17:04:26.174655  8321 net.cpp:141] Setting up CAM_pool
I0602 17:04:26.174687  8321 net.cpp:148] Top shape: 50 1024 1 1 (51200)
I0602 17:04:26.174710  8321 net.cpp:156] Memory required for data: 2684621600
I0602 17:04:26.174731  8321 layer_factory.hpp:77] Creating layer CAM_fc_MIT
I0602 17:04:26.174760  8321 net.cpp:91] Creating Layer CAM_fc_MIT
I0602 17:04:26.174783  8321 net.cpp:425] CAM_fc_MIT <- CAM_pool
I0602 17:04:26.174809  8321 net.cpp:399] CAM_fc_MIT -> CAM_fc_MIT
I0602 17:04:26.175766  8321 net.cpp:141] Setting up CAM_fc_MIT
I0602 17:04:26.175803  8321 net.cpp:148] Top shape: 50 67 (3350)
I0602 17:04:26.175825  8321 net.cpp:156] Memory required for data: 2684635000
I0602 17:04:26.175853  8321 layer_factory.hpp:77] Creating layer CAM_fc_MIT_CAM_fc_MIT_0_split
I0602 17:04:26.175879  8321 net.cpp:91] Creating Layer CAM_fc_MIT_CAM_fc_MIT_0_split
I0602 17:04:26.175902  8321 net.cpp:425] CAM_fc_MIT_CAM_fc_MIT_0_split <- CAM_fc_MIT
I0602 17:04:26.175928  8321 net.cpp:399] CAM_fc_MIT_CAM_fc_MIT_0_split -> CAM_fc_MIT_CAM_fc_MIT_0_split_0
I0602 17:04:26.175961  8321 net.cpp:399] CAM_fc_MIT_CAM_fc_MIT_0_split -> CAM_fc_MIT_CAM_fc_MIT_0_split_1
I0602 17:04:26.175992  8321 net.cpp:399] CAM_fc_MIT_CAM_fc_MIT_0_split -> CAM_fc_MIT_CAM_fc_MIT_0_split_2
I0602 17:04:26.176092  8321 net.cpp:141] Setting up CAM_fc_MIT_CAM_fc_MIT_0_split
I0602 17:04:26.176123  8321 net.cpp:148] Top shape: 50 67 (3350)
I0602 17:04:26.176158  8321 net.cpp:148] Top shape: 50 67 (3350)
I0602 17:04:26.176198  8321 net.cpp:148] Top shape: 50 67 (3350)
I0602 17:04:26.176219  8321 net.cpp:156] Memory required for data: 2684675200
I0602 17:04:26.176240  8321 layer_factory.hpp:77] Creating layer loss3/loss3
I0602 17:04:26.176266  8321 net.cpp:91] Creating Layer loss3/loss3
I0602 17:04:26.176290  8321 net.cpp:425] loss3/loss3 <- CAM_fc_MIT_CAM_fc_MIT_0_split_0
I0602 17:04:26.176314  8321 net.cpp:425] loss3/loss3 <- label_data_1_split_0
I0602 17:04:26.176340  8321 net.cpp:399] loss3/loss3 -> loss3/loss3
…
