…
I0526 17:04:51.869693 24213 net.cpp:313] The NetState phase (0) differed from the phase (1) specified by a rule in layer accuracy
I0526 17:04:51.870038 24213 net.cpp:49] Initializing net from parameters: 
name: "placesCNNobjectdiscoveryAverageSumFinedtunedMITindoor"
state {
  phase: TRAIN
}
layer {
  name: "data"
  type: "ImageData"
  top: "data"
  top: "label"
  include {
    phase: TRAIN
  }
  transform_param {
    mirror: true
    crop_size: 227
    mean_value: 104
    mean_value: 117
    mean_value: 123
  }
  image_data_param {
    source: "train.txt"
    batch_size: 128
  }
}
layer {
  name: "conv1"
  type: "Convolution"
  bottom: "data"
  top: "conv1"
  param {
    lr_mult: 0.1
    decay_mult: 1
  }
  param {
    lr_mult: 0.2
    decay_mult: 0
  }
  convolution_param {
    num_output: 96
    kernel_size: 11
    stride: 4
    weight_filler {
      type: "gaussian"
      std: 0.01
    }
    bias_filler {
      type: "constant"
      value: 0
    }
  }
}
layer {
  name: "relu1"
  type: "ReLU"
  bottom: "conv1"
  top: "conv1"
}
layer {
  name: "pool1"
  type: "Pooling"
  bottom: "conv1"
  top: "pool1"
  pooling_param {
    pool: MAX
    kernel_size: 3
    stride: 2
  }
}
layer {
  name: "norm1"
  type: "LRN"
  bottom: "pool1"
  top: "norm1"
  lrn_param {
    local_size: 5
    alpha: 0.0001
    beta: 0.75
  }
}
layer {
  name: "conv2"
  type: "Convolution"
  bottom: "norm1"
  top: "conv2"
  param {
    lr_mult: 0.1
    decay_mult: 1
  }
  param {
    lr_mult: 0.2
    decay_mult: 0
  }
  convolution_param {
    num_output: 256
    pad: 2
    kernel_size: 5
    group: 2
    weight_filler {
      type: "gaussian"
      std: 0.01
    }
    bias_filler {
      type: "constant"
      value: 1
    }
  }
}
layer {
  name: "relu2"
  type: "ReLU"
  bottom: "conv2"
  top: "conv2"
}
layer {
  name: "pool2"
  type: "Pooling"
  bottom: "conv2"
  top: "pool2"
  pooling_param {
    pool: MAX
    kernel_size: 3
    stride: 2
  }
}
layer {
  name: "norm2"
  type: "LRN"
  bottom: "pool2"
  top: "norm2"
  lrn_param {
    local_size: 5
    alpha: 0.0001
    beta: 0.75
  }
}
layer {
  name: "conv3"
  type: "Convolution"
  bottom: "norm2"
  top: "conv3"
  param {
    lr_mult: 0.1
    decay_mult: 1
  }
  param {
    lr_mult: 0.2
    decay_mult: 0
  }
  convolution_param {
    num_output: 384
    pad: 1
    kernel_size: 3
    weight_filler {
      type: "gaussian"
      std: 0.01
    }
    bias_filler {
      type: "constant"
      value: 0
    }
  }
}
layer {
  name: "relu3"
  type: "ReLU"
  bottom: "conv3"
  top: "conv3"
}
layer {
  name: "conv4"
  type: "Convolution"
  bottom: "conv3"
  top: "conv4"
  param {
    lr_mult: 0.1
    decay_mult: 1
  }
  param {
    lr_mult: 0.2
    decay_mult: 0
  }
  convolution_param {
    num_output: 384
    pad: 1
    kernel_size: 3
    group: 2
    weight_filler {
      type: "gaussian"
      std: 0.01
    }
    bias_filler {
      type: "constant"
      value: 1
    }
  }
}
layer {
  name: "relu4"
  type: "ReLU"
  bottom: "conv4"
  top: "conv4"
}
layer {
  name: "conv5"
  type: "Convolution"
  bottom: "conv4"
  top: "conv5"
  param {
    lr_mult: 0.1
    decay_mult: 1
  }
  param {
    lr_mult: 0.2
    decay_mult: 0
  }
  convolution_param {
    num_output: 384
    pad: 1
    kernel_size: 3
    group: 2
    weight_filler {
      type: "gaussian"
      std: 0.01
    }
    bias_filler {
      type: "constant"
      value: 1
    }
  }
}
layer {
  name: "relu5"
  type: "ReLU"
  bottom: "conv5"
  top: "conv5"
}
layer {
  name: "pool5"
  type: "Pooling"
  bottom: "conv5"
  top: "pool5"
  pooling_param {
    pool: MAX
    kernel_size: 3
    stride: 1
  }
}
layer {
  name: "conv6"
  type: "Convolution"
  bottom: "pool5"
  top: "conv6"
  param {
    lr_mult: 0.1
    decay_mult: 1
  }
  param {
    lr_mult: 0.2
    decay_mult: 0
  }
  convolution_param {
    num_output: 512
    pad: 1
    kernel_size: 3
    group: 2
    weight_filler {
      type: "gaussian"
      std: 0.01
    }
    bias_filler {
      type: "constant"
      value: 1
    }
  }
}
layer {
  name: "relu6"
  type: "ReLU"
  bottom: "conv6"
  top: "conv6"
}
layer {
  name: "conv7"
  type: "Convolution"
  bottom: "conv6"
  top: "conv7"
  param {
    lr_mult: 5
    decay_mult: 1
  }
  param {
    lr_mult: 10
    decay_mult: 0
  }
  convolution_param {
    num_output: 512
    pad: 1
    kernel_size: 3
    group: 2
    weight_filler {
      type: "gaussian"
      std: 0.01
    }
    bias_filler {
      type: "constant"
      value: 1
    }
  }
}
layer {
  name: "relu7"
  type: "ReLU"
  bottom: "conv7"
  top: "conv7"
}
layer {
  name: "pool8_global"
  type: "Pooling"
  bottom: "conv7"
  top: "pool8_global"
  pooling_param {
    pool: AVE
    kernel_size: 11
    stride: 11
  }
}
layer {
  name: "mitindoor_fc9"
  type: "InnerProduct"
  bottom: "pool8_global"
  top: "mitindoor_fc9"
  param {
    lr_mult: 10
    decay_mult: 1
  }
  param {
    lr_mult: 20
    decay_mult: 0
  }
  inner_product_param {
    num_output: 67
    weight_filler {
      type: "gaussian"
      std: 0.01
    }
    bias_filler {
      type: "constant"
      value: 0
    }
  }
}
layer {
  name: "loss"
  type: "SoftmaxWithLoss"
  bottom: "mitindoor_fc9"
  bottom: "label"
  top: "loss"
}
I0526 17:04:51.870251 24213 layer_factory.hpp:77] Creating layer data
I0526 17:04:51.870314 24213 net.cpp:91] Creating Layer data
I0526 17:04:51.870327 24213 net.cpp:399] data -> data
I0526 17:04:51.870362 24213 net.cpp:399] data -> label
I0526 17:04:51.870906 24213 image_data_layer.cpp:38] Opening file train.txt
I0526 17:04:51.871332 24213 image_data_layer.cpp:53] A total of 405 images.
I0526 17:04:51.887533 24213 image_data_layer.cpp:80] output data size: 128,3,227,227
I0526 17:04:52.045938 24213 net.cpp:141] Setting up data
I0526 17:04:52.046044 24213 net.cpp:148] Top shape: 128 3 227 227 (19787136)
I0526 17:04:52.046087 24213 net.cpp:148] Top shape: 128 (128)
I0526 17:04:52.046113 24213 net.cpp:156] Memory required for data: 79149056
I0526 17:04:52.046144 24213 layer_factory.hpp:77] Creating layer conv1
I0526 17:04:52.046188 24213 net.cpp:91] Creating Layer conv1
I0526 17:04:52.046217 24213 net.cpp:425] conv1 <- data
I0526 17:04:52.046252 24213 net.cpp:399] conv1 -> conv1
I0526 17:04:52.049409 24213 net.cpp:141] Setting up conv1
I0526 17:04:52.049474 24213 net.cpp:148] Top shape: 128 96 55 55 (37171200)
I0526 17:04:52.049504 24213 net.cpp:156] Memory required for data: 227833856
I0526 17:04:52.049545 24213 layer_factory.hpp:77] Creating layer relu1
I0526 17:04:52.049579 24213 net.cpp:91] Creating Layer relu1
I0526 17:04:52.049607 24213 net.cpp:425] relu1 <- conv1
I0526 17:04:52.049633 24213 net.cpp:386] relu1 -> conv1 (in-place)
I0526 17:04:52.049671 24213 net.cpp:141] Setting up relu1
I0526 17:04:52.049700 24213 net.cpp:148] Top shape: 128 96 55 55 (37171200)
I0526 17:04:52.049726 24213 net.cpp:156] Memory required for data: 376518656
I0526 17:04:52.049747 24213 layer_factory.hpp:77] Creating layer pool1
I0526 17:04:52.049774 24213 net.cpp:91] Creating Layer pool1
I0526 17:04:52.049798 24213 net.cpp:425] pool1 <- conv1
I0526 17:04:52.049823 24213 net.cpp:399] pool1 -> pool1
I0526 17:04:52.049918 24213 net.cpp:141] Setting up pool1
I0526 17:04:52.049958 24213 net.cpp:148] Top shape: 128 96 27 27 (8957952)
I0526 17:04:52.049988 24213 net.cpp:156] Memory required for data: 412350464
I0526 17:04:52.050011 24213 layer_factory.hpp:77] Creating layer norm1
I0526 17:04:52.050056 24213 net.cpp:91] Creating Layer norm1
I0526 17:04:52.050086 24213 net.cpp:425] norm1 <- pool1
I0526 17:04:52.050124 24213 net.cpp:399] norm1 -> norm1
I0526 17:04:52.056438 24213 net.cpp:141] Setting up norm1
I0526 17:04:52.056499 24213 net.cpp:148] Top shape: 128 96 27 27 (8957952)
I0526 17:04:52.056531 24213 net.cpp:156] Memory required for data: 448182272
I0526 17:04:52.056557 24213 layer_factory.hpp:77] Creating layer conv2
I0526 17:04:52.056592 24213 net.cpp:91] Creating Layer conv2
I0526 17:04:52.056618 24213 net.cpp:425] conv2 <- norm1
I0526 17:04:52.056645 24213 net.cpp:399] conv2 -> conv2
I0526 17:04:52.072438 24213 net.cpp:141] Setting up conv2
I0526 17:04:52.072530 24213 net.cpp:148] Top shape: 128 256 27 27 (23887872)
I0526 17:04:52.072561 24213 net.cpp:156] Memory required for data: 543733760
I0526 17:04:52.072600 24213 layer_factory.hpp:77] Creating layer relu2
I0526 17:04:52.072633 24213 net.cpp:91] Creating Layer relu2
I0526 17:04:52.072656 24213 net.cpp:425] relu2 <- conv2
I0526 17:04:52.072686 24213 net.cpp:386] relu2 -> conv2 (in-place)
I0526 17:04:52.072717 24213 net.cpp:141] Setting up relu2
I0526 17:04:52.072747 24213 net.cpp:148] Top shape: 128 256 27 27 (23887872)
I0526 17:04:52.072772 24213 net.cpp:156] Memory required for data: 639285248
I0526 17:04:52.072795 24213 layer_factory.hpp:77] Creating layer pool2
I0526 17:04:52.072821 24213 net.cpp:91] Creating Layer pool2
I0526 17:04:52.072846 24213 net.cpp:425] pool2 <- conv2
I0526 17:04:52.072873 24213 net.cpp:399] pool2 -> pool2
I0526 17:04:52.072962 24213 net.cpp:141] Setting up pool2
I0526 17:04:52.072994 24213 net.cpp:148] Top shape: 128 256 13 13 (5537792)
I0526 17:04:52.073019 24213 net.cpp:156] Memory required for data: 661436416
I0526 17:04:52.073043 24213 layer_factory.hpp:77] Creating layer norm2
I0526 17:04:52.073076 24213 net.cpp:91] Creating Layer norm2
I0526 17:04:52.073101 24213 net.cpp:425] norm2 <- pool2
I0526 17:04:52.073127 24213 net.cpp:399] norm2 -> norm2
I0526 17:04:52.073196 24213 net.cpp:141] Setting up norm2
I0526 17:04:52.073228 24213 net.cpp:148] Top shape: 128 256 13 13 (5537792)
I0526 17:04:52.073252 24213 net.cpp:156] Memory required for data: 683587584
I0526 17:04:52.073274 24213 layer_factory.hpp:77] Creating layer conv3
I0526 17:04:52.073307 24213 net.cpp:91] Creating Layer conv3
I0526 17:04:52.073333 24213 net.cpp:425] conv3 <- norm2
I0526 17:04:52.073362 24213 net.cpp:399] conv3 -> conv3
I0526 17:04:52.116436 24213 net.cpp:141] Setting up conv3
I0526 17:04:52.116525 24213 net.cpp:148] Top shape: 128 384 13 13 (8306688)
I0526 17:04:52.116555 24213 net.cpp:156] Memory required for data: 716814336
I0526 17:04:52.116596 24213 layer_factory.hpp:77] Creating layer relu3
I0526 17:04:52.116631 24213 net.cpp:91] Creating Layer relu3
I0526 17:04:52.116657 24213 net.cpp:425] relu3 <- conv3
I0526 17:04:52.116694 24213 net.cpp:386] relu3 -> conv3 (in-place)
I0526 17:04:52.116731 24213 net.cpp:141] Setting up relu3
I0526 17:04:52.116760 24213 net.cpp:148] Top shape: 128 384 13 13 (8306688)
I0526 17:04:52.116785 24213 net.cpp:156] Memory required for data: 750041088
I0526 17:04:52.116811 24213 layer_factory.hpp:77] Creating layer conv4
I0526 17:04:52.116847 24213 net.cpp:91] Creating Layer conv4
I0526 17:04:52.116873 24213 net.cpp:425] conv4 <- conv3
I0526 17:04:52.116901 24213 net.cpp:399] conv4 -> conv4
I0526 17:04:52.148829 24213 net.cpp:141] Setting up conv4
I0526 17:04:52.148910 24213 net.cpp:148] Top shape: 128 384 13 13 (8306688)
I0526 17:04:52.148938 24213 net.cpp:156] Memory required for data: 783267840
I0526 17:04:52.148972 24213 layer_factory.hpp:77] Creating layer relu4
I0526 17:04:52.149003 24213 net.cpp:91] Creating Layer relu4
I0526 17:04:52.149027 24213 net.cpp:425] relu4 <- conv4
I0526 17:04:52.149057 24213 net.cpp:386] relu4 -> conv4 (in-place)
I0526 17:04:52.149087 24213 net.cpp:141] Setting up relu4
I0526 17:04:52.149116 24213 net.cpp:148] Top shape: 128 384 13 13 (8306688)
I0526 17:04:52.149140 24213 net.cpp:156] Memory required for data: 816494592
I0526 17:04:52.149163 24213 layer_factory.hpp:77] Creating layer conv5
I0526 17:04:52.149194 24213 net.cpp:91] Creating Layer conv5
I0526 17:04:52.149230 24213 net.cpp:425] conv5 <- conv4
I0526 17:04:52.149273 24213 net.cpp:399] conv5 -> conv5
I0526 17:04:52.181145 24213 net.cpp:141] Setting up conv5
I0526 17:04:52.181229 24213 net.cpp:148] Top shape: 128 384 13 13 (8306688)
I0526 17:04:52.181260 24213 net.cpp:156] Memory required for data: 849721344
I0526 17:04:52.181298 24213 layer_factory.hpp:77] Creating layer relu5
I0526 17:04:52.181334 24213 net.cpp:91] Creating Layer relu5
I0526 17:04:52.181361 24213 net.cpp:425] relu5 <- conv5
I0526 17:04:52.181394 24213 net.cpp:386] relu5 -> conv5 (in-place)
I0526 17:04:52.181426 24213 net.cpp:141] Setting up relu5
I0526 17:04:52.181455 24213 net.cpp:148] Top shape: 128 384 13 13 (8306688)
I0526 17:04:52.181479 24213 net.cpp:156] Memory required for data: 882948096
I0526 17:04:52.181506 24213 layer_factory.hpp:77] Creating layer pool5
I0526 17:04:52.181535 24213 net.cpp:91] Creating Layer pool5
I0526 17:04:52.181560 24213 net.cpp:425] pool5 <- conv5
I0526 17:04:52.181589 24213 net.cpp:399] pool5 -> pool5
I0526 17:04:52.181675 24213 net.cpp:141] Setting up pool5
I0526 17:04:52.181709 24213 net.cpp:148] Top shape: 128 384 11 11 (5947392)
I0526 17:04:52.181732 24213 net.cpp:156] Memory required for data: 906737664
I0526 17:04:52.181756 24213 layer_factory.hpp:77] Creating layer conv6
I0526 17:04:52.181799 24213 net.cpp:91] Creating Layer conv6
I0526 17:04:52.181825 24213 net.cpp:425] conv6 <- pool5
I0526 17:04:52.181864 24213 net.cpp:399] conv6 -> conv6
I0526 17:04:52.223999 24213 net.cpp:141] Setting up conv6
I0526 17:04:52.224092 24213 net.cpp:148] Top shape: 128 512 11 11 (7929856)
I0526 17:04:52.224119 24213 net.cpp:156] Memory required for data: 938457088
I0526 17:04:52.224151 24213 layer_factory.hpp:77] Creating layer relu6
I0526 17:04:52.224182 24213 net.cpp:91] Creating Layer relu6
I0526 17:04:52.224207 24213 net.cpp:425] relu6 <- conv6
I0526 17:04:52.224234 24213 net.cpp:386] relu6 -> conv6 (in-place)
I0526 17:04:52.224266 24213 net.cpp:141] Setting up relu6
I0526 17:04:52.224292 24213 net.cpp:148] Top shape: 128 512 11 11 (7929856)
I0526 17:04:52.224314 24213 net.cpp:156] Memory required for data: 970176512
I0526 17:04:52.224336 24213 layer_factory.hpp:77] Creating layer conv7
I0526 17:04:52.224370 24213 net.cpp:91] Creating Layer conv7
I0526 17:04:52.224392 24213 net.cpp:425] conv7 <- conv6
I0526 17:04:52.224421 24213 net.cpp:399] conv7 -> conv7
I0526 17:04:52.280982 24213 net.cpp:141] Setting up conv7
I0526 17:04:52.281119 24213 net.cpp:148] Top shape: 128 512 11 11 (7929856)
I0526 17:04:52.281148 24213 net.cpp:156] Memory required for data: 1001895936
I0526 17:04:52.281183 24213 layer_factory.hpp:77] Creating layer relu7
I0526 17:04:52.281218 24213 net.cpp:91] Creating Layer relu7
I0526 17:04:52.281244 24213 net.cpp:425] relu7 <- conv7
I0526 17:04:52.281275 24213 net.cpp:386] relu7 -> conv7 (in-place)
I0526 17:04:52.281309 24213 net.cpp:141] Setting up relu7
I0526 17:04:52.281337 24213 net.cpp:148] Top shape: 128 512 11 11 (7929856)
I0526 17:04:52.281359 24213 net.cpp:156] Memory required for data: 1033615360
I0526 17:04:52.281381 24213 layer_factory.hpp:77] Creating layer pool8_global
I0526 17:04:52.281407 24213 net.cpp:91] Creating Layer pool8_global
I0526 17:04:52.281433 24213 net.cpp:425] pool8_global <- conv7
I0526 17:04:52.281461 24213 net.cpp:399] pool8_global -> pool8_global
I0526 17:04:52.281522 24213 net.cpp:141] Setting up pool8_global
I0526 17:04:52.281555 24213 net.cpp:148] Top shape: 128 512 1 1 (65536)
I0526 17:04:52.281580 24213 net.cpp:156] Memory required for data: 1033877504
I0526 17:04:52.281604 24213 layer_factory.hpp:77] Creating layer mitindoor_fc9
I0526 17:04:52.281631 24213 net.cpp:91] Creating Layer mitindoor_fc9
I0526 17:04:52.281654 24213 net.cpp:425] mitindoor_fc9 <- pool8_global
I0526 17:04:52.281682 24213 net.cpp:399] mitindoor_fc9 -> mitindoor_fc9
I0526 17:04:52.283496 24213 net.cpp:141] Setting up mitindoor_fc9
I0526 17:04:52.283573 24213 net.cpp:148] Top shape: 128 67 (8576)
I0526 17:04:52.283599 24213 net.cpp:156] Memory required for data: 1033911808
I0526 17:04:52.283646 24213 layer_factory.hpp:77] Creating layer loss
I0526 17:04:52.283696 24213 net.cpp:91] Creating Layer loss
I0526 17:04:52.283722 24213 net.cpp:425] loss <- mitindoor_fc9
I0526 17:04:52.283747 24213 net.cpp:425] loss <- label
I0526 17:04:52.283776 24213 net.cpp:399] loss -> loss
I0526 17:04:52.283824 24213 layer_factory.hpp:77] Creating layer loss
…
I0526 17:04:52.287039 24213 net.cpp:313] The NetState phase (1) differed from the phase (0) specified by a rule in layer data
I0526 17:04:52.287423 24213 net.cpp:49] Initializing net from parameters: 
name: "placesCNNobjectdiscoveryAverageSumFinedtunedMITindoor"
state {
  phase: TEST
}
layer {
  name: "data"
  type: "ImageData"
  top: "data"
  top: "label"
  include {
    phase: TEST
  }
  transform_param {
    mirror: false
    crop_size: 227
    mean_value: 104
    mean_value: 117
    mean_value: 123
  }
  image_data_param {
    source: "val.txt"
    batch_size: 50
  }
}
layer {
  name: "conv1"
  type: "Convolution"
  bottom: "data"
  top: "conv1"
  param {
    lr_mult: 0.1
    decay_mult: 1
  }
  param {
    lr_mult: 0.2
    decay_mult: 0
  }
  convolution_param {
    num_output: 96
    kernel_size: 11
    stride: 4
    weight_filler {
      type: "gaussian"
      std: 0.01
    }
    bias_filler {
      type: "constant"
      value: 0
    }
  }
}
layer {
  name: "relu1"
  type: "ReLU"
  bottom: "conv1"
  top: "conv1"
}
layer {
  name: "pool1"
  type: "Pooling"
  bottom: "conv1"
  top: "pool1"
  pooling_param {
    pool: MAX
    kernel_size: 3
    stride: 2
  }
}
layer {
  name: "norm1"
  type: "LRN"
  bottom: "pool1"
  top: "norm1"
  lrn_param {
    local_size: 5
    alpha: 0.0001
    beta: 0.75
  }
}
layer {
  name: "conv2"
  type: "Convolution"
  bottom: "norm1"
  top: "conv2"
  param {
    lr_mult: 0.1
    decay_mult: 1
  }
  param {
    lr_mult: 0.2
    decay_mult: 0
  }
  convolution_param {
    num_output: 256
    pad: 2
    kernel_size: 5
    group: 2
    weight_filler {
      type: "gaussian"
      std: 0.01
    }
    bias_filler {
      type: "constant"
      value: 1
    }
  }
}
layer {
  name: "relu2"
  type: "ReLU"
  bottom: "conv2"
  top: "conv2"
}
layer {
  name: "pool2"
  type: "Pooling"
  bottom: "conv2"
  top: "pool2"
  pooling_param {
    pool: MAX
    kernel_size: 3
    stride: 2
  }
}
layer {
  name: "norm2"
  type: "LRN"
  bottom: "pool2"
  top: "norm2"
  lrn_param {
    local_size: 5
    alpha: 0.0001
    beta: 0.75
  }
}
layer {
  name: "conv3"
  type: "Convolution"
  bottom: "norm2"
  top: "conv3"
  param {
    lr_mult: 0.1
    decay_mult: 1
  }
  param {
    lr_mult: 0.2
    decay_mult: 0
  }
  convolution_param {
    num_output: 384
    pad: 1
    kernel_size: 3
    weight_filler {
      type: "gaussian"
      std: 0.01
    }
    bias_filler {
      type: "constant"
      value: 0
    }
  }
}
layer {
  name: "relu3"
  type: "ReLU"
  bottom: "conv3"
  top: "conv3"
}
layer {
  name: "conv4"
  type: "Convolution"
  bottom: "conv3"
  top: "conv4"
  param {
    lr_mult: 0.1
    decay_mult: 1
  }
  param {
    lr_mult: 0.2
    decay_mult: 0
  }
  convolution_param {
    num_output: 384
    pad: 1
    kernel_size: 3
    group: 2
    weight_filler {
      type: "gaussian"
      std: 0.01
    }
    bias_filler {
      type: "constant"
      value: 1
    }
  }
}
layer {
  name: "relu4"
  type: "ReLU"
  bottom: "conv4"
  top: "conv4"
}
layer {
  name: "conv5"
  type: "Convolution"
  bottom: "conv4"
  top: "conv5"
  param {
    lr_mult: 0.1
    decay_mult: 1
  }
  param {
    lr_mult: 0.2
    decay_mult: 0
  }
  convolution_param {
    num_output: 384
    pad: 1
    kernel_size: 3
    group: 2
    weight_filler {
      type: "gaussian"
      std: 0.01
    }
    bias_filler {
      type: "constant"
      value: 1
    }
  }
}
layer {
  name: "relu5"
  type: "ReLU"
  bottom: "conv5"
  top: "conv5"
}
layer {
  name: "pool5"
  type: "Pooling"
  bottom: "conv5"
  top: "pool5"
  pooling_param {
    pool: MAX
    kernel_size: 3
    stride: 1
  }
}
layer {
  name: "conv6"
  type: "Convolution"
  bottom: "pool5"
  top: "conv6"
  param {
    lr_mult: 0.1
    decay_mult: 1
  }
  param {
    lr_mult: 0.2
    decay_mult: 0
  }
  convolution_param {
    num_output: 512
    pad: 1
    kernel_size: 3
    group: 2
    weight_filler {
      type: "gaussian"
      std: 0.01
    }
    bias_filler {
      type: "constant"
      value: 1
    }
  }
}
layer {
  name: "relu6"
  type: "ReLU"
  bottom: "conv6"
  top: "conv6"
}
layer {
  name: "conv7"
  type: "Convolution"
  bottom: "conv6"
  top: "conv7"
  param {
    lr_mult: 5
    decay_mult: 1
  }
  param {
    lr_mult: 10
    decay_mult: 0
  }
  convolution_param {
    num_output: 512
    pad: 1
    kernel_size: 3
    group: 2
    weight_filler {
      type: "gaussian"
      std: 0.01
    }
    bias_filler {
      type: "constant"
      value: 1
    }
  }
}
layer {
  name: "relu7"
  type: "ReLU"
  bottom: "conv7"
  top: "conv7"
}
layer {
  name: "pool8_global"
  type: "Pooling"
  bottom: "conv7"
  top: "pool8_global"
  pooling_param {
    pool: AVE
    kernel_size: 11
    stride: 11
  }
}
layer {
  name: "mitindoor_fc9"
  type: "InnerProduct"
  bottom: "pool8_global"
  top: "mitindoor_fc9"
  param {
    lr_mult: 10
    decay_mult: 1
  }
  param {
    lr_mult: 20
    decay_mult: 0
  }
  inner_product_param {
    num_output: 67
    weight_filler {
      type: "gaussian"
      std: 0.01
    }
    bias_filler {
      type: "constant"
      value: 0
    }
  }
}
layer {
  name: "accuracy"
  type: "Accuracy"
  bottom: "mitindoor_fc9"
  bottom: "label"
  top: "accuracy"
  include {
    phase: TEST
  }
}
layer {
  name: "loss"
  type: "SoftmaxWithLoss"
  bottom: "mitindoor_fc9"
  bottom: "label"
  top: "loss"
}
I0526 17:04:52.289082 24213 layer_factory.hpp:77] Creating layer data
I0526 17:04:52.289139 24213 net.cpp:91] Creating Layer data
I0526 17:04:52.289170 24213 net.cpp:399] data -> data
I0526 17:04:52.289211 24213 net.cpp:399] data -> label
I0526 17:04:52.289253 24213 image_data_layer.cpp:38] Opening file val.txt
I0526 17:04:52.289816 24213 image_data_layer.cpp:53] A total of 533 images.
I0526 17:04:52.293505 24213 image_data_layer.cpp:80] output data size: 50,3,227,227
I0526 17:04:52.347142 24213 net.cpp:141] Setting up data
I0526 17:04:52.347229 24213 net.cpp:148] Top shape: 50 3 227 227 (7729350)
I0526 17:04:52.347259 24213 net.cpp:148] Top shape: 50 (50)
I0526 17:04:52.347285 24213 net.cpp:156] Memory required for data: 30917600
I0526 17:04:52.347311 24213 layer_factory.hpp:77] Creating layer label_data_1_split
I0526 17:04:52.347342 24213 net.cpp:91] Creating Layer label_data_1_split
I0526 17:04:52.347367 24213 net.cpp:425] label_data_1_split <- label
I0526 17:04:52.347393 24213 net.cpp:399] label_data_1_split -> label_data_1_split_0
I0526 17:04:52.347425 24213 net.cpp:399] label_data_1_split -> label_data_1_split_1
I0526 17:04:52.347524 24213 net.cpp:141] Setting up label_data_1_split
I0526 17:04:52.347558 24213 net.cpp:148] Top shape: 50 (50)
I0526 17:04:52.347586 24213 net.cpp:148] Top shape: 50 (50)
I0526 17:04:52.347609 24213 net.cpp:156] Memory required for data: 30918000
I0526 17:04:52.347635 24213 layer_factory.hpp:77] Creating layer conv1
I0526 17:04:52.347671 24213 net.cpp:91] Creating Layer conv1
I0526 17:04:52.347695 24213 net.cpp:425] conv1 <- data
I0526 17:04:52.347723 24213 net.cpp:399] conv1 -> conv1
I0526 17:04:52.349691 24213 net.cpp:141] Setting up conv1
I0526 17:04:52.349736 24213 net.cpp:148] Top shape: 50 96 55 55 (14520000)
I0526 17:04:52.349764 24213 net.cpp:156] Memory required for data: 88998000
I0526 17:04:52.349798 24213 layer_factory.hpp:77] Creating layer relu1
I0526 17:04:52.349829 24213 net.cpp:91] Creating Layer relu1
I0526 17:04:52.349853 24213 net.cpp:425] relu1 <- conv1
I0526 17:04:52.349879 24213 net.cpp:386] relu1 -> conv1 (in-place)
I0526 17:04:52.349907 24213 net.cpp:141] Setting up relu1
I0526 17:04:52.349933 24213 net.cpp:148] Top shape: 50 96 55 55 (14520000)
I0526 17:04:52.349958 24213 net.cpp:156] Memory required for data: 147078000
I0526 17:04:52.349980 24213 layer_factory.hpp:77] Creating layer pool1
I0526 17:04:52.350008 24213 net.cpp:91] Creating Layer pool1
I0526 17:04:52.350041 24213 net.cpp:425] pool1 <- conv1
I0526 17:04:52.350069 24213 net.cpp:399] pool1 -> pool1
I0526 17:04:52.350149 24213 net.cpp:141] Setting up pool1
I0526 17:04:52.350183 24213 net.cpp:148] Top shape: 50 96 27 27 (3499200)
I0526 17:04:52.350208 24213 net.cpp:156] Memory required for data: 161074800
I0526 17:04:52.350229 24213 layer_factory.hpp:77] Creating layer norm1
I0526 17:04:52.350255 24213 net.cpp:91] Creating Layer norm1
I0526 17:04:52.350281 24213 net.cpp:425] norm1 <- pool1
I0526 17:04:52.350306 24213 net.cpp:399] norm1 -> norm1
I0526 17:04:52.350378 24213 net.cpp:141] Setting up norm1
I0526 17:04:52.350409 24213 net.cpp:148] Top shape: 50 96 27 27 (3499200)
I0526 17:04:52.350432 24213 net.cpp:156] Memory required for data: 175071600
I0526 17:04:52.350455 24213 layer_factory.hpp:77] Creating layer conv2
I0526 17:04:52.350484 24213 net.cpp:91] Creating Layer conv2
I0526 17:04:52.350509 24213 net.cpp:425] conv2 <- norm1
I0526 17:04:52.350538 24213 net.cpp:399] conv2 -> conv2
I0526 17:04:52.365660 24213 net.cpp:141] Setting up conv2
I0526 17:04:52.365747 24213 net.cpp:148] Top shape: 50 256 27 27 (9331200)
I0526 17:04:52.365774 24213 net.cpp:156] Memory required for data: 212396400
I0526 17:04:52.365811 24213 layer_factory.hpp:77] Creating layer relu2
I0526 17:04:52.365846 24213 net.cpp:91] Creating Layer relu2
I0526 17:04:52.365871 24213 net.cpp:425] relu2 <- conv2
I0526 17:04:52.365898 24213 net.cpp:386] relu2 -> conv2 (in-place)
I0526 17:04:52.365928 24213 net.cpp:141] Setting up relu2
I0526 17:04:52.365958 24213 net.cpp:148] Top shape: 50 256 27 27 (9331200)
I0526 17:04:52.365980 24213 net.cpp:156] Memory required for data: 249721200
I0526 17:04:52.366003 24213 layer_factory.hpp:77] Creating layer pool2
I0526 17:04:52.366039 24213 net.cpp:91] Creating Layer pool2
I0526 17:04:52.366067 24213 net.cpp:425] pool2 <- conv2
I0526 17:04:52.366106 24213 net.cpp:399] pool2 -> pool2
I0526 17:04:52.366204 24213 net.cpp:141] Setting up pool2
I0526 17:04:52.366237 24213 net.cpp:148] Top shape: 50 256 13 13 (2163200)
I0526 17:04:52.366263 24213 net.cpp:156] Memory required for data: 258374000
I0526 17:04:52.366286 24213 layer_factory.hpp:77] Creating layer norm2
I0526 17:04:52.366313 24213 net.cpp:91] Creating Layer norm2
I0526 17:04:52.366335 24213 net.cpp:425] norm2 <- pool2
I0526 17:04:52.366364 24213 net.cpp:399] norm2 -> norm2
I0526 17:04:52.366433 24213 net.cpp:141] Setting up norm2
I0526 17:04:52.366466 24213 net.cpp:148] Top shape: 50 256 13 13 (2163200)
I0526 17:04:52.366490 24213 net.cpp:156] Memory required for data: 267026800
I0526 17:04:52.366513 24213 layer_factory.hpp:77] Creating layer conv3
I0526 17:04:52.366544 24213 net.cpp:91] Creating Layer conv3
I0526 17:04:52.366570 24213 net.cpp:425] conv3 <- norm2
I0526 17:04:52.366600 24213 net.cpp:399] conv3 -> conv3
I0526 17:04:52.409693 24213 net.cpp:141] Setting up conv3
I0526 17:04:52.409741 24213 net.cpp:148] Top shape: 50 384 13 13 (3244800)
I0526 17:04:52.409750 24213 net.cpp:156] Memory required for data: 280006000
I0526 17:04:52.409771 24213 layer_factory.hpp:77] Creating layer relu3
I0526 17:04:52.409790 24213 net.cpp:91] Creating Layer relu3
I0526 17:04:52.409800 24213 net.cpp:425] relu3 <- conv3
I0526 17:04:52.409814 24213 net.cpp:386] relu3 -> conv3 (in-place)
I0526 17:04:52.409832 24213 net.cpp:141] Setting up relu3
I0526 17:04:52.409843 24213 net.cpp:148] Top shape: 50 384 13 13 (3244800)
I0526 17:04:52.409852 24213 net.cpp:156] Memory required for data: 292985200
I0526 17:04:52.409860 24213 layer_factory.hpp:77] Creating layer conv4
I0526 17:04:52.409880 24213 net.cpp:91] Creating Layer conv4
I0526 17:04:52.409889 24213 net.cpp:425] conv4 <- conv3
I0526 17:04:52.409901 24213 net.cpp:399] conv4 -> conv4
I0526 17:04:52.441567 24213 net.cpp:141] Setting up conv4
I0526 17:04:52.441597 24213 net.cpp:148] Top shape: 50 384 13 13 (3244800)
I0526 17:04:52.441606 24213 net.cpp:156] Memory required for data: 305964400
I0526 17:04:52.441620 24213 layer_factory.hpp:77] Creating layer relu4
I0526 17:04:52.441638 24213 net.cpp:91] Creating Layer relu4
I0526 17:04:52.441649 24213 net.cpp:425] relu4 <- conv4
I0526 17:04:52.441663 24213 net.cpp:386] relu4 -> conv4 (in-place)
I0526 17:04:52.441679 24213 net.cpp:141] Setting up relu4
I0526 17:04:52.441690 24213 net.cpp:148] Top shape: 50 384 13 13 (3244800)
I0526 17:04:52.441699 24213 net.cpp:156] Memory required for data: 318943600
I0526 17:04:52.441705 24213 layer_factory.hpp:77] Creating layer conv5
I0526 17:04:52.441723 24213 net.cpp:91] Creating Layer conv5
I0526 17:04:52.441732 24213 net.cpp:425] conv5 <- conv4
I0526 17:04:52.441747 24213 net.cpp:399] conv5 -> conv5
I0526 17:04:52.471709 24213 net.cpp:141] Setting up conv5
I0526 17:04:52.471818 24213 net.cpp:148] Top shape: 50 384 13 13 (3244800)
I0526 17:04:52.471848 24213 net.cpp:156] Memory required for data: 331922800
I0526 17:04:52.471890 24213 layer_factory.hpp:77] Creating layer relu5
I0526 17:04:52.471930 24213 net.cpp:91] Creating Layer relu5
I0526 17:04:52.471961 24213 net.cpp:425] relu5 <- conv5
I0526 17:04:52.471999 24213 net.cpp:386] relu5 -> conv5 (in-place)
I0526 17:04:52.472038 24213 net.cpp:141] Setting up relu5
I0526 17:04:52.472065 24213 net.cpp:148] Top shape: 50 384 13 13 (3244800)
I0526 17:04:52.472090 24213 net.cpp:156] Memory required for data: 344902000
I0526 17:04:52.472111 24213 layer_factory.hpp:77] Creating layer pool5
I0526 17:04:52.472152 24213 net.cpp:91] Creating Layer pool5
I0526 17:04:52.472177 24213 net.cpp:425] pool5 <- conv5
I0526 17:04:52.472203 24213 net.cpp:399] pool5 -> pool5
I0526 17:04:52.472285 24213 net.cpp:141] Setting up pool5
I0526 17:04:52.472317 24213 net.cpp:148] Top shape: 50 384 11 11 (2323200)
I0526 17:04:52.472342 24213 net.cpp:156] Memory required for data: 354194800
I0526 17:04:52.472364 24213 layer_factory.hpp:77] Creating layer conv6
I0526 17:04:52.472401 24213 net.cpp:91] Creating Layer conv6
I0526 17:04:52.472427 24213 net.cpp:425] conv6 <- pool5
I0526 17:04:52.472466 24213 net.cpp:399] conv6 -> conv6
I0526 17:04:52.515018 24213 net.cpp:141] Setting up conv6
I0526 17:04:52.515101 24213 net.cpp:148] Top shape: 50 512 11 11 (3097600)
I0526 17:04:52.515128 24213 net.cpp:156] Memory required for data: 366585200
I0526 17:04:52.515161 24213 layer_factory.hpp:77] Creating layer relu6
I0526 17:04:52.515199 24213 net.cpp:91] Creating Layer relu6
I0526 17:04:52.515223 24213 net.cpp:425] relu6 <- conv6
I0526 17:04:52.515250 24213 net.cpp:386] relu6 -> conv6 (in-place)
I0526 17:04:52.515282 24213 net.cpp:141] Setting up relu6
I0526 17:04:52.515308 24213 net.cpp:148] Top shape: 50 512 11 11 (3097600)
I0526 17:04:52.515331 24213 net.cpp:156] Memory required for data: 378975600
I0526 17:04:52.515353 24213 layer_factory.hpp:77] Creating layer conv7
I0526 17:04:52.515385 24213 net.cpp:91] Creating Layer conv7
I0526 17:04:52.515408 24213 net.cpp:425] conv7 <- conv6
I0526 17:04:52.515436 24213 net.cpp:399] conv7 -> conv7
I0526 17:04:52.571765 24213 net.cpp:141] Setting up conv7
I0526 17:04:52.571846 24213 net.cpp:148] Top shape: 50 512 11 11 (3097600)
I0526 17:04:52.571872 24213 net.cpp:156] Memory required for data: 391366000
I0526 17:04:52.571903 24213 layer_factory.hpp:77] Creating layer relu7
I0526 17:04:52.571938 24213 net.cpp:91] Creating Layer relu7
I0526 17:04:52.571964 24213 net.cpp:425] relu7 <- conv7
I0526 17:04:52.571993 24213 net.cpp:386] relu7 -> conv7 (in-place)
I0526 17:04:52.572027 24213 net.cpp:141] Setting up relu7
I0526 17:04:52.572057 24213 net.cpp:148] Top shape: 50 512 11 11 (3097600)
I0526 17:04:52.572082 24213 net.cpp:156] Memory required for data: 403756400
I0526 17:04:52.572104 24213 layer_factory.hpp:77] Creating layer pool8_global
I0526 17:04:52.572132 24213 net.cpp:91] Creating Layer pool8_global
I0526 17:04:52.572157 24213 net.cpp:425] pool8_global <- conv7
I0526 17:04:52.572187 24213 net.cpp:399] pool8_global -> pool8_global
I0526 17:04:52.572252 24213 net.cpp:141] Setting up pool8_global
I0526 17:04:52.572288 24213 net.cpp:148] Top shape: 50 512 1 1 (25600)
I0526 17:04:52.572311 24213 net.cpp:156] Memory required for data: 403858800
I0526 17:04:52.572335 24213 layer_factory.hpp:77] Creating layer mitindoor_fc9
I0526 17:04:52.572362 24213 net.cpp:91] Creating Layer mitindoor_fc9
I0526 17:04:52.572386 24213 net.cpp:425] mitindoor_fc9 <- pool8_global
I0526 17:04:52.572414 24213 net.cpp:399] mitindoor_fc9 -> mitindoor_fc9
I0526 17:04:52.574196 24213 net.cpp:141] Setting up mitindoor_fc9
I0526 17:04:52.574247 24213 net.cpp:148] Top shape: 50 67 (3350)
I0526 17:04:52.574276 24213 net.cpp:156] Memory required for data: 403872200
I0526 17:04:52.574306 24213 layer_factory.hpp:77] Creating layer mitindoor_fc9_mitindoor_fc9_0_split
I0526 17:04:52.574333 24213 net.cpp:91] Creating Layer mitindoor_fc9_mitindoor_fc9_0_split
I0526 17:04:52.574364 24213 net.cpp:425] mitindoor_fc9_mitindoor_fc9_0_split <- mitindoor_fc9
I0526 17:04:52.574391 24213 net.cpp:399] mitindoor_fc9_mitindoor_fc9_0_split -> mitindoor_fc9_mitindoor_fc9_0_split_0
I0526 17:04:52.574424 24213 net.cpp:399] mitindoor_fc9_mitindoor_fc9_0_split -> mitindoor_fc9_mitindoor_fc9_0_split_1
I0526 17:04:52.574506 24213 net.cpp:141] Setting up mitindoor_fc9_mitindoor_fc9_0_split
I0526 17:04:52.574545 24213 net.cpp:148] Top shape: 50 67 (3350)
I0526 17:04:52.574571 24213 net.cpp:148] Top shape: 50 67 (3350)
I0526 17:04:52.574594 24213 net.cpp:156] Memory required for data: 403899000
I0526 17:04:52.574620 24213 layer_factory.hpp:77] Creating layer accuracy
I0526 17:04:52.574645 24213 net.cpp:91] Creating Layer accuracy
I0526 17:04:52.574668 24213 net.cpp:425] accuracy <- mitindoor_fc9_mitindoor_fc9_0_split_0
I0526 17:04:52.574695 24213 net.cpp:425] accuracy <- label_data_1_split_0
I0526 17:04:52.574722 24213 net.cpp:399] accuracy -> accuracy
…
