…
I0527 11:59:56.139911 28667 net.cpp:313] The NetState phase (0) differed from the phase (1) specified by a rule in layer accuracy
I0527 11:59:56.140280 28667 net.cpp:49] Initializing net from parameters: 
name: "placesCNNobjectdiscoveryAverageSumFinedtunedMITindoor"
state {
  phase: TRAIN
}
layer {
  name: "data"
  type: "ImageData"
  top: "data"
  top: "label"
  include {
    phase: TRAIN
  }
  transform_param {
    mirror: true
    crop_size: 227
    mean_value: 104
    mean_value: 117
    mean_value: 123
  }
  image_data_param {
    source: "train.txt"
    batch_size: 128
    shuffle: true
  }
}
layer {
  name: "conv1"
  type: "Convolution"
  bottom: "data"
  top: "conv1"
  param {
    lr_mult: 1
    decay_mult: 1
  }
  param {
    lr_mult: 2
    decay_mult: 0
  }
  convolution_param {
    num_output: 96
    kernel_size: 11
    stride: 4
    weight_filler {
      type: "gaussian"
      std: 0.01
    }
    bias_filler {
      type: "constant"
      value: 0
    }
  }
}
layer {
  name: "relu1"
  type: "ReLU"
  bottom: "conv1"
  top: "conv1"
}
layer {
  name: "pool1"
  type: "Pooling"
  bottom: "conv1"
  top: "pool1"
  pooling_param {
    pool: MAX
    kernel_size: 3
    stride: 2
  }
}
layer {
  name: "norm1"
  type: "LRN"
  bottom: "pool1"
  top: "norm1"
  lrn_param {
    local_size: 5
    alpha: 0.0001
    beta: 0.75
  }
}
layer {
  name: "conv2"
  type: "Convolution"
  bottom: "norm1"
  top: "conv2"
  param {
    lr_mult: 1
    decay_mult: 1
  }
  param {
    lr_mult: 2
    decay_mult: 0
  }
  convolution_param {
    num_output: 256
    pad: 2
    kernel_size: 5
    group: 2
    weight_filler {
      type: "gaussian"
      std: 0.01
    }
    bias_filler {
      type: "constant"
      value: 1
    }
  }
}
layer {
  name: "relu2"
  type: "ReLU"
  bottom: "conv2"
  top: "conv2"
}
layer {
  name: "pool2"
  type: "Pooling"
  bottom: "conv2"
  top: "pool2"
  pooling_param {
    pool: MAX
    kernel_size: 3
    stride: 2
  }
}
layer {
  name: "norm2"
  type: "LRN"
  bottom: "pool2"
  top: "norm2"
  lrn_param {
    local_size: 5
    alpha: 0.0001
    beta: 0.75
  }
}
layer {
  name: "conv3"
  type: "Convolution"
  bottom: "norm2"
  top: "conv3"
  param {
    lr_mult: 1
    decay_mult: 1
  }
  param {
    lr_mult: 2
    decay_mult: 0
  }
  convolution_param {
    num_output: 384
    pad: 1
    kernel_size: 3
    weight_filler {
      type: "gaussian"
      std: 0.01
    }
    bias_filler {
      type: "constant"
      value: 0
    }
  }
}
layer {
  name: "relu3"
  type: "ReLU"
  bottom: "conv3"
  top: "conv3"
}
layer {
  name: "conv4"
  type: "Convolution"
  bottom: "conv3"
  top: "conv4"
  param {
    lr_mult: 1
    decay_mult: 1
  }
  param {
    lr_mult: 2
    decay_mult: 0
  }
  convolution_param {
    num_output: 384
    pad: 1
    kernel_size: 3
    group: 2
    weight_filler {
      type: "gaussian"
      std: 0.01
    }
    bias_filler {
      type: "constant"
      value: 1
    }
  }
}
layer {
  name: "relu4"
  type: "ReLU"
  bottom: "conv4"
  top: "conv4"
}
layer {
  name: "conv5"
  type: "Convolution"
  bottom: "conv4"
  top: "conv5"
  param {
    lr_mult: 1
    decay_mult: 1
  }
  param {
    lr_mult: 2
    decay_mult: 0
  }
  convolution_param {
    num_output: 384
    pad: 1
    kernel_size: 3
    group: 2
    weight_filler {
      type: "gaussian"
      std: 0.01
    }
    bias_filler {
      type: "constant"
      value: 1
    }
  }
}
layer {
  name: "relu5"
  type: "ReLU"
  bottom: "conv5"
  top: "conv5"
}
layer {
  name: "pool5"
  type: "Pooling"
  bottom: "conv5"
  top: "pool5"
  pooling_param {
    pool: MAX
    kernel_size: 3
    stride: 1
  }
}
layer {
  name: "conv6"
  type: "Convolution"
  bottom: "pool5"
  top: "conv6"
  param {
    lr_mult: 1
    decay_mult: 1
  }
  param {
    lr_mult: 2
    decay_mult: 0
  }
  convolution_param {
    num_output: 512
    pad: 1
    kernel_size: 3
    group: 2
    weight_filler {
      type: "gaussian"
      std: 0.01
    }
    bias_filler {
      type: "constant"
      value: 1
    }
  }
}
layer {
  name: "relu6"
  type: "ReLU"
  bottom: "conv6"
  top: "conv6"
}
layer {
  name: "conv7"
  type: "Convolution"
  bottom: "conv6"
  top: "conv7"
  param {
    lr_mult: 1
    decay_mult: 1
  }
  param {
    lr_mult: 2
    decay_mult: 0
  }
  convolution_param {
    num_output: 512
    pad: 1
    kernel_size: 3
    group: 2
    weight_filler {
      type: "gaussian"
      std: 0.01
    }
    bias_filler {
      type: "constant"
      value: 1
    }
  }
}
layer {
  name: "relu7"
  type: "ReLU"
  bottom: "conv7"
  top: "conv7"
}
layer {
  name: "pool8_global"
  type: "Pooling"
  bottom: "conv7"
  top: "pool8_global"
  pooling_param {
    pool: AVE
    kernel_size: 11
    stride: 11
  }
}
layer {
  name: "mitindoor_fc9"
  type: "InnerProduct"
  bottom: "pool8_global"
  top: "mitindoor_fc9"
  param {
    lr_mult: 10
    decay_mult: 1
  }
  param {
    lr_mult: 20
    decay_mult: 0
  }
  inner_product_param {
    num_output: 67
    weight_filler {
      type: "gaussian"
      std: 0.01
    }
    bias_filler {
      type: "constant"
      value: 0
    }
  }
}
layer {
  name: "loss"
  type: "SoftmaxWithLoss"
  bottom: "mitindoor_fc9"
  bottom: "label"
  top: "loss"
}
I0527 11:59:56.140522 28667 layer_factory.hpp:77] Creating layer data
I0527 11:59:56.140594 28667 net.cpp:91] Creating Layer data
I0527 11:59:56.140610 28667 net.cpp:399] data -> data
I0527 11:59:56.140650 28667 net.cpp:399] data -> label
I0527 11:59:56.141279 28667 image_data_layer.cpp:38] Opening file train.txt
I0527 11:59:56.141746 28667 image_data_layer.cpp:48] Shuffling data
I0527 11:59:56.141826 28667 image_data_layer.cpp:53] A total of 405 images.
I0527 11:59:56.162308 28667 image_data_layer.cpp:80] output data size: 128,3,227,227
I0527 11:59:56.291963 28667 net.cpp:141] Setting up data
I0527 11:59:56.292009 28667 net.cpp:148] Top shape: 128 3 227 227 (19787136)
I0527 11:59:56.292017 28667 net.cpp:148] Top shape: 128 (128)
I0527 11:59:56.292021 28667 net.cpp:156] Memory required for data: 79149056
I0527 11:59:56.292031 28667 layer_factory.hpp:77] Creating layer conv1
I0527 11:59:56.292053 28667 net.cpp:91] Creating Layer conv1
I0527 11:59:56.292062 28667 net.cpp:425] conv1 <- data
I0527 11:59:56.292074 28667 net.cpp:399] conv1 -> conv1
I0527 11:59:56.294581 28667 net.cpp:141] Setting up conv1
I0527 11:59:56.294600 28667 net.cpp:148] Top shape: 128 96 55 55 (37171200)
I0527 11:59:56.294606 28667 net.cpp:156] Memory required for data: 227833856
I0527 11:59:56.294620 28667 layer_factory.hpp:77] Creating layer relu1
I0527 11:59:56.294631 28667 net.cpp:91] Creating Layer relu1
I0527 11:59:56.294636 28667 net.cpp:425] relu1 <- conv1
I0527 11:59:56.294641 28667 net.cpp:386] relu1 -> conv1 (in-place)
I0527 11:59:56.294657 28667 net.cpp:141] Setting up relu1
I0527 11:59:56.294666 28667 net.cpp:148] Top shape: 128 96 55 55 (37171200)
I0527 11:59:56.294669 28667 net.cpp:156] Memory required for data: 376518656
I0527 11:59:56.294673 28667 layer_factory.hpp:77] Creating layer pool1
I0527 11:59:56.294680 28667 net.cpp:91] Creating Layer pool1
I0527 11:59:56.294684 28667 net.cpp:425] pool1 <- conv1
I0527 11:59:56.294692 28667 net.cpp:399] pool1 -> pool1
I0527 11:59:56.294744 28667 net.cpp:141] Setting up pool1
I0527 11:59:56.294752 28667 net.cpp:148] Top shape: 128 96 27 27 (8957952)
I0527 11:59:56.294756 28667 net.cpp:156] Memory required for data: 412350464
I0527 11:59:56.294760 28667 layer_factory.hpp:77] Creating layer norm1
I0527 11:59:56.294770 28667 net.cpp:91] Creating Layer norm1
I0527 11:59:56.294791 28667 net.cpp:425] norm1 <- pool1
I0527 11:59:56.294798 28667 net.cpp:399] norm1 -> norm1
I0527 11:59:56.294836 28667 net.cpp:141] Setting up norm1
I0527 11:59:56.294845 28667 net.cpp:148] Top shape: 128 96 27 27 (8957952)
I0527 11:59:56.294850 28667 net.cpp:156] Memory required for data: 448182272
I0527 11:59:56.294854 28667 layer_factory.hpp:77] Creating layer conv2
I0527 11:59:56.294864 28667 net.cpp:91] Creating Layer conv2
I0527 11:59:56.294869 28667 net.cpp:425] conv2 <- norm1
I0527 11:59:56.294875 28667 net.cpp:399] conv2 -> conv2
I0527 11:59:56.306783 28667 net.cpp:141] Setting up conv2
I0527 11:59:56.306802 28667 net.cpp:148] Top shape: 128 256 27 27 (23887872)
I0527 11:59:56.306812 28667 net.cpp:156] Memory required for data: 543733760
I0527 11:59:56.306823 28667 layer_factory.hpp:77] Creating layer relu2
I0527 11:59:56.306830 28667 net.cpp:91] Creating Layer relu2
I0527 11:59:56.306835 28667 net.cpp:425] relu2 <- conv2
I0527 11:59:56.306841 28667 net.cpp:386] relu2 -> conv2 (in-place)
I0527 11:59:56.306850 28667 net.cpp:141] Setting up relu2
I0527 11:59:56.306855 28667 net.cpp:148] Top shape: 128 256 27 27 (23887872)
I0527 11:59:56.306859 28667 net.cpp:156] Memory required for data: 639285248
I0527 11:59:56.306864 28667 layer_factory.hpp:77] Creating layer pool2
I0527 11:59:56.306870 28667 net.cpp:91] Creating Layer pool2
I0527 11:59:56.306874 28667 net.cpp:425] pool2 <- conv2
I0527 11:59:56.306880 28667 net.cpp:399] pool2 -> pool2
I0527 11:59:56.306922 28667 net.cpp:141] Setting up pool2
I0527 11:59:56.306931 28667 net.cpp:148] Top shape: 128 256 13 13 (5537792)
I0527 11:59:56.306936 28667 net.cpp:156] Memory required for data: 661436416
I0527 11:59:56.306941 28667 layer_factory.hpp:77] Creating layer norm2
I0527 11:59:56.306948 28667 net.cpp:91] Creating Layer norm2
I0527 11:59:56.306957 28667 net.cpp:425] norm2 <- pool2
I0527 11:59:56.306962 28667 net.cpp:399] norm2 -> norm2
I0527 11:59:56.306995 28667 net.cpp:141] Setting up norm2
I0527 11:59:56.307003 28667 net.cpp:148] Top shape: 128 256 13 13 (5537792)
I0527 11:59:56.307008 28667 net.cpp:156] Memory required for data: 683587584
I0527 11:59:56.307011 28667 layer_factory.hpp:77] Creating layer conv3
I0527 11:59:56.307021 28667 net.cpp:91] Creating Layer conv3
I0527 11:59:56.307029 28667 net.cpp:425] conv3 <- norm2
I0527 11:59:56.307039 28667 net.cpp:399] conv3 -> conv3
I0527 11:59:56.341305 28667 net.cpp:141] Setting up conv3
I0527 11:59:56.341332 28667 net.cpp:148] Top shape: 128 384 13 13 (8306688)
I0527 11:59:56.341337 28667 net.cpp:156] Memory required for data: 716814336
I0527 11:59:56.341351 28667 layer_factory.hpp:77] Creating layer relu3
I0527 11:59:56.341361 28667 net.cpp:91] Creating Layer relu3
I0527 11:59:56.341367 28667 net.cpp:425] relu3 <- conv3
I0527 11:59:56.341373 28667 net.cpp:386] relu3 -> conv3 (in-place)
I0527 11:59:56.341395 28667 net.cpp:141] Setting up relu3
I0527 11:59:56.341401 28667 net.cpp:148] Top shape: 128 384 13 13 (8306688)
I0527 11:59:56.341405 28667 net.cpp:156] Memory required for data: 750041088
I0527 11:59:56.341409 28667 layer_factory.hpp:77] Creating layer conv4
I0527 11:59:56.341421 28667 net.cpp:91] Creating Layer conv4
I0527 11:59:56.341425 28667 net.cpp:425] conv4 <- conv3
I0527 11:59:56.341433 28667 net.cpp:399] conv4 -> conv4
I0527 11:59:56.365808 28667 net.cpp:141] Setting up conv4
I0527 11:59:56.365836 28667 net.cpp:148] Top shape: 128 384 13 13 (8306688)
I0527 11:59:56.365841 28667 net.cpp:156] Memory required for data: 783267840
I0527 11:59:56.365850 28667 layer_factory.hpp:77] Creating layer relu4
I0527 11:59:56.365859 28667 net.cpp:91] Creating Layer relu4
I0527 11:59:56.365864 28667 net.cpp:425] relu4 <- conv4
I0527 11:59:56.365871 28667 net.cpp:386] relu4 -> conv4 (in-place)
I0527 11:59:56.365890 28667 net.cpp:141] Setting up relu4
I0527 11:59:56.365895 28667 net.cpp:148] Top shape: 128 384 13 13 (8306688)
I0527 11:59:56.365900 28667 net.cpp:156] Memory required for data: 816494592
I0527 11:59:56.365903 28667 layer_factory.hpp:77] Creating layer conv5
I0527 11:59:56.365914 28667 net.cpp:91] Creating Layer conv5
I0527 11:59:56.365936 28667 net.cpp:425] conv5 <- conv4
I0527 11:59:56.365943 28667 net.cpp:399] conv5 -> conv5
I0527 11:59:56.390513 28667 net.cpp:141] Setting up conv5
I0527 11:59:56.390535 28667 net.cpp:148] Top shape: 128 384 13 13 (8306688)
I0527 11:59:56.390545 28667 net.cpp:156] Memory required for data: 849721344
I0527 11:59:56.390558 28667 layer_factory.hpp:77] Creating layer relu5
I0527 11:59:56.390568 28667 net.cpp:91] Creating Layer relu5
I0527 11:59:56.390573 28667 net.cpp:425] relu5 <- conv5
I0527 11:59:56.390580 28667 net.cpp:386] relu5 -> conv5 (in-place)
I0527 11:59:56.390589 28667 net.cpp:141] Setting up relu5
I0527 11:59:56.390594 28667 net.cpp:148] Top shape: 128 384 13 13 (8306688)
I0527 11:59:56.390599 28667 net.cpp:156] Memory required for data: 882948096
I0527 11:59:56.390602 28667 layer_factory.hpp:77] Creating layer pool5
I0527 11:59:56.390609 28667 net.cpp:91] Creating Layer pool5
I0527 11:59:56.390614 28667 net.cpp:425] pool5 <- conv5
I0527 11:59:56.390620 28667 net.cpp:399] pool5 -> pool5
I0527 11:59:56.390669 28667 net.cpp:141] Setting up pool5
I0527 11:59:56.390676 28667 net.cpp:148] Top shape: 128 384 11 11 (5947392)
I0527 11:59:56.390681 28667 net.cpp:156] Memory required for data: 906737664
I0527 11:59:56.390684 28667 layer_factory.hpp:77] Creating layer conv6
I0527 11:59:56.390697 28667 net.cpp:91] Creating Layer conv6
I0527 11:59:56.390702 28667 net.cpp:425] conv6 <- pool5
I0527 11:59:56.390708 28667 net.cpp:399] conv6 -> conv6
I0527 11:59:56.423492 28667 net.cpp:141] Setting up conv6
I0527 11:59:56.423526 28667 net.cpp:148] Top shape: 128 512 11 11 (7929856)
I0527 11:59:56.423530 28667 net.cpp:156] Memory required for data: 938457088
I0527 11:59:56.423540 28667 layer_factory.hpp:77] Creating layer relu6
I0527 11:59:56.423549 28667 net.cpp:91] Creating Layer relu6
I0527 11:59:56.423555 28667 net.cpp:425] relu6 <- conv6
I0527 11:59:56.423563 28667 net.cpp:386] relu6 -> conv6 (in-place)
I0527 11:59:56.423573 28667 net.cpp:141] Setting up relu6
I0527 11:59:56.423578 28667 net.cpp:148] Top shape: 128 512 11 11 (7929856)
I0527 11:59:56.423583 28667 net.cpp:156] Memory required for data: 970176512
I0527 11:59:56.423585 28667 layer_factory.hpp:77] Creating layer conv7
I0527 11:59:56.423598 28667 net.cpp:91] Creating Layer conv7
I0527 11:59:56.423604 28667 net.cpp:425] conv7 <- conv6
I0527 11:59:56.423617 28667 net.cpp:399] conv7 -> conv7
I0527 11:59:56.466714 28667 net.cpp:141] Setting up conv7
I0527 11:59:56.466747 28667 net.cpp:148] Top shape: 128 512 11 11 (7929856)
I0527 11:59:56.466753 28667 net.cpp:156] Memory required for data: 1001895936
I0527 11:59:56.466763 28667 layer_factory.hpp:77] Creating layer relu7
I0527 11:59:56.466773 28667 net.cpp:91] Creating Layer relu7
I0527 11:59:56.466778 28667 net.cpp:425] relu7 <- conv7
I0527 11:59:56.466785 28667 net.cpp:386] relu7 -> conv7 (in-place)
I0527 11:59:56.466796 28667 net.cpp:141] Setting up relu7
I0527 11:59:56.466801 28667 net.cpp:148] Top shape: 128 512 11 11 (7929856)
I0527 11:59:56.466805 28667 net.cpp:156] Memory required for data: 1033615360
I0527 11:59:56.466809 28667 layer_factory.hpp:77] Creating layer pool8_global
I0527 11:59:56.466817 28667 net.cpp:91] Creating Layer pool8_global
I0527 11:59:56.466826 28667 net.cpp:425] pool8_global <- conv7
I0527 11:59:56.466833 28667 net.cpp:399] pool8_global -> pool8_global
I0527 11:59:56.466866 28667 net.cpp:141] Setting up pool8_global
I0527 11:59:56.466872 28667 net.cpp:148] Top shape: 128 512 1 1 (65536)
I0527 11:59:56.466876 28667 net.cpp:156] Memory required for data: 1033877504
I0527 11:59:56.466881 28667 layer_factory.hpp:77] Creating layer mitindoor_fc9
I0527 11:59:56.466888 28667 net.cpp:91] Creating Layer mitindoor_fc9
I0527 11:59:56.466892 28667 net.cpp:425] mitindoor_fc9 <- pool8_global
I0527 11:59:56.466899 28667 net.cpp:399] mitindoor_fc9 -> mitindoor_fc9
I0527 11:59:56.468221 28667 net.cpp:141] Setting up mitindoor_fc9
I0527 11:59:56.468231 28667 net.cpp:148] Top shape: 128 67 (8576)
I0527 11:59:56.468235 28667 net.cpp:156] Memory required for data: 1033911808
I0527 11:59:56.468264 28667 layer_factory.hpp:77] Creating layer loss
I0527 11:59:56.468272 28667 net.cpp:91] Creating Layer loss
I0527 11:59:56.468277 28667 net.cpp:425] loss <- mitindoor_fc9
I0527 11:59:56.468282 28667 net.cpp:425] loss <- label
I0527 11:59:56.468289 28667 net.cpp:399] loss -> loss
I0527 11:59:56.468304 28667 layer_factory.hpp:77] Creating layer loss
…
I0527 11:59:56.470120 28667 net.cpp:313] The NetState phase (1) differed from the phase (0) specified by a rule in layer data
I0527 11:59:56.470338 28667 net.cpp:49] Initializing net from parameters: 
name: "placesCNNobjectdiscoveryAverageSumFinedtunedMITindoor"
state {
  phase: TEST
}
layer {
  name: "data"
  type: "ImageData"
  top: "data"
  top: "label"
  include {
    phase: TEST
  }
  transform_param {
    mirror: false
    crop_size: 227
    mean_value: 104
    mean_value: 117
    mean_value: 123
  }
  image_data_param {
    source: "val.txt"
    batch_size: 50
  }
}
layer {
  name: "conv1"
  type: "Convolution"
  bottom: "data"
  top: "conv1"
  param {
    lr_mult: 1
    decay_mult: 1
  }
  param {
    lr_mult: 2
    decay_mult: 0
  }
  convolution_param {
    num_output: 96
    kernel_size: 11
    stride: 4
    weight_filler {
      type: "gaussian"
      std: 0.01
    }
    bias_filler {
      type: "constant"
      value: 0
    }
  }
}
layer {
  name: "relu1"
  type: "ReLU"
  bottom: "conv1"
  top: "conv1"
}
layer {
  name: "pool1"
  type: "Pooling"
  bottom: "conv1"
  top: "pool1"
  pooling_param {
    pool: MAX
    kernel_size: 3
    stride: 2
  }
}
layer {
  name: "norm1"
  type: "LRN"
  bottom: "pool1"
  top: "norm1"
  lrn_param {
    local_size: 5
    alpha: 0.0001
    beta: 0.75
  }
}
layer {
  name: "conv2"
  type: "Convolution"
  bottom: "norm1"
  top: "conv2"
  param {
    lr_mult: 1
    decay_mult: 1
  }
  param {
    lr_mult: 2
    decay_mult: 0
  }
  convolution_param {
    num_output: 256
    pad: 2
    kernel_size: 5
    group: 2
    weight_filler {
      type: "gaussian"
      std: 0.01
    }
    bias_filler {
      type: "constant"
      value: 1
    }
  }
}
layer {
  name: "relu2"
  type: "ReLU"
  bottom: "conv2"
  top: "conv2"
}
layer {
  name: "pool2"
  type: "Pooling"
  bottom: "conv2"
  top: "pool2"
  pooling_param {
    pool: MAX
    kernel_size: 3
    stride: 2
  }
}
layer {
  name: "norm2"
  type: "LRN"
  bottom: "pool2"
  top: "norm2"
  lrn_param {
    local_size: 5
    alpha: 0.0001
    beta: 0.75
  }
}
layer {
  name: "conv3"
  type: "Convolution"
  bottom: "norm2"
  top: "conv3"
  param {
    lr_mult: 1
    decay_mult: 1
  }
  param {
    lr_mult: 2
    decay_mult: 0
  }
  convolution_param {
    num_output: 384
    pad: 1
    kernel_size: 3
    weight_filler {
      type: "gaussian"
      std: 0.01
    }
    bias_filler {
      type: "constant"
      value: 0
    }
  }
}
layer {
  name: "relu3"
  type: "ReLU"
  bottom: "conv3"
  top: "conv3"
}
layer {
  name: "conv4"
  type: "Convolution"
  bottom: "conv3"
  top: "conv4"
  param {
    lr_mult: 1
    decay_mult: 1
  }
  param {
    lr_mult: 2
    decay_mult: 0
  }
  convolution_param {
    num_output: 384
    pad: 1
    kernel_size: 3
    group: 2
    weight_filler {
      type: "gaussian"
      std: 0.01
    }
    bias_filler {
      type: "constant"
      value: 1
    }
  }
}
layer {
  name: "relu4"
  type: "ReLU"
  bottom: "conv4"
  top: "conv4"
}
layer {
  name: "conv5"
  type: "Convolution"
  bottom: "conv4"
  top: "conv5"
  param {
    lr_mult: 1
    decay_mult: 1
  }
  param {
    lr_mult: 2
    decay_mult: 0
  }
  convolution_param {
    num_output: 384
    pad: 1
    kernel_size: 3
    group: 2
    weight_filler {
      type: "gaussian"
      std: 0.01
    }
    bias_filler {
      type: "constant"
      value: 1
    }
  }
}
layer {
  name: "relu5"
  type: "ReLU"
  bottom: "conv5"
  top: "conv5"
}
layer {
  name: "pool5"
  type: "Pooling"
  bottom: "conv5"
  top: "pool5"
  pooling_param {
    pool: MAX
    kernel_size: 3
    stride: 1
  }
}
layer {
  name: "conv6"
  type: "Convolution"
  bottom: "pool5"
  top: "conv6"
  param {
    lr_mult: 1
    decay_mult: 1
  }
  param {
    lr_mult: 2
    decay_mult: 0
  }
  convolution_param {
    num_output: 512
    pad: 1
    kernel_size: 3
    group: 2
    weight_filler {
      type: "gaussian"
      std: 0.01
    }
    bias_filler {
      type: "constant"
      value: 1
    }
  }
}
layer {
  name: "relu6"
  type: "ReLU"
  bottom: "conv6"
  top: "conv6"
}
layer {
  name: "conv7"
  type: "Convolution"
  bottom: "conv6"
  top: "conv7"
  param {
    lr_mult: 1
    decay_mult: 1
  }
  param {
    lr_mult: 2
    decay_mult: 0
  }
  convolution_param {
    num_output: 512
    pad: 1
    kernel_size: 3
    group: 2
    weight_filler {
      type: "gaussian"
      std: 0.01
    }
    bias_filler {
      type: "constant"
      value: 1
    }
  }
}
layer {
  name: "relu7"
  type: "ReLU"
  bottom: "conv7"
  top: "conv7"
}
layer {
  name: "pool8_global"
  type: "Pooling"
  bottom: "conv7"
  top: "pool8_global"
  pooling_param {
    pool: AVE
    kernel_size: 11
    stride: 11
  }
}
layer {
  name: "mitindoor_fc9"
  type: "InnerProduct"
  bottom: "pool8_global"
  top: "mitindoor_fc9"
  param {
    lr_mult: 10
    decay_mult: 1
  }
  param {
    lr_mult: 20
    decay_mult: 0
  }
  inner_product_param {
    num_output: 67
    weight_filler {
      type: "gaussian"
      std: 0.01
    }
    bias_filler {
      type: "constant"
      value: 0
    }
  }
}
layer {
  name: "accuracy"
  type: "Accuracy"
  bottom: "mitindoor_fc9"
  bottom: "label"
  top: "accuracy"
  include {
    phase: TEST
  }
}
layer {
  name: "loss"
  type: "SoftmaxWithLoss"
  bottom: "mitindoor_fc9"
  bottom: "label"
  top: "loss"
}
I0527 11:59:56.470474 28667 layer_factory.hpp:77] Creating layer data
I0527 11:59:56.470491 28667 net.cpp:91] Creating Layer data
I0527 11:59:56.470497 28667 net.cpp:399] data -> data
I0527 11:59:56.470507 28667 net.cpp:399] data -> label
I0527 11:59:56.470530 28667 image_data_layer.cpp:38] Opening file val.txt
I0527 11:59:56.470834 28667 image_data_layer.cpp:53] A total of 533 images.
I0527 11:59:56.473352 28667 image_data_layer.cpp:80] output data size: 50,3,227,227
I0527 11:59:56.520012 28667 net.cpp:141] Setting up data
I0527 11:59:56.520047 28667 net.cpp:148] Top shape: 50 3 227 227 (7729350)
I0527 11:59:56.520057 28667 net.cpp:148] Top shape: 50 (50)
I0527 11:59:56.520061 28667 net.cpp:156] Memory required for data: 30917600
I0527 11:59:56.520071 28667 layer_factory.hpp:77] Creating layer label_data_1_split
I0527 11:59:56.520083 28667 net.cpp:91] Creating Layer label_data_1_split
I0527 11:59:56.520088 28667 net.cpp:425] label_data_1_split <- label
I0527 11:59:56.520097 28667 net.cpp:399] label_data_1_split -> label_data_1_split_0
I0527 11:59:56.520107 28667 net.cpp:399] label_data_1_split -> label_data_1_split_1
I0527 11:59:56.520216 28667 net.cpp:141] Setting up label_data_1_split
I0527 11:59:56.520228 28667 net.cpp:148] Top shape: 50 (50)
I0527 11:59:56.520233 28667 net.cpp:148] Top shape: 50 (50)
I0527 11:59:56.520237 28667 net.cpp:156] Memory required for data: 30918000
I0527 11:59:56.520242 28667 layer_factory.hpp:77] Creating layer conv1
I0527 11:59:56.520256 28667 net.cpp:91] Creating Layer conv1
I0527 11:59:56.520262 28667 net.cpp:425] conv1 <- data
I0527 11:59:56.520269 28667 net.cpp:399] conv1 -> conv1
I0527 11:59:56.521934 28667 net.cpp:141] Setting up conv1
I0527 11:59:56.521947 28667 net.cpp:148] Top shape: 50 96 55 55 (14520000)
I0527 11:59:56.521957 28667 net.cpp:156] Memory required for data: 88998000
I0527 11:59:56.521970 28667 layer_factory.hpp:77] Creating layer relu1
I0527 11:59:56.521978 28667 net.cpp:91] Creating Layer relu1
I0527 11:59:56.521983 28667 net.cpp:425] relu1 <- conv1
I0527 11:59:56.521989 28667 net.cpp:386] relu1 -> conv1 (in-place)
I0527 11:59:56.521997 28667 net.cpp:141] Setting up relu1
I0527 11:59:56.522003 28667 net.cpp:148] Top shape: 50 96 55 55 (14520000)
I0527 11:59:56.522007 28667 net.cpp:156] Memory required for data: 147078000
I0527 11:59:56.522011 28667 layer_factory.hpp:77] Creating layer pool1
I0527 11:59:56.522019 28667 net.cpp:91] Creating Layer pool1
I0527 11:59:56.522035 28667 net.cpp:425] pool1 <- conv1
I0527 11:59:56.522042 28667 net.cpp:399] pool1 -> pool1
I0527 11:59:56.522083 28667 net.cpp:141] Setting up pool1
I0527 11:59:56.522091 28667 net.cpp:148] Top shape: 50 96 27 27 (3499200)
I0527 11:59:56.522096 28667 net.cpp:156] Memory required for data: 161074800
I0527 11:59:56.522100 28667 layer_factory.hpp:77] Creating layer norm1
I0527 11:59:56.522109 28667 net.cpp:91] Creating Layer norm1
I0527 11:59:56.522114 28667 net.cpp:425] norm1 <- pool1
I0527 11:59:56.522119 28667 net.cpp:399] norm1 -> norm1
I0527 11:59:56.522152 28667 net.cpp:141] Setting up norm1
I0527 11:59:56.522161 28667 net.cpp:148] Top shape: 50 96 27 27 (3499200)
I0527 11:59:56.522164 28667 net.cpp:156] Memory required for data: 175071600
I0527 11:59:56.522168 28667 layer_factory.hpp:77] Creating layer conv2
I0527 11:59:56.522178 28667 net.cpp:91] Creating Layer conv2
I0527 11:59:56.522183 28667 net.cpp:425] conv2 <- norm1
I0527 11:59:56.522189 28667 net.cpp:399] conv2 -> conv2
I0527 11:59:56.534292 28667 net.cpp:141] Setting up conv2
I0527 11:59:56.534315 28667 net.cpp:148] Top shape: 50 256 27 27 (9331200)
I0527 11:59:56.534320 28667 net.cpp:156] Memory required for data: 212396400
I0527 11:59:56.534333 28667 layer_factory.hpp:77] Creating layer relu2
I0527 11:59:56.534343 28667 net.cpp:91] Creating Layer relu2
I0527 11:59:56.534348 28667 net.cpp:425] relu2 <- conv2
I0527 11:59:56.534354 28667 net.cpp:386] relu2 -> conv2 (in-place)
I0527 11:59:56.534363 28667 net.cpp:141] Setting up relu2
I0527 11:59:56.534373 28667 net.cpp:148] Top shape: 50 256 27 27 (9331200)
I0527 11:59:56.534378 28667 net.cpp:156] Memory required for data: 249721200
I0527 11:59:56.534381 28667 layer_factory.hpp:77] Creating layer pool2
I0527 11:59:56.534390 28667 net.cpp:91] Creating Layer pool2
I0527 11:59:56.534394 28667 net.cpp:425] pool2 <- conv2
I0527 11:59:56.534430 28667 net.cpp:399] pool2 -> pool2
I0527 11:59:56.534473 28667 net.cpp:141] Setting up pool2
I0527 11:59:56.534483 28667 net.cpp:148] Top shape: 50 256 13 13 (2163200)
I0527 11:59:56.534487 28667 net.cpp:156] Memory required for data: 258374000
I0527 11:59:56.534492 28667 layer_factory.hpp:77] Creating layer norm2
I0527 11:59:56.534500 28667 net.cpp:91] Creating Layer norm2
I0527 11:59:56.534505 28667 net.cpp:425] norm2 <- pool2
I0527 11:59:56.534510 28667 net.cpp:399] norm2 -> norm2
I0527 11:59:56.534543 28667 net.cpp:141] Setting up norm2
I0527 11:59:56.534551 28667 net.cpp:148] Top shape: 50 256 13 13 (2163200)
I0527 11:59:56.534555 28667 net.cpp:156] Memory required for data: 267026800
I0527 11:59:56.534559 28667 layer_factory.hpp:77] Creating layer conv3
I0527 11:59:56.534570 28667 net.cpp:91] Creating Layer conv3
I0527 11:59:56.534574 28667 net.cpp:425] conv3 <- norm2
I0527 11:59:56.534581 28667 net.cpp:399] conv3 -> conv3
I0527 11:59:56.568138 28667 net.cpp:141] Setting up conv3
I0527 11:59:56.568171 28667 net.cpp:148] Top shape: 50 384 13 13 (3244800)
I0527 11:59:56.568181 28667 net.cpp:156] Memory required for data: 280006000
I0527 11:59:56.568195 28667 layer_factory.hpp:77] Creating layer relu3
I0527 11:59:56.568207 28667 net.cpp:91] Creating Layer relu3
I0527 11:59:56.568212 28667 net.cpp:425] relu3 <- conv3
I0527 11:59:56.568218 28667 net.cpp:386] relu3 -> conv3 (in-place)
I0527 11:59:56.568229 28667 net.cpp:141] Setting up relu3
I0527 11:59:56.568234 28667 net.cpp:148] Top shape: 50 384 13 13 (3244800)
I0527 11:59:56.568238 28667 net.cpp:156] Memory required for data: 292985200
I0527 11:59:56.568243 28667 layer_factory.hpp:77] Creating layer conv4
I0527 11:59:56.568253 28667 net.cpp:91] Creating Layer conv4
I0527 11:59:56.568260 28667 net.cpp:425] conv4 <- conv3
I0527 11:59:56.568267 28667 net.cpp:399] conv4 -> conv4
I0527 11:59:56.593714 28667 net.cpp:141] Setting up conv4
I0527 11:59:56.593752 28667 net.cpp:148] Top shape: 50 384 13 13 (3244800)
I0527 11:59:56.593757 28667 net.cpp:156] Memory required for data: 305964400
I0527 11:59:56.593767 28667 layer_factory.hpp:77] Creating layer relu4
I0527 11:59:56.593777 28667 net.cpp:91] Creating Layer relu4
I0527 11:59:56.593783 28667 net.cpp:425] relu4 <- conv4
I0527 11:59:56.593791 28667 net.cpp:386] relu4 -> conv4 (in-place)
I0527 11:59:56.593801 28667 net.cpp:141] Setting up relu4
I0527 11:59:56.593806 28667 net.cpp:148] Top shape: 50 384 13 13 (3244800)
I0527 11:59:56.593811 28667 net.cpp:156] Memory required for data: 318943600
I0527 11:59:56.593814 28667 layer_factory.hpp:77] Creating layer conv5
I0527 11:59:56.593824 28667 net.cpp:91] Creating Layer conv5
I0527 11:59:56.593832 28667 net.cpp:425] conv5 <- conv4
I0527 11:59:56.593838 28667 net.cpp:399] conv5 -> conv5
I0527 11:59:56.619371 28667 net.cpp:141] Setting up conv5
I0527 11:59:56.619401 28667 net.cpp:148] Top shape: 50 384 13 13 (3244800)
I0527 11:59:56.619406 28667 net.cpp:156] Memory required for data: 331922800
I0527 11:59:56.619421 28667 layer_factory.hpp:77] Creating layer relu5
I0527 11:59:56.619432 28667 net.cpp:91] Creating Layer relu5
I0527 11:59:56.619438 28667 net.cpp:425] relu5 <- conv5
I0527 11:59:56.619446 28667 net.cpp:386] relu5 -> conv5 (in-place)
I0527 11:59:56.619456 28667 net.cpp:141] Setting up relu5
I0527 11:59:56.619465 28667 net.cpp:148] Top shape: 50 384 13 13 (3244800)
I0527 11:59:56.619468 28667 net.cpp:156] Memory required for data: 344902000
I0527 11:59:56.619472 28667 layer_factory.hpp:77] Creating layer pool5
I0527 11:59:56.619482 28667 net.cpp:91] Creating Layer pool5
I0527 11:59:56.619485 28667 net.cpp:425] pool5 <- conv5
I0527 11:59:56.619491 28667 net.cpp:399] pool5 -> pool5
I0527 11:59:56.619534 28667 net.cpp:141] Setting up pool5
I0527 11:59:56.619540 28667 net.cpp:148] Top shape: 50 384 11 11 (2323200)
I0527 11:59:56.619544 28667 net.cpp:156] Memory required for data: 354194800
I0527 11:59:56.619547 28667 layer_factory.hpp:77] Creating layer conv6
I0527 11:59:56.619559 28667 net.cpp:91] Creating Layer conv6
I0527 11:59:56.619563 28667 net.cpp:425] conv6 <- pool5
I0527 11:59:56.619588 28667 net.cpp:399] conv6 -> conv6
I0527 11:59:56.653261 28667 net.cpp:141] Setting up conv6
I0527 11:59:56.653295 28667 net.cpp:148] Top shape: 50 512 11 11 (3097600)
I0527 11:59:56.653300 28667 net.cpp:156] Memory required for data: 366585200
I0527 11:59:56.653308 28667 layer_factory.hpp:77] Creating layer relu6
I0527 11:59:56.653318 28667 net.cpp:91] Creating Layer relu6
I0527 11:59:56.653324 28667 net.cpp:425] relu6 <- conv6
I0527 11:59:56.653331 28667 net.cpp:386] relu6 -> conv6 (in-place)
I0527 11:59:56.653340 28667 net.cpp:141] Setting up relu6
I0527 11:59:56.653347 28667 net.cpp:148] Top shape: 50 512 11 11 (3097600)
I0527 11:59:56.653350 28667 net.cpp:156] Memory required for data: 378975600
I0527 11:59:56.653354 28667 layer_factory.hpp:77] Creating layer conv7
I0527 11:59:56.653365 28667 net.cpp:91] Creating Layer conv7
I0527 11:59:56.653373 28667 net.cpp:425] conv7 <- conv6
I0527 11:59:56.653379 28667 net.cpp:399] conv7 -> conv7
I0527 11:59:56.698057 28667 net.cpp:141] Setting up conv7
I0527 11:59:56.698091 28667 net.cpp:148] Top shape: 50 512 11 11 (3097600)
I0527 11:59:56.698096 28667 net.cpp:156] Memory required for data: 391366000
I0527 11:59:56.698106 28667 layer_factory.hpp:77] Creating layer relu7
I0527 11:59:56.698115 28667 net.cpp:91] Creating Layer relu7
I0527 11:59:56.698122 28667 net.cpp:425] relu7 <- conv7
I0527 11:59:56.698129 28667 net.cpp:386] relu7 -> conv7 (in-place)
I0527 11:59:56.698139 28667 net.cpp:141] Setting up relu7
I0527 11:59:56.698149 28667 net.cpp:148] Top shape: 50 512 11 11 (3097600)
I0527 11:59:56.698153 28667 net.cpp:156] Memory required for data: 403756400
I0527 11:59:56.698158 28667 layer_factory.hpp:77] Creating layer pool8_global
I0527 11:59:56.698164 28667 net.cpp:91] Creating Layer pool8_global
I0527 11:59:56.698168 28667 net.cpp:425] pool8_global <- conv7
I0527 11:59:56.698174 28667 net.cpp:399] pool8_global -> pool8_global
I0527 11:59:56.698204 28667 net.cpp:141] Setting up pool8_global
I0527 11:59:56.698215 28667 net.cpp:148] Top shape: 50 512 1 1 (25600)
I0527 11:59:56.698218 28667 net.cpp:156] Memory required for data: 403858800
I0527 11:59:56.698222 28667 layer_factory.hpp:77] Creating layer mitindoor_fc9
I0527 11:59:56.698231 28667 net.cpp:91] Creating Layer mitindoor_fc9
I0527 11:59:56.698235 28667 net.cpp:425] mitindoor_fc9 <- pool8_global
I0527 11:59:56.698241 28667 net.cpp:399] mitindoor_fc9 -> mitindoor_fc9
I0527 11:59:56.699796 28667 net.cpp:141] Setting up mitindoor_fc9
I0527 11:59:56.699806 28667 net.cpp:148] Top shape: 50 67 (3350)
I0527 11:59:56.699817 28667 net.cpp:156] Memory required for data: 403872200
I0527 11:59:56.699825 28667 layer_factory.hpp:77] Creating layer mitindoor_fc9_mitindoor_fc9_0_split
I0527 11:59:56.699831 28667 net.cpp:91] Creating Layer mitindoor_fc9_mitindoor_fc9_0_split
I0527 11:59:56.699836 28667 net.cpp:425] mitindoor_fc9_mitindoor_fc9_0_split <- mitindoor_fc9
I0527 11:59:56.699841 28667 net.cpp:399] mitindoor_fc9_mitindoor_fc9_0_split -> mitindoor_fc9_mitindoor_fc9_0_split_0
I0527 11:59:56.699848 28667 net.cpp:399] mitindoor_fc9_mitindoor_fc9_0_split -> mitindoor_fc9_mitindoor_fc9_0_split_1
I0527 11:59:56.699882 28667 net.cpp:141] Setting up mitindoor_fc9_mitindoor_fc9_0_split
I0527 11:59:56.699890 28667 net.cpp:148] Top shape: 50 67 (3350)
I0527 11:59:56.699895 28667 net.cpp:148] Top shape: 50 67 (3350)
I0527 11:59:56.699899 28667 net.cpp:156] Memory required for data: 403899000
I0527 11:59:56.699903 28667 layer_factory.hpp:77] Creating layer accuracy
I0527 11:59:56.699910 28667 net.cpp:91] Creating Layer accuracy
I0527 11:59:56.699918 28667 net.cpp:425] accuracy <- mitindoor_fc9_mitindoor_fc9_0_split_0
I0527 11:59:56.699923 28667 net.cpp:425] accuracy <- label_data_1_split_0
I0527 11:59:56.699929 28667 net.cpp:399] accuracy -> accuracy
…
