…
I0524 09:23:48.429625  1317 net.cpp:313] The NetState phase (0) differed from the phase (1) specified by a rule in layer svhn
I0524 09:23:48.429667  1317 net.cpp:313] The NetState phase (0) differed from the phase (1) specified by a rule in layer accuracy
I0524 09:23:48.429916  1317 net.cpp:49] Initializing net from parameters: 
name: "svhn"
state {
  phase: TRAIN
}
layer {
  name: "svhn"
  type: "ImageData"
  top: "data"
  top: "label"
  include {
    phase: TRAIN
  }
  image_data_param {
    source: "/data1/shiv/svhn/train.txt"
    batch_size: 256
    shuffle: true
  }
}
layer {
  name: "conv1"
  type: "Convolution"
  bottom: "data"
  top: "conv1"
  param {
    lr_mult: 1
  }
  param {
    lr_mult: 2
  }
  convolution_param {
    num_output: 20
    kernel_size: 5
    stride: 1
    weight_filler {
      type: "msra"
    }
    bias_filler {
      type: "constant"
    }
  }
}
layer {
  name: "bn1"
  type: "BatchNorm"
  bottom: "conv1"
  top: "bn1"
  param {
    lr_mult: 0
  }
  param {
    lr_mult: 0
  }
  param {
    lr_mult: 0
  }
}
layer {
  name: "s1"
  type: "Scale"
  bottom: "bn1"
  top: "bn1"
  scale_param {
    bias_term: true
  }
}
layer {
  name: "relu1"
  type: "ReLU"
  bottom: "bn1"
  top: "relu1"
}
layer {
  name: "pool1"
  type: "Pooling"
  bottom: "relu1"
  top: "pool1"
  pooling_param {
    pool: MAX
    kernel_size: 2
    stride: 2
  }
}
layer {
  name: "conv2"
  type: "Convolution"
  bottom: "pool1"
  top: "conv2"
  param {
    lr_mult: 1
  }
  param {
    lr_mult: 2
  }
  convolution_param {
    num_output: 96
    kernel_size: 5
    stride: 1
    weight_filler {
      type: "msra"
    }
    bias_filler {
      type: "constant"
    }
  }
}
layer {
  name: "bn2"
  type: "BatchNorm"
  bottom: "conv2"
  top: "bn2"
  param {
    lr_mult: 0
  }
  param {
    lr_mult: 0
  }
  param {
    lr_mult: 0
  }
}
layer {
  name: "s2"
  type: "Scale"
  bottom: "bn2"
  top: "bn2"
  scale_param {
    bias_term: true
  }
}
layer {
  name: "relu2"
  type: "ReLU"
  bottom: "bn2"
  top: "relu2"
}
layer {
  name: "pool2"
  type: "Pooling"
  bottom: "relu2"
  top: "pool2"
  pooling_param {
    pool: MAX
    kernel_size: 2
    stride: 2
  }
}
layer {
  name: "conv3"
  type: "Convolution"
  bottom: "pool2"
  top: "conv3"
  param {
    lr_mult: 1
  }
  param {
    lr_mult: 2
  }
  convolution_param {
    num_output: 96
    kernel_size: 5
    stride: 1
    weight_filler {
      type: "msra"
    }
    bias_filler {
      type: "constant"
    }
  }
}
layer {
  name: "bn3"
  type: "BatchNorm"
  bottom: "conv3"
  top: "bn3"
  param {
    lr_mult: 0
  }
  param {
    lr_mult: 0
  }
  param {
    lr_mult: 0
  }
}
layer {
  name: "s3"
  type: "Scale"
  bottom: "bn3"
  top: "bn3"
  scale_param {
    bias_term: true
  }
}
layer {
  name: "relu3"
  type: "ReLU"
  bottom: "bn3"
  top: "relu3"
}
layer {
  name: "pool3"
  type: "Pooling"
  bottom: "relu3"
  top: "pool3"
  pooling_param {
    pool: MAX
    kernel_size: 2
    stride: 2
  }
}
layer {
  name: "ip1"
  type: "InnerProduct"
  bottom: "pool3"
  top: "ip1"
  param {
    lr_mult: 1
  }
  param {
    lr_mult: 2
  }
  inner_product_param {
    num_output: 256
    weight_filler {
      type: "xavier"
    }
    bias_filler {
      type: "constant"
    }
  }
}
layer {
  name: "bn4"
  type: "BatchNorm"
  bottom: "ip1"
  top: "ip1"
  param {
    lr_mult: 0
  }
  param {
    lr_mult: 0
  }
  param {
    lr_mult: 0
  }
}
layer {
  name: "s4"
  type: "Scale"
  bottom: "ip1"
  top: "ip1"
  scale_param {
    bias_term: true
  }
}
layer {
  name: "relu3"
  type: "ReLU"
  bottom: "ip1"
  top: "ip1"
}
layer {
  name: "drop3"
  type: "Dropout"
  bottom: "ip1"
  top: "ip1"
  dropout_param {
    dropout_ratio: 0.5
  }
}
layer {
  name: "ip2"
  type: "InnerProduct"
  bottom: "ip1"
  top: "ip2"
  param {
    lr_mult: 1
  }
  param {
    lr_mult: 2
  }
  inner_product_param {
    num_output: 10
    weight_filler {
      type: "xavier"
    }
    bias_filler {
      type: "constant"
    }
  }
}
layer {
  name: "loss"
  type: "SoftmaxWithLoss"
  bottom: "ip2"
  bottom: "label"
  top: "loss"
}
I0524 09:23:48.431223  1317 layer_factory.hpp:77] Creating layer svhn
I0524 09:23:48.431288  1317 net.cpp:91] Creating Layer svhn
I0524 09:23:48.431303  1317 net.cpp:399] svhn -> data
I0524 09:23:48.431334  1317 net.cpp:399] svhn -> label
I0524 09:23:48.431355  1317 image_data_layer.cpp:38] Opening file /data1/shiv/svhn/train.txt
I0524 09:23:48.468883  1317 image_data_layer.cpp:48] Shuffling data
I0524 09:23:48.479308  1317 image_data_layer.cpp:53] A total of 68257 images.
I0524 09:23:48.489071  1317 image_data_layer.cpp:80] output data size: 256,3,32,32
I0524 09:23:48.494933  1317 net.cpp:141] Setting up svhn
I0524 09:23:48.495044  1317 net.cpp:148] Top shape: 256 3 32 32 (786432)
I0524 09:23:48.495082  1317 net.cpp:148] Top shape: 256 (256)
I0524 09:23:48.495115  1317 net.cpp:156] Memory required for data: 3146752
I0524 09:23:48.495151  1317 layer_factory.hpp:77] Creating layer conv1
I0524 09:23:48.495213  1317 net.cpp:91] Creating Layer conv1
I0524 09:23:48.495249  1317 net.cpp:425] conv1 <- data
I0524 09:23:48.495292  1317 net.cpp:399] conv1 -> conv1
I0524 09:23:48.497138  1317 net.cpp:141] Setting up conv1
I0524 09:23:48.497164  1317 net.cpp:148] Top shape: 256 20 28 28 (4014080)
I0524 09:23:48.497172  1317 net.cpp:156] Memory required for data: 19203072
I0524 09:23:48.497196  1317 layer_factory.hpp:77] Creating layer bn1
I0524 09:23:48.497233  1317 net.cpp:91] Creating Layer bn1
I0524 09:23:48.497244  1317 net.cpp:425] bn1 <- conv1
I0524 09:23:48.497259  1317 net.cpp:399] bn1 -> bn1
I0524 09:23:48.497877  1317 net.cpp:141] Setting up bn1
I0524 09:23:48.497901  1317 net.cpp:148] Top shape: 256 20 28 28 (4014080)
I0524 09:23:48.497910  1317 net.cpp:156] Memory required for data: 35259392
I0524 09:23:48.497941  1317 layer_factory.hpp:77] Creating layer s1
I0524 09:23:48.497987  1317 net.cpp:91] Creating Layer s1
I0524 09:23:48.498006  1317 net.cpp:425] s1 <- bn1
I0524 09:23:48.498035  1317 net.cpp:386] s1 -> bn1 (in-place)
I0524 09:23:48.498121  1317 layer_factory.hpp:77] Creating layer s1
I0524 09:23:48.498317  1317 net.cpp:141] Setting up s1
I0524 09:23:48.498337  1317 net.cpp:148] Top shape: 256 20 28 28 (4014080)
I0524 09:23:48.498343  1317 net.cpp:156] Memory required for data: 51315712
I0524 09:23:48.498358  1317 layer_factory.hpp:77] Creating layer relu1
I0524 09:23:48.498374  1317 net.cpp:91] Creating Layer relu1
I0524 09:23:48.498383  1317 net.cpp:425] relu1 <- bn1
I0524 09:23:48.498394  1317 net.cpp:399] relu1 -> relu1
I0524 09:23:48.498437  1317 net.cpp:141] Setting up relu1
I0524 09:23:48.498452  1317 net.cpp:148] Top shape: 256 20 28 28 (4014080)
I0524 09:23:48.498461  1317 net.cpp:156] Memory required for data: 67372032
I0524 09:23:48.498467  1317 layer_factory.hpp:77] Creating layer pool1
I0524 09:23:48.498481  1317 net.cpp:91] Creating Layer pool1
I0524 09:23:48.498491  1317 net.cpp:425] pool1 <- relu1
I0524 09:23:48.498502  1317 net.cpp:399] pool1 -> pool1
I0524 09:23:48.498592  1317 net.cpp:141] Setting up pool1
I0524 09:23:48.498610  1317 net.cpp:148] Top shape: 256 20 14 14 (1003520)
I0524 09:23:48.498617  1317 net.cpp:156] Memory required for data: 71386112
I0524 09:23:48.498625  1317 layer_factory.hpp:77] Creating layer conv2
I0524 09:23:48.498646  1317 net.cpp:91] Creating Layer conv2
I0524 09:23:48.498656  1317 net.cpp:425] conv2 <- pool1
I0524 09:23:48.498668  1317 net.cpp:399] conv2 -> conv2
I0524 09:23:48.501258  1317 net.cpp:141] Setting up conv2
I0524 09:23:48.501286  1317 net.cpp:148] Top shape: 256 96 10 10 (2457600)
I0524 09:23:48.501353  1317 net.cpp:156] Memory required for data: 81216512
I0524 09:23:48.501417  1317 layer_factory.hpp:77] Creating layer bn2
I0524 09:23:48.501453  1317 net.cpp:91] Creating Layer bn2
I0524 09:23:48.501466  1317 net.cpp:425] bn2 <- conv2
I0524 09:23:48.501520  1317 net.cpp:399] bn2 -> bn2
I0524 09:23:48.501761  1317 net.cpp:141] Setting up bn2
I0524 09:23:48.501783  1317 net.cpp:148] Top shape: 256 96 10 10 (2457600)
I0524 09:23:48.501816  1317 net.cpp:156] Memory required for data: 91046912
I0524 09:23:48.501863  1317 layer_factory.hpp:77] Creating layer s2
I0524 09:23:48.501900  1317 net.cpp:91] Creating Layer s2
I0524 09:23:48.501912  1317 net.cpp:425] s2 <- bn2
I0524 09:23:48.501953  1317 net.cpp:386] s2 -> bn2 (in-place)
I0524 09:23:48.502019  1317 layer_factory.hpp:77] Creating layer s2
I0524 09:23:48.502179  1317 net.cpp:141] Setting up s2
I0524 09:23:48.502195  1317 net.cpp:148] Top shape: 256 96 10 10 (2457600)
I0524 09:23:48.502225  1317 net.cpp:156] Memory required for data: 100877312
I0524 09:23:48.502270  1317 layer_factory.hpp:77] Creating layer relu2
I0524 09:23:48.502303  1317 net.cpp:91] Creating Layer relu2
I0524 09:23:48.502315  1317 net.cpp:425] relu2 <- bn2
I0524 09:23:48.502357  1317 net.cpp:399] relu2 -> relu2
I0524 09:23:48.502408  1317 net.cpp:141] Setting up relu2
I0524 09:23:48.502423  1317 net.cpp:148] Top shape: 256 96 10 10 (2457600)
I0524 09:23:48.502450  1317 net.cpp:156] Memory required for data: 110707712
I0524 09:23:48.502478  1317 layer_factory.hpp:77] Creating layer pool2
I0524 09:23:48.502521  1317 net.cpp:91] Creating Layer pool2
I0524 09:23:48.502532  1317 net.cpp:425] pool2 <- relu2
I0524 09:23:48.502575  1317 net.cpp:399] pool2 -> pool2
I0524 09:23:48.502643  1317 net.cpp:141] Setting up pool2
I0524 09:23:48.502660  1317 net.cpp:148] Top shape: 256 96 5 5 (614400)
I0524 09:23:48.502693  1317 net.cpp:156] Memory required for data: 113165312
I0524 09:23:48.502720  1317 layer_factory.hpp:77] Creating layer conv3
I0524 09:23:48.502770  1317 net.cpp:91] Creating Layer conv3
I0524 09:23:48.502780  1317 net.cpp:425] conv3 <- pool2
I0524 09:23:48.502823  1317 net.cpp:399] conv3 -> conv3
I0524 09:23:48.513028  1317 net.cpp:141] Setting up conv3
I0524 09:23:48.513061  1317 net.cpp:148] Top shape: 256 96 1 1 (24576)
I0524 09:23:48.513068  1317 net.cpp:156] Memory required for data: 113263616
I0524 09:23:48.513082  1317 layer_factory.hpp:77] Creating layer bn3
I0524 09:23:48.513154  1317 net.cpp:91] Creating Layer bn3
I0524 09:23:48.513167  1317 net.cpp:425] bn3 <- conv3
I0524 09:23:48.513200  1317 net.cpp:399] bn3 -> bn3
I0524 09:23:48.513407  1317 net.cpp:141] Setting up bn3
I0524 09:23:48.513423  1317 net.cpp:148] Top shape: 256 96 1 1 (24576)
I0524 09:23:48.513432  1317 net.cpp:156] Memory required for data: 113361920
I0524 09:23:48.513473  1317 layer_factory.hpp:77] Creating layer s3
I0524 09:23:48.513489  1317 net.cpp:91] Creating Layer s3
I0524 09:23:48.513514  1317 net.cpp:425] s3 <- bn3
I0524 09:23:48.513543  1317 net.cpp:386] s3 -> bn3 (in-place)
I0524 09:23:48.513623  1317 layer_factory.hpp:77] Creating layer s3
I0524 09:23:48.513766  1317 net.cpp:141] Setting up s3
I0524 09:23:48.513782  1317 net.cpp:148] Top shape: 256 96 1 1 (24576)
I0524 09:23:48.513829  1317 net.cpp:156] Memory required for data: 113460224
I0524 09:23:48.513846  1317 layer_factory.hpp:77] Creating layer relu3
I0524 09:23:48.513878  1317 net.cpp:91] Creating Layer relu3
I0524 09:23:48.513888  1317 net.cpp:425] relu3 <- bn3
I0524 09:23:48.513900  1317 net.cpp:399] relu3 -> relu3
I0524 09:23:48.513949  1317 net.cpp:141] Setting up relu3
I0524 09:23:48.513964  1317 net.cpp:148] Top shape: 256 96 1 1 (24576)
I0524 09:23:48.513972  1317 net.cpp:156] Memory required for data: 113558528
I0524 09:23:48.513998  1317 layer_factory.hpp:77] Creating layer pool3
I0524 09:23:48.514014  1317 net.cpp:91] Creating Layer pool3
I0524 09:23:48.514048  1317 net.cpp:425] pool3 <- relu3
I0524 09:23:48.514066  1317 net.cpp:399] pool3 -> pool3
I0524 09:23:48.514134  1317 net.cpp:141] Setting up pool3
I0524 09:23:48.514148  1317 net.cpp:148] Top shape: 256 96 1 1 (24576)
I0524 09:23:48.514189  1317 net.cpp:156] Memory required for data: 113656832
I0524 09:23:48.514202  1317 layer_factory.hpp:77] Creating layer ip1
I0524 09:23:48.514219  1317 net.cpp:91] Creating Layer ip1
I0524 09:23:48.514248  1317 net.cpp:425] ip1 <- pool3
I0524 09:23:48.514267  1317 net.cpp:399] ip1 -> ip1
I0524 09:23:48.514590  1317 net.cpp:141] Setting up ip1
I0524 09:23:48.514606  1317 net.cpp:148] Top shape: 256 256 (65536)
I0524 09:23:48.514613  1317 net.cpp:156] Memory required for data: 113918976
I0524 09:23:48.514647  1317 layer_factory.hpp:77] Creating layer bn4
I0524 09:23:48.514665  1317 net.cpp:91] Creating Layer bn4
I0524 09:23:48.514677  1317 net.cpp:425] bn4 <- ip1
I0524 09:23:48.514688  1317 net.cpp:386] bn4 -> ip1 (in-place)
I0524 09:23:48.514858  1317 net.cpp:141] Setting up bn4
I0524 09:23:48.514873  1317 net.cpp:148] Top shape: 256 256 (65536)
I0524 09:23:48.514880  1317 net.cpp:156] Memory required for data: 114181120
I0524 09:23:48.514897  1317 layer_factory.hpp:77] Creating layer s4
I0524 09:23:48.514910  1317 net.cpp:91] Creating Layer s4
I0524 09:23:48.514920  1317 net.cpp:425] s4 <- ip1
I0524 09:23:48.514931  1317 net.cpp:386] s4 -> ip1 (in-place)
I0524 09:23:48.514986  1317 layer_factory.hpp:77] Creating layer s4
I0524 09:23:48.515125  1317 net.cpp:141] Setting up s4
I0524 09:23:48.515142  1317 net.cpp:148] Top shape: 256 256 (65536)
I0524 09:23:48.515149  1317 net.cpp:156] Memory required for data: 114443264
I0524 09:23:48.515161  1317 layer_factory.hpp:77] Creating layer relu3
I0524 09:23:48.515172  1317 net.cpp:91] Creating Layer relu3
I0524 09:23:48.515178  1317 net.cpp:425] relu3 <- ip1
I0524 09:23:48.515189  1317 net.cpp:386] relu3 -> ip1 (in-place)
I0524 09:23:48.515199  1317 net.cpp:141] Setting up relu3
I0524 09:23:48.515208  1317 net.cpp:148] Top shape: 256 256 (65536)
I0524 09:23:48.515218  1317 net.cpp:156] Memory required for data: 114705408
I0524 09:23:48.515225  1317 layer_factory.hpp:77] Creating layer drop3
I0524 09:23:48.515236  1317 net.cpp:91] Creating Layer drop3
I0524 09:23:48.515244  1317 net.cpp:425] drop3 <- ip1
I0524 09:23:48.515256  1317 net.cpp:386] drop3 -> ip1 (in-place)
I0524 09:23:48.515291  1317 net.cpp:141] Setting up drop3
I0524 09:23:48.515305  1317 net.cpp:148] Top shape: 256 256 (65536)
I0524 09:23:48.515311  1317 net.cpp:156] Memory required for data: 114967552
I0524 09:23:48.515321  1317 layer_factory.hpp:77] Creating layer ip2
I0524 09:23:48.515337  1317 net.cpp:91] Creating Layer ip2
I0524 09:23:48.515348  1317 net.cpp:425] ip2 <- ip1
I0524 09:23:48.515363  1317 net.cpp:399] ip2 -> ip2
I0524 09:23:48.515512  1317 net.cpp:141] Setting up ip2
I0524 09:23:48.515528  1317 net.cpp:148] Top shape: 256 10 (2560)
I0524 09:23:48.515535  1317 net.cpp:156] Memory required for data: 114977792
I0524 09:23:48.515552  1317 layer_factory.hpp:77] Creating layer loss
I0524 09:23:48.515563  1317 net.cpp:91] Creating Layer loss
I0524 09:23:48.515574  1317 net.cpp:425] loss <- ip2
I0524 09:23:48.515584  1317 net.cpp:425] loss <- label
I0524 09:23:48.515599  1317 net.cpp:399] loss -> loss
I0524 09:23:48.515624  1317 layer_factory.hpp:77] Creating layer loss
…
I0524 09:23:48.516710  1317 solver.cpp:181] Creating test net (#0) specified by net file: /data1/shiv/ModelNo/train_val3.prototxt
I0524 09:23:48.516775  1317 net.cpp:313] The NetState phase (1) differed from the phase (0) specified by a rule in layer svhn
I0524 09:23:48.516963  1317 net.cpp:49] Initializing net from parameters: 
name: "svhn"
state {
  phase: TEST
}
layer {
  name: "svhn"
  type: "ImageData"
  top: "data"
  top: "label"
  include {
    phase: TEST
  }
  image_data_param {
    source: "/data1/shiv/svhn/val.txt"
    batch_size: 100
    shuffle: false
  }
}
layer {
  name: "conv1"
  type: "Convolution"
  bottom: "data"
  top: "conv1"
  param {
    lr_mult: 1
  }
  param {
    lr_mult: 2
  }
  convolution_param {
    num_output: 20
    kernel_size: 5
    stride: 1
    weight_filler {
      type: "msra"
    }
    bias_filler {
      type: "constant"
    }
  }
}
layer {
  name: "bn1"
  type: "BatchNorm"
  bottom: "conv1"
  top: "bn1"
  param {
    lr_mult: 0
  }
  param {
    lr_mult: 0
  }
  param {
    lr_mult: 0
  }
}
layer {
  name: "s1"
  type: "Scale"
  bottom: "bn1"
  top: "bn1"
  scale_param {
    bias_term: true
  }
}
layer {
  name: "relu1"
  type: "ReLU"
  bottom: "bn1"
  top: "relu1"
}
layer {
  name: "pool1"
  type: "Pooling"
  bottom: "relu1"
  top: "pool1"
  pooling_param {
    pool: MAX
    kernel_size: 2
    stride: 2
  }
}
layer {
  name: "conv2"
  type: "Convolution"
  bottom: "pool1"
  top: "conv2"
  param {
    lr_mult: 1
  }
  param {
    lr_mult: 2
  }
  convolution_param {
    num_output: 96
    kernel_size: 5
    stride: 1
    weight_filler {
      type: "msra"
    }
    bias_filler {
      type: "constant"
    }
  }
}
layer {
  name: "bn2"
  type: "BatchNorm"
  bottom: "conv2"
  top: "bn2"
  param {
    lr_mult: 0
  }
  param {
    lr_mult: 0
  }
  param {
    lr_mult: 0
  }
}
layer {
  name: "s2"
  type: "Scale"
  bottom: "bn2"
  top: "bn2"
  scale_param {
    bias_term: true
  }
}
layer {
  name: "relu2"
  type: "ReLU"
  bottom: "bn2"
  top: "relu2"
}
layer {
  name: "pool2"
  type: "Pooling"
  bottom: "relu2"
  top: "pool2"
  pooling_param {
    pool: MAX
    kernel_size: 2
    stride: 2
  }
}
layer {
  name: "conv3"
  type: "Convolution"
  bottom: "pool2"
  top: "conv3"
  param {
    lr_mult: 1
  }
  param {
    lr_mult: 2
  }
  convolution_param {
    num_output: 96
    kernel_size: 5
    stride: 1
    weight_filler {
      type: "msra"
    }
    bias_filler {
      type: "constant"
    }
  }
}
layer {
  name: "bn3"
  type: "BatchNorm"
  bottom: "conv3"
  top: "bn3"
  param {
    lr_mult: 0
  }
  param {
    lr_mult: 0
  }
  param {
    lr_mult: 0
  }
}
layer {
  name: "s3"
  type: "Scale"
  bottom: "bn3"
  top: "bn3"
  scale_param {
    bias_term: true
  }
}
layer {
  name: "relu3"
  type: "ReLU"
  bottom: "bn3"
  top: "relu3"
}
layer {
  name: "pool3"
  type: "Pooling"
  bottom: "relu3"
  top: "pool3"
  pooling_param {
    pool: MAX
    kernel_size: 2
    stride: 2
  }
}
layer {
  name: "ip1"
  type: "InnerProduct"
  bottom: "pool3"
  top: "ip1"
  param {
    lr_mult: 1
  }
  param {
    lr_mult: 2
  }
  inner_product_param {
    num_output: 256
    weight_filler {
      type: "xavier"
    }
    bias_filler {
      type: "constant"
    }
  }
}
layer {
  name: "bn4"
  type: "BatchNorm"
  bottom: "ip1"
  top: "ip1"
  param {
    lr_mult: 0
  }
  param {
    lr_mult: 0
  }
  param {
    lr_mult: 0
  }
}
layer {
  name: "s4"
  type: "Scale"
  bottom: "ip1"
  top: "ip1"
  scale_param {
    bias_term: true
  }
}
layer {
  name: "relu3"
  type: "ReLU"
  bottom: "ip1"
  top: "ip1"
}
layer {
  name: "drop3"
  type: "Dropout"
  bottom: "ip1"
  top: "ip1"
  dropout_param {
    dropout_ratio: 0.5
  }
}
layer {
  name: "ip2"
  type: "InnerProduct"
  bottom: "ip1"
  top: "ip2"
  param {
    lr_mult: 1
  }
  param {
    lr_mult: 2
  }
  inner_product_param {
    num_output: 10
    weight_filler {
      type: "xavier"
    }
    bias_filler {
      type: "constant"
    }
  }
}
layer {
  name: "accuracy"
  type: "Accuracy"
  bottom: "ip2"
  bottom: "label"
  top: "accuracy"
  include {
    phase: TEST
  }
}
layer {
  name: "loss"
  type: "SoftmaxWithLoss"
  bottom: "ip2"
  bottom: "label"
  top: "loss"
}
I0524 09:23:48.517168  1317 layer_factory.hpp:77] Creating layer svhn
I0524 09:23:48.517197  1317 net.cpp:91] Creating Layer svhn
I0524 09:23:48.517208  1317 net.cpp:399] svhn -> data
I0524 09:23:48.517222  1317 net.cpp:399] svhn -> label
I0524 09:23:48.517236  1317 image_data_layer.cpp:38] Opening file /data1/shiv/svhn/val.txt
I0524 09:23:48.519706  1317 image_data_layer.cpp:53] A total of 5000 images.
I0524 09:23:48.519984  1317 image_data_layer.cpp:80] output data size: 100,3,32,32
I0524 09:23:48.523003  1317 net.cpp:141] Setting up svhn
I0524 09:23:48.523067  1317 net.cpp:148] Top shape: 100 3 32 32 (307200)
I0524 09:23:48.523104  1317 net.cpp:148] Top shape: 100 (100)
I0524 09:23:48.523128  1317 net.cpp:156] Memory required for data: 1229200
I0524 09:23:48.523154  1317 layer_factory.hpp:77] Creating layer label_svhn_1_split
I0524 09:23:48.523185  1317 net.cpp:91] Creating Layer label_svhn_1_split
I0524 09:23:48.523208  1317 net.cpp:425] label_svhn_1_split <- label
I0524 09:23:48.523237  1317 net.cpp:399] label_svhn_1_split -> label_svhn_1_split_0
I0524 09:23:48.523279  1317 net.cpp:399] label_svhn_1_split -> label_svhn_1_split_1
I0524 09:23:48.523372  1317 net.cpp:141] Setting up label_svhn_1_split
I0524 09:23:48.523416  1317 net.cpp:148] Top shape: 100 (100)
I0524 09:23:48.523449  1317 net.cpp:148] Top shape: 100 (100)
I0524 09:23:48.523479  1317 net.cpp:156] Memory required for data: 1230000
I0524 09:23:48.523509  1317 layer_factory.hpp:77] Creating layer conv1
I0524 09:23:48.523548  1317 net.cpp:91] Creating Layer conv1
I0524 09:23:48.523572  1317 net.cpp:425] conv1 <- data
I0524 09:23:48.523600  1317 net.cpp:399] conv1 -> conv1
I0524 09:23:48.524221  1317 net.cpp:141] Setting up conv1
I0524 09:23:48.524269  1317 net.cpp:148] Top shape: 100 20 28 28 (1568000)
I0524 09:23:48.524302  1317 net.cpp:156] Memory required for data: 7502000
I0524 09:23:48.524338  1317 layer_factory.hpp:77] Creating layer bn1
I0524 09:23:48.524374  1317 net.cpp:91] Creating Layer bn1
I0524 09:23:48.524397  1317 net.cpp:425] bn1 <- conv1
I0524 09:23:48.524430  1317 net.cpp:399] bn1 -> bn1
I0524 09:23:48.524782  1317 net.cpp:141] Setting up bn1
I0524 09:23:48.524826  1317 net.cpp:148] Top shape: 100 20 28 28 (1568000)
I0524 09:23:48.524855  1317 net.cpp:156] Memory required for data: 13774000
I0524 09:23:48.524894  1317 layer_factory.hpp:77] Creating layer s1
I0524 09:23:48.524926  1317 net.cpp:91] Creating Layer s1
I0524 09:23:48.524950  1317 net.cpp:425] s1 <- bn1
I0524 09:23:48.524976  1317 net.cpp:386] s1 -> bn1 (in-place)
I0524 09:23:48.525070  1317 layer_factory.hpp:77] Creating layer s1
I0524 09:23:48.525285  1317 net.cpp:141] Setting up s1
I0524 09:23:48.525326  1317 net.cpp:148] Top shape: 100 20 28 28 (1568000)
I0524 09:23:48.525362  1317 net.cpp:156] Memory required for data: 20046000
I0524 09:23:48.525408  1317 layer_factory.hpp:77] Creating layer relu1
I0524 09:23:48.525435  1317 net.cpp:91] Creating Layer relu1
I0524 09:23:48.525459  1317 net.cpp:425] relu1 <- bn1
I0524 09:23:48.525486  1317 net.cpp:399] relu1 -> relu1
I0524 09:23:48.525650  1317 net.cpp:141] Setting up relu1
I0524 09:23:48.525687  1317 net.cpp:148] Top shape: 100 20 28 28 (1568000)
I0524 09:23:48.525717  1317 net.cpp:156] Memory required for data: 26318000
I0524 09:23:48.525748  1317 layer_factory.hpp:77] Creating layer pool1
I0524 09:23:48.525784  1317 net.cpp:91] Creating Layer pool1
I0524 09:23:48.525809  1317 net.cpp:425] pool1 <- relu1
I0524 09:23:48.525833  1317 net.cpp:399] pool1 -> pool1
I0524 09:23:48.525912  1317 net.cpp:141] Setting up pool1
I0524 09:23:48.525954  1317 net.cpp:148] Top shape: 100 20 14 14 (392000)
I0524 09:23:48.525982  1317 net.cpp:156] Memory required for data: 27886000
I0524 09:23:48.526012  1317 layer_factory.hpp:77] Creating layer conv2
I0524 09:23:48.526070  1317 net.cpp:91] Creating Layer conv2
I0524 09:23:48.526198  1317 net.cpp:425] conv2 <- pool1
I0524 09:23:48.526235  1317 net.cpp:399] conv2 -> conv2
I0524 09:23:48.528846  1317 net.cpp:141] Setting up conv2
I0524 09:23:48.528868  1317 net.cpp:148] Top shape: 100 96 10 10 (960000)
I0524 09:23:48.528877  1317 net.cpp:156] Memory required for data: 31726000
I0524 09:23:48.528923  1317 layer_factory.hpp:77] Creating layer bn2
I0524 09:23:48.528944  1317 net.cpp:91] Creating Layer bn2
I0524 09:23:48.528956  1317 net.cpp:425] bn2 <- conv2
I0524 09:23:48.528970  1317 net.cpp:399] bn2 -> bn2
I0524 09:23:48.529177  1317 net.cpp:141] Setting up bn2
I0524 09:23:48.529193  1317 net.cpp:148] Top shape: 100 96 10 10 (960000)
I0524 09:23:48.529204  1317 net.cpp:156] Memory required for data: 35566000
I0524 09:23:48.529219  1317 layer_factory.hpp:77] Creating layer s2
I0524 09:23:48.529232  1317 net.cpp:91] Creating Layer s2
I0524 09:23:48.529243  1317 net.cpp:425] s2 <- bn2
I0524 09:23:48.529258  1317 net.cpp:386] s2 -> bn2 (in-place)
I0524 09:23:48.529325  1317 layer_factory.hpp:77] Creating layer s2
I0524 09:23:48.529489  1317 net.cpp:141] Setting up s2
I0524 09:23:48.529505  1317 net.cpp:148] Top shape: 100 96 10 10 (960000)
I0524 09:23:48.529515  1317 net.cpp:156] Memory required for data: 39406000
I0524 09:23:48.529531  1317 layer_factory.hpp:77] Creating layer relu2
I0524 09:23:48.529546  1317 net.cpp:91] Creating Layer relu2
I0524 09:23:48.529556  1317 net.cpp:425] relu2 <- bn2
I0524 09:23:48.529570  1317 net.cpp:399] relu2 -> relu2
I0524 09:23:48.529610  1317 net.cpp:141] Setting up relu2
I0524 09:23:48.529625  1317 net.cpp:148] Top shape: 100 96 10 10 (960000)
I0524 09:23:48.529635  1317 net.cpp:156] Memory required for data: 43246000
I0524 09:23:48.529644  1317 layer_factory.hpp:77] Creating layer pool2
I0524 09:23:48.529656  1317 net.cpp:91] Creating Layer pool2
I0524 09:23:48.529666  1317 net.cpp:425] pool2 <- relu2
I0524 09:23:48.529685  1317 net.cpp:399] pool2 -> pool2
I0524 09:23:48.529737  1317 net.cpp:141] Setting up pool2
I0524 09:23:48.529752  1317 net.cpp:148] Top shape: 100 96 5 5 (240000)
I0524 09:23:48.529758  1317 net.cpp:156] Memory required for data: 44206000
I0524 09:23:48.529767  1317 layer_factory.hpp:77] Creating layer conv3
I0524 09:23:48.529788  1317 net.cpp:91] Creating Layer conv3
I0524 09:23:48.529800  1317 net.cpp:425] conv3 <- pool2
I0524 09:23:48.529814  1317 net.cpp:399] conv3 -> conv3
I0524 09:23:48.538322  1317 net.cpp:141] Setting up conv3
I0524 09:23:48.538352  1317 net.cpp:148] Top shape: 100 96 1 1 (9600)
I0524 09:23:48.538359  1317 net.cpp:156] Memory required for data: 44244400
I0524 09:23:48.538372  1317 layer_factory.hpp:77] Creating layer bn3
I0524 09:23:48.538413  1317 net.cpp:91] Creating Layer bn3
I0524 09:23:48.538442  1317 net.cpp:425] bn3 <- conv3
I0524 09:23:48.538466  1317 net.cpp:399] bn3 -> bn3
I0524 09:23:48.538758  1317 net.cpp:141] Setting up bn3
I0524 09:23:48.538801  1317 net.cpp:148] Top shape: 100 96 1 1 (9600)
I0524 09:23:48.538842  1317 net.cpp:156] Memory required for data: 44282800
I0524 09:23:48.538898  1317 layer_factory.hpp:77] Creating layer s3
I0524 09:23:48.538929  1317 net.cpp:91] Creating Layer s3
I0524 09:23:48.538956  1317 net.cpp:425] s3 <- bn3
I0524 09:23:48.538985  1317 net.cpp:386] s3 -> bn3 (in-place)
I0524 09:23:48.539084  1317 layer_factory.hpp:77] Creating layer s3
I0524 09:23:48.539270  1317 net.cpp:141] Setting up s3
I0524 09:23:48.539319  1317 net.cpp:148] Top shape: 100 96 1 1 (9600)
I0524 09:23:48.539352  1317 net.cpp:156] Memory required for data: 44321200
I0524 09:23:48.539391  1317 layer_factory.hpp:77] Creating layer relu3
I0524 09:23:48.539425  1317 net.cpp:91] Creating Layer relu3
I0524 09:23:48.539456  1317 net.cpp:425] relu3 <- bn3
I0524 09:23:48.539491  1317 net.cpp:399] relu3 -> relu3
I0524 09:23:48.539558  1317 net.cpp:141] Setting up relu3
I0524 09:23:48.539597  1317 net.cpp:148] Top shape: 100 96 1 1 (9600)
I0524 09:23:48.539629  1317 net.cpp:156] Memory required for data: 44359600
I0524 09:23:48.539660  1317 layer_factory.hpp:77] Creating layer pool3
I0524 09:23:48.539697  1317 net.cpp:91] Creating Layer pool3
I0524 09:23:48.539728  1317 net.cpp:425] pool3 <- relu3
I0524 09:23:48.539765  1317 net.cpp:399] pool3 -> pool3
I0524 09:23:48.539855  1317 net.cpp:141] Setting up pool3
I0524 09:23:48.539894  1317 net.cpp:148] Top shape: 100 96 1 1 (9600)
I0524 09:23:48.539927  1317 net.cpp:156] Memory required for data: 44398000
I0524 09:23:48.539958  1317 layer_factory.hpp:77] Creating layer ip1
I0524 09:23:48.539994  1317 net.cpp:91] Creating Layer ip1
I0524 09:23:48.540024  1317 net.cpp:425] ip1 <- pool3
I0524 09:23:48.540062  1317 net.cpp:399] ip1 -> ip1
I0524 09:23:48.540511  1317 net.cpp:141] Setting up ip1
I0524 09:23:48.540557  1317 net.cpp:148] Top shape: 100 256 (25600)
I0524 09:23:48.540588  1317 net.cpp:156] Memory required for data: 44500400
I0524 09:23:48.540626  1317 layer_factory.hpp:77] Creating layer bn4
I0524 09:23:48.540669  1317 net.cpp:91] Creating Layer bn4
I0524 09:23:48.540799  1317 net.cpp:425] bn4 <- ip1
I0524 09:23:48.540849  1317 net.cpp:386] bn4 -> ip1 (in-place)
I0524 09:23:48.541131  1317 net.cpp:141] Setting up bn4
I0524 09:23:48.541170  1317 net.cpp:148] Top shape: 100 256 (25600)
I0524 09:23:48.541200  1317 net.cpp:156] Memory required for data: 44602800
I0524 09:23:48.541239  1317 layer_factory.hpp:77] Creating layer s4
I0524 09:23:48.541295  1317 net.cpp:91] Creating Layer s4
I0524 09:23:48.541443  1317 net.cpp:425] s4 <- ip1
I0524 09:23:48.541477  1317 net.cpp:386] s4 -> ip1 (in-place)
I0524 09:23:48.541652  1317 layer_factory.hpp:77] Creating layer s4
I0524 09:23:48.541968  1317 net.cpp:141] Setting up s4
I0524 09:23:48.542009  1317 net.cpp:148] Top shape: 100 256 (25600)
I0524 09:23:48.542053  1317 net.cpp:156] Memory required for data: 44705200
I0524 09:23:48.542093  1317 layer_factory.hpp:77] Creating layer relu3
I0524 09:23:48.542223  1317 net.cpp:91] Creating Layer relu3
I0524 09:23:48.542254  1317 net.cpp:425] relu3 <- ip1
I0524 09:23:48.542289  1317 net.cpp:386] relu3 -> ip1 (in-place)
I0524 09:23:48.542325  1317 net.cpp:141] Setting up relu3
I0524 09:23:48.542358  1317 net.cpp:148] Top shape: 100 256 (25600)
I0524 09:23:48.542387  1317 net.cpp:156] Memory required for data: 44807600
I0524 09:23:48.542418  1317 layer_factory.hpp:77] Creating layer drop3
I0524 09:23:48.542466  1317 net.cpp:91] Creating Layer drop3
I0524 09:23:48.542501  1317 net.cpp:425] drop3 <- ip1
I0524 09:23:48.542534  1317 net.cpp:386] drop3 -> ip1 (in-place)
I0524 09:23:48.542604  1317 net.cpp:141] Setting up drop3
I0524 09:23:48.542641  1317 net.cpp:148] Top shape: 100 256 (25600)
I0524 09:23:48.542671  1317 net.cpp:156] Memory required for data: 44910000
I0524 09:23:48.542701  1317 layer_factory.hpp:77] Creating layer ip2
I0524 09:23:48.542737  1317 net.cpp:91] Creating Layer ip2
I0524 09:23:48.542768  1317 net.cpp:425] ip2 <- ip1
I0524 09:23:48.542973  1317 net.cpp:399] ip2 -> ip2
I0524 09:23:48.543272  1317 net.cpp:141] Setting up ip2
I0524 09:23:48.543315  1317 net.cpp:148] Top shape: 100 10 (1000)
I0524 09:23:48.543354  1317 net.cpp:156] Memory required for data: 44914000
I0524 09:23:48.543406  1317 layer_factory.hpp:77] Creating layer ip2_ip2_0_split
I0524 09:23:48.543442  1317 net.cpp:91] Creating Layer ip2_ip2_0_split
I0524 09:23:48.543478  1317 net.cpp:425] ip2_ip2_0_split <- ip2
I0524 09:23:48.543519  1317 net.cpp:399] ip2_ip2_0_split -> ip2_ip2_0_split_0
I0524 09:23:48.543658  1317 net.cpp:399] ip2_ip2_0_split -> ip2_ip2_0_split_1
I0524 09:23:48.543745  1317 net.cpp:141] Setting up ip2_ip2_0_split
I0524 09:23:48.543799  1317 net.cpp:148] Top shape: 100 10 (1000)
I0524 09:23:48.543838  1317 net.cpp:148] Top shape: 100 10 (1000)
I0524 09:23:48.543869  1317 net.cpp:156] Memory required for data: 44922000
I0524 09:23:48.543900  1317 layer_factory.hpp:77] Creating layer accuracy
I0524 09:23:48.543933  1317 net.cpp:91] Creating Layer accuracy
I0524 09:23:48.543963  1317 net.cpp:425] accuracy <- ip2_ip2_0_split_0
I0524 09:23:48.543995  1317 net.cpp:425] accuracy <- label_svhn_1_split_0
I0524 09:23:48.544029  1317 net.cpp:399] accuracy -> accuracy
…
